HYBRIDLSTMCNN0.035.pt (torch, 30904 bytes, 26 tensors)

lstm.weight_ih_l0 f8 [40, 8]
000000 ee f1 c1 b4 3d 33 c2 3f 27 bc 6c 17 88 3d f6 bf
       0.14218875242285328 -1.3900223650960102
000010 93 e3 8b 69 d7 46 d1 3f c2 62 dd dc 93 6f 93 bf
       0.26994881922979025 -0.01898032222320257
000020 1b 1c 11 c2 a0 b4 f4 bf c1 b3 c7 47 d3 38 d7 bf
       -1.294098623345923 -0.36284334192060547
000030 d5 bf b7 37 e2 c4 ec bf 14 b9 5d 1a b6 f0 d2 bf
       -0.8990336502301896 -0.29594185423674557
000040 23 d5 8c 92 ee 52 df 3f b5 d0 16 b9 1f c3 f6 bf
       0.48943676291976795 -1.4226376752895196
000050 14 de 1b e1 6b f4 cb bf 66 6a b8 bf 34 4d f5 3f
       -0.21839664928096225 1.3313491334035006
000060 6b 61 2f 96 6f 50 10 c0 fb 50 90 17 70 82 e1 3f
       -4.078550669328574 0.5471725902775967
000070 11 e0 ef ea 6b 2c ea 3f ca 65 f6 52 20 ca ee bf
       0.8179225529302149 -0.9621736164437433
000080 96 97 62 ec 76 d4 dd 3f 4e 64 d1 3e 2e 1a be 3f
       0.4660928066681377 0.11758698495522532
000090 08 a7 bf 21 22 05 ec bf ef f8 a3 33 ba bd c6 bf
       -0.875626626887624 -0.17766501924047115
0000a0 3b f5 4f 6c 40 ca f6 bf f7 6b 9c e9 60 99 cc bf
       -1.4243778449011433 -0.2234307423285313
0000b0 44 7e f0 65 2e 2d a8 bf 81 72 66 a7 c3 03 f7 3f
       -0.047219705528047246 1.4384190119809832
0000c0 90 e6 dd e2 7f f4 fd 3f 2f 38 30 68 b5 10 6d 3f
       1.8721922742828703 0.0035480063538733324
0000d0 2d c5 42 c1 0c 56 b8 bf 38 ee a0 95 ae 5c 01 c0
       -0.09506301611215369 -2.1702548684823135
0000e0 03 5f 4f 11 70 30 f6 3f 2b bd b5 f9 63 da d1 3f
       1.3868256260083747 0.27895450006231454
0000f0 15 ef ae 24 d3 5e f3 bf 60 0c 4e 25 5d f7 f4 bf
       -1.210650580686836 -1.3103915650579196
000100 dd 3c 1a 1b ac 05 de 3f b0 f0 77 5d 4d d3 ef bf
       0.46909620901801735 -0.9945437264973602
000110 b8 3e 60 ea 11 6b a9 3f 6d ec ae 87 b8 ba cb 3f
       0.049645004139276805 0.2166357672229852
000120 6b 6b 86 08 04 b3 cc bf c9 2c 9b 5b e3 43 b4 bf
       -0.22421312729133133 -0.07916089045027087
000130 ef d6 14 ac 08 9a e6 3f f4 af b6 c0 15 97 f0 3f
       0.7063029633488592 1.0368859794498322
000140 fb 82 58 9d 8f 21 d0 3f 51 f5 da a1 e3 20 f4 bf
       0.2520484005527092 -1.2580295870278244
000150 30 4c 53 dd 9c e6 d3 3f ed 04 4a 4c dc bf e9 3f
       0.31095048536116376 0.8046704759618969
000160 bc 7f 96 f4 b1 26 00 c0 f6 d4 a4 b7 22 6e 61 3f
       -2.0188941105297697 0.0021277120660224648
000170 9b 62 b4 87 18 b5 e7 3f 8c c2 f7 37 74 2f f4 3f
       0.7408564234238669 1.2615854440920513
000180 84 31 68 41 6f a3 f3 3f f4 3c ec f5 e0 2b fa bf
       1.2274010233842043 -1.635712586055715
000190 b0 35 64 5a 7e c9 a5 bf 71 11 ba 3f b0 a3 d4 bf
       -0.04255289891635117 -0.322490751488906
0001a0 ae 48 c5 46 f2 8a 04 c0 ae bf 97 ff 9a c0 e1 3f
       -2.5678449181514997 0.5547614090009938
0001b0 9e 8d ea 9f f3 a0 d1 3f 48 2f f5 b9 26 40 d6 3f
       0.2754487096483106 0.3476654830926589
0001c0 24 2e 9e 7b dd a6 f2 3f ce 3a 18 ad a3 c3 e1 bf
       1.165738566286458 -0.5551317578081922
0001d0 c0 ff 6d 66 e7 c9 cf bf 59 d2 22 f2 43 04 f3 bf
       -0.2483491182465496 -1.1885413607061734
0001e0 de e6 8d 17 12 56 dc 3f 90 c1 7a 66 98 2a e8 3f
       0.4427533369085789 0.7551996232560203
0001f0 96 98 39 c9 de da c8 bf e7 2e a8 f5 88 ac d8 3f
       -0.1941793901962156 0.38553070058763556
000200 c4 5b 97 05 74 e5 ce bf dd 72 60 93 1c 3d f3 bf
       -0.24137735627183876 -1.2024198300270463
000210 81 3b ea 37 f2 5f e6 3f 38 b8 ef 2b 1c 55 e1 3f
       0.6992121784295336 0.5416394098408608
000220 8f 91 57 7c 4e d1 0b c0 7c 69 2f a6 a9 f1 cc 3f
       -3.4772004808639347 0.2261249600840748
000230 34 0d e2 69 02 90 c8 bf ca 59 16 f0 48 4d e1 3f
       -0.1918948189741997 0.5406841935353495
000240 60 2e 47 41 2b 7a 00 40 a2 ab 20 62 47 d2 fc bf
       2.059652814850594 -1.8013376076803316
000250 ed 10 1e 67 4e 36 d9 bf c6 12 54 0a 36 07 f4 3f
       -0.393939591122275 1.251760521264417
000260 86 33 34 2d 3e f8 10 c0 38 5a ed 67 77 0f c2 3f
       -4.242424684821236 0.14109699797218567
000270 1a 30 7b 48 d9 85 e9 3f 07 ae 5c 0d ea b8 f2 bf
       0.7975889602325907 -1.1701450845674815
000280 b1 e7 eb fa 9c a0 f1 bf 66 8a af 44 84 64 d1 bf
       -1.1017122079488042 -0.27176005084598953
000290 fb fb 28 fb 3d 68 dc 3f a5 80 07 ef aa 9e e4 3f
       0.44386243369439143 0.6443686169186732
0002a0 25 f9 d0 07 ad 8b df bf a0 50 8a bc a2 80 dd bf
       -0.49290014041243274 -0.4609762994016453
0002b0 bb 41 d4 29 91 f1 96 3f 06 5a b6 0d f3 97 ec bf
       0.02240588014416443 -0.8935485141581132
0002c0 43 5b bf 09 e6 24 d9 bf a2 9d 7f 81 71 3c ef bf
       -0.3928771109762474 -0.976128342558628
0002d0 cf b3 da 54 54 a0 97 bf f2 fc 76 96 78 92 f8 3f
       -0.023072545699210963 1.5357595326930178
0002e0 4e 9c ff 80 b9 e4 fb bf 64 af 4c d9 75 67 bb bf
       -1.7433409728053166 -0.1070474296108706
0002f0 d0 01 85 66 7d 22 e3 3f 52 89 b9 e6 a2 14 f6 bf
       0.5979601862273345 -1.3800381672559365
000300 cd 5f 3d 37 a0 4a f2 3f b0 4a e0 b5 09 32 82 3f
       1.1432191999247039 0.00888450228015833
000310 72 ba 70 cf 37 ea f4 bf 58 39 97 ef 34 87 d7 bf
       -1.3071821311129068 -0.3676273669961083
000320 65 f8 1e c9 59 f6 db bf c4 f7 9e 71 16 a2 db 3f
       -0.4369110549995468 0.4317680463390128
000330 09 dc 73 c6 68 80 ca 3f 97 e7 2f c9 5f 7d e3 3f
       0.2070437401777954 0.6090544633327565
000340 3e dd 5a 57 31 e7 e9 bf 35 af eb 39 12 0f ee 3f
       -0.8094717699195042 0.9393397456419509
000350 4b 23 e3 75 7f b0 df bf 99 55 f9 0f 3a 61 dd bf
       -0.49514757645060986 -0.45905925331074965
000360 10 53 6a 18 fc 54 f5 3f 05 fc 16 ba e0 7c d7 3f
       1.333248229381926 0.3669969384463346
000370 ac 9b 1f 7a 7c 8e 01 c0 19 ce 29 ef 62 d2 f4 bf
       -2.194573358621218 -1.301363882285733
000380 45 58 29 fd 61 f7 f7 bf a7 68 fe d6 cb 20 eb bf
       -1.497896183883783 -0.8477534484002448
000390 d8 f0 82 0f b9 c1 c4 3f 62 72 b4 f3 a5 9a eb 3f
       0.16216195351979112 0.8626279601917981
0003a0 b3 5e 78 45 12 a4 cd bf 1b f8 67 57 6e 1f d0 3f
       -0.23156956092929235 0.25191839729075277
0003b0 2f 17 13 9b c7 39 e3 3f ca 25 3e 2a d6 c8 d1 3f
       0.6008031872558827 0.27788309216756757
0003c0 af 76 47 79 8e 30 e7 bf 2c ae 69 da aa 84 bc bf
       -0.7246773117764941 -0.11139934379905786
0003d0 4c 07 38 b0 e2 ba c5 3f 96 db 3d af a7 84 f6 3f
       0.1697657928889903 1.407386478936791
0003e0 14 3f 4a 98 70 41 e1 bf 0f 99 8e b5 7a ea d9 3f
       -0.5392382597364951 0.4049364827173045
0003f0 4f f9 59 81 f0 a6 c9 3f 61 ee 33 86 a2 33 ea 3f
       0.20040708843220975 0.8188030835294279
000400 6b 9f 1e 64 06 23 f0 bf 5a 72 0a 7c 8b 98 c5 bf
       -1.0085510168955476 -0.1687177997272496
000410 b3 4c 01 fd 58 4d ca 3f d1 73 53 5c 85 a8 02 40
       0.20548546174777513 2.3322856152503637
000420 94 6c 18 ad 16 b0 0c c0 bf 3e f0 78 5e 10 e2 3f
       -3.585980751331201 0.5644981729583022
000430 85 2c 74 48 a9 0e b7 3f e6 e2 ed c7 95 19 f9 bf
       0.09006746310130793 -1.5687463578926155
000440 51 50 09 4b b0 d4 dd bf 65 e0 d7 0b e0 9c 01 40
       -0.46610648467799815 2.201599209332971
000450 6b 24 e4 c4 dc 9e e7 bf f0 0d ef 44 02 86 c1 3f
       -0.7381423802882073 0.13690212598713414
000460 7e 78 a6 8e 57 90 ef 3f 4a e4 dd 65 c8 a7 f1 3f
       0.9863698755396084 1.1034625987215514
000470 da e9 e2 77 a9 48 c0 3f b9 54 e9 eb 13 f1 f1 bf
       0.1272174678213805 -1.121356889275644
000480 38 95 b0 71 fc 17 e4 bf b6 ee ef 64 d9 bb e5 bf
       -0.6279279919150786 -0.6791808101110834
000490 20 7b ad ee fe 2c ca 3f 35 e2 ab 55 d0 dd f7 3f
       0.2044981637399923 1.4916537615337238
0004a0 b7 9a a3 ab 2f c9 f2 bf e4 e6 d0 9d c9 ad e2 3f
       -1.1741177277232688 0.5837143022865487
0004b0 74 03 96 4f c4 4b da 3f f7 2e 3c 63 2c 3f e4 3f
       0.4108744408804832 0.632711595362223
0004c0 33 38 1a b6 47 a3 eb 3f 9d 0a 28 6f 23 7b cf bf
       0.8636816555679218 -0.24594538619574716
0004d0 78 ab 0b d0 81 59 d7 3f d6 66 92 9f d6 2e c3 bf
       0.3648380786605041 -0.1498668936881617
0004e0 c5 e4 35 55 34 d4 83 3f 94 29 e3 c7 77 79 d1 bf
       0.009682091570299875 -0.2730388118767675
0004f0 c7 17 34 5c 49 29 d3 bf ce e9 97 1c 22 b4 f0 bf
       -0.2993949318337141 -1.0439778439455156
000500 f2 8a 35 49 33 cc f6 3f 8e a6 43 9e 2b c1 c8 3f
       1.4248535976154781 0.1933950922751148
000510 48 7d 57 e2 84 46 c5 bf 8a c9 e2 03 0a d5 f0 bf
       -0.1662145714935639 -1.052011504344224
000520 ef a4 11 14 4c 6a d0 bf b3 69 63 90 6b f2 66 3f
       -0.2564878650651527 0.0028011418208795046
000530 c3 eb 16 56 4e c2 ce bf 87 06 62 19 b0 4f ea 3f
       -0.24030474856939862 0.8222275253067018
000540 65 4e c5 ca 21 66 d7 3f 24 ec 3c f0 ed cf f7 3f
       0.3656086425955663 1.4882640251441979
000550 64 63 d9 7b f8 5a d9 3f e4 47 36 27 f0 b4 e6 bf
       0.3961774072136477 -0.7095871702060745
000560 19 3d 6e 69 bf 3b f7 3f 69 41 9a dd 24 ac e3 bf
       1.4520868414290986 -0.6147636726546298
000570 67 7e 7f c7 88 56 c7 bf 36 26 46 c1 d2 d8 e2 bf
       -0.18232831708063488 -0.5889676833041395
000580 45 6b 3e 3d 35 3e 03 40 0c e7 1d 4f e2 4d ba 3f
       2.405374983279588 0.10275091582834878
000590 39 18 5d 9e 52 57 d8 3f e9 90 4f 0c 09 7a e8 bf
       0.38032975640487937 -0.7648968925900849
0005a0 fd fa 65 bd 6f f6 e2 3f a1 b9 2f 24 f1 6f cb bf
       0.592582578581499 -0.21435369746127456
0005b0 3a d8 4c 8e 87 e1 63 bf f4 28 c7 b9 e5 85 e6 bf
       -0.0024268767905608864 -0.7038448933101606
0005c0 41 b1 aa 2b 18 5c a9 bf fc 1e 95 bd 88 33 fc bf
       -0.04953074963609306 -1.7625815778318943
0005d0 13 3e e0 31 56 ae e1 3f 78 ea 07 ba b9 98 d4 3f
       0.5525313352717965 0.3218216244419305
0005e0 4d e4 44 54 02 62 e5 bf 6a a9 86 a7 53 f1 ca 3f
       -0.6682140012627628 0.21048970870954103
0005f0 31 39 53 39 28 95 fd 3f 7a fb 4b 56 ca 64 e6 3f
       1.8489153136502632 0.6998035130962841
000600 11 7a 53 b7 71 94 c9 bf 83 d7 2a 85 9e 29 eb 3f
       -0.19984265758007827 0.8488304711270164
000610 68 67 4c 46 c4 b4 e0 bf b5 cd bc 11 fa 69 d5 bf
       -0.52206624727408 -0.33459331257037245
000620 a6 d2 8b cc 95 ea f5 3f 38 9e c1 c3 d8 5a b8 3f
       1.3697717657170556 0.09513621119696658
000630 63 8c 73 8c 04 1a e8 bf 7d b7 a6 4b 25 cb dc bf
       -0.7531759970846789 -0.44989902866188186
000640 f9 33 5d db e4 ae f9 3f 7c 64 6d 59 33 f7 d8 bf
       1.6051987236889984 -0.390087926226961
000650 dd da 4b 33 0d d3 e0 3f 6b c1 a1 cb 81 d4 b7 3f
       0.5257631303673765 0.09308634969216249
000660 50 89 e1 7a e3 28 dd bf 99 e9 ba b0 f0 e7 c8 bf
       -0.4556206417093067 -0.1945782530727456
000670 b9 c0 4c 91 6c 75 c4 3f 72 89 c9 9a 74 af ed bf
       0.15983349890439572 -0.9276679061115785
000680 57 19 db ce c1 77 d4 3f 1e c0 1e 08 3a fb 0b 40
       0.31980939102904443 3.497669280470304
000690 2b 46 42 d3 67 13 e3 bf 19 b7 49 97 b7 da dc bf
       -0.5961188436651289 -0.4508494355603588
0006a0 fa a0 0b 51 0d b0 c0 bf 73 5b 38 08 e4 50 02 c0
       -0.13037268121048112 -2.289497436733137
0006b0 8a 19 8a a8 73 fb e5 3f d5 a9 bd a9 36 04 01 c0
       0.6869447986398864 -2.1270573864942244
0006c0 c0 1d 71 ac 64 87 e5 bf 1c a9 79 e0 4f 5c a4 3f
       -0.6727774971013147 0.039766784812700545
0006d0 fa b7 33 cc 33 6f d8 3f c6 1c e0 62 03 3c f0 3f
       0.3817872518692408 1.014651666862663
0006e0 fe 25 52 d6 e5 bb 06 c0 e0 cb 7e f3 fc 64 d4 3f
       -2.841746973401995 0.3186638238796018
0006f0 74 50 d6 54 a0 a6 c8 3f f8 b2 8f 4b 0f 79 eb 3f
       0.19258503096046165 0.8585278011138078
000700 ab 1a f4 56 3f 68 01 40 ed 7f 91 9b 94 a4 b7 bf
       2.175902060818165 -0.09235504911475774
000710 3a 47 f6 8b 79 3e e0 3f bb d4 d1 2d 90 23 d2 bf
       0.5076263173707283 -0.28342060541701714
000720 59 d0 43 ef 03 a8 d6 bf 58 32 ab 97 4c 0b d3 bf
       -0.354004844338538 -0.2975646477832803
000730 88 ab 51 35 5b 6a ad bf 37 79 55 5a c3 a1 ef bf
       -0.05745205903880107 -0.9884964718183146
000740 c7 4b 1a 78 78 57 dd bf 49 48 03 77 26 23 c9 bf
       -0.45846378067761545 -0.1963852006070417
000750 55 c7 9c d6 2d d8 dc 3f ae 12 58 70 bf 50 c6 3f
       0.4506945224594479 0.17433922753857217
000760 ec c8 17 20 2b 7b c6 3f c2 58 4c 1c ea 47 e4 bf
       0.17563380305325127 -0.6337786247920791
000770 39 92 da 78 6c de d3 bf da cf 02 9a 35 3f f3 bf
       -0.31045066644790925 -1.2029319778493943
000780 47 d7 dd b1 f1 7c ae bf 68 d7 f2 30 08 8b f7 bf
       -0.05954699798796397 -1.4714433586172735
000790 fe 99 fe 2f 17 6f c7 bf 9c bb 39 79 ed 77 b4 3f
       -0.18307771533473266 0.07995495042426487
0007a0 a8 43 4a b9 fb a4 03 c0 c9 92 d0 4c 08 23 e1 bf
       -2.4555582500256214 -0.535526418713368
0007b0 10 ac a9 4f 46 39 f3 3f 12 66 e3 33 24 fb f0 bf
       1.2014830695941363 -1.0613138224492826
0007c0 3e e5 f2 02 83 d8 ed 3f 06 9a b5 e6 1d 66 f4 bf
       0.9326796586603121 -1.2749308597645963
0007d0 39 4a 78 3f a0 30 ca bf 8d 4e 9c db e0 c8 f4 3f
       -0.20460894679179534 1.2990425661600142
0007e0 ac 07 7c 35 1e 11 08 c0 de cf ab e4 92 d6 bd 3f
       -3.008358400199503 0.11655538637916105
0007f0 59 58 81 dd 12 bf e7 3f 28 20 ec e1 7e 81 d5 3f
       0.7420744253420352 0.33602878630381605

lstm.weight_hh_l0 f8 [40, 10]
000000 9e c0 23 f5 d2 71 c6 bf 9b 40 db d2 08 37 df 3f
       -0.1753486344309793 0.48773403731775894
000010 b1 e2 02 8c 31 44 da 3f 2f 63 fe 51 7f 88 e9 bf
       0.41041220353103386 -0.7979122735442611
000020 c2 fa f8 01 d0 ab ed bf d0 ef 21 de 5e 77 d3 3f
       -0.9272232092406159 0.30416080181725835
000030 77 5c 55 7c 40 6a e7 bf d1 b1 ca 7a bc 22 c2 bf
       -0.7317202022922079 -0.14168506618206192
000040 21 1d cc 43 ce 9d f8 bf 5b 47 b3 a8 f5 7e a3 bf
       -1.5385267875988762 -0.03807799991922308
000050 46 43 7b 2a 6d 4b e3 bf 87 cc e0 0b 03 47 f4 3f
       -0.6029573278156952 1.2673368896473975
000060 11 46 64 dd 34 43 e9 3f 11 a6 39 69 52 f3 d5 bf
       0.7894539188438917 -0.3429761912908314
000070 92 9a d5 dc 06 76 d8 3f e9 4f fe be 4b e8 f2 3f
       0.3822037846170271 1.181712862079616
000080 55 bd 75 9e 86 97 f2 3f d6 70 54 62 5d 82 d7 bf
       1.161993617042602 -0.3673318348171625
000090 00 e5 a5 7e 4e 0a f1 3f 8d d1 6d 48 c1 b1 f8 3f
       1.0650162646473404 1.5433972195870382
0000a0 21 fc e4 2d 60 26 ca 3f 52 2a 11 33 8f 16 f6 bf
       0.20429613343182587 -1.3805076594168395
0000b0 ce d9 c9 0f 5b 4a d8 3f 98 8b b6 ba 5c 8a d7 bf
       0.3795383123573658 -0.3678199599618721
0000c0 e0 39 f5 af be 14 86 3f f7 ca 42 ab 5f 42 f7 3f
       0.010781755204018972 1.4537045183066633
0000d0 5d c0 d9 63 76 2d e2 bf ef 12 0c 95 11 0a ec bf
       -0.5680496168333878 -0.8762290869786663
0000e0 0f 33 3f f7 dc 08 df 3f 0c 70 9d fc 0a cc f1 bf
       0.4849159636039965 -1.112315165307339
0000f0 cc b8 b3 ca 31 ff c9 3f 91 15 a0 18 67 81 e1 3f
       0.2031004180675552 0.5470462304080447
000100 2d 59 38 a4 a4 b6 f3 3f ff 22 88 64 c6 52 e8 3f
       1.2320906081054759 0.760104366637364
000110 97 e3 b4 2d cd 4a f0 bf 21 4d ce a8 4f b0 f1 3f
       -1.0182620797552084 1.105544719121845
000120 67 34 b1 73 89 ac f5 bf 22 a5 f0 80 30 7e c0 3f
       -1.3546232718683997 0.128850996932024
000130 4b 4a 93 ec aa 49 de 3f 85 4f 7a cc 20 37 e1 3f
       0.4732463178926635 0.5379795068460999
000140 66 f3 e1 04 1f 1d cc bf d5 bf 63 10 3f 9b e6 bf
       -0.2196387075272483 -0.7064509697065612
000150 f0 27 e3 7d 83 08 e6 bf 01 04 20 16 01 e2 bd bf
       -0.6885392626511457 -0.11672980108416199
000160 0d 61 ba e8 1a 2c ce bf 82 29 95 c6 a1 1d d7 bf
       -0.2357209812514686 -0.36118358986700383
000170 ec 68 2b 4f cf ba d1 bf ed 8b 75 23 56 f0 dd 3f
       -0.27702696544078154 0.46779397452172483
000180 89 fb 9b b0 9f cd e5 bf 31 f8 a9 73 cc 7f f6 bf
       -0.681350560131123 -1.406200839817313
000190 6d 03 c1 8d 9b fd dd 3f 3f 77 a2 e1 8c 6b c6 3f
       0.46860398142967236 0.17515717522922533
0001a0 1c d7 52 e8 99 5a f4 bf e9 36 cd d8 cf 97 dd bf
       -1.272119433893244 -0.4623908631518661
0001b0 b1 e9 1a cc 4a 90 ca 3f 43 fa b7 83 4e 08 cf bf
       0.20752844778128357 -0.24244100028586688
0001c0 3e 8d 1b 2e 01 27 b7 bf 34 ff 17 bd 05 ef d4 3f
       -0.09043891311335003 0.3270887705439123
0001d0 ee df 58 77 8b 53 d5 bf 3c 0a 50 bf 2f c2 00 c0
       -0.33322416930195586 -2.094817633276106
0001e0 41 07 df bd 7d 49 ea 3f 40 bb 88 14 8e a0 dc bf
       0.8214710911199533 -0.44729949956211
0001f0 b3 14 e3 9d c2 63 d8 bf 46 3d 7f 08 ed 64 f2 bf
       -0.38108888071685526 -1.149640114966887
000200 9b 16 d8 eb 4a 81 e1 bf f9 94 f0 a1 59 d4 b7 bf
       -0.5470327955560664 -0.09308395579917662
000210 6e 2b b2 9a 42 04 02 40 96 d9 3f 85 0e d5 d3 bf
       2.2520801625845968 -0.3098789502395446
000220 18 ff 8b fb ab 37 f3 bf 24 1f f1 eb 55 c3 f1 bf
       -1.201091749768187 -1.1101893631438964
000230 b6 86 4f 86 f9 e3 01 40 20 c6 1e c1 ca bc cc 3f
       2.2363157742518878 0.22451147489259515
000240 4d a6 4d dc 61 69 c8 bf 24 3b 50 cb f4 e8 ed bf
       -0.19071601159093846 -0.9346870394673243
000250 4c ef 25 b0 0a 3d f7 bf da 87 0e e9 66 45 f0 bf
       -1.45240277107128 -1.016943846109362
000260 fb f2 dc e8 4c 1a 02 c0 e8 28 05 de 86 08 f8 3f
       -2.2628420059612586 1.5020817444479295
000270 ec 5e 14 99 2f 09 a2 3f 5f d0 7b 69 46 4d f5 3f
       0.03522633308074127 1.3313659782843599
000280 4d 74 79 a2 f3 40 fc 3f 2c 18 dd b6 bc 05 e4 bf
       1.7658573481233077 -0.625700337558333
000290 1f fd 26 6c 9a 7b d7 bf d0 8a 6a ce 7d c7 ee bf
       -0.36691914140460996 -0.9618519813123729
0002a0 ee 93 24 bc ec 9c fa bf 53 04 6b 75 fd f4 dc 3f
       -1.6633117055255258 0.4524530073795791
0002b0 a8 89 b8 81 f3 a2 e5 bf e7 eb bf 28 2f 83 e6 bf
       -0.6761415036783562 -0.7035136981861542
0002c0 5e 7f 0e a6 65 dd d3 bf 3c 08 e6 2e 76 41 d0 bf
       -0.31038800446002834 -0.25399546222627456
0002d0 2b c6 4c 8d 6f fe e2 bf d3 b8 8b 9d 53 ee ec 3f
       -0.5935590514911316 0.9040926053110304
0002e0 7a e3 5d c4 38 28 a6 3f 48 10 45 c1 50 a4 c0 3f
       0.04327561757140237 0.13001450955391847
0002f0 c0 41 9d ba 56 23 e0 3f c0 4f 1b 33 48 c0 01 40
       0.5043138165292973 2.218887709876043
000300 3f 36 24 d2 f3 33 ea 3f ac 9f 7f c9 18 1b f3 bf
       0.8188418487859009 -1.1941154356991133
000310 9d 3f ee 0b 96 90 db 3f 3a 90 55 8a b6 8f f7 3f
       0.4306998363981565 1.4725861934357583
000320 97 2d 2b 2b 0d 11 e2 3f c0 2d 06 68 fa 40 b0 3f
       0.56458147460346 0.06349148788120029
000330 1c 2e d7 28 05 23 c0 bf 30 2b de 9d fe 70 dc 3f
       -0.1260687302986846 0.44439664284498104
000340 83 bd fb ac f8 72 d2 bf cf 11 e8 2b 48 64 e5 3f
       -0.2882672967234258 0.6684914453076604
000350 f8 ee 4b c2 d5 bb f4 3f 5a c4 b5 ed b9 0a b3 bf
       1.2958581533156899 -0.07438242009608712
000360 c9 f2 ef 5c 9a 71 f4 bf 95 ab 5d 2b a3 9c f3 bf
       -1.2777351026881425 -1.2257415479641385
000370 53 d5 6d f1 6a de f8 3f c3 f5 a0 76 63 d3 c3 3f
       1.5543012076207858 0.15488856594485698
000380 98 23 7c 00 15 b3 b8 3f 7c b6 00 56 5b d0 e3 3f
       0.09648257505263158 0.6191841773740658
000390 e6 84 fc 60 9d ec d6 bf e8 93 aa 59 95 b2 f9 3f
       -0.35819181891754537 1.6060994627562142
0003a0 0e cf d6 47 39 a2 eb 3f e4 7d f3 7e 81 54 c7 bf
       0.863552704153763 -0.18226641367708318
0003b0 b3 93 3f 2d 34 22 df 3f 3d f5 85 fc 24 66 c6 bf
       0.48646263521942074 -0.17499220209348634
0003c0 92 cb a3 c6 bf e3 d0 3f 54 25 d2 9f 3b 65 d3 bf
       0.2639007034151116 -0.30305376632221237
0003d0 b6 fb e3 e1 e8 26 e1 bf fc 6d 4b 75 fc 22 ea bf
       -0.5359997188496581 -0.8167707720671724
0003e0 c1 63 51 64 e5 2d e9 3f 70 48 70 1c 55 ca f6 3f
       0.7868525466284312 1.424397574508955
0003f0 36 b3 a0 c7 4e 42 f2 3f 4a 9f e5 10 ad ad f2 bf
       1.1411884115179425 -1.1674013767278262
000400 f2 ef 83 14 e3 2c f7 3f 33 e1 d3 0c b2 4e b0 3f
       1.4484587479955704 0.0637007981603162
000410 4c 92 da af 1b da f9 bf f4 d0 30 8d 43 f5 e4 3f
       -1.6157490605629787 0.6549394376402504
000420 46 86 ec 4c ae ba e6 3f 9c a7 b5 f8 45 9e ab bf
       0.710288191072501 -0.05394190464978907
000430 6b c5 5d a3 fb 79 fd bf aa 5a 0c 76 11 8e e6 3f
       -1.8422809964652866 0.7048423104887054
000440 62 19 8a 01 77 38 fd 3f dc 2f 63 58 3a 4e bd bf
       1.8262853679785498 -0.11447491319557862
000450 60 33 54 2b 43 fd e1 3f 2f 21 e5 24 38 2f e4 3f
       0.5621658178584816 0.6307640762907222
000460 5f b1 c2 9c e3 31 fe 3f a9 af 8a f1 0f 53 d5 bf
       1.8871799586732647 -0.33319471920071436
000470 59 5a 44 69 a1 1d b8 bf f1 45 ca 79 5c 95 d6 3f
       -0.09420212574000554 0.3528662862164245
000480 a9 fb 7e aa d9 4a d5 bf 6e 60 6f d7 f9 71 e0 bf
       -0.33269349718096436 -0.5139130790439717
000490 5d 11 3d 43 97 02 ea bf fa b4 d7 8d 02 ee f0 3f
       -0.8128162682774406 1.058107904503514
0004a0 57 b1 51 bb e9 28 d0 3f be b6 74 b0 f2 81 ee bf
       0.25249713223344855 -0.9533627935795363
0004b0 82 ca 90 a8 14 0a fd bf 0d 70 9f 7f ec ce ec bf
       -1.8149611076920853 -0.9002592556603318
0004c0 15 9c c6 1e d7 cf eb bf 59 a4 b7 e5 7f 96 d5 bf
       -0.8691211320009439 -0.3373107665380011
0004d0 48 a2 02 d8 86 e3 db 3f ba 09 99 d6 b8 79 d5 bf
       0.43576212973360784 -0.33555432278458464
0004e0 ae fe 75 25 e2 e3 f0 bf 9a 7e 46 4d e9 8f f3 3f
       -1.0556355918232998 1.2226346033639062
0004f0 68 3b 11 9b 3d c8 eb 3f 27 71 47 5b b8 57 e4 bf
       0.8681934384020282 -0.6357080252451269
000500 3c b7 fb 31 22 42 e3 bf 68 2e 22 1d 14 83 f6 bf
       -0.6018229461894644 -1.4070016038921498
000510 b0 de 9e 8e 4a a1 d7 3f fc fe 0b 11 3d 02 e2 bf
       0.36921943595687434 -0.5627732594439006
000520 40 0b 2c 81 3b da ee 3f a9 3b 0f c4 4c 9a e2 3f
       0.9641397021190201 0.5813354329383077
000530 7e 91 9f e4 34 c3 da 3f 97 62 1c 61 4a fb f5 3f
       0.4181644661569165 1.3738502305406308
000540 e6 4e c5 95 bf 4b ea 3f 2d 4c 58 55 41 9d e5 bf
       0.8217466283044501 -0.6754461924450702
000550 c6 07 d2 3a bb e3 d6 bf 3a 41 06 3a dc 92 d2 bf
       -0.35764961952383734 -0.29021363893936647
000560 0c 69 9e 26 32 60 fc 3f dd a4 35 8c 80 6b e9 bf
       1.7734853275820255 -0.7943728197543823
000570 bb 6e 64 01 b2 be cb bf 1b 3f c9 17 bf 2d ff 3f
       -0.21675705974563705 1.9486685685296325
000580 c5 60 68 f2 e2 8b f7 3f 11 0b 0e de 91 a8 aa bf
       1.47165198030966 -0.05206733546858378
000590 66 14 bb eb a9 1b ed 3f f8 6a 67 a8 44 5d f1 bf
       0.9096269230000302 -1.0852705553322135
0005a0 32 4d 4d 42 33 1a ed 3f f1 db 71 60 9b 7d de 3f
       0.909448270317091 0.47641643923219507
0005b0 84 33 10 5d 52 98 d7 3f c5 b9 8d 32 05 33 f5 3f
       0.3686719807454255 1.3249561285734768
0005c0 44 45 08 3b 1f 37 d4 3f c9 6f aa 47 36 0e 01 40
       0.3158643795478222 2.131939468277754
0005d0 b3 a2 b4 af 01 06 c1 bf 9e 2d c4 11 7a 00 aa bf
       -0.13299580649733897 -0.05078488795160328
0005e0 e0 9d 28 35 d1 46 de 3f 60 68 59 f8 e9 64 a9 3f
       0.47307233992839137 0.04959803730589907
0005f0 f4 89 43 7c 69 15 e2 3f 16 d6 3b 48 18 dd ee 3f
       0.5651137759235199 0.9644891177001138
000600 f2 48 f9 56 ab e0 ce 3f 0b 7a fc 1e 17 c0 e6 3f
       0.24123136278883056 0.7109485249710031
000610 8f 0a 0e 87 77 ef da 3f 2b a9 de 21 b7 02 e7 3f
       0.4208658999342924 0.7190814649123117
000620 ce c1 be a2 82 ce f1 3f 15 04 f8 c1 1b bf 98 3f
       1.1129175526840416 0.024166520799557462
000630 1d f9 32 dc 06 d5 c3 3f 2e 62 60 64 5f 98 d8 bf
       0.15493856193456504 -0.3843000869979133
000640 b6 f6 a9 db 5e 51 d9 bf c2 0f aa ed 36 49 e9 bf
       -0.3955914635806538 -0.790187324703304
000650 15 ee d6 3d 44 3b e6 bf 77 4c 8c 8e 9a e6 ed bf
       -0.6947346885494335 -0.9343998703137818
000660 ca 6f 14 2d 69 e0 e7 bf 42 e3 6a e2 d3 95 c8 bf
       -0.7461439018693394 -0.1920723777345988
000670 b5 02 69 79 0d 36 07 c0 67 00 61 10 c0 9f b5 bf
       -2.9013928876086887 -0.08446884536624709
000680 c8 81 35 58 a3 8a fb bf 5e 4a 4c 26 41 12 cf bf
       -1.7213471837677492 -0.24274458284397132
000690 c4 ca 3c cb 93 ba f2 3f d4 82 06 ca fb e6 d9 3f
       1.1705511034930831 0.4047231171517016
0006a0 66 3b 22 72 42 fd f0 3f a6 5b b0 09 46 20 f0 3f
       1.0618309458111184 1.0078792932961078
0006b0 aa 96 fb d4 64 83 de bf 31 9b 54 3f b9 0c cd 3f
       -0.4767696456823197 0.2269507941466258
0006c0 49 01 53 7d b9 3d e1 3f e6 4c 49 03 26 84 c9 bf
       0.5387847373713522 -0.19934535179581941
0006d0 1b 95 08 ec 6f 91 a1 bf 7f 30 24 f7 e1 46 b4 3f
       -0.03431272274273508 0.07920658382153255
0006e0 4b fe 03 00 64 aa e5 3f 30 75 fb 0c 6b a3 cc 3f
       0.6770496368698756 0.2237371266736914
0006f0 86 8a ef 8e 8c 25 eb 3f fc 42 f2 84 4e df d7 3f
       0.8483336250031506 0.37300456030884255
000700 ae b4 5d 87 5b 11 dd bf 25 06 f3 b0 79 e6 e0 3f
       -0.45418441981639546 0.5281341987649212
000710 17 3b 1d e7 1c 83 cd 3f 50 b6 c3 6d 98 e5 c2 bf
       0.23056374821541034 -0.14763169631571538
000720 3d fc 4e b9 08 ca df bf 7d f8 e5 39 96 cc e4 3f
       -0.496706181493156 0.6499739771677607
000730 7a 11 c7 d1 44 ce d0 bf 7d 1f 0b 6b eb 05 c0 3f
       -0.26258965002150314 0.1251806519196598
000740 d5 a5 d1 0d 7c c6 ec bf 47 9f d3 8e 1f e6 d7 3f
       -0.8992290754223925 0.37342060993113474
000750 d5 30 5b 92 37 fd d0 bf 2d aa 63 9c 64 64 e1 3f
       -0.2654551438579465 0.5435050062636201
000760 d3 e9 03 01 3f 6e d0 bf 52 e6 95 19 73 1b c9 bf
       -0.25672888850354275 -0.19615019559187147
000770 06 75 31 37 9c c5 f3 bf 3f c0 45 64 fe ea de 3f
       -1.2357446819290216 0.4830928782676018
000780 cd 5c a6 3a 37 78 f1 bf 2d 28 89 45 6c 77 da 3f
       -1.0918495455751327 0.41353899756052465
000790 02 5e e8 90 de ba c7 3f 4b 61 46 10 ef 71 d5 bf
       0.18539030147142915 -0.3350789698538576
0007a0 e0 c7 16 ce aa 7c d0 3f d4 72 09 5d 35 c8 e1 3f
       0.25760908246877356 0.5556895081641309
0007b0 da 09 c2 10 25 82 ed 3f 0e 3b ff be 72 dd ea bf
       0.9221368148139917 -0.8395322542581611
0007c0 ae b7 9d 77 6c 5f cc 3f 6d 43 5c 34 9e 93 d3 3f
       0.22166210022572613 0.30588488686867416
0007d0 86 b3 46 39 e2 1c d5 3f 6c 59 50 e8 3b 80 e0 3f
       0.3298879203164734 0.5156535661106267
0007e0 59 bd 58 89 6c d6 e6 3f a3 fd 91 ec c3 97 c8 3f
       0.7136748011161372 0.19213151026995687
0007f0 55 3c 21 b8 ad 73 e1 3f ae c4 6b d8 b0 c9 ed bf
       0.5453709217343979 -0.9308704592678134

lstm.bias_ih_l0 f8 [40]
000000 c4 fe 9b bd 9d 69 c4 bf 83 89 4d f7 82 5e f2 bf
       -0.15947314985532135 -1.1480741176861506
000010 1b 4d 94 54 3d 88 f4 3f 36 44 f4 7c 20 1e f5 bf
       1.2832616142157522 -1.3198552018186667
000020 90 b9 67 e1 e9 d6 e9 3f d9 ab 3f ed 75 80 e7 3f
       0.8074845697827175 0.7344312318576797
000030 ed 49 b9 d8 fb 96 d2 3f ee 09 17 0f 2f 14 d6 3f
       0.29046531834060724 0.344981922851871
000040 65 e1 f3 ac a8 a3 d6 3f be 15 21 88 a6 d8 f2 bf
       0.3537389458647538 -1.1778931920574531
000050 0a ab 6e e0 b6 0e f2 bf b8 eb 26 ed f2 a2 f3 bf
       -1.128592373551046 -1.2272824538947429
000060 fd 48 73 c4 8a 03 49 3f dc 72 ed 65 92 d8 ef bf
       0.0007633616995923739 -0.9951869955799242
000070 c1 cb bf 3d 9a 91 d7 3f 0f 01 4a d9 df 57 ed 3f
       0.36826187162585816 0.9169768566062276
000080 7a 22 f1 e5 83 27 f9 bf 8b 0a df 1e dc 5c f2 bf
       -1.572147272310899 -1.1476708608539947
000090 33 eb 3a 34 be 2f ee bf 0d a7 3c ef ea fa ef bf
       -0.9433280010337967 -0.9993796036335155
0000a0 b7 3e 52 5c 94 43 ef 3f 96 ce 83 49 84 d5 e4 bf
       0.9769994547986788 -0.6510640559995007
0000b0 e8 71 18 aa ae 9a f1 bf 5e 69 83 d1 4e f3 d8 bf
       -1.1002642292361262 -0.3898503347424106
0000c0 cd 0a 48 ce 93 85 c2 bf 03 18 78 b0 b0 ec e7 bf
       -0.14470145771345813 -0.7476428457891874
0000d0 ea 7e 9b 96 b8 86 fc bf cb 06 c6 0e 67 49 df 3f
       -1.7828908808805246 0.48885513727882984
0000e0 10 64 84 76 cb fe ef bf f5 af d2 f1 b3 6a f2 bf
       -0.9998528780735132 -1.1510505148135028
0000f0 75 d3 f0 d1 0f bc f0 bf c7 dd f0 7b 75 fb df bf
       -1.045913524704898 -0.4997228346214481
000100 c2 fb b0 4f 24 ad e4 bf da 6a f9 2c 41 89 f5 bf
       -0.646135478636886 -1.3460094219978402
000110 1f ad 9e db 5c 93 f6 bf c7 44 cf b5 ca b1 e8 3f
       -1.4109772280597281 0.771703105065307
000120 bd 9e 36 d3 c6 98 e6 bf 2d 73 35 2f 40 5c e6 3f
       -0.706149494672864 0.6987610742613463
000130 fd a8 84 43 db 48 d4 bf 97 cc 04 0f 6c a0 b9 bf
       -0.3169468078000504 -0.10010409704846022

lstm.bias_hh_l0 f8 [40]
000000 3b 02 c8 84 2e d1 b7 3f 92 89 4d cf 1a 1e f6 bf
       0.093035609643274 -1.3823497865456358
000010 1f 4d 94 54 70 ed f7 3f 37 44 f4 e4 b6 a8 f3 bf
       1.4954684547308899 -1.2286900466463189
000020 c0 dc b3 80 47 5c f1 3f d2 d5 9f f6 4a 51 f3 3f
       1.085029127830964 1.2073468812717363
000030 e1 93 72 f1 ad 8c c8 3f b7 13 2e de e8 b0 c0 3f
       0.19179319657737806 0.13039885376579516
000040 d1 c2 e7 59 f8 a4 c8 3f 52 2b 42 40 16 45 ec bf
       0.19253448858173397 -0.8834334616707145
000050 0f 56 dd d8 65 99 e9 bf be eb 26 95 6f 2d f6 bf
       -0.7999753223072633 -1.3860927416087487
000060 b3 39 62 05 c7 08 d3 3f 6b b9 f6 da d6 f2 f7 bf
       0.29741073156119596 -1.496786933257307
000070 f0 e5 df 1e 79 7d e3 3f 12 01 4a 19 a0 ec e8 3f
       0.6090665438670708 0.7788849347998925
000080 74 22 f1 ed 61 a7 f2 bf 96 0a df 9a d2 26 f6 bf
       -1.1658648771864621 -1.3844781922968301
000090 2c eb 3a ac 40 1e e7 bf 93 53 9e 1f fc e0 f2 bf
       -0.7224429477567802 -1.1799279437156869
0000a0 c5 3e 52 bc 29 82 e9 3f d7 74 1e 4c 50 ce be bf
       0.7971390417241869 -0.12033559664128589
0000b0 8f e3 30 cc 11 a1 ea bf 5c 69 83 a1 7a 13 d9 bf
       -0.8321618068795135 -0.3918139054564074
0000c0 de 0a 48 6e 86 e3 cb bf 08 0c 3c e8 b5 e6 f3 bf
       -0.21788101563296086 -1.2438258239424176
0000d0 e8 7e 9b 36 d3 ed fa bf 7c 03 63 87 b4 62 ed 3f
       -1.6830627568341985 0.9182989734909905
0000e0 05 32 42 83 40 4d f1 bf db 5f a5 d3 68 4b e9 bf
       -1.0813603522575488 -0.790455258723337
0000f0 f7 a6 e1 73 d5 ee ef bf e2 6e f8 2d 5a bb e2 bf
       -0.9979045165357253 -0.585370149408359
000100 d1 fb b0 97 70 de ec bf db 6a f9 9c 40 35 f6 bf
       -0.9021532976838619 -1.3880010730560375
000110 1f ad 9e 3f b6 7b f4 bf 6c a2 e7 12 62 4f f1 3f
       -1.2802031026029181 1.0818806398839582
000120 63 4f 9b 19 79 af f1 bf 34 73 35 ff f9 05 e7 3f
       -1.105340099359602 0.7194795593783057
000130 f8 51 09 27 e9 34 c8 bf 39 33 c1 f3 fb d8 d0 bf
       -0.18911470800470886 -0.26324366382759795

lstm.weight_ih_l1 f8 [40, 10]
000000 53 ff 0a e5 e9 65 f3 3f 70 98 43 3c 23 f3 06 c0
       1.2123812624922337 -2.868719549954271
000010 51 68 18 d8 9b ff e1 bf a0 1b ef fb 0a d1 e9 3f
       -0.5624522419559616 0.8067679329477535
000020 49 0e e1 b8 b4 3c ff bf 5b 65 15 51 d7 77 d0 3f
       -1.952320787605361 0.2573145191032233
000030 cd 14 6e 9e e1 8f eb bf 13 d4 2d e9 17 89 ea 3f
       -0.8613136381469758 0.829235034396904
000040 d7 28 0d f7 69 cb f5 bf 22 e3 07 5d bf 1f 00 c0
       -1.3621616030164228 -2.0155017154724115
000050 de fb 68 0d 81 39 f9 3f 4f 42 51 b0 41 fc ff bf
       1.5765390895683065 -1.9990860831641333
000060 12 5b 91 a5 e6 2b f1 3f d3 5d 9c b9 e0 b2 ec 3f
       1.0732180087558771 0.8968356728755061
000070 e0 0b 80 88 6b 50 09 c0 a4 8f d5 3e 70 3a f2 3f
       -3.1642676033093124 1.139267201849159
000080 78 60 25 2f 49 65 fd bf 23 4c 17 2c 8c 04 01 40
       -1.8372279969826462 2.127220482312184
000090 2e 8e 03 98 01 1b 03 40 d6 3e b1 1f cd 09 f5 bf
       2.388186633690359 -1.3148928869231233
0000a0 4e 50 ec ee ce 7a f6 bf 42 94 ba 0f bf ae e7 3f
       -1.4049825032170875 0.7400813395694359
0000b0 fb 58 ac 94 e4 d5 d1 3f 91 58 df 18 32 31 ea bf
       0.27867998618002304 -0.8185053334989495
0000c0 c6 fa fa 34 37 00 cf bf 67 a8 b2 9c ed 5d e3 3f
       -0.24219408118184144 0.6052158413415442
0000d0 83 27 c2 59 79 e9 f5 3f 91 3a cf 80 66 61 e7 bf
       1.3695004945934393 -0.7306396976290036
0000e0 e9 fe 86 74 a7 e5 e9 bf 96 ba a7 a4 3d 8b f0 3f
       -0.8092839504169805 1.0339943343966858
0000f0 c4 b1 be 18 63 44 d2 bf 95 8e e7 ff 53 a4 e9 3f
       -0.285424017109815 0.8013095853934425
000100 f4 7c 5d 43 21 ac da 3f b5 b3 3b 98 bf 5c f0 3f
       0.41675597742683057 1.0226436564073371
000110 71 74 68 f2 8b d2 eb 3f cd fe 8e 84 ee aa e5 3f
       0.8694514975101254 0.6771156872782399
000120 84 cb df 62 87 b7 f3 3f a0 66 d5 1d 3a 3f cc bf
       1.2323068487428097 -0.22067953545302021
000130 d1 fa be 94 3d 67 e6 3f 00 b2 cc 4b d5 3d da 3f
       0.700102606315193 0.41002399828246894
000140 6e 3e 89 e0 08 85 f4 3f d8 e6 8b dd 32 a4 03 c0
       1.2824791689817192 -2.455175143081629
000150 d0 7e 99 07 e9 c5 ed bf 8c 70 37 fe ff 40 e4 3f
       -0.9304089687757031 0.6329345669905861
000160 30 31 04 a7 53 82 f8 bf e2 94 90 92 81 58 ca 3f
       -1.5318180584027452 0.20582599312289235
000170 21 6d 71 4d bd 51 f0 bf a3 57 82 8a da 1b dd 3f
       -1.0199559235687234 0.4548250534656921
000180 62 6a bc 2a b5 28 f0 bf 3a aa 5e e2 32 61 03 c0
       -1.0099383992552693 -2.422460335267968
000190 3d 4a b4 de 8e 1a fc 3f 2c 18 ab 75 3d 67 ff bf
       1.7564839076409406 -1.9627050968570172
0001a0 9d 0e c9 1b 39 18 c5 3f e6 fb 41 18 f4 60 e0 3f
       0.16480172974307986 0.5118351434501818
0001b0 29 cc 08 c2 b6 4a 00 c0 d2 1e 0f 9a f7 b7 00 40
       -2.0364813956198486 2.089827731691778
0001c0 da 05 42 8d 45 3d f8 bf 45 25 90 d0 ee b7 fd 3f
       -1.5149589078795231 1.857405485820281
0001d0 81 37 88 8e 02 d4 02 40 0b a8 c8 34 9f 9c f8 bf
       2.3535205016441414 -1.5382377683513393
0001e0 4f 09 fa 8e c0 7a 03 c0 e4 08 30 67 1c 53 da 3f
       -2.4349375886969606 0.41132268978993936
0001f0 3e e8 0b ff a1 80 e6 3f af ef 6b f6 5c e7 f1 bf
       0.70320224584362 -1.1189851404042022
000200 d4 0d 54 73 c3 4a d6 3f 5f a2 7b 4b e9 e6 ef 3f
       0.3483132005933076 0.9969374155308052
000210 2b 15 8e cf e6 f8 fb 3f e6 90 dc 8c d6 ee f5 bf
       1.7482669932954404 -1.3708100798040106
000220 06 37 bd c4 69 5c 04 40 d4 52 a6 b1 bd fe e2 3f
       2.5451236124271217 0.5935963124962549
000230 fd 49 3e ca e7 dc f3 3f 9c df ea 66 11 35 e7 bf
       1.2414319896821546 -0.7252280244929241
000240 2b ed 55 32 3f 09 dc 3f dd a0 e5 59 aa bb eb 3f
       0.4380643836554607 0.8666583782005791
000250 30 7d 4b d9 84 dc f5 bf 48 e4 c3 17 45 f9 09 40
       -1.3663376319962701 3.2467138153702173
000260 08 85 36 f0 11 50 e5 bf 0f c8 0d 24 61 79 06 c0
       -0.666024178663208 -2.809267312689378
000270 ba be c9 8b 09 35 f0 3f ff 92 20 2e b5 6c e5 bf
       1.0129485569449757 -0.6695199871943202
000280 1d 10 39 06 4a 19 e4 bf bd 81 43 ae d9 6f e4 3f
       -0.6280870553532655 0.6386536029422626
000290 4e 82 21 f8 f9 38 db 3f 59 46 ce a5 2b b5 d2 3f
       0.42535256606609984 0.2923077696987995
0002a0 74 81 99 10 16 67 e1 bf ce a5 e6 b0 7a 11 f0 3f
       -0.5438337635242037 1.0042673978990595
0002b0 61 98 e7 fe 10 66 f5 3f 74 70 48 96 cd b7 d9 bf
       1.3374185521329525 -0.40184344936438454
0002c0 03 5c 42 f8 b7 ff f3 3f 2a a1 12 26 a3 73 a6 bf
       1.249931306612553 -0.04385099258189691
0002d0 e1 21 e5 18 eb 88 be bf 8d 4a 8d d9 67 82 b7 3f
       -0.11927670820035231 0.09183358250929015
0002e0 1d 8b 0e 31 b7 32 c7 bf 18 16 4c df 82 d1 e1 3f
       -0.18123521705009518 0.5568251000665354
0002f0 87 5f 71 cd 6e e2 e0 3f 72 a0 e6 a4 0f a0 c8 3f
       0.5276407253795562 0.19238467742730198
000300 96 4d f1 b5 33 af d0 3f 99 db 91 c8 af 71 e1 bf
       0.26069348113852564 -0.5451277654054706
000310 f4 2b c8 08 f4 f8 ec 3f 15 a1 9f 1e 09 cf dd 3f
       0.9053898021242035 0.4657614516313669
000320 c3 69 58 c5 2f d7 ed 3f 71 25 d6 90 e4 d9 f0 bf
       0.9325178961183201 -1.0531964929271818
000330 5d ff 06 77 07 8f c7 3f 90 69 4f 1a b6 0d e5 3f
       0.18405240356332345 0.6579237474318678
000340 10 4f 22 fc af fc 06 c0 ab 48 e4 ac 48 89 f1 3f
       -2.873382539555571 1.09601657424768
000350 22 b8 ff 5d 7b ba f4 bf dd 27 ab e8 0b db c7 3f
       -1.2955278083641208 0.18637226925630915
000360 85 50 31 f2 41 a4 a4 3f b2 1c 6c 99 38 69 ff bf
       0.040315686049013734 -1.9631887429293724
000370 16 2b d3 17 74 25 a8 bf 05 e4 1e 27 b3 cb f5 3f
       -0.04716074744063385 1.3622314003134772
000380 93 3c 63 61 4a 46 dc bf ca e1 d3 a8 f0 ce df 3f
       -0.44179019461166397 0.4970056198794991
000390 9a b3 1d 8e bd 35 d1 3f 5c 03 2a c4 f1 37 b7 3f
       0.26890505674855947 0.09069739379084524
0003a0 f7 03 05 39 e9 bb e6 3f b6 e4 d3 19 d6 db 8c 3f
       0.7104383577026273 0.014091179526518931
0003b0 ed 22 1f 64 01 d5 d9 bf d3 26 d1 5b bf 57 ed 3f
       -0.40362581994536023 0.916961364107204
0003c0 e2 76 52 21 34 1c d9 3f 5b be 61 23 55 f9 d5 3f
       0.39234641317476193 0.3433430524373528
0003d0 83 54 f0 f3 9e 1f c3 bf f1 8c c0 c1 64 78 e2 bf
       -0.1494024935824748 -0.5771964821073238
0003e0 7c c9 3d 14 f8 d0 b0 3f d2 4f 7e 9f e7 a6 d8 3f
       0.06568861478971216 0.38518705916908147
0003f0 63 47 89 3b 3d f4 e5 3f 92 55 c8 62 02 3a b8 bf
       0.6860643542115493 -0.09463515197452058
000400 c9 31 52 73 f5 c7 c3 3f 00 73 13 ac ac 53 d3 3f
       0.15453975802337386 0.30198208622259415
000410 81 da 94 75 b4 d2 d3 3f 80 8c 55 5a 17 7b b3 bf
       0.3097354076630055 -0.07609697299408147
000420 df ff 98 90 61 52 a5 bf 7d eb f4 35 33 92 e9 3f
       -0.041644143010216565 0.7990966848222879
000430 36 10 ab 29 e5 5a c1 3f f7 5c 2c 8e 3b 8b c1 3f
       0.13558640036183228 0.13706154291205738
000440 ba b7 ad c8 73 df e9 bf 63 e6 7e a2 fc b6 c7 bf
       -0.8085268897536857 -0.185271815627675
000450 f9 8f f0 ad 8e ac 6e bf c6 6d 10 a7 3d 9c c1 bf
       -0.00374439112739999 -0.1375805917494814
000460 b0 ae 7d 36 39 c9 fe 3f dc 0b c2 1c 01 f1 f4 bf
       1.9241268280556305 -1.3088389514311904
000470 db 79 4d d6 8f 9f f1 bf 39 b0 a5 d5 f3 6e c0 3f
       -1.1014555331417941 0.12838600093835043
000480 4f 1d 78 c2 8c dc fa bf 59 72 35 3e 67 eb da 3f
       -1.6788451763585106 0.42061787676883494
000490 8c 5d 5a eb 46 71 f9 3f 39 45 05 d3 d8 d4 d5 bf
       1.5901555245853585 -0.3411161480663228
0004a0 47 6c 97 87 0c 20 f0 bf 36 ed 15 37 fa db f9 bf
       -1.0078244492094812 -1.616205420664142
0004b0 41 6e f6 ac 22 55 e4 bf fe ce a2 9d 4d 72 eb 3f
       -0.6353925111938638 0.8577030257060583
0004c0 b3 20 fc 8d 6b 57 da bf 3d e2 83 5b 6d c3 e7 3f
       -0.41158570161543223 0.7426058566480332
0004d0 42 49 9d a7 5a fe d1 3f c2 32 8b 2d 26 99 9d bf
       0.28114954346269283 -0.028904530076760755
0004e0 28 a5 76 31 73 f5 d4 3f f4 42 e2 a9 a4 a4 e7 bf
       0.32748107748428135 -0.7388480489772449
0004f0 9a bd 44 87 c6 3d de bf 86 18 fe ad df 32 f3 3f
       -0.47252047738853664 1.1999203487953607
000500 0a d6 e3 65 d1 8a 01 c0 cc b0 33 e3 c5 2e f1 3f
       -2.192782207503801 1.0739191889834272
000510 b1 26 33 a6 7d e9 d5 3f c9 46 b1 53 b4 a6 e2 bf
       0.34237614851427184 -0.5828496584528803
000520 6c 1f 02 07 16 ee fc 3f fd d7 98 e2 8d 68 cd 3f
       1.808126475692883 0.22975324215229867
000530 5f 58 84 41 cd 42 01 40 24 8c 19 3a f0 97 f4 bf
       2.1576180571092176 -1.2870943326495388
000540 61 97 fa 69 e6 6a ef 3f d0 94 30 1d 75 3e ee 3f
       0.9817993230724192 0.9451242036926946
000550 d3 5d 0c 3c 44 60 ef 3f 68 bd 97 b6 90 4f e0 bf
       0.9805012867754449 -0.5097125593437513
000560 c8 bd 8e b9 3e 02 e8 bf 3a 35 65 98 fd 9b e1 3f
       -0.7502740501567411 0.5502918220969726
000570 a6 5d 9d 16 ac 9f f3 bf f4 88 9d c5 32 67 eb 3f
       -1.2264824756037824 0.8563474521327223
000580 1a 28 f7 44 1a d8 cb bf 84 d8 07 da 85 1c ed 3f
       -0.21753242843107118 0.909731794205769
000590 75 74 66 ab 71 aa d3 bf 0c 7c cc a1 f8 bd f6 bf
       -0.30727807749082753 -1.4213796921028488
0005a0 03 ac 4a 27 da 13 e0 bf 82 60 f4 5b 45 83 e2 3f
       -0.5024233596244588 0.5785242839802012
0005b0 ee e1 f8 04 7c c9 da 3f 02 5b c6 2c 68 ac e1 3f
       0.4185476349407783 0.5522957682140659
0005c0 ef 79 d6 37 0a 64 f9 3f 4a 7c 70 53 91 b2 da 3f
       1.5869238072551715 0.4171489062154633
0005d0 52 51 09 12 5b 4e de 3f ad 77 8b 9e 44 50 e4 3f
       0.473532455075902 0.6347983452394509
0005e0 08 07 aa b6 a6 eb f8 bf aa 5a 79 be 57 02 b4 bf
       -1.557532037288583 -0.07816074753041372
0005f0 bf 72 0a 65 ba 8a e0 bf d3 fb 19 fc 9b f3 d3 3f
       -0.5169345830396067 0.31174373263632765
000600 b7 dd f0 58 c6 9d c3 bf 0b cd 66 82 0c 6c d6 3f
       -0.15325240462128217 0.3503447793438716
000610 e6 56 9a 7a 5e c6 eb 3f 61 27 7e 08 cb 07 cc 3f
       0.8679649729335466 0.21898782648741658
000620 a1 e1 49 a0 d5 ca de bf 23 5f a5 80 4a 0b d6 bf
       -0.4811300340002394 -0.34443914950451154
000630 67 24 27 fc 3c b8 db 3f 5b ed a0 01 b7 27 ea 3f
       0.4331200087004334 0.8173480064209956
000640 f8 db 02 1b 0a 62 a0 3f ff 99 d3 1c bf 0d e1 3f
       0.031997981831800304 0.5329280436533849
000650 30 a0 0e 2a e7 79 d4 3f 8b 8c ec 54 bc 81 c9 3f
       0.3199403677667787 0.1992717184703888
000660 a5 e1 f5 6c 61 39 db 3f 87 d3 f7 6c f7 35 bd 3f
       0.4253772319857723 0.11410471353867822
000670 e4 90 6c c2 0e 0c e4 3f 33 c5 1d d4 4e b9 b8 3f
       0.6264718816132953 0.09657757452602737
000680 64 e9 02 18 0f 5a ac bf 53 b4 7d 6d 24 c8 cd 3f
       -0.05537459533794012 0.2326703581451591
000690 b8 e2 26 42 84 ba ec 3f ba b3 ca cf 78 cc e7 bf
       0.8977681438473928 -0.7437099512513818
0006a0 f2 12 8d 35 f5 b8 df 3f a6 ce 83 87 03 76 c8 3f
       0.4956639311752006 0.19110149495064838
0006b0 a5 b8 76 e4 27 bb ea bf 57 81 2d 40 f7 00 f2 3f
       -0.8353461706335749 1.1252357966369197
0006c0 9a 7d 9c 6b 54 1e e6 bf 61 de 56 d6 64 51 f2 3f
       -0.6912023641379392 1.14487155653287
0006d0 4e cc 14 36 50 95 f6 3f c0 b6 2b 32 7c ba ee bf
       1.4114534485386403 -0.9602642993829349
0006e0 43 f6 90 93 1c 3d f2 bf 51 69 98 96 be 10 a0 bf
       -1.1399198307330074 -0.03137775028536061
0006f0 a0 96 3c ce 1d a7 d7 3f ab 5d ef 95 27 81 f1 bf
       0.36957497730541355 -1.0940318924748265
000700 4f 56 6c b0 fc 52 f5 bf 46 3b 69 a3 4b 7c f2 3f
       -1.3327605144053398 1.1553455718273695
000710 b5 eb c8 3a 43 f6 dc 3f b5 f1 27 b3 8b 13 ed bf
       0.4525306772299545 -0.908635950006604
000720 dd 07 5a ad 1a 6e e2 3f e2 16 9a aa 3e 3e d8 3f
       0.5759404550337838 0.3787991205248159
000730 fe 62 fd 3d 31 9e d0 3f 65 d4 94 41 0d 40 b0 bf
       0.25965529493036843 -0.06347735262973371
000740 3e 11 0b 8c 4a 21 cf 3f 92 b4 ae 15 51 1e d7 3f
       0.24320346677826338 0.36122538678575566
000750 cf 5c d8 de 58 34 a0 3f 82 e3 c0 33 7f 69 c8 3f
       0.03164937706258685 0.1907195093824861
000760 2e a7 6f 7b 8b 8d d3 3f 96 85 71 98 01 2b e8 3f
       0.3055142121726132 0.7552497842227008
000770 ba 6e fc 01 27 38 e1 bf 62 c6 ef bd dc 5d b3 bf
       -0.5381045378485034 -0.07565097462772877
000780 3c eb df 4a 69 d6 ed 3f 76 15 63 ce 56 d7 fe bf
       0.9324232542415767 -1.927573019217872
000790 dc 7a 03 e7 9d 17 d8 bf ff f0 3c 7d 57 2e d2 3f
       -0.37644145545884355 0.28407847624090715
0007a0 fc 2d f6 9f 52 47 f4 bf 3a 11 10 7f af 5e b0 bf
       -1.2674127815724878 -0.06394478656881555
0007b0 eb 7a 32 3c 83 64 ee bf 1b 27 ef 2a ab 1e e1 3f
       -0.949769609043725 0.5349937285002143
0007c0 89 e7 f3 1f 99 0d ee bf 30 5c 5f 88 ea 13 fb bf
       -0.939159929664343 -1.6923623396921919
0007d0 2f d8 06 38 2e 60 e5 3f ca 54 c6 88 76 b8 d7 bf
       0.6679907888672058 -0.37063372952372886
0007e0 cd 4f e8 1e fc 81 b1 3f 87 af 77 8c 31 7b e7 3f
       0.06838966135575149 0.7337882750994006
0007f0 d2 24 61 ac d7 6c be bf b0 f1 29 4b b8 94 eb 3f
       -0.11884830435259922 0.861904284290679
