hybridmodel_B0007.pt (torch, 96571 bytes, 52 tensors)

lstm.weight_ih_l0 f8 [56, 8]
0.0027116474816301908 -0.07173088767951163 -0.1974223384062186 -0.06803250368679371 -0.11341033920373646 0.21914430832076656 0.03941806049582454 -0.11344202259115438
0.05176950306236618 -0.13682539800958005 -0.36282186183093246 -0.01923813452839535 0.15736370116903206 0.10461618676499843 -0.10171130191439455 0.21107551139661296
0.45110255003316563 0.03208421317250058 -0.14318567128986043 -0.1139884318669539 -0.19364676855957763 0.27187482576086935 -0.053175976390793085 0.2598575380577228
0.24319088884265863 0.29734121893871984 0.12044013722583087 -0.23127145979215932 -0.08963152720474718 0.13778918403733553 -0.0007018743000201189 -0.2341065268914109
0.20412316932259514 0.01067664476506567 -0.21604223758498128 -0.3630826455620161 0.34847578283880154 0.10298398242658194 -0.10792253450680503 0.2189667152746373
0.24520519124271786 -0.35298239114570595 0.03201303109986749 -0.13943613549715028 -0.29672365235978804 -0.007572004817730144 -0.2327664190146826 0.061513528612896586
0.13521117840065122 0.24180339550023197 -0.017560355220996957 0.15308242536643388 0.09841154370367705 -0.09627017853179105 0.059280792745001906 0.10254419006095367
0.4095832491392407 -0.08809403573029853 0.16441324488760445 -0.040170672649528026 -0.025089914947428703 0.12099013854899361 -0.12064420660888937 0.20918483104208932
0.41648485457850476 -0.06493231691342692 0.034618295523017824 -0.03329628315520865 -0.21294066609273224 -0.10578231272417372 0.19640078621955787 0.1266696151979716
0.02944000357654723 -0.10689764841877224 -0.14993595386509806 -0.3926330348292625 0.12430197722209489 0.048195873308550984 0.1831737057021757 0.0975074741932853
-0.19175193819946734 0.32354783000660653 -0.09289356479226592 -0.29083202061218016 0.3433911268987647 -0.17716122382184007 -0.11472269397968794 0.2679284192198298
0.2084007835614336 -0.22043267157916616 -0.07971324999886481 -0.1413623962341774 0.2877858464854565 -0.18030202529028 -0.15043908854812899 0.05502531163277062
0.058926207569625993 -0.04831638368243033 -0.23965971959578516 0.06283093017565367 -0.17135148313018686 0.10722804828754251 0.02252747168490236 -0.026420608966385838
-0.09473428984621299 0.1695463276083008 -0.16538624496800303 0.008634825475712083 0.08241669241218579 0.060970360477598795 -0.06446167512892782 -0.07107946968809316
-0.038293226904530235 0.09694794752795816 0.19768303875773288 0.3957039717209649 -0.05579615255156207 0.27150642005823755 -0.06013584599035374 0.006796694446145241
-0.06372267122703706 0.4736936266721994 0.03402867218195206 0.06295609290989293 0.01801170190202911 -0.2200042678457705 -0.09222431673839923 0.024459705018490926
-0.3487397493326719 0.16438785080250348 -0.10227221610403467 0.16383372412465813 -0.1829930197332918 0.09557666945810528 -0.2243623894679223 0.18252346363521488
0.445464753238645 0.07479421514688667 -0.026733549310616948 0.07155305055373239 0.17207698773067714 0.23445910079074708 -0.12411201632196292 0.012571027551447053
-0.08501318463504527 0.2195531450443405 0.002876111787261594 0.0026433303861532692 0.4953426419743499 -0.2756558797031924 -0.2003523696223094 -0.0468972868377313
0.027723333358425473 -0.12757219295299124 -0.2274799295620737 -0.2770698391715206 -0.13932706034225276 -0.06903325060917943 0.052968816433508974 0.10533654867552797
-0.16262095511789593 0.3875942452665431 0.06858471530389362 -0.10777077099741159 0.01723349521682906 -0.1320871013466253 0.18377933778742112 -0.20149488506938726
-0.024428319883453373 -0.04072942443028467 0.18869551111404614 0.00030969457740937943 0.008333800987515926 0.2895341343770591 -0.3893008102820917 -0.2949668560572066
-0.25850302354880195 0.07714548920325712 -0.14316593914715162 0.08109936007242276 -0.13391992935468774 -0.15156403022680084 0.12448109270913288 -0.03744501679597435
-0.07241874674978512 0.2800693748149064 -0.25415405244723493 -0.06052713725766038 0.2756370901789727 -0.20523484589815838 0.03287827354736153 -0.12803468162467888
-0.20901643238828388 0.13151740285819236 -0.20530216253245281 -0.14866271302919845 0.05934220830611419 -0.1466042902846641 -0.16544100249563434 -0.15115623434069608
-0.2488870038208817 0.10476798117184108 0.029494467017802877 0.04687003159530538 0.0161184490799588 0.23801830855358747 -0.23652612829064779 0.2580968483645335
-0.18146797956538235 0.05982695460804021 -0.14877384850802022 0.30195015260265645 -0.1476954537544137 0.17323440286991526 -0.2083484405590169 -0.3752666370047131
0.1626247558339805 0.2970404053078844 0.12822104349654698 0.05410190909397243 0.37570063031143697 -0.2219381627415623 -0.08963717896869282 0.0011703400485603805
0.09096267047880958 -0.07150416952296797 -0.16041233039753988 0.07262109148089096 -0.4626753588149492 -0.0894962896130245 -0.021105289130118995 -0.31225638551485946
0.004745597033476502 0.09522667145977 0.02780909136609653 -0.22624096077711853 0.4589326830256133 -0.2066130775816523 -0.1211529715924372 -0.22473350107660722
-0.1645131171791751 0.27027118376620457 -0.09403219894104058 -0.05926563985373612 0.3771508943065211 0.09605637842556872 -0.13692858840075164 -0.11022395146427061
0.026326595769472792 -0.01197655395663684 0.1761892628217902 -0.3645831874695748 -0.20200211401918233 0.17941385710151975 0.014359549649725975 0.18033571264050596
00000000: be6b 0fa8 bc36 663f 3851 b298 f45c b2bf
00000010: d02e 7a9b 2245 c9bf e157 6602 946a b1bf
00000020: 5187 e8c1 7508 bdbf 4bce abb2 eb0c cc3f
00000030: e212 67a1 9a2e a43f e466 0551 890a bdbf
00000040: 8383 2a45 8881 aa3f 644e dba0 7e83 c1bf
00000050: a49c b52f 7938 d7bf 31c2 8a5a 29b3 93bf
00000060: f79b 0c67 7e24 c43f 92b3 c95c 20c8 ba3f
00000070: b51c 5b7b c009 babf b8ab 37b9 8504 cb3f
00000080: b537 e23a ddde dc3f a56a 968c 576d a03f
00000090: 8e0e b977 e853 c2bf 0cab fd8a 582e bdbf
000000a0: 7440 f8d4 6ac9 c8bf 97e9 4fab 6566 d13f
000000b0: c109 10af e139 abbf 7ced e482 81a1 d03f
000000c0: 89d7 2109 e120 cf3f 8f0d c676 a307 d33f
000000d0: f5bc 8232 2ad5 be3f bb1a 279e 4d9a cdbf
000000e0: bef0 087e 17f2 b6bf a868 9773 13a3 c13f
000000f0: 48fc 0d95 bfff 46bf 39ae 63e2 33f7 cdbf
00000100: 6157 4c40 b520 ca3f 7496 c600 a3dd 853f
00000110: 4fb7 7da4 45a7 cbbf f6c6 1bfe be3c d7bf
00000120: d266 af5e 6d4d d63f c2b4 8884 285d ba3f
00000130: ea49 35ac cfa0 bbbf b030 82f0 1907 cc3f
00000140: fb33 993a e262 cf3f 5038 8274 4397 d6bf
00000150: 6a51 3d13 0364 a03f 20a2 eb14 0bd9 c1bf
00000160: 0870 b533 85fd d2bf 14b9 ea90 d203 7fbf
00000170: 4a36 a33e 4acb cdbf add2 4e83 b37e af3f
00000180: d467 a492 994e c13f ab1c dee5 69f3 ce3f
00000190: dc73 857d 57fb 91bf db45 4575 3498 c33f
000001a0: 3494 c1b9 7f31 b93f 95c6 5f94 29a5 b8bf
000001b0: 46d1 3d54 0d5a ae3f 04e4 b406 5640 ba3f
000001c0: a6b7 02a9 9c36 da3f 7a2d 6faa 548d b6bf
000001d0: ec26 e942 7e0b c53f 937a 931a 4091 a4bf
000001e0: 566f a2b0 2bb1 99bf 05d9 34b0 35f9 be3f
000001f0: b548 d6e9 89e2 bebf 4d91 128c 91c6 ca3f
00000200: 656a 6c17 b0a7 da3f c7bf 9881 679f b0bf
00000210: 19b0 3a3e 7db9 a13f 86bf 75de 350c a1bf
00000220: b1a9 6dc6 a341 cbbf 2144 a5b5 8c14 bbbf
00000230: 4a60 dc34 a923 c93f 680a 56bf b536 c03f
00000240: 0bb9 3832 8525 9e3f cf59 faef a45d bbbf
00000250: 3c2e 2cf1 1931 c3bf 36f0 fa4e e620 d9bf
00000260: a73d ff1e 41d2 bf3f 3b24 5327 21ad a83f
00000270: 3b2e bd69 3c72 c73f df95 c6f4 3ff6 b83f
00000280: 1c73 c1d7 538b c8bf 377d 24f5 01b5 d43f
00000290: dda8 ca66 dfc7 b7bf 9c2b 4ae8 fd9c d2bf
000002a0: ee12 f1c6 1efa d53f e091 370f 38ad c6bf
000002b0: 6174 c06a 775e bdbf 1ef6 8d3d bd25 d13f
000002c0: 7eb6 ed7a e0ac ca3f bd82 b345 2337 ccbf
000002d0: 2c91 cd69 1668 b4bf cee0 5aba 2918 c2bf
000002e0: 9307 ba53 156b d23f d61c 0303 2314 c7bf
000002f0: 7658 ad8a 9641 c3bf 6675 d413 472c ac3f
00000300: 8417 c76c 932b ae3f 65d6 8dcf ecbc a8bf
00000310: fd8c ea70 2bad cebf f81c 4816 b015 b03f
00000320: db26 156c d8ee c5bf 20e1 9b20 4c73 bb3f
00000330: 6bc7 9708 7111 973f 36db cd0d 010e 9bbf
00000340: 5603 b3a4 8140 b8bf dc05 1eae b1b3 c53f
00000350: c043 ac60 602b c5bf 1ae5 32a8 22af 813f
00000360: 4b09 8ea6 4219 b53f d8a0 8dd0 8137 af3f
00000370: d52c 8672 8f80 b0bf cd35 ba9d 4332 b2bf
00000380: 0731 6d7a 2b9b a3bf ec01 0ca8 94d1 b83f
00000390: 491c 3885 ad4d c93f 2b16 5cc0 3653 d93f
000003a0: 4936 e734 5091 acbf 8077 b376 5c60 d13f
000003b0: d414 b127 20ca aebf d4a2 dfc5 d9d6 7b3f
000003c0: 0c13 ef04 2150 b0bf e05d b812 ff50 de3f
000003d0: 02ab 4bc4 346c a13f 02c6 21f8 e31d b03f
000003e0: b043 75da a871 923f 9762 b08f 1929 ccbf
000003f0: 1691 4948 039c b7bf ff34 7f04 f70b 993f
00000400: 75bd 8c86 c051 d6bf bb3a 873d a90a c53f
00000410: 56ce 740f 832e babf 1874 8ce3 80f8 c43f
00000420: 764c 93b5 506c c7bf 404a 956d b677 b83f
00000430: 48cb 9b22 e8b7 ccbf 306f 88c9 ed5c c73f
00000440: 6e90 ab98 7e82 dc3f b861 fcb3 b625 b33f
00000450: 51fc fa1f 0a60 9bbf 37ac 0efc 4c51 b23f
00000460: 1846 5965 9e06 c63f 71aa 127d c102 ce3f
00000470: 12b9 241b cec5 bfbf 9844 afc1 d6be 893f
00000480: 1180 bc8f 6cc3 b5bf 8385 d944 511a cc3f
00000490: 6916 1cc2 a48f 673f f221 f431 77a7 653f
000004a0: 3d05 e69f b1b3 df3f de9e 118f 58a4 d1bf
000004b0: 241a 9a7d 25a5 c9bf be76 7ad2 eb02 a8bf
000004c0: 4032 7168 8163 9c3f 4359 4e1e 4954 c0bf
000004d0: 2e95 fbf4 0f1e cdbf 3ec7 7c22 83bb d1bf
000004e0: e113 cf17 78d5 c1bf a9f7 b3c1 29ac b1bf
000004f0: e759 948c ba1e ab3f 1e89 a207 56f7 ba3f
00000500: 3215 f071 c3d0 c4bf 2168 e217 58ce d83f
00000510: 6e56 3c95 c48e b13f de09 e680 dd96 bbbf
00000520: a580 6849 a8a5 913f b5eb 40ea 3ae8 c0bf
00000530: 121f bdd2 1486 c73f 0b97 d79a 95ca c9bf
00000540: f98d fbcb bc03 99bf 9a71 d3b3 7cda a4bf
00000550: bc83 91ac 2c27 c83f b6b8 eb14 d04b 343f
00000560: 4cc2 8ad5 4f11 813f aa68 8e2d ba87 d23f
00000570: d1f1 1df2 4dea d8bf 69db 0aaa bce0 d2bf
00000580: 4cca 0344 508b d0bf f672 2989 cebf b33f
00000590: d9e1 44f1 4253 c2bf 4dd2 3c7b edc2 b43f
000005a0: b735 6eca 4924 c1bf f77a 893c 7366 c3bf
000005b0: 30f4 272e fedd bf3f 01e2 1245 fe2b a3bf
000005c0: a95a e8f4 088a b2bf 713c 5c19 a8ec d13f
000005d0: 1308 da5b 0f44 d0bf 4595 15b6 69fd aebf
000005e0: d587 f8bf 09a4 d13f 9aeb 90ab 2245 cabf
000005f0: 540c 45cb 6bd5 a03f 5f77 2ac1 7063 c0bf
00000600: 4e96 b7ea 0cc1 cabf d4bd 10f0 8fd5 c03f
00000610: bcfe ef5c 5747 cabf 492a 4c39 6107 c3bf
00000620: c7f4 e417 1a62 ae3f 0aeb 1cec edc3 c2bf
00000630: 216f 91b7 2b2d c5bf f236 8a65 1659 c3bf
00000640: d0b1 e782 87db cfbf 6a0e cd0c 13d2 ba3f
00000650: 1b85 042d cc33 9e3f 9688 ba49 59ff a73f
00000660: 3185 a4ce 5a81 903f 621f 8b49 6277 ce3f
00000670: dc33 d4f8 7c46 cebf 3249 bba4 a884 d03f
00000680: e693 c0be 573a c7bf 2fef eb7a a3a1 ae3f
00000690: d4c6 eb7e 050b c3bf f0d6 9cbb 2653 d33f
000006a0: af50 d243 afe7 c2bf e626 6f7f 8b2c c63f
000006b0: 64d1 2f65 29ab cabf f4c4 4d5b 5e04 d8bf
000006c0: e4d8 e953 e3d0 c43f 25d4 98c2 b502 d33f
000006d0: 4903 3d12 8c69 c03f d667 6bd4 3eb3 ab3f
000006e0: a08c 11a8 7a0b d83f 84cb 5a3f 7868 ccbf
000006f0: b71d 2d50 76f2 b6bf 3105 f60e c32c 533f
00000700: 0102 dd5e 5449 b73f 35f8 a0e5 184e b2bf
00000710: cc5e 7728 6488 c4bf 3406 e9bc 4b97 b23f
00000720: 0f9e b11b 799c ddbf 3254 0095 3ae9 b6bf
00000730: 9f8f 58fa 9f9c 95bf 2c39 f034 02fc d3bf
00000740: 4ebf f080 1e70 733f 0d6c a06f c660 b83f
00000750: 1aa2 cb87 fc79 9c3f f0d3 c6bb 76f5 ccbf
00000760: 5846 2a30 275f dd3f 45ce 911d 4c72 cabf
00000770: 0780 cd92 e103 bfbf 1a45 b83e 11c4 ccbf
00000780: de16 060d c40e c5bf 77ee d481 1f4c d13f
00000790: 2b05 3983 7e12 b8bf 0089 e5e1 1058 aebf
000007a0: c708 2d81 3d23 d83f eaf6 e89b 2697 b83f
000007b0: 49ca 8840 e086 c1bf 0c62 c60a a337 bcbf
000007c0: d62c 61ef 5bf5 9a3f 2812 80dc 2987 88bf
000007d0: 86eb dca8 5e8d c63f d39b b6b8 5455 d7bf
000007e0: 50b6 b78c 34db c9bf 9ea1 5984 08f7 c63f
000007f0: 0501 0c21 8a68 8d3f fcc0 0b9a 3d15 c73f

lstm.weight_hh_l0 f8 [56, 14]
0.18029473662177758 0.052294140153781 0.049116126763153474 -0.11097752549743271 -0.33254524137294617 0.07829515619784196 -0.5167709530514075 -0.06123159848080479
-0.19456010325274192 -0.314218489841612 0.2001976972750096 -0.12020758821783242 -0.1405916221833721 -0.016402823433596836 0.013529847461978663 0.1251782735080845
-0.07868470182519541 0.30115714039677727 -0.24290224578979192 -0.23047823134928677 -0.11603625282135119 0.250654258327755 -0.08563695744930763 -0.13175346672760296
-0.025243447619134503 -0.07217814400302303 0.26458282372753206 0.21570387144371722 0.08369671804289247 0.14752452903081742 0.07579422852626475 0.025630422921515312
-0.13427044195184507 0.03392670609207487 0.01851232727950736 0.18242262780784105 -0.1437044862373183 -0.11366744808855239 0.2526541350399963 0.11729576233266799
-0.026719846286851187 -0.25519792150965176 -0.0804841296334088 0.053974938938426656 -0.14199491047719343 -0.24981107105176292 0.19470601136553906 0.3206832548695035
-0.32614045003334335 -0.36090499062867254 0.08446995776977077 0.21502306069249372 0.32665781099397395 0.13784740137389298 -0.20378679052704815 0.3003799707725599
-0.10049862551593913 0.20618396505516157 -0.09172396140756678 0.3249799573761635 -0.03943078054391356 0.011371712970478634 -0.23643451979208122 -0.3066458418543264
0.017576610358280422 -0.15841506536074448 -0.006592812780849803 0.03540846320096338 0.0010518869249447978 0.030092797648034304 0.09313662123322905 0.16364507826396119
0.19929100755948614 -0.13459621505371433 0.09887940306550275 -0.029434907755388463 0.050932560431984145 0.26488149371586944 0.2731790226149543 -0.08320659717543777
0.2887872154499802 0.032102871767927296 -0.0016004989588202312 0.3577455022878697 0.1771506197839006 -0.1135599301295775 -0.11631622100470998 0.014999528295953583
-0.24732106453901903 0.039755664533696444 0.12244701567190899 0.22964126633880266 -0.16465926649787901 0.07825851926655905 0.14694755404163945 0.18767800965786355
-0.13479073057437088 -0.1265408750787351 -0.2687272812681769 0.22237583170703693 0.24817611127889966 -0.03837438475822908 -0.2181644574582949 -0.18807138810061344
-0.2935732280529339 -0.009826021843706925 0.3077287050060652 0.18211213719014552 0.08368519239855178 -0.07092932133241049 0.22065904406446007 0.06795157393972966
-0.2214041115370569 0.36738975210227226 -0.14199083293276551 -0.020903021956558538 0.07270938097453318 -0.16540942079204887 0.09366238044773971 -0.24127475767559206
-0.24261392369446422 -0.1737105698206165 0.34012441825897766 -0.058660993597347444 0.28376886818454594 -0.11525654251886802 -0.07999316448698437 0.2224510607408756
0.03625759532247537 0.05579221652457468 -0.1565073604963955 -0.060088563046152135 -0.16091927816796409 -0.2992467471270934 -0.11350691537063619 -0.23470292011370866
0.1997140073596086 0.26346090901144453 0.043174320150354814 0.16837760230414162 0.2681121432157223 -0.07531726652399408 -0.2677061368858321 -0.041740028252526824
-0.03788659489975747 -0.05477076131287789 0.20305271897629684 0.21303919115163533 0.07692494189820737 0.12072122920300266 -0.19627498859961312 0.1349976306689976
-0.002770874173963921 0.009173261710225806 -0.0768110818020765 -0.18221005285505193 0.00041961594989324883 -0.16899012242125394 0.024759020896010328 -0.21303318776342617
0.08365016729125084 -0.08795162505058629 0.012254953344840268 -0.03225452060293203 -0.06880602756746043 0.0020200958612895696 -0.13798656546958313 0.12651066300600364
-0.10318114554738418 0.007510634965665633 -0.09080105846798593 0.20635997953685492 -0.062206849683866576 -0.3136642955621486 0.05452735339930212 -0.1496949915991958
0.07678029856416813 -0.006540576411048225 -0.11020655523925496 0.05056698159917832 0.16976000115881962 -0.15494733616730358 -0.07369704435708331 0.00019809114442819722
-0.37304893297685393 0.18873142876041557 -0.2225566363479042 -0.1545356327857073 -0.26215485931415516 0.13272828992323135 -0.12837833448539265 -0.05261016466118611
0.033467302750343715 0.16981673170058123 -0.29254261632337014 -0.015717982300288275 0.14020271197073636 -0.3297248787234032 -0.11792068938682956 0.030434693569135588
-0.11934197837895869 0.14218838891770516 0.21775806249694798 -0.1564269208396292 0.027315455316868267 0.12685432591314932 -0.014908004058814794 0.22905343321073793
-0.2526658885270299 0.01193171882224815 -0.03228642517205232 -0.18443643959452014 0.003103597481234892 -0.2808544717268574 0.06485832133535445 0.06988835506388047
0.09091632530899542 0.11104745920092311 0.10839669251253538 -0.06585578637012851 0.0968051567274439 -0.1550334933691619 0.2847381400802864 -0.2466092726625437
-0.0702171199556539 0.15979203298782554 -0.09489889690940809 0.11569719871077268 0.07814171179008085 0.12175505900624341 -0.15022020486866855 -0.11681041378769566
0.002939844817106683 0.16130329138324037 -0.07423108818459957 -0.09673890004061729 -0.08217059348770397 -0.05270742744678921 -0.2726044241413294 -0.1554382883712882
0.011134238938456545 0.025186453354311054 0.03718560927205021 0.17759208396639603 0.06835307515498018 -0.08047087116991615 -0.05844045670337492 0.0371638647908247
0.007480837943300869 0.06944527870960646 0.008325169726348237 0.04326695352520833 0.018985627181366354 -0.13698730317773583 0.17289952131961908 0.0881687380054997
00000000: 5a3a b7de e513 c73f 9342 772b 4cc6 aa3f
00000010: 81d0 4ebc bf25 a93f 1b3c 9aea 0569 bcbf
00000020: 60c8 08d6 6b48 d5bf bd10 4ebf 260b b43f
00000030: 0e1d dc3c 6389 e0bf 89e9 e981 bf59 afbf
00000040: 2ed8 4970 58e7 c8bf 4fc4 6ade 271c d4bf
00000050: 25ed 4301 14a0 c93f 826a 20ac ecc5 bebf
00000060: 0141 af01 e8fe c1bf b062 d6d8 e6cb 90bf
00000070: 61d9 f362 89b5 8b3f 1b88 7177 d705 c03f
00000080: cae3 083d ae24 b4bf a981 3d99 2846 d33f
00000090: dc63 e5b8 6b17 cfbf d7e4 0a89 4f80 cdbf
000000a0: 9ea1 0447 8db4 bdbf e6bb 8728 b80a d03f
000000b0: 4edf 92bb 4dec b5bf 1e66 5d2f 4cdd c0bf
000000c0: 3292 d917 6bd9 99bf 489d fa4f 447a b2bf
000000d0: ac8e bfcb ecee d03f 5255 bc38 2f9c cb3f
000000e0: 80d9 c6ea 256d b53f eac7 c571 15e2 c23f
000000f0: 82f0 be24 4067 b33f 2517 ec90 dc3e 9a3f
00000100: 8a56 801a c62f c1bf 17c0 405a d75e a13f
00000110: 810d f440 e5f4 923f 5d16 3eea 9f59 c73f
00000120: fac0 569a e864 c2bf fcfc 2854 4f19 bdbf
00000130: 798a cc3f 7c2b d03f 5d9e 2d57 1807 be3f
00000140: fc1e d387 725c 9bbf 4308 b9a9 2955 d0bf
00000150: 295d 9fa0 9b9a b4bf 7299 166b 9aa2 ab3f
00000160: da57 59a4 e32c c2bf 804b 2c26 cff9 cfbf
00000170: ea25 9367 20ec c83f b784 020f 1386 d43f
00000180: 8cf0 b231 7cdf d4bf 48a7 ed3e 1119 d7bf
00000190: 539c 1dba d29f b53f d2b0 c72a e085 cb3f
000001a0: acee cc29 f6e7 d43f 7da6 5ed0 fba4 c13f
000001b0: 1bd2 5580 af15 cabf 75dc b5e9 6c39 d33f
000001c0: e847 e225 47ba b9bf 288e 6f75 3c64 ca3f
000001d0: f84b 81b6 387b b7bf 664f 32bc 78cc d43f
000001e0: 1da2 c871 4530 a4bf e82d 767a 0d4a 873f
000001f0: 9983 1381 7c43 cebf 82ff 8de1 15a0 d3bf
00000200: 0745 a75a 9aff 913f 4d84 75e2 f146 c4bf
00000210: 9eb6 84b4 1001 7bbf 9346 e6de 0e21 a23f
00000220: 2745 45fc ee3b 513f c24b f976 a5d0 9e3f
00000230: 56b4 4136 cdd7 b73f fac4 a569 52f2 c43f
00000240: c46c ed23 5e82 c93f 5819 e9e2 723a c1bf
00000250: f411 6a1a 2950 b93f 1a41 ae38 2f24 9ebf
00000260: a2bd b622 d513 aa3f 88d1 3482 d1f3 d03f
00000270: 0268 05de c37b d13f 4811 ae0d 074d b5bf
00000280: 9813 775f 7d7b d23f 06ad b3a0 c96f a03f
00000290: a4d6 ddab fa38 5abf 0485 2764 4de5 d63f
000002a0: d90f 381b dfac c63f 8de6 0a7a 4312 bdbf
000002b0: 42a4 355d e6c6 bdbf e272 e49b 12b8 8e3f
000002c0: 844b e775 37a8 cfbf b885 01be da5a a43f
000002d0: eabb cd07 b058 bf3f 045c 5e90 e264 cd3f
000002e0: 19be 4b0a 8e13 c5bf 221d e214 c008 b43f
000002f0: 2a03 6b6d 2dcf c23f b556 d440 d505 c83f
00000300: ad78 cf99 d240 c1bf 7f02 09cc 7d32 c0bf
00000310: 80bf 25e9 d332 d1bf 7d1f 4dae cf76 cc3f
00000320: bab0 cb1c 3cc4 cf3f 91d8 14af cea5 a3bf
00000330: 3b6b f71c d0ec cbbf 754c 9a26 b912 c8bf
00000340: ebfb 5d5d e7c9 d2bf 6e7e bf53 aa1f 84bf
00000350: a2a7 02bd d3b1 d33f 00da b754 734f c73f
00000360: 21e1 828c 646c b53f e13e 738b 6c28 b2bf
00000370: c267 e938 8e3e cc3f d369 c83b 4665 b13f
00000380: 4a34 204d f856 ccbf 318c 8a4e 5083 d73f
00000390: 6996 e36f c12c c2bf 9592 c30e 9a67 95bf
000003a0: f1e4 65fd 149d b23f 8746 60ca 222c c5bf
000003b0: 2378 e3fc 41fa b73f 3993 c85c 17e2 cebf
000003c0: 1836 e919 f90d cfbf 68ae 2ce0 253c c6bf
000003d0: ca92 3f35 99c4 d53f a05a 1a52 d008 aebf
000003e0: 926f 1ee6 4429 d23f 1cc1 c4e8 7381 bdbf
000003f0: 9a09 6099 6e7a b4bf 57d9 6bbf 4679 cc3f
00000400: 4a84 4804 5b90 a23f 1255 b022 cc90 ac3f
00000410: 9528 75e5 6e08 c4bf ea30 4b9a edc3 aebf
00000420: a27f 83be 0099 c4bf 8c18 16d4 db26 d3bf
00000430: 3900 6309 ca0e bdbf 8d00 15cb be0a cebf
00000440: ced0 1485 3a90 c93f 27a1 fe24 8bdc d03f
00000450: 0e47 25ca f11a a63f 2e39 a3b3 658d c53f
00000460: 6068 b1d5 bf28 d13f 816f 8b0c fe47 b3bf
00000470: d23d b7eb 1822 d1bf 39b4 8ef0 f25e a5bf
00000480: 963e 1a2c df65 a3bf 684e 3bc9 e90a acbf
00000490: 44fc aea9 a1fd c93f c69b 6143 de44 cb3f
000004a0: 7c12 b35d 5ab1 b33f f01c 5c23 96e7 be3f
000004b0: 3070 87f0 891f c9bf eb62 6134 9a47 c13f
000004c0: e414 acbe f1b2 66bf 7d34 5858 6ec9 823f
000004d0: c76f 4f1c e4a9 b3bf 92e7 01b5 a852 c7bf
000004e0: 3c9f 1bc8 fc7f 3b3f aeba 92e4 77a1 c5bf
000004f0: 9c0c 1ec4 6d5a 993f 9809 34e7 ab44 cbbf
00000500: 4f23 d2ec 186a b53f 20ea 3869 ff83 b6bf
00000510: b908 a4fe 1f19 893f 5687 461e aa83 a0bf
00000520: ae7f 2b96 459d b1bf c6b8 16b5 728c 603f
00000530: 2957 fd34 8ba9 c1bf 4360 1a5c 8031 c03f
00000540: c598 b05d 146a babf 90af cbb8 78c3 7e3f
00000550: 41eb 8ff8 bc3e b7bf d831 a8f9 006a ca3f
00000560: 3f73 f581 93d9 afbf 0630 d768 1313 d4bf
00000570: 8cc4 2c5f 02eb ab3f be92 a59a 3429 c3bf
00000580: 706a 4fa7 dfa7 b33f 0be1 849c 4aca 7abf
00000590: eab2 8e2e 7f36 bcbf c7a9 7358 eae3 a93f
000005a0: d8b1 921a b2ba c53f fb6e b876 50d5 c3bf
000005b0: 3556 533b cfdd b2bf 2c07 51f9 d5f6 293f
000005c0: c25e bca1 08e0 d7bf 676d 20f9 5928 c83f
000005d0: 239e 4f61 bc7c ccbf bacd 70d8 d2c7 c3bf
000005e0: 4879 cf2c 25c7 d0bf 5fb5 3c98 3dfd c03f
000005f0: 5a9a 1086 b36e c0bf 465e 5031 b8ef aabf
00000600: f19a 9855 a022 a13f 69da 7bfe 8dbc c53f
00000610: bfe3 72aa 04b9 d2bf 9560 c1ef 5f18 90bf
00000620: eac6 5c97 29f2 c13f 73da b260 361a d5bf
00000630: 5a2e 70e0 0c30 bebf 9141 2cb6 452a 9f3f
00000640: 0275 2d26 328d bebf 61e0 22a8 3a33 c23f
00000650: 01af 6e06 7fdf cb3f 212f 9c1e cc05 c4bf
00000660: d791 0b2d 95f8 9b3f d698 9336 c33c c03f
00000670: 13ca 0c6f 1688 8ebf 219c 5676 9f51 cd3f
00000680: bd74 028c ad2b d0bf 2753 0331 a86f 883f
00000690: 87fb 6fa8 d887 a0bf efe3 1ffe 9c9b c7bf
000006a0: f0ba d135 b76c 693f 3224 c008 85f9 d1bf
000006b0: 2341 0211 8e9a b03f d0df 5e07 34e4 b13f
000006c0: e9e7 dfd3 4a46 b73f 5b65 9235 9b6d bc3f
000006d0: 09fe 55b9 e2bf bb3f dc49 b6c0 ecdb b0bf
000006e0: ad80 3a06 39c8 b83f 3e10 e733 23d8 c3bf
000006f0: 8865 e451 2639 d23f a7ec 7c84 e490 cfbf
00000700: 052f d4c9 bff9 b1bf 490a ecb9 1074 c43f
00000710: 9602 a74a 4b4b b8bf e19a b3e4 549e bd3f
00000720: cd83 9760 1801 b43f e9ea 8dec 562b bf3f
00000730: 3aff 8d69 6a3a c3bf bae5 0c8b 49e7 bdbf
00000740: 7c81 082b 4d15 683f df34 9d14 96a5 c43f
00000750: d16e 1900 cf00 b3bf 3beb ec6b e1c3 b8bf
00000760: 42fc b8cb 2109 b5bf 2bcf 47ca 77fc aabf
00000770: 9fa4 9bd3 5972 d1bf 4aea 8cde 66e5 c3bf
00000780: 7b27 da40 8ccd 863f e902 d645 7aca 993f
00000790: c61b 69ff fd09 a33f 1803 5560 56bb c63f
000007a0: c425 5f4e 967f b13f 5996 f42f bd99 b4bf
000007b0: 1dcd 9b54 e8eb adbf b436 bd5f 2407 a33f
000007c0: dcac 0225 3aa4 7e3f 7e5b eb70 2ac7 b13f
000007d0: 07a1 aa5d c90c 813f 1ad2 c60c 1627 a63f
000007e0: 2b21 5adf f770 933f 62cc 8ec9 cc88 c1bf
000007f0: ade9 c74e 9221 c63f f561 43f6 3992 b63f

lstm.bias_ih_l0 f8 [56]
0.18351718779024298 -0.03067645784751057 -0.10910083876719633 0.05336976807249134 -0.1816519382092833 0.2291580916900296 -0.11974108496732169 0.08490212697293271
0.2543370672612006 0.2174733329802043 0.2913909378419458 0.2368803926824731 -0.05462206796046594 0.15966300838258196 -0.19861994529117047 0.08070567187803258
-0.09676771181461301 -0.13789069988698308 -0.22144819254982348 0.0061252918817640955 -0.17124344388546794 -0.19527991527518296 0.028908650980921206 -0.00011466099666814991
-0.09983742232991633 -0.19333297618338877 0.006748695337502128 -0.061557678989352924 0.09291982592399718 0.07781979933024019 -0.1293070063552309 0.12587053419261543
-0.09415678505834989 -0.2563888799960605 0.07184775554673123 0.04887023234576587 -0.12711705336380885 -0.21861962246287667 -0.272924280475394 -0.19117529748816525
0.04221591198927001 -0.08591397427203194 0.21837423561461056 -0.05785679869292167 0.08792255364629663 -0.28604609284766647 0.10243470261659975 0.18883248106964395
0.06504606163069347 0.22754671240371907 0.10502910252377977 0.23203745065761017 0.31688715814757057 0.2897281991067341 0.0013566294056500951 0.07939511841963433
00000000: dd0f e8bf 7d7d c73f d545 d93c a669 9fbf
00000010: 9fa5 7856 08ee bbbf 39d3 ee40 4853 ab3f
00000020: c593 eee6 5e40 c7bf ba12 b666 0d55 cd3f
00000030: 8e15 ec0b 5aa7 bebf 65a7 b552 25bc b53f
00000040: bf08 83fa 0e47 d03f df77 738a 2ad6 cb3f
00000050: 7a71 182d 26a6 d23f 1543 d1c1 1852 ce3f
00000060: 0a68 0f77 6cf7 abbf 442c b163 d66f c43f
00000070: fdef addc 606c c9bf 115f 517d 20a9 b43f
00000080: ab71 8dcd c4c5 b8bf 4ff4 3707 67a6 c1bf
00000090: 3741 6114 6a58 ccbf 4e58 f884 d516 793f
000000a0: 4f3d 921f 4eeb c5bf 8016 d6a8 eefe c8bf
000000b0: 1e5d 23ba 3a9a 9d3f 0427 5bec c40e 1ebf
000000c0: 20ed d2ff f18e b9bf 9516 f98c 22bf c8bf
000000d0: 966b 3e1c 85a4 7b3f 4e64 27f4 7c84 afbf
000000e0: 515b 7efd 97c9 b73f 48cb 1a95 ffeb b33f
000000f0: a23d b8c9 218d c0bf 2194 f191 861c c03f
00000100: 47a9 85b8 a81a b8bf 9408 a9e7 ac68 d0bf
00000110: 143d 5d50 9d64 b23f 9791 58e3 8405 a93f
00000120: a810 7b21 5f45 c0bf 4ff7 5e50 bafb cbbf
00000130: 0546 bb66 9777 d1bf 06e3 41a1 6e78 c8bf
00000140: c2bd baf2 529d a53f 178c c44d 75fe b5bf
00000150: e87a 20dc aff3 cb3f 7b86 7904 689f adbf
00000160: bfdc 7dac 1782 b63f c479 7b45 944e d2bf
00000170: 63ba b621 2939 ba3f b6ee 4ea9 a92b c83f
00000180: 57fb 6fd3 dba6 b03f 950b 0b2c 4020 cd3f
00000190: 03c6 77f0 2fe3 ba3f 68c5 0237 67b3 cd3f
000001a0: 5909 3113 e147 d43f 121d f924 e88a d23f
000001b0: 8116 86bb 1d3a 563f 590a 130d 3d53 b43f

lstm.bias_hh_l0 f8 [56]
0.08612024779733846 0.11712799612149107 -0.19976559804549368 -0.3752476795421787 0.15630013917948013 -0.011329334829364117 0.20554224869185017 0.1383039249828054
-0.025953640684623223 -0.06825318445868414 -0.002043950282520034 -0.13801005398042973 0.21897861465576784 0.12180523746278206 -0.2030948087011665 -0.2814158207462502
0.05370184463623073 -0.13901976087064094 -0.2878520881663555 -0.21060643524149647 0.000801459154464039 -0.0770840089937115 -0.12766021896746588 -0.027043950099222534
0.15756358210371546 -0.045884570559952875 -0.14824018958833995 -0.30622996251958823 -0.024836361991804733 -0.06765622899293346 0.04327138805776337 0.1444248640647467
-0.10177248542246274 -0.06014323947977885 -0.0837658903644854 0.2701069977304398 0.253594949151984 0.02630322409283307 0.09008120863555286 -0.16105325578589474
-0.05682468568796095 0.2044260618817612 -0.22553758503549004 0.16432163067223657 -0.1152891115072068 -0.19967480514415223 0.13604731152620703 0.3188661827278921
0.013063018079248546 0.31815578604263506 -0.16540965799524773 0.18548225937915255 0.37094693183111854 -0.14795076383920447 -0.1979679486411486 -0.2370033233718999
00000000: c41f d0ff f90b b63f 81ae c9b0 19fc bd3f
00000010: cd52 3c4b eb91 c9bf 9d25 e2d7 0e04 d8bf
00000020: 3b6c 1199 a401 c43f e9d3 9e94 d533 87bf
00000030: 32f5 095a 354f ca3f bbd3 5a69 f1b3 c13f
00000040: 3974 cf57 9793 9abf 3a10 196b 0a79 b1bf
00000050: 1742 c773 79be 60bf ebbc 2e3e 50aa c1bf
00000060: fc25 3cc2 7d07 cc3f 8158 62c7 a02e bf3f
00000070: fdef adbc 02ff c9bf 3ba8 ab80 b702 d2bf
00000080: a01c e5e4 ce7e ab3f 50f4 3747 66cb c1bf
00000090: a7a0 302a 2b6c d2bf 403d d8d3 26f5 cabf
000000a0: 5aa7 c26d 2043 4a3f f12c ac11 c7bb b3bf
000000b0: 5a94 bb88 2b57 c0bf 395b ecc4 68b1 9bbf
000000c0: 6c89 1620 0b2b c43f 605a e4b3 2e7e a7bf
000000d0: 9c0c 1ed7 88f9 c2bf 8aec 848e 4599 d3bf
000000e0: a392 060a b46e 99bf c134 e52a eb51 b1bf
000000f0: 6809 1fd9 aa27 a63f 1e94 f191 837c c23f
00000100: 47a9 85f8 c20d babf 5144 483d 18cb aebf
00000110: e4c2 a26f ae71 b5bf 3012 6bdc 6e49 d13f
00000120: ac77 424f e63a d03f 6b45 087d 3bef 9a3f
00000130: fce7 12e5 8f0f b73f 06e3 41a1 649d c4bf
00000140: 5042 450d 2018 adbf eeb9 1d19 a22a ca3f
00000150: 1485 df63 6ade ccbf 679e e1be 7d08 c53f
00000160: 4223 8253 9683 bdbf 83f3 f6aa f18e c9bf
00000170: 3e5d db90 ff69 c13f 4d77 a7b4 4d68 d43f
00000180: e7da 7f9b c8c0 8a3f ca85 0516 aa5c d43f
00000190: f71c c4c7 242c c5bf 69c5 02f7 e1bd c73f
000001a0: 5909 3133 98bd d73f ecc5 0df6 0cf0 c2bf
000001b0: d3f3 8884 0357 c9bf cc7a 76f9 1f56 cebf

lstm.weight_ih_l1 f8 [56, 14]
0.2295143110960195 0.010473276546563208 0.12081581027232892 0.2034670611104133 -0.22913977099588537 -0.3300835208635334 -0.3828661965190815 -0.18206486620846699
-0.4903357615239662 -0.16423568658830318 0.22118777861778569 0.01021781283430063 -0.21907864134887178 0.10495777515795436 0.1315073618953268 -0.24886964509679596
-0.20890727069335216 0.3134966844413234 -0.02774774340817462 -0.24794999921211922 -0.30722976588463263 -0.28300137875516523 -0.04565781741540192 -0.0033857750825021194
-0.0693237385273083 0.06531429958963081 -0.053646282495664895 0.011458263028914456 0.23653154016067185 -0.18580500431438465 -0.013084194566857773 -0.035471337232901065
0.08922666949229961 -0.390854777715826 -0.033680822569618137 -0.060155738531145087 -0.13557823046186646 0.14332281943775815 0.04220047961844558 0.10932116054646039
-0.05431030589145864 -0.1391692696770064 0.0032946312249015675 -0.08952680512991738 -0.13820050508296158 0.2874437612017616 -0.21770648380562338 -0.19052217525834586
-0.37551274898468057 -0.20673095426661636 0.0711511186972242 0.05935694467683199 0.25707777943676485 0.05409478840066843 0.07603380523591184 0.2317679944837756
0.1530345855196058 -0.009294576435258928 0.14465608281381642 -0.16779942002448062 -0.03382058529372419 0.003200664319264922 -0.18098969693642208 0.0911747206826201
0.06969378728613931 -0.23832744349709062 0.05957496934987436 -0.18174390272436128 0.008992373151169313 -0.10553639057577886 -0.007798356865534192 -0.10460604412394782
0.11204482984775936 -0.09196084984765487 -0.24724039335367853 0.3341613715197965 0.13943783713687435 0.3293878534343766 0.32056503148166016 -0.2622422120728372
0.42818449096350997 -0.11193005348479372 -0.047815540855022265 0.2844630055977518 -0.00200186905356893 0.06328642655755921 -0.09781216542153821 0.18365260448429438
-0.11547538503501042 -0.017875888039499143 0.18153439322189596 0.08939133754711073 -0.3673863184448449 -0.1610123299567283 0.23313730776994945 0.09534795930258289
-0.26176619209442564 0.07645177364084882 0.14231079316997222 0.02297318965208152 0.0413447411480826 0.15511828980060122 -0.1866541041915668 0.1555738143576966
0.035958832065563176 0.20872544674708648 0.026269433309762728 0.09300718871976137 0.001773154026709947 -0.22144748622595836 -0.008979502473436735 -0.08733955794424039
-0.2441831550370171 0.21475029485483627 0.3395778147129284 0.1654153148389165 -0.3274644296950731 0.3631463211220624 -0.04645705801047833 0.0021862432352001554
0.11030321444267727 -0.24384087747512426 0.2651843308459791 -0.18787524369640998 0.314795397770474 -0.10233285051542307 0.19640859642697253 0.00902329688251422
-0.2139738025641012 0.36912151568178014 -0.2451093685866161 -0.19688679046552104 -0.13197201804373115 -0.17185615111555175 -0.23834148223186216 -0.15502685269870217
0.2641982361774221 0.2655996125319856 -0.26617396500770446 0.27054505262339007 -0.13858909753045898 0.24775265700452662 -0.1694678811359497 0.0311295961594978
-0.4124562471670895 -0.28106623445077267 -0.2308288238718149 0.09652162727505034 -0.19340174591980697 -0.1651583772932543 0.3705101564152687 0.05821879026475489
0.13170886840131468 0.12296228332092418 0.26690568022398314 0.09510846645854354 -0.20137694717013796 -0.09494185646409546 0.2381759454209178 -0.24565563449640335
-0.2330229980000104 -0.3593692624494478 -0.536554416038889 0.5240050569416 -0.06137448402357363 -0.037982444388322135 0.04028649727423402 -0.20925304905011485
-0.0986778537790495 -0.12224974813099797 -0.22390521835179863 -0.09014937550595771 0.023907609630276303 -0.22329347101277797 0.009526165381759774 -0.021264470872651098
-0.2835073018406169 0.24985911679991502 0.3327180186081424 -0.034733344283987486 -0.2398685888510671 -0.2388979256196576 0.3016540589698657 0.2558828984238512
-0.34359088477469785 0.363495493621761 -0.3565279312781314 -0.317922987302611 0.01811923293105258 -0.25147141870013123 -0.23925408894795533 -0.023373829244839186
0.0175971360194648 0.32553417452647276 0.01641227781734875 -0.042886227599488146 0.2301565126799304 0.020011733965030063 -0.07454441798632216 0.12464864819275319
-0.057693124095467105 0.027490612053282924 -0.3530198216663692 0.17285881447114748 -0.1104093535716701 -0.15608673862479064 -0.15582661855867697 0.2687116078898133
-0.08396831891744484 -0.06372912619352748 -0.0335699774697354 0.14715634995853358 0.1752324631594538 -0.16718844374781489 -0.14052725282703077 0.047131035326159136
-0.1201362260051864 -0.1823334452823061 0.05121252706320699 0.08412591209679303 -0.29637608782677616 0.2494298760838702 0.01742421327935229 -0.251930027560259
0.19345050582705425 0.037305945019549355 0.27072620806768144 0.1034749417998979 -0.22660367841370788 0.252533470130559 -0.06597596741435062 0.33827319714604537
0.14384396101106356 0.12656436306798363 -0.014708128805664874 0.09632337529059984 -0.12096769202884178 -0.05089126838193712 -0.22376764501486165 -0.08745671780118144
0.10048325657690221 0.22165109526198606 -0.05404350018505269 -0.26773246875331674 -0.3915298249572403 -0.25947769560809864 -0.3061248511271196 0.11038408846106681
-0.018722042644202953 0.09125925846941596 0.030684631023703952 -0.025664688505068388 -0.3776854768410274 0.06334433449241426 0.0649716038647637 -0.26383373334821986
00000000: 2c89 0f96 b960 cd3f 1ce1 fe61 0373 853f
00000010: d19a f5f1 c8ed be3f 9a27 a46a 350b ca3f
00000020: f1f3 51b7 7354 cdbf 99ac c3a1 1620 d5bf
00000030: 7ac6 3238 e180 d8bf 79d8 0ecb e64d c7bf
00000040: 0a80 f33e a961 dfbf 9ece 5dcb ac05 c5bf
00000050: 7b19 b891 e14f cc3f e504 ae9f 13ed 843f
00000060: ec39 ecd7 c40a ccbf 79ab c343 83de ba3f
00000070: 7607 43b5 3bd5 c03f ef34 54e5 f5da cfbf
00000080: 0125 c333 79bd cabf 581d c565 5410 d43f
00000090: d754 e789 e769 9cbf 3763 d458 d3bc cfbf
000000a0: 5143 3509 a7a9 d3bf 6b7c 9ed0 b11c d2bf
000000b0: 4737 3621 7660 a7bf b6d9 0728 7cbc 6bbf
000000c0: b6ad cf55 33bf b1bf 24d8 b21c 70b8 b03f
000000d0: 19e1 bd89 8677 abbf 2342 d307 6e77 873f
000000e0: 5a36 bb5e aa46 ce3f 6151 7b58 75c8 c7bf
000000f0: debf 12de e2cb 8abf 4ead b892 4c29 a2bf
00000100: 6f82 661b 8fd7 b63f b096 f1c1 c303 d9bf
00000110: 01b6 e0de 9c3e a1bf c0e4 50a3 bbcc aebf
00000120: e80e f1a0 a05a c1bf 44ba 20f3 6658 c23f
00000130: f768 ac1f 4d9b a53f d3cc 4eb9 78fc bb3f
00000140: d975 4777 8fce abbf 317b ef72 4cd0 c1bf
00000150: cd6b a0ab 57fd 6a3f effa 258c 3aeb b6bf
00000160: c19d cfdc 8db0 c1bf 4e40 7384 7a65 d23f
00000170: 5341 095a cedd cbbf 36dd f2d7 0763 c8bf
00000180: 58b2 07a0 6608 d8bf c4af d2ef 2876 cabf
00000190: 4dde e0af f536 b23f f6dd 5a90 0864 ae3f
000001a0: a363 cd5b f673 d03f 053c 21e6 4fb2 ab3f
000001b0: d7f0 e092 f376 b33f 189e 48da 92aa cd3f
000001c0: f857 fb25 a396 c33f 5a8f 8eee 0809 83bf
000001d0: da28 6d2c 1784 c23f 227e a58e 737a c5bf
000001e0: 8b47 8987 ee50 a1bf 1777 7492 4738 6a3f
000001f0: 0ca0 a09e ab2a c7bf 0fc5 8dfb 3957 b73f
00000200: 7adb 20b9 73d7 b13f e296 c77f 8381 cebf
00000210: dc2b 0942 9c80 ae3f a969 395b 6243 c7bf
00000220: 4917 c8e4 976a 823f 0d94 0fd2 6e04 bbbf
00000230: f039 337b 2bf1 7fbf 11ee 7932 76c7 babf
00000240: 7bcb e14f f8ae bc3f caa8 9b0a bf8a b7bf
00000250: 0c24 dabd 92a5 cfbf e6e5 9060 e662 d53f
00000260: faf6 295b 19d9 c13f 88d1 8cca b014 d53f
00000270: c01d 9d31 2384 d43f 31f2 1e8f 93c8 d0bf
00000280: 84ee 55ec 5f67 db3f cb1e 28af 72a7 bcbf
00000290: a0fd 6c50 477b a8bf 99b5 7d52 a434 d23f
000002a0: 1fe3 b543 3966 60bf 9f6d 580c 8a33 b03f
000002b0: 4dee a2d3 370a b9bf 0aea 0ab5 ed81 c73f
000002c0: 98e7 377a cb8f bdbf 4301 118a 0e4e 92bf
000002d0: 1e5e fedc 843c c73f 627f 4fc7 59e2 b63f
000002e0: 17fb ade7 4183 d7bf 475d b551 0d9c c4bf
000002f0: c8b9 2c7c 71d7 cd3f 18e7 f14e b968 b83f
00000300: e49d 8ffc c6c0 d0bf 4436 82eb 5792 b33f
00000310: 7534 4475 3d37 c23f 8444 f6a8 4886 973f
00000320: 4d69 2f4e 232b a53f 823e da86 eada c33f
00000330: d05e 951c 48e4 c7bf 49e0 63be d7e9 c33f
00000340: 92a9 722f 3269 a23f b894 cff3 83b7 ca3f
00000350: 61ae ccd3 5fe6 9a3f 6b22 d8b1 51cf b73f
00000360: a625 8da3 250d 5d3f 799a 8f27 6458 ccbf
00000370: 107f a96b d863 82bf 0e82 04a1 e25b b6bf
00000380: 721d 8fc4 6441 cfbf c69b 9a0a f07c cb3f
00000390: 3fe8 2896 a4bb d53f edce be3b 542c c53f
000003a0: 3d31 095e 2df5 d4bf 3b72 3811 ca3d d73f
000003b0: f791 a531 38c9 a7bf 60f9 4766 e2e8 613f
000003c0: 14cb acda d43c bc3f 4380 1789 2d36 cfbf
000003d0: b749 19b3 c7f8 d03f e9b9 b3c5 4b0c c8bf
000003e0: 77c0 9698 9b25 d43f c02b 4556 7c32 babf
000003f0: 5d4f 27b9 ea23 c93f 3398 1968 ce7a 823f
00000400: 7256 1b5a 7e63 cbbf c79a 86d9 af9f d73f
00000410: afe8 0269 be5f cfbf 2c2b 081b 9633 c9bf
00000420: c012 be86 75e4 c0bf 7430 54e2 61ff c5bf
00000430: 51a6 bb43 f981 cebf bfde 2b7f ebd7 c3bf
00000440: 12bf 02b8 9fe8 d03f faed 6984 95ff d03f
00000450: a54d b086 fe08 d1bf fb2b 4732 9c50 d13f
00000460: 63dc bc9c 49bd c1bf 2370 aaeb 5bb6 cf3f
00000470: d5c4 999f 1fb1 c5bf 145b c5d5 6fe0 9f3f
00000480: 4644 27e3 ae65 dabf c175 3e3b fdfc d1bf
00000490: 9b75 c084 cc8b cdbf 6ac7 8030 a4b5 b83f
000004a0: f080 db6e 63c1 c8bf 3f46 91e2 e823 c5bf
000004b0: 51ec 283b 70b6 d73f e64c 6670 dace ad3f
000004c0: 743b 3011 d6db c03f 383e 81c9 747a bf3f
000004d0: dd6e eb8f fb14 d13f c01c 0349 0759 b83f
000004e0: cbcc 2145 b8c6 c9bf b7e9 8808 1c4e b8bf
000004f0: a86b 23a4 8c7c ce3f 47be 1ed2 a471 cfbf
00000500: 151e d095 b2d3 cdbf fc1c 5aef e7ff d6bf
00000510: 3d2a ad2a 742b e1bf db16 d040 a6c4 e03f
00000520: d557 61f3 796c afbf 85a1 f058 6f72 a3bf
00000530: dbc5 8688 6ea0 a43f 6b17 21cd cdc8 cabf
00000540: 7a0b d2aa f342 b9bf 37b8 2a6e c24b bfbf
00000550: 6fc3 1c1b eda8 ccbf a18b 8d8b 0714 b7bf
00000560: e945 f385 3c7b 983f 9c81 b465 e194 ccbf
00000570: 85e5 2a46 7482 833f 90ef db7b 5ac6 95bf
00000580: 244a 65cf fb24 d2bf 94ac a12f 62fb cf3f
00000590: 9f8f 2d84 404b d53f 2695 8fa3 91c8 a1bf
000005a0: 04fc 3990 03b4 cebf 9330 cf0c 3594 cebf
000005b0: 73cc 7ed3 4c4e d33f 2b83 15aa 6260 d03f
000005c0: f1e7 539f 64fd d5bf 6553 569a 8243 d73f
000005d0: 9ace 3c87 5ad1 d6bf 2720 47a8 d958 d4bf
000005e0: e84b 7823 d98d 923f c487 cc93 1b18 d0bf
000005f0: 799d bbc3 e09f cebf d767 c120 4fef 97bf
00000600: 67d4 d3ce fb04 923f 6394 544a 8dd5 d43f
00000610: 39dc e951 61ce 903f a32b fa01 2ff5 a5bf
00000620: 9bfa 75c3 c475 cd3f b90a aabb f47d 943f
00000630: 70c1 59cd 5715 b3bf f57d 7a4b f9e8 bf3f
00000640: 2e61 6302 f489 adbf f60d ddbe 7f26 9c3f
00000650: 4d65 3973 e097 d6bf ec4c 7dd5 3c20 c63f
00000660: 6d48 c392 c943 bcbf 99cb dd76 a6fa c3bf
00000670: f023 476b 20f2 c3bf 084f fc2b 9232 d13f
00000680: b988 a69f f27e b5bf 9bc9 cd50 8d50 b0bf
00000690: 094e b886 1530 a1bf b13d 3cef 04d6 c23f
000006a0: 12d3 3b71 046e c63f 823f 1551 6e66 c5bf
000006b0: 7a5e 8b09 ccfc c1bf 7f77 b41e 8f21 a83f
000006c0: f3d3 c169 3fc1 bebf 642d 3acc b356 c7bf
000006d0: 0e94 c341 8738 aa3f 83af 3399 4689 b53f
000006e0: 4a13 2269 d3f7 d2bf 9778 3674 51ed cf3f
000006f0: c1fc c528 a7d7 913f b51b 501f 9f1f d0bf
00000700: 5cff f575 fcc2 c83f 5655 9ccb c319 a33f
00000710: b687 7404 9453 d13f bf6e fc72 557d ba3f
00000720: b457 f86d 5901 cdbf 0fcb d624 8229 d03f
00000730: 57d9 5d0e cde3 b0bf 91c2 b69f 44a6 d53f
00000740: d082 229a 7a69 c23f daa7 1bd4 4233 c03f
00000750: cb3e a5a1 4b1f 8ebf 5ea5 b612 a6a8 b83f
00000760: 0cf0 2219 bdf7 bebf fd6a b49a 6b0e aabf
00000770: 43f2 9e0e 6ba4 ccbf f685 c53e 9063 b6bf
00000780: 6c1a cb4c 45b9 b93f 76eb a226 105f cc3f
00000790: 145c b6f3 96ab abbf 91dc 575d 8722 d1bf
000007a0: 9c65 661c d30e d9bf 1068 2b56 489b d0bf
000007b0: c25d 05b0 8c97 d3bf c665 f0b1 2142 bc3f
000007c0: bd13 7c03 df2b 93bf 9856 954a c45c b73f
000007d0: 9250 f2ba ca6b 9f3f 7649 2a17 d847 9abf
000007e0: 4c35 cdb4 ff2b d8bf 4f24 0895 5537 b03f
000007f0: 5490 c4a1 faa1 b03f e7fa 13e2 a6e2 d0bf
