hybridmodel_B0007.pt (torch, 96571 bytes, 52 tensors)

lstm.weight_ih_l0 f8 [56, 8]
00000000: 4063 f202 6e43 abbf 6eca e157 b02b b7bf
00000010: e384 caa9 3633 c7bf ca30 639e a197 b0bf
00000020: 9ca1 a459 65e0 c2bf 8ec0 7247 eb2e d13f
00000030: a0e8 303c b22a b23f 569c 4d7a c296 bcbf
00000040: 84c4 a21b 9b56 833f d92c d805 1c9d b6bf
00000050: 5d03 a2a3 5b8b d0bf ef0c 2fb0 c80c 7f3f
00000060: 72f7 6d8c 560c c43f bb24 9403 6853 ca3f
00000070: 6008 ffea 9e85 b1bf 7487 32a2 871f ca3f
00000080: 368f a4de 2a2b df3f fc6e 11a6 51ca ab3f
00000090: 9e12 2500 536f c2bf dedc 7650 5058 c5bf
000000a0: bffc d2bb c758 c7bf 1833 5d36 6141 d73f
000000b0: 01a5 ec01 f025 b7bf ba1d 5769 8790 cd3f
000000c0: 7ebb 85b8 cddf d53f 48c6 33d8 8a77 d33f
000000d0: 52a5 b205 3623 d03f 1b72 f9b3 6b5d d0bf
000000e0: 652e ec59 5d72 bfbf 1f93 75f5 4e6e d23f
000000f0: 5ae6 28b1 de26 8c3f 8f7f 5ceb a862 ccbf
00000100: 2879 bece 941a d03f 298f e449 bcbc 91bf
00000110: 2760 8dc2 96ac c5bf 9393 559b 7a19 dbbf
00000120: 46f5 5417 c528 d83f 8317 0e5d 189e b63f
00000130: debc 7f6c b171 97bf 9f18 20ae 2add ca3f
00000140: d9fc 8d57 105f d13f a94d 11a9 8b37 d1bf
00000150: bab1 e8ea 97dd 9a3f 33b4 0a76 1694 c7bf
00000160: 736f e632 7f7c dabf 3f8d 5bd1 19ae 713f
00000170: b63c d765 a349 d0bf 9c05 17a2 73da be3f
00000180: 7a9a 36ef 9b14 b03f f6b3 aeec e05c d43f
00000190: e018 1aab 7e57 22bf 8404 c0c4 c1cd ca3f
000001a0: 180f 4767 b059 c23f b919 38db 5f42 b2bf
000001b0: e317 ae29 0553 9b3f 8c7d f5e3 3166 c03f
000001c0: 4fb4 a440 7bd4 df3f 6c2d e757 36a1 c2bf
000001d0: 3933 2cde 4fe5 c33f 5b10 37cb d840 babf
000001e0: ad55 a2a5 64e1 a7bf 89c7 f27d 2743 c53f
000001f0: 59f3 1026 88bb cabf 7473 bab7 ecd7 c73f
00000200: de83 29f2 16a1 de3f 1093 02af 2f76 c1bf
00000210: 1377 b374 a4a5 aa3f aa40 3c48 e9e8 aabf
00000220: 229c fbde ed88 cebf 7eef f46c 4777 c9bf
00000230: b2d3 2337 4aa1 c33f ef3e 5839 5f57 c03f
00000240: 20ab 5bd7 108b bb3f 4796 d38d 392f bcbf
00000250: 416a 0f1e c7da c7bf ccd1 50ab 3c46 e1bf
00000260: b027 487e 513d c53f fe19 4c7e 8cc4 c23f
00000270: d254 f2bb 0867 c43f b516 0d09 51ae a13f
00000280: a554 8a04 3bbe d0bf 6be0 00a2 f73e d33f
00000290: a08c cd5b d226 b7bf 4d26 9cb5 3f29 d1bf
000002a0: cfd2 6116 726a e03f 5e7f c870 4e9d c2bf
000002b0: 7c78 320d 1cb1 afbf 2aad 76ad 9756 d23f
000002c0: 2f86 a24c 694e cc3f 5009 4808 7fb6 d4bf
000002d0: bc71 465b 5e1c bcbf 9993 9e36 60ee c1bf
000002e0: f062 510d e692 d13f 0f83 a026 00c2 c9bf
000002f0: 89c6 eda0 37ee bcbf c31f e8dd ad79 b03f
00000300: 41c6 7f24 4fed b43f ff9d 0588 b593 bbbf
00000310: 080c 0455 bf6e cdbf b3dc b58d 7a6f ad3f
00000320: 3167 32c1 b221 c8bf a5b5 82e6 0878 d03f
00000330: c527 d3b4 e912 acbf a6bf 7875 b115 b8bf
00000340: 0a0f c542 0c12 a13f 5ca6 41f8 8573 c33f
00000350: 46ab a296 e7d1 ccbf d0ff 8c90 e3fb c0bf
00000360: 562d b997 12c6 b83f 85dd fbed 824d cc3f
00000370: 643e 66bf c0b2 aabf a1ad 4d2c 6fe8 b3bf
00000380: 11ee d33f aff7 b7bf 0e32 ac50 3346 b63f
00000390: 6ca0 0954 9ed3 cb3f 8c74 730f e5c0 da3f
000003a0: f018 629e dc00 b8bf 38dd 4441 9cdf d13f
000003b0: 8d30 34ac 000b b2bf a063 5206 8766 873f
000003c0: 211d 3e5c b68f b5bf e255 976e 8409 dd3f
000003d0: 9427 0ea1 deaf a73f 9dd6 0fb2 93f3 bc3f
000003e0: 6545 a7a7 febd 933f 6ca9 94ba 266c 6a3f
000003f0: 21be 0ce6 4580 a0bf 79b2 058c 2722 993f
00000400: f2fc cec8 50b6 dabf 7447 d6ef 3076 c73f
00000410: 6ad9 dd3f 8fd8 b7bf 2718 d4aa f090 cb3f
00000420: 93b0 2465 bf55 c7bf 2573 de64 67f5 c73f
00000430: f497 6b29 09b7 d0bf 80a4 3b02 3e5a bc3f
00000440: 552e b756 4dd3 db3f 995e f438 27a7 b63f
00000450: b65b c88a f081 bf3f 2a72 e8ae 453d 8c3f
00000460: b836 43fa 7309 be3f d7dc 34d1 d2c8 d83f
00000470: 71e0 5a23 cbe4 c0bf f3b9 0fde cbc6 b73f
00000480: d81f 0fce 2957 b0bf 0d0a 90d7 27e1 ca3f
00000490: 3602 fc71 a04d a53f 0a0a f87b ded7 91bf
000004a0: 304e 727d ff0c e23f 4729 5f52 85ce d0bf
000004b0: bdb6 194f c696 c2bf 410c 3ee3 8d31 b7bf
000004c0: aed1 cddc d6f4 8e3f 2910 ec92 e62c bcbf
000004d0: a619 992c f883 cdbf 6f6b b1ed 404c cdbf
000004e0: 49d2 cd9b 27ff d1bf 5771 5dd4 7f2a a3bf
000004f0: 42a4 7771 1f59 a33f 4280 c0db 2e30 b53f
00000500: 767d cb7b 156b c6bf 11e2 6769 b070 d63f
00000510: 8a97 a6c3 0203 b43f 90c3 fc4a 6ca7 b2bf
00000520: 1308 57bd ed66 a43f d47b 028e c01b b3bf
00000530: 26b5 3b6a 5c5e c23f 9bdf e90a 8a10 cebf
00000540: 9efb dde8 d56c 863f 403c b0ae 7560 aebf
00000550: cbd4 075e 027d c73f 0d46 8c85 423a 8abf
00000560: 790a 6fd8 a867 623f 53a2 ed2d e690 d13f
00000570: 54f7 692d c95d d5bf cf1c 1697 de0f d3bf
00000580: 428a 006e 9968 d1bf 49f2 366f baf4 813f
00000590: 3735 163d 8542 bdbf 866b f0f7 f872 c13f
000005a0: 1cd3 599d 5da1 c9bf a8a1 8090 2f71 c8bf
000005b0: a4e1 8cf2 c629 b23f 5260 57b1 2286 9dbf
000005c0: ecb5 1722 132a b3bf 0eef 38ae c0c0 d13f
000005d0: 0d47 0a30 b882 d1bf e14e 679b 7d44 b4bf
000005e0: fc39 6ff8 c737 d23f 4a78 3667 5402 c3bf
000005f0: 56a3 f615 7e89 9d3f 2d02 ab5b 9c4d c3bf
00000600: dc2c 31fa b25c ccbf 0c7b 2bc2 496a 853f
00000610: d48e 5b9a d50a c6bf abde 24b1 becb c5bf
00000620: 33bb 7e95 de98 c83f 5336 658e 84d0 b1bf
00000630: fb4f f011 5d3b b5bf 48b2 1f90 fb59 cbbf
00000640: da02 32a0 47c2 cebf fb88 2a55 446a 9e3f
00000650: 0531 b9ab 2995 933f 0872 7b71 0128 a83f
00000660: efd9 8f99 baa4 773f 41b4 87ec e750 c73f
00000670: f478 4dee 92a1 cfbf c910 b26b 69f7 c83f
00000680: 6c88 bd6a adac c9bf 7a27 48de f69d 923f
00000690: b07c 16a7 28b5 a7bf 39fe 50e5 935c d63f
000006a0: 7995 559a e317 c7bf 452d 17aa 9bb6 c83f
000006b0: 7151 c739 b0f2 d1bf 1506 4206 07c9 ddbf
000006c0: 01cb 597c 5b4a c33f 9dc4 979c 3696 d93f
000006d0: 1315 5ccd b835 c33f cb80 d73e 52de ac3f
000006e0: 4af8 29c3 bbe7 da3f 0a05 feb2 8c9d cdbf
000006f0: edc9 65d7 8f6b b3bf e367 496e 5562 6c3f
00000700: 4b08 3d27 3d4e b93f 6193 f7a6 2af9 b93f
00000710: 58bf 1357 878b c1bf 1392 91ae a392 b13f
00000720: 019b 6d4a f77e e1bf 62fe a1a0 4440 acbf
00000730: 1d5d e91d b5da a4bf f61a 4834 3ebd d4bf
00000740: 2a86 ba2e caab 5c3f 6509 7d4e 49ac acbf
00000750: 7b52 65e9 8fa1 9f3f d203 9627 908b cebf
00000760: efa0 0015 e7a6 e23f ec0d 3f65 86d5 cfbf
00000770: 949d 27ef a99d a9bf 1a1b c1fb 36e0 cfbf
00000780: 842a eab3 92d2 c7bf fad9 a4a3 7377 c13f
00000790: 22db b0cc b881 a7bf 65ed 22b2 cdb2 aabf
000007a0: 31a9 82ac 54c2 df3f 0a72 1bdf facf 8e3f
000007b0: 21a8 f5d1 ae55 c0bf 157d a49d 01bb b6bf
000007c0: de2b 43e0 2348 b83f b645 7435 fcb7 ac3f
000007d0: 5c72 c29e c506 c43f e0ba dc5f 2dce d9bf
000007e0: c5d7 4796 9ddf d2bf 62d6 13fa 7b2e d03f
000007f0: 3311 ceba 89b4 9c3f 7bb3 1db0 61aa c43f
-0.0532488230321122 -0.09051038880878945 -0.18125041285114837 -0.06481371037370134 -0.14747301938156177 0.2684887120949576 0.07096399278171583 -0.11167541013638646
0.009442531376722359 -0.08833480017362962 -0.25850573520442827 0.00758055108866816 0.15662652832900964 0.20567035841694356 -0.06844514119350853 0.20408721370500482
0.4870097326513475 0.05427794601629718 -0.1440223456103426 -0.16675762108727715 -0.18239685698606498 0.3633654623889 -0.0904226307581162 0.23097317355698782
0.34178488750233516 0.3041712867116968 0.25214911037854393 -0.255701947933433 -0.12283881612182197 0.28798269243843494 0.013746013432967153 -0.22176085941555043
0.2516223925575951 -0.01732153130536954 -0.16932949542638306 -0.4234301106392248 0.377488396439578 0.08834984084941593 -0.02289464211201852 0.20987447263923273
0.2714272360826278 -0.2690152312327095 0.026235936844544595 -0.1842067791343723 -0.41384868593899354 0.004316426134866546 -0.2544945234812518 0.12052080828927675
0.06281447019737554 0.31816886056441207 -0.00013993664974893457 0.20940420252739866 0.14336209338045403 -0.07132529356031271 0.026683884304951177 0.12811874037559468
0.49734383881406513 -0.14554480831280203 0.1554355463817048 -0.10255198441797246 -0.04664148828411938 0.1661118855459416 -0.20884801729871574 0.18627699824437693
0.47858213089608437 -0.1364192585507671 0.05204500126431646 -0.05255822188166921 -0.23855374706110505 -0.19895260639338724 0.15335967724209137 0.12766638088259394
0.10759072549596427 -0.11009559357224773 -0.18636406867774905 -0.5398238512048521 0.16593378702265005 0.1466231934247872 0.15939435174065025 0.03453305469024085
-0.26161075061220124 0.30071821995398434 -0.09043612233431242 -0.2681426309141884 0.5129938542509879 -0.14542561060897702 -0.06189811383340868 0.28653518619349205
0.22114292375504038 -0.3236386853096933 -0.10980787018201615 -0.14008715311970546 0.2745909814889691 -0.20123292814334845 -0.11300990752149621 0.0643566767467965
0.0817460502728631 -0.10772261210296817 -0.22994224215662507 0.05749114017356174 -0.18852838929597618 0.25732634077834354 -0.0548317940934591 -0.09408101194344329
0.033340819502454336 0.15196299192330087 -0.22515578131909758 -0.13268703992980457 0.09677234844382573 0.22111546154313202 -0.052145026554282464 -0.07776541549326633
-0.09362311657235291 0.08700867385432096 0.21739558318518293 0.41802336224447667 -0.09376314989831136 0.27927309392858346 -0.07048038677402442 0.011426024322917006
-0.084224126358198 0.4537058906547299 0.0462636539078424 0.11309168908322893 0.019279459936858773 0.003225398676154947 -0.032228645641563476 0.024544351502685722
-0.41737765894136125 0.18329440794746754 -0.09314818677180417 0.2153607210277084 -0.18230431021345747 0.18717663216821126 -0.2611716179366106 0.11075198702350697
0.4347718569594908 0.08848805561535257 0.12307647121666218 0.013788742447155295 0.11733174190450313 0.38725729399034264 -0.13198222376172766 0.09287714167997034
-0.06383000641574144 0.20999620461960014 0.04160787002001991 -0.01742503768583429 0.5640866708876668 -0.2626050285731662 -0.14522627699209592 -0.09059988782796415
0.01511543141689561 -0.11006012999502048 -0.23058988740576786 -0.22888957601648083 -0.281198408272108 -0.0374336191877968 0.03778932819461335 0.08276646485364927
-0.1751429419009402 0.3506279973367166 0.07817094112996706 -0.07286717253442831 0.03984778343466657 -0.07464221446069469 0.14350466906709264 -0.23487973721398422
0.010949774903336092 -0.05932967908312792 0.18350247947061002 -0.012806434345779239 0.00224669435144281 0.27446894154721696 -0.3338492339606678 -0.29784359697846424
-0.2720092367400505 0.008767563361169144 -0.11429627171874733 0.13632118326571802 -0.2002369898142654 -0.19095415645393854 0.07094996854437469 -0.028831998895697382
-0.07486075956668231 0.27738968862443947 -0.27360348407192775 -0.07917008441955488 0.28465461026362937 -0.148508596798765 0.028844804850140925 -0.15080599285103471
-0.2215789529458111 0.010456634748547987 -0.17220563923830545 -0.17028030061350327 0.19216520595133488 -0.06958797909211371 -0.08293706596333543 -0.21368355309768305
-0.2403039486125838 0.029702251146439967 0.019123698335804757 0.04718021879464024 0.005772332101506169 0.18215655373879439 -0.2471183456027074 0.19505040892193495
-0.20058219634944707 0.0181807110948635 -0.046304006954636434 0.34940049547364854 -0.18041653667311744 0.19307275586320763 -0.28043752329292376 -0.4653947411644322
0.15070670673193123 0.39979329387922197 0.150076961777963 0.05638367669212271 0.4203938871286296 -0.23137053241593036 -0.07586001404505512 0.003464857918783247
0.09885008056611004 0.1014582307466987 -0.13707057716191673 0.06864378940515108 -0.5467487767863021 -0.055177826508040054 -0.04073110571033054 -0.3240504751742458
0.0017499422491841312 -0.05600194056616451 0.030889748211239337 -0.23863412793073607 0.5828738603786671 -0.24870376533191008 -0.05003100437516675 -0.24902999203387638
-0.18611367974184045 0.13645787706782625 -0.04591157435100103 -0.05214541244046237 0.49623600813596896 0.015045127805415798 -0.12761483432706291 -0.08879098986334484
0.09485077119022331 0.05609119560734703 0.15645666362697142 -0.40320906030221515 -0.2948984115204179 0.2528371755755413 0.02803244784037524 0.16144963359274897

lstm.weight_hh_l0 f8 [56, 14]
00000000: abda d40b 7d6c c83f f28e 8f2a 2c30 b23f
00000010: f885 cf6c 8687 a83f 47cc c9c7 20d9 d1bf
00000020: b226 815b 926f d6bf b50f 140e 2414 ab3f
00000030: 45f1 5b5b 2b29 e1bf 4208 a6e7 6fba 9e3f
00000040: d7c3 71d9 1cce c5bf 9fba 62b8 0192 dcbf
00000050: b4e1 8899 21e5 cc3f b5dc 3476 cbd3 bebf
00000060: 022b ce44 9504 c5bf 67be 2a72 afe7 af3f
00000070: 443a 6657 af12 223f 1414 2f0c c8fe ae3f
00000080: 2873 861f 72c2 acbf 6379 bcf2 088e d93f
00000090: 0d08 59bf 9370 d1bf 3f7d d959 fddd d1bf
000000a0: 57fc 0ce2 239a b7bf b8bc 8f10 7d1d da3f
000000b0: 2f12 3c33 2a43 91bf ece7 ef6e 6c2b cfbf
000000c0: 9173 d5a2 e905 b3bf 82af 0622 9fea c3bf
000000d0: 7b3e ec1f 1cc0 d13f 605c 17b1 6d22 d53f
000000e0: 10b5 5336 6725 b83f 2e5e b86b 3b3b ca3f
000000f0: ea11 ede7 604e bc3f ca9a af6f 0864 9b3f
00000100: a192 6978 ee81 c5bf 8538 e40e 0589 9b3f
00000110: 8dd2 26a7 50d8 a4bf 3429 70bc 0ac4 ce3f
00000120: 727c bb2d ba37 bfbf dc1c a233 5011 c5bf
00000130: 8530 cd0a dfb3 d63f 2860 de99 0b49 bb3f
00000140: b5d8 031b 5171 a8bf 2ccd 51a8 b879 c9bf
00000150: 559b 5f37 2de4 bcbf 2971 3f4f ee03 b23f
00000160: 1c1f bc2b 1471 c4bf 2913 b645 9313 b3bf
00000170: c048 e6c5 9ab1 c23f 748b 16c6 6e19 d33f
00000180: df57 7a49 ec63 dbbf ee00 9d4b f791 d4bf
00000190: 42da f183 4c5b c13f fd71 7c10 f6c9 cd3f
000001a0: 3cd5 573c ca58 de3f ab95 97c5 9d27 7bbf
000001b0: 7636 b63b 960f d0bf 4ad7 7de1 df85 d13f
000001c0: bbbd 9fdc 162f b3bf bd7a 9e91 0103 ce3f
000001d0: 1a56 239a 8c6b bdbf 7a5e 8f17 7fb8 dc3f
000001e0: 1982 5a5b 867b 95bf 23f9 a6ad 236b a53f
000001f0: 839d 998c 54a8 cdbf 209b 05ad 2566 d4bf
00000200: 996a 90a4 4cea a2bf b041 9041 9836 cbbf
00000210: 7ffc ccbc b3aa b33f 0c40 2bf8 3c87 a53f
00000220: 7435 2f30 0bc0 b1bf 8eb5 e431 5e7c a83f
00000230: f2a9 3d49 dc20 c33f 67bc b425 30fd bd3f
00000240: 4bcd e14a ed5b c73f 44d2 b13e c569 c6bf
00000250: 79b1 099e 1e35 b83f 6d4d 96f5 e537 a0bf
00000260: ef22 d174 a901 b03f 5971 d7ef 6bb7 d03f
00000270: 0bb4 1d1d 3c97 d13f 87f9 eb05 bcf8 b5bf
00000280: 8246 b69a 9938 d43f 3c31 d234 2cd6 b03f
00000290: 82b4 b5d9 fa6f b5bf 4e08 5b78 ae0b da3f
000002a0: 7062 5c05 37c6 c23f 7c95 45e3 cd5d b7bf
000002b0: e037 e7cf 3997 b5bf 2a54 8da7 51cd a53f
000002c0: 87f0 8600 da9f d0bf 96ff c376 cfb8 af3f
000002d0: b9d4 01c1 2f18 b93f d1a9 6a8d 30cb d43f
000002e0: 0cb6 1067 a2e0 bfbf 6cb2 4286 8419 a0bf
000002f0: 7ea2 7749 2146 c63f 93ab 6ef9 5eed c23f
00000300: ad56 48b2 4bf9 bcbf 6ded 1a91 7ef0 b2bf
00000310: e1b4 a0b5 d375 c9bf 97ec b65f f296 d73f
00000320: 3438 be80 4e27 cd3f fcf6 d275 360f 993f
00000330: 3787 aafa 66af cfbf bd98 8c6a 4c0a cbbf
00000340: 08ab 8122 f204 d7bf 2c3b 9ff2 2959 a6bf
00000350: dedc 3de6 b836 ca3f 6068 5271 d88b c63f
00000360: 7a6b 1805 e25f cb3f ef15 ee23 4dd3 aabf
00000370: 026b d081 a4e0 c13f 0206 e276 17cc a73f
00000380: 3b70 4e3d a725 c9bf 6d5f 7870 a8ec dd3f
00000390: 7f95 fe38 6dcc c5bf 9031 17b5 2b6f a0bf
000003a0: 6392 845b 47da b23f 1f39 a8c4 9331 c8bf
000003b0: 8a78 1f61 40a4 a03f 2ca1 7bd8 0d5b cfbf
000003c0: f7a8 75fc e023 d3bf 279a 90ae 9232 cbbf
000003d0: 0cd7 dfae 6d3f dc3f 245c 0625 342a 68bf
000003e0: c658 1f98 911d ce3f ac3c 8f23 924f c0bf
000003f0: aebc 132f b139 a4bf faae 1f66 c7de ce3f
00000400: f161 2b1e 78f9 b03f 515a c228 2867 ab3f
00000410: 4247 2a84 78e6 ccbf d5b2 37c7 36aa c5bf
00000420: dc58 a316 3c19 d0bf 1dec d580 583a d3bf
00000430: df45 57f8 5377 c1bf e460 bd33 ecb6 c4bf
00000440: 80d6 00b4 f551 d43f 71b5 2c3f 7582 d23f
00000450: 7c4e 5d43 a552 71bf f67a 4e90 faec c53f
00000460: 6aae 8964 3461 c93f d87b 7529 c149 bebf
00000470: 1233 6162 5ed7 c9bf 4515 55cc 9acf b03f
00000480: 2ebe 2bf1 4011 acbf 82af fad1 1c7c aebf
00000490: 019c 579f 5629 c73f 204d acd4 6083 cf3f
000004a0: 3839 30f1 ba2d b83f 58c7 a4d1 e450 c53f
000004b0: 6c14 2446 e430 c8bf ecad 5fbc 572d b13f
000004c0: c34a 0b38 a426 af3f f355 da94 e87a aabf
000004d0: ed52 1027 a037 543f 5f23 2267 8544 c1bf
000004e0: 1569 8e8d da15 a2bf 3ebe 77b5 5de2 c8bf
000004f0: a4ea 7ddf b353 983f 8235 2689 e47f d2bf
00000500: 6164 cfc3 efa4 b23f 5dca ef86 1a45 b9bf
00000510: af5d c8cc c487 aebf 304f 14d2 a608 a5bf
00000520: 7aaf bb3f b057 aabf 03d4 71ed 2376 ab3f
00000530: 9b49 ea1d f18a c9bf b231 7ea7 6f4e c23f
00000540: 56bd b8d9 1a0f b7bf 4e07 5c04 6fed ae3f
00000550: 8d3a abec b7ec b4bf 4908 900b ee0f c23f
00000560: 4979 d31a efb1 b3bf 7d3b 4ed3 536e d9bf
00000570: 0469 043f b668 653f 109a b046 0cbd b8bf
00000580: ab33 c57c 6329 b93f 2413 d05e 6415 6ebf
00000590: cdef b483 9b40 a0bf c84c cd9f 200b 963f
000005a0: 98d2 c3d1 d961 c53f eb4c c38a e089 c8bf
000005b0: 393c 9991 9124 adbf 3443 e337 068f b53f
000005c0: 9860 5e99 0779 d3bf cbd8 b26e 109e d63f
000005d0: 64fd 83fa 2aca d3bf 1206 2a85 3973 ccbf
000005e0: 81fe ad71 f8de d8bf ccd9 2b5b 32b6 c33f
000005f0: e89c 0c98 896f b9bf 9bf0 725d 7b81 b2bf
00000600: 677e cc92 7073 cf3f 59f3 d40c 2aeb c03f
00000610: 02eb 8211 0cd2 d5bf 4ffd 86a3 be13 933f
00000620: 2404 960f c948 c43f a069 5e9a f964 d3bf
00000630: d158 7b7b c366 c3bf 3f26 3285 c517 cbbf
00000640: 9423 620d 8e8b b8bf 95b5 73c7 906d bf3f
00000650: 2121 f972 adb5 c93f 9898 f625 a63f c2bf
00000660: 70c9 01e9 001b 983f be51 49d0 b4eb b43f
00000670: 0f1e 227d 852c 983f 878c c012 ea4e d13f
00000680: 02ac 673f 8b81 d2bf c401 e5b7 94dd 713f
00000690: 2904 4096 391e a7bf 6e00 455f f247 cdbf
000006a0: 4ba5 7515 e386 9dbf f61b 0e43 a6d2 d0bf
000006b0: 844b 06c4 2f3f b13f 0960 0721 5535 933f
000006c0: 5f26 d2e6 874a b33f 505c 9d6a 4db6 c53f
000006d0: 86fb 5a65 51c5 c03f 8020 f9f9 c588 b0bf
000006e0: d6f3 1e8a e185 b13f c038 a8cd 4eca c4bf
000006f0: 4f38 3d07 78f3 d13f 74bb ae14 0a68 cfbf
00000700: b29b dfdb d001 8abf c287 9610 c6d6 c43f
00000710: 64d8 20de 8c64 bcbf dc2c 8931 88c0 a73f
00000720: 809b 06a3 3e4b b83f b1aa 29fd 3625 b33f
00000730: 2f91 22bc 5401 c3bf 491c 64ee ee55 bbbf
00000740: 0e80 f216 f15a 9dbf 34bc 7be7 c0bf be3f
00000750: a6b5 20d4 1b9c a0bf cc4b eee0 3941 b0bf
00000760: f776 d0fe 4b68 c1bf bf6b 25bc f3fc b2bf
00000770: bd41 4dc7 7c98 d2bf 0052 f73d 0b4f c0bf
00000780: 8796 a2b9 9f88 9ebf c6c2 6881 f53f b73f
00000790: 08ec 192f 7cbc 9fbf d0d4 efcb a82e c13f
000007a0: e1fc 2d8b 10fa 96bf fc51 5e19 eb04 c5bf
000007b0: a2db d5a8 f471 9bbf e8b3 db7c be7e af3f
000007c0: 97b2 4311 07d2 c03f f0e3 db90 eadb 5c3f
000007d0: b862 f8ee 2bbc 9fbf 558c 1d89 463e 883f
000007e0: 91db 1947 6777 773f 1398 aa96 3406 c1bf
000007f0: f1f2 c55e 9b6a c23f 6f88 7d85 1207 bd3f
0.1908108051081475 0.07104755438882274 0.047908974440144136 -0.2788774443681103 -0.3505597966765023 0.05288803741316831 -0.5362755569799807 0.030008076204019803
-0.1703525602092941 -0.4464115429536068 0.2257425307923434 -0.12041923175717069 -0.164202364536628 0.062314493833920896 0.00013788595579141045 0.06053757809380769
-0.05617100367383038 0.3992941256018609 -0.2724961632376342 -0.2791741731106931 -0.09219574230972803 0.4080498372777117 -0.016857776047816294 -0.24351268212177446
-0.07430896974024238 -0.15559758340293334 0.27735045545066556 0.330226347866704 0.09432072712271045 0.20493262061857948 0.11057096159226601 0.026748782936830286
-0.1680276954604283 0.026889876397995244 -0.04071285286355417 0.2403577251537371 -0.12194408051026231 -0.16459085961489606 0.35472847037159055 0.10658333307799295
-0.047739538715107534 -0.1990271398422946 -0.11285669900790414 0.07037248072396508 -0.15970089087954242 -0.07451744510588 0.1460450617128739 0.2984272894338382
-0.42797381568504805 -0.32140905746565707 0.13559872095693676 0.2327258663652997 0.4741693105018674 -0.0066295779192605915 -0.2509513457415332 0.27379605312977573
-0.07493727575614788 0.23446673975282364 -0.11492232096801339 0.4487607698515387 -0.020979022336748174 0.04183303351190861 -0.23169953217732706 -0.3187345685641265
-0.03694381245459972 -0.2126035995611466 0.07682345733063477 0.04204741029172973 -0.06933660436989958 0.047823852148535115 0.14944032264914103 0.11714459343487392
0.1824928870806651 -0.17510285912762147 0.09456054075571342 -0.03167647002114902 0.0625253591725927 0.2611951677515854 0.2748556408249107 -0.08582663673948875
0.31595459087939315 0.06576801576210739 -0.08373992743664085 0.4069629836413967 0.1466740394760282 -0.09127508925083377 -0.08433877301942472 0.04258208437264728
-0.2597565655849014 0.061956866500621974 0.0980253072937839 0.3249017125150689 -0.12452139869920859 -0.03144468439981982 0.17401519858619346 0.14786898783981126
-0.11317895033456678 -0.0739821533451754 -0.19890829437773674 0.36858805987476145 0.22776204382211207 0.024472094479953008 -0.24754035224491996 -0.2112517853030961
-0.3596768700578399 -0.04364901625341697 0.20479499094265113 0.1761427453355422 0.21386361359403933 -0.0523933512077227 0.13966804827290252 0.046478970777581466
-0.19646158688999713 0.46756945594233096 -0.17030110629017867 -0.0320981653745519 0.073643169253566 -0.18901297666929737 0.03250313935835532 -0.2449662501378581
-0.2990648713518022 -0.2124808647506182 0.4413713653333253 -0.002949811787583483 0.23527736595014498 -0.12742830978684105 -0.03950265597983936 0.24117367254745387
0.06630659805831109 0.05352139947460855 -0.2257834096276899 -0.169257018350797 -0.25154020510434605 -0.30043613988499535 -0.1364541018106555 -0.16183235670428708
0.31750242784924154 0.2892125241222266 -0.004229207572126744 0.17129451795786793 0.1982789507777512 -0.1183129049509114 -0.20188503078170378 0.06566779602606683
-0.054819135131648586 -0.05954065383170272 0.1809490469015316 0.24619684585977897 0.09444778812778487 0.1665311835909573 -0.18899205612993641 0.06709812497108886
0.06084168609745213 -0.051718967600361675 0.0012339653005756749 -0.1349035981732198 -0.03532298067075793 -0.19440814362268272 0.02375680018983907 -0.28905595200998146
0.07282923250694885 -0.09871068758347108 -0.05962958335674828 -0.04108163179821955 -0.05145025995247372 0.0536357142781654 -0.1995526691503756 0.1430186813198709
-0.09007423224897101 0.060405225069202304 -0.08173703697250741 0.1411111408670556 -0.07693380742009483 -0.3973588527232364 0.0026134070868809606 -0.09663464284731327
0.0982877902617491 -0.003672309909691045 -0.03174291594265775 0.021526822808777962 0.16704867117336586 -0.1917076757004915 -0.0569196214897762 0.0842136274761856
-0.3042620656720003 0.3533974724808899 -0.30921434845364204 -0.2222663784232713 -0.38860903836755517 0.15399770213816877 -0.09935817682400094 -0.07228823691815693
0.24571044128332462 0.13217664362482642 -0.3409452601442099 0.01863000748721549 0.15847123394999685 -0.3030380256183438 -0.15157359628091752 -0.21166295055108894
-0.09587943865530085 0.12276558751519524 0.2008568583862678 -0.1425674138419637 0.023540510388963154 0.08172159276120447 0.0236073358178413 0.27044154959930505
-0.2891567343892235 0.004361706667907975 -0.04515247305972309 -0.2287581410582819 -0.028834865746295162 -0.2628570227465724 0.06737040076977335 0.018758134976309324
0.07535600075984793 0.16962592798037912 0.13102166604036486 -0.06458699562893067 0.06844911214916691 -0.1624239448723923 0.2804851599402171 -0.24536252984895734
-0.01269877596855715 0.16280437288247468 -0.11090927527479405 0.04639077763257557 0.0948981426250679 0.07478660279017892 -0.1484781187656465 -0.10677998848051219
-0.028667227769460672 0.12011342669914954 -0.03244101490450228 -0.0634952711246079 -0.13599538747887838 -0.07417224257862552 -0.2905570932680595 -0.1274122288292716
-0.02981805391814032 0.09081968697933993 -0.03099245107157958 0.13423643071988645 -0.022438295836306636 -0.16421259630864415 -0.026801894001859623 0.061513855687600316
0.13140953391066 0.0017614165002994807 -0.030991255245768484 0.01183753114646017 0.0057291063582089055 -0.1330018745113085 0.1438783848533585 0.11338916548769061

lstm.bias_ih_l0 f8 [56]
00000000: fad7 70c3 caab c43f caa8 a7de dfdf c23f
00000010: d7df 5e72 1006 c3bf 52c7 08cb 77e8 bb3f
00000020: b5ff 5116 75fa c6bf b60c 08b1 3af9 c83f
00000030: ed5f b797 5794 b4bf 797d ef6a 1afd b33f
00000040: b5b1 9d5f 3db7 cd3f 6569 e352 bb0c c93f
00000050: d6bc 2526 db97 d63f c9b4 e110 6edd cf3f
00000060: a65f 3430 b13d b2bf 6602 9ecf a2cf b93f
00000070: fbdb 4130 e669 d0bf 73f0 d517 dfd7 803f
00000080: 21b5 8cd2 d6d7 c4bf 7098 4348 2c5a c4bf
00000090: 5c7f eaab 4f61 d2bf d774 a676 3702 a8bf
000000a0: 1416 17c2 7997 cfbf eca2 17d8 576c cebf
000000b0: a36b 0ce2 3e4d 9bbf b8b9 59dd ee5d b4bf
000000c0: 92d0 773b 349f c7bf 3399 8c7a 5ec4 d0bf
000000d0: fa87 7bed c5f8 c0bf d46f d189 dcfb c6bf
000000e0: 618f 5bef 8bb7 b33f 5fdb 1105 7b77 ac3f
000000f0: 26dc 335c 2e09 babf 1a81 e8bf e2e2 b73f
00000100: b9ea 8a59 bacb b4bf 5f21 fea9 c5ee c9bf
00000110: 7289 864f a0ec b63f 5ae8 7762 31df b23f
00000120: 79e0 778d ecc5 bcbf 02e9 3177 e30a cabf
00000130: bf08 8e99 44ea d2bf 9539 502f fe6d cbbf
00000140: e5d9 8aab 0695 ae3f c8b1 5940 7c7a b9bf
00000150: 8e03 659f 7ea1 ce3f 5f3c a8f8 d267 a03f
00000160: a3f8 c335 56f1 bc3f 66de 84ed fe1e cebf
00000170: 5867 360a 3d2c ba3f 2553 c20b fc92 c53f
00000180: 6d38 23f1 8bd1 b73f 5ab7 85ad bafb cb3f
00000190: e77f 245d c9d2 b83f c159 8d3c 23fc ca3f
000001a0: ed72 6341 1018 d73f 0c6e 495e faf7 d23f
000001b0: 791f 977b e5f1 a4bf 6caf f074 391f a63f
0.1614926771450767 0.14745710727522116 -0.14862256607534505 0.10901592928783302 -0.1795183524118308 0.19510587352860903 -0.08038852170955098 0.07808079825143989
0.2321545330882039 0.19570104167253102 0.3530185577901198 0.24894500564861335 -0.07125384737844218 0.10082452362804303 -0.2564635726225217 0.00822424212923798
-0.16283688812965472 -0.15900186089055834 -0.2871894053332562 -0.04689191172949741 -0.246810169001194 -0.23768137027152336 -0.026661856219202595 -0.07955830482544612
-0.1845460214968893 -0.2619854161042838 -0.13259195419146846 -0.1795612023296359 0.07701944917385851 0.05559906422506943 -0.10170259238280774 0.09330575165995861
-0.08123364149188718 -0.20259924698280948 0.0895481294778955 0.07371815351498992 -0.1123950810796276 -0.20345729179445732 -0.2955485820349501 -0.2142942172071797
0.0597307285692528 -0.09952522822431498 0.23930342467249627 0.032042115071924775 0.1130575066817721 -0.23532091710670783 0.1022375249798676 0.16854811262296568
0.09304117810390418 0.21861966583986253 0.09696634792317092 0.21081963020942676 0.36084371934502607 0.2963853760499837 -0.040908023201665374 0.04320697357647316

lstm.bias_hh_l0 f8 [56]
00000000: 2eb0 e106 9468 b03f 6bd4 53bf 90e5 d23f
00000010: e3df 5e92 f7a0 cebf 2bce 3ded 5974 d4bf
00000020: 4b00 ae69 8e47 c43f 02cd df3b 403c a7bf
00000030: 0950 2494 b658 cf3f e1be 77f5 6bd4 c03f
00000040: 0339 8901 4ea5 a8bf 262d 39da e80b b7bf
00000050: bce6 2d31 c081 ae3f 374b 1eef fa1e c0bf
00000060: 25d0 e547 80e6 c93f 8702 9ecf 961e b03f
00000070: fddb 4120 37b3 d0bf 6b50 41a7 40a6 d6bf
00000080: 3152 cb28 0b54 89bf 6f98 4388 2b7f c4bf
00000090: 5b7f eacb 45a1 d6bf a4ce d4ae 35df d0bf
000000a0: 1a2c 2e04 d123 b3bf b045 2f70 9996 bebf
000000b0: 628d 41bc 1a74 c7bf c7b9 595d c542 bbbf
000000c0: bc5e 10c9 9fa6 b23f da64 322a 4c52 bdbf
000000d0: f7c3 bd76 b967 d2bf f1b7 e834 a426 dbbf
000000e0: 2de1 4821 72db a4bf 4412 773d 2d02 b7bf
000000f0: c623 cca3 ea24 b23f 2981 e8bf dca2 bc3f
00000100: b8ea 8a99 d4be b6bf 472b c43f 3d06 7abf
00000110: 9676 7970 abe9 b0bf 21fa 9d98 8ae0 d23f
00000120: eb07 a2bc 1a2c d13f 2b5c 3823 f93a a53f
00000130: 18dd c719 db44 b13f 9539 502f f492 c7bf
00000140: 2326 7554 6c20 a4bf 2227 d39f 9e6c c83f
00000150: 76fc 9aa0 9b30 cabf 8907 153f 2645 d03f
00000160: 5c07 3cca 5714 b7bf 7ede 840d c810 c3bf
00000170: a133 1b85 8963 c13f 9a29 e1e5 f61b d33f
00000180: ef70 4662 9205 a53f b3db c256 67ca d33f
00000190: 0bc0 6d11 5834 c6bf c659 8dfc 9d06 c53f
000001a0: ed72 6361 c78d da3f 1624 6d83 e815 c2bf
000001b0: edc7 e51e f1bf cebf 1aea 6111 f87b d1bf
0.06409573715217284 0.29526156124422326 -0.2392873253536428 -0.31960151832683675 0.15843372497693262 -0.04538155299078463 0.24489481194962107 0.13148259626131334
-0.04813617485761947 -0.0900254757663573 0.059583669665653954 -0.12594544101428948 0.20234683523779143 0.06296675270824369 -0.2609384360325178 -0.3538972504950439
-0.012367331678810963 -0.16013092187421615 -0.3535933009497875 -0.2636236388527584 -0.07476526596126157 -0.11948546399005155 -0.18323072616758923 -0.10648759392800065
0.07285498293674214 -0.114537010480848 -0.2875808391173104 -0.4242334858598716 -0.04073673874194337 -0.08987696409810392 0.07087580203018637 0.11186008153209016
-0.08884934185600002 -0.006353606466528223 -0.06606551643332134 0.2949549188996646 0.26831692143616576 0.041465554761252875 0.06745690707599683 -0.1841721755049092
-0.03930986910797809 0.19081480792947852 -0.20460839597760455 0.2542205444370827 -0.0901541584717313 -0.1489496294031944 0.13585013388947423 0.298581814281215
0.04105813455245932 0.3092287394787789 -0.17347241259585675 0.16426443893096926 0.41490349302857404 -0.14129358689595567 -0.2402326012484645 -0.2731914682150617

lstm.weight_ih_l1 f8 [56, 14]
00000000: f026 31ad cfd7 cf3f dc42 1e94 8228 7ebf
00000010: b308 4a52 8b8e bc3f b697 5af2 a363 cd3f
00000020: 3169 61e2 2e8e cabf bfa2 71f1 2dee d5bf
00000030: a44b de01 af8e ddbf fca9 466b 5ad3 c7bf
00000040: 579b 8c4b 9e9d e0bf dc23 6706 0b98 c3bf
00000050: 17a1 aa1b e603 d23f e002 8a0b 77de ab3f
00000060: 9dd8 dcd5 61bb c6bf 55e0 1fae a23f c33f
00000070: 77fc 3a4d 6d5e c53f 9c16 0e16 1d53 cabf
00000080: cbb9 68f6 7caf ccbf dbe6 96d1 8737 d73f
00000090: 0e36 62c4 8f5f a3bf 76a5 4f89 d365 cbbf
000000a0: da02 bf77 93d5 d6bf 7783 1373 acb0 cfbf
000000b0: 0248 0076 493f babf 6886 ec60 0680 a8bf
000000c0: 7e8e bbb7 7b54 94bf 02f4 6f76 9b4d b93f
000000d0: 2d55 85aa 99bb bbbf df6a 8dfa aa4b b03f
000000e0: 30d0 27a2 c529 d03f 1332 9e02 163c c4bf
000000f0: d113 f399 8491 8fbf 7872 17de f33b 98bf
00000100: 1167 cb05 7268 b73f f7dc 81d8 29b0 dabf
00000110: 2a03 0e21 6e30 b1bf 9cc2 9bc5 a4b5 adbf
00000120: 9a94 9af7 f185 c4bf de50 0c14 9016 c03f
00000130: c160 f5d5 7560 b63f e231 1200 4a10 be3f
00000140: 6bad b739 f46d b0bf ab15 ab6b c899 b9bf
00000150: 03ac 6707 eb16 a83f d905 2264 7844 bebf
00000160: 91ce c538 6bae c7bf 8e83 f940 571e e23f
00000170: a3ce 5160 a5ca cdbf 90f4 930f 752d d2bf
00000180: ea7d 4971 eb5d dbbf 6fb9 30c3 1a0b d3bf
00000190: c616 c831 e71f 773f 6122 aee9 ff64 cc3f
000001a0: 7411 a4ec 4333 d53f b4eb 2415 2754 be3f
000001b0: aefb 10a9 b74f 913f c000 fa2e 2ca1 c13f
000001c0: 6f28 55bf a287 ca3f 30e3 09c0 8360 723f
000001d0: 2992 d8dc e1e3 bf3f 1914 e6a9 23f5 c4bf
000001e0: f40f 8c42 bbf2 9bbf 7e18 bf9b f55a c2bf
000001f0: 09cd 3b24 3e5b cbbf e177 15e2 1bb2 b93f
00000200: e057 e74c c7de 8f3f 450d b05d bbef d0bf
00000210: cea3 d030 9868 b93f 794e 34e1 d61d c5bf
00000220: 8949 4260 d98f 94bf 89d1 3068 be94 a9bf
00000230: 9a9d c28e eef8 91bf bf9a ce03 c676 b0bf
00000240: ffb5 f392 86a5 c03f abc1 3fa9 616b c3bf
00000250: 82e5 ef0a 4b07 d0bf d74f 71ea 09b6 d53f
00000260: 8f88 f383 fde4 bc3f 8dcd 32a3 4bdd d53f
00000270: 3fdd 43e3 8ecc d33f 4789 7569 273f d2bf
00000280: 7040 ba1f f5e0 dc3f ed6e 5526 2241 b9bf
00000290: 2d51 7edd 7bc7 a0bf a7f9 10f8 6dab d43f
000002a0: 4380 e0a6 8111 9d3f 1b05 8532 0279 a03f
000002b0: ffef 8866 2f05 c0bf 3d37 4843 08aa c93f
000002c0: 55b0 9c5b 6dee b9bf 65ac a989 8d13 943f
000002d0: 8839 b38c 7d70 c33f abbe 8b18 abfa b93f
000002e0: 2679 569b 0021 dbbf ab61 d7eb d3e1 c6bf
000002f0: 2816 72c2 02da d13f a850 d0a5 b6ca c13f
00000300: d38b d4ef d3b3 cfbf 8888 f30b 5b26 b33f
00000310: 624f e5ba dd5b cd3f cdd2 6cae 6c47 a83f
00000320: 4e81 5cf1 92f9 8ebf 3413 d86f 957c cc3f
00000330: 6496 b515 d0ea c5bf ec32 9c5a 3763 ac3f
00000340: 5f25 b100 7e71 853f 383e 64df 7fca c03f
00000350: d1d6 6408 11d3 b5bf 836e 5c17 cf74 c63f
00000360: bbd4 9d47 824b a53f ef15 f51f aa9f c8bf
00000370: ce71 9984 d631 a8bf 4896 cfee 7e2c b9bf
00000380: ba69 2e00 b085 d0bf 3cfe 8cd6 bfb5 cc3f
00000390: 3f98 25a6 5754 d63f 2d91 d323 9b29 c63f
000003a0: cd34 2bb3 104d d5bf a718 dff9 ad68 d83f
000003b0: c7a0 538a ed7b b6bf 6cc3 a583 3a84 973f
000003c0: 18b2 9da5 7ea4 be3f 3422 f861 559c d0bf
000003d0: 00e1 c2a7 32be d33f 6307 73fb a302 c9bf
000003e0: 609f 8849 ef67 d73f 5b21 046e 3d31 babf
000003f0: cd60 566b 9a1d ce3f c939 4191 0189 a03f
00000400: 000c 090c 50d6 cebf 13f5 dc9d 3099 d93f
00000410: 7ff8 49c9 2f96 cebf f2f1 03be fb5a d3bf
00000420: 8ae0 ea63 0be4 c7bf aa48 42b9 b0f6 c7bf
00000430: 5f2b 88cd 7872 d2bf c51b 09bf 5360 c1bf
00000440: 3721 d34c 98ed d43f 23cc 657e d144 d23f
00000450: beab c575 d81c d3bf 6c42 1a7d c681 d43f
00000460: b421 f188 ff5d c9bf bb6d ada6 cc00 ce3f
00000470: 03bb 8c15 dd33 c3bf 12ea 2696 2c0b b83f
00000480: a46f 1473 700b dcbf 0e12 ee37 b14b d1bf
00000490: ffd2 d36c e40b d2bf 5b5f 387f 2878 bb3f
000004a0: a7b7 4562 8d79 c5bf 6296 5b74 855e c1bf
000004b0: dfe2 93c0 b211 db3f 5a7b 1f63 eac3 a43f
000004c0: 6e1f 6996 ed2f d13f bd52 c0f5 1c97 c13f
000004d0: 6f3d 8167 209f d13f f275 4ff5 fd4f c53f
000004e0: c41c b7b0 31ea cabf ac95 6c90 3fae c4bf
000004f0: 0b85 6d7a 2a09 d03f e837 f74a c6f9 d3bf
00000500: 8fe7 705d 247d cdbf f997 8974 dae6 dabf
00000510: e261 3477 d80e e1bf 085f 0f14 9fda e43f
00000520: d45e 135c 8467 b2bf c287 48d1 2ccc a2bf
00000530: ff09 8711 6f18 983f c1fc bd99 9bf2 d0bf
00000540: 2de3 f643 eaef b4bf 33e9 d16a d690 b6bf
00000550: 6ab8 0123 f198 ccbf 2885 167a 25ae aa3f
00000560: 886e 6a75 82da 963f db3d 7d4b bc88 d0bf
00000570: f5ae 16e5 9441 a5bf 76bc 6ddd 793e 71bf
00000580: fdec 6d33 e301 d4bf 1c07 9102 559c cd3f
00000590: 17bb ec4e 3346 d93f a9bf ffcc 1223 9abf
000005a0: 0c07 25ab d605 d1bf f9d3 13e8 94c7 d2bf
000005b0: 53f4 1331 d17c d53f 839b ea0d ae7c d13f
000005c0: eb4e f0ca 1a8d d6bf c587 ebdc 4133 d73f
000005d0: 9236 52d1 c121 d6bf 271e 49ea feec d2bf
000005e0: 4244 4ae2 f845 a8bf 72ef 56bc 2210 cebf
000005f0: f5ea dde5 f5b6 d2bf bb24 0519 4c57 723f
00000600: a3f3 bca7 6c6d b13f 9f03 fb57 ecac d73f
00000610: 84cc 54cb 4dbd 9d3f ce15 1827 2725 8abf
00000620: 621a 570f fb21 ca3f 31ab 3ce9 6725 a63f
00000630: 29b1 3bc3 9b18 703f 7c82 887f 8a6a c53f
00000640: 21ca d452 17e9 c3bf f2f5 8df5 c57a ad3f
00000650: ac5e 0ee3 dea6 dabf 0fa0 d54c 1756 d23f
00000660: d5b6 2174 d2da b0bf ba8b e014 d1c1 d1bf
00000670: edf3 ce74 6241 b9bf f44f 8000 1afd d03f
00000680: 90ee 9780 c93f a1bf 4dc8 6429 cdf8 a33f
00000690: b2bd c200 bbbf a2bf a2fd a3ec d97e ca3f
000006a0: ddfa 2a55 6156 ca3f e7fc ea3c c8ec d4bf
000006b0: dce3 c421 352f c5bf 1fd6 c106 6baf b73f
000006c0: f048 eb67 e67a bfbf ca07 c3aa dc17 b9bf
000006d0: ba8f 3950 9128 b23f 4ad5 dc3f 889d 9bbf
000006e0: b2e3 b468 9cc2 d2bf 3bf9 fd5b bdd9 d23f
000006f0: 3b03 7495 eebc 78bf 9b49 0c5e f067 c5bf
00000700: c82e 120c f46b c73f 4c48 3901 f991 b63f
00000710: bbc0 3b7e 731f d33f afab 0504 d7c0 b13f
00000720: 55ea 7182 05bf cdbf 0323 ab2e fce2 d03f
00000730: 2e9a e40c 2fe8 b7bf a100 2d63 bc52 d63f
00000740: 90c5 f1f8 c99a c43f f4ee 18ed c78c ab3f
00000750: 8674 7638 6304 a33f b2a7 ca40 04ee b93f
00000760: fc25 9829 e100 bdbf 106e 169d 5eda 7b3f
00000770: 92d1 ea15 8abf c6bf 05af ec9b 5faf b3bf
00000780: 860a 47a7 f1d7 b93f 881c 9e60 7bc0 e03f
00000790: 7572 5540 f568 b1bf db2e 2cc3 c249 d5bf
000007a0: 811f 90db df47 debf 0498 bfdc b589 d4bf
000007b0: 2d54 cdd0 bab0 d5bf 3ad1 183b 39a2 cb3f
000007c0: 4d77 e7d8 0274 b43f 8c97 22af c078 c23f
000007d0: b4eb f75e 22f8 953f cad4 52ae b75c b2bf
000007e0: 5712 a18a 9958 d8bf 855f 2bc9 c873 bb3f
000007f0: 0cad 1b31 8365 b73f 0b45 81e7 fe01 d6bf
0.24877353626862186 -0.007362852165798652 0.11155005225194507 0.22960328420339032 -0.20746408513770967 -0.3426623208857044 -0.46183371717887156 -0.18613748777472938
-0.5192405200549314 -0.1530774861587635 0.2814879675083985 0.05443164840563042 -0.17759344999803242 0.15037950040982886 0.1669441821195254 -0.2056614263239468
-0.224105472866951 0.3627643152973243 -0.03783845207463453 -0.2140449924911924 -0.3567856473346588 -0.2475791513343457 -0.10252818232427788 -0.04785175259736435
-0.019853528107786726 0.09884044305358944 -0.10833130276781296 0.06365460030557867 0.2525495608854298 -0.15808367851094882 -0.015414272258917368 -0.023666201048273966
0.0914374603411512 -0.41700216429985865 -0.0671452360820807 -0.05802645599567777 -0.16033768262892495 0.12568856219207353 0.08740936730953576 0.1174360513852615
-0.06417776497953802 -0.10000279072399702 0.04704985108750039 -0.11823227352763101 -0.18501034042457268 0.5662037152325057 -0.23274676516631584 -0.28402449151310183
-0.4276074034041516 -0.29755276738696684 0.005645659545285125 0.22183226499716382 0.33125398740255396 0.11847156778541895 0.01690566033743906 0.13773109716203713
0.2072642740479895 0.004486574791933859 0.12457095758197369 -0.1637310580810272 -0.027293134628976604 -0.14340086083229048 -0.21372200745791073 0.10037397641778469
0.015561635050214961 -0.2646320738715143 0.0992522353341336 -0.16497312542252354 -0.020079990863970863 -0.049962949961272214 -0.017551162207977457 -0.06431233971543814
0.13005144286528034 -0.1517145229731914 -0.2504451376731468 0.33923576254642057 0.11286911460368486 0.34163180291508227 0.30936023897034554 -0.28510461138479964
0.45123031710045947 -0.09865010677225046 -0.032771940982600924 0.322963230373626 0.028387094316826966 0.032173222224182584 -0.12515823847377303 0.20050147328623238
-0.10129436003325172 0.01960583832480402 0.15187043542978196 0.10148114537491419 -0.42388930482583687 -0.17876671806039943 0.2789313219912821 0.13899882408498354
-0.24767541132413715 0.07480401078967891 0.22936603189247778 0.04741992596828979 -0.015124462118877215 0.22255199395308412 -0.17122841892266927 0.05544445973473508
0.010470375438802191 0.13117979438583105 -0.08525186972550648 0.17543972626377888 0.04159171222901522 -0.1923725753824068 -0.0472552334656232 -0.0983352025064842
-0.25815963762002136 0.22429655052290964 0.348897850277698 0.17314471482598873 -0.3328286885924399 0.38138913537512525 -0.08782848956218735 0.02296534946930555
0.11969749015197129 -0.25954184119521817 0.30848375685629037 -0.19539308336066616 0.3657186716177332 -0.10231384216252108 0.23527841797909446 0.03229527376298653
-0.24091530406630568 0.39997497001952914 -0.23895833328782953 -0.30242818409149586 -0.18664686564239147 -0.1872158913216187 -0.28823680945850144 -0.1357521708289068
0.32700164320387465 0.28545033782501344 -0.2986355924719496 0.3204208585457653 -0.19818109690301144 0.2343993963103069 -0.15002025177224007 0.09392050424404655
-0.43819819677605154 -0.2702448888960881 -0.2819758475082352 0.10730221849405323 -0.167771981224573 -0.13569706136256615 0.4229552155152713 0.040557217216465616
0.2685502976278177 0.13742410659383167 0.2753373156346787 0.16650366285368495 -0.210272036825904 -0.1615676360317314 0.2505594440063567 -0.31212003060215787
-0.23038153231192068 -0.42034016972172555 -0.5330622032370764 0.6516871825978976 -0.07189204452458436 -0.036713982150345284 0.023530707783502077 -0.2648076058757845
-0.08178581389701085 -0.08814754588994304 -0.22341741761505612 0.05210988154727608 0.022317922989357558 -0.25834567424769056 -0.041515973057668555 -0.004209972414954346
-0.31261520407106486 0.23133337617223837 0.3949096937894167 -0.025524419557711706 -0.26598135674804335 -0.29343149818242825 0.33574323456543204 0.27323485716845414
-0.3523623449157031 0.36250349592421244 -0.34581036988752445 -0.2957150733895752 -0.047408845542243686 -0.2348674220683012 -0.2924170250695817 0.0044777844016802805
0.06807593436401631 0.3699293955979161 0.029042449508051252 -0.012766176109844898 0.2041620087531611 0.043254134389221106 0.00392971844460658 0.1673138735505012
-0.1555508760880722 0.05757731077663299 -0.41643497632456206 0.28650457862249906 -0.06583896003004537 -0.2774546340826266 -0.09865393974082766 0.26544809388110413
-0.03368978209252049 0.03900757913869821 -0.0366190374783132 0.20699619345394377 0.2057611146792259 -0.3269520373250558 -0.16550315998918463 0.09252041735620552
-0.12296905552947002 -0.09802035492887665 0.07093151291479574 -0.026968125245919773 -0.29312811112645953 0.2945397756920049 -0.006039554565405332 -0.16723446457087907
0.18298197354703505 0.08816486625554026 0.2987946255443707 0.0693487534351067 -0.23239201421150094 0.26385407025786395 -0.09338659348268472 0.34879979787002396
0.16097378402222917 0.05380844849829983 0.03714284958116658 0.101288095300929 -0.113294670729509 0.006800050339190303 -0.17772031850985265 -0.07689473683120347
0.10095129331515737 0.5234963309348055 -0.06800778217934485 -0.3326270013792347 -0.47313686792085013 -0.320905175757048 -0.3389117278177903 0.21588817010491274
0.0798951892424757 0.14431007911224147 0.02145436958924636 -0.07172725683161044 -0.38040770090109305 0.10723547850954958 0.09139270733765076 -0.34387180908113696
