LSTM-CNNmodel_B0007.pt (torch, 26409 bytes, 14 tensors)

lstm.weight_ih_l0 f8 [88, 7]
0	0x3febd093843dda6d	0.869210966381457
1	0x3fd6877ab58d6014	0.35201900224410676
2	0xbfd6c19c1c9c9d97	-0.3555670051013861
3	0x3fb0ef085045b1db	0.0661473461129342
4	0x3fc48e8bd1a0e804	0.16060016380089348
5	0xbfee3b1a3e0baa33	-0.9447146617724854
6	0xbfd899263b56ab4d	-0.38434749407558827
7	0xbfd2ccf48e13cd04	-0.2937594783281414
8	0x3faa46128c68a8f1	0.05131586040472936
9	0xbfb72985e988a020	-0.09047734214311776
10	0x3f73c58dcbf69f97	0.004827073949321823
11	0xbfb116ef3d9cbdb8	-0.06675620321470077
12	0x3fc2e169c734a8d9	0.1475040648159112
13	0xbfb940424cbb3890	-0.09863676427196055
14	0xbfea782f8f0ea1e9	-0.8271711153111571
15	0x3f98e948c86049af	0.024327409009922082
16	0x3ff633242413aa83	1.3874856385470202
17	0x3fa90c4a7a3e7996	0.04892189733731127
18	0xbfcb74e79f1d3fe0	-0.21450515050173546
19	0xbfbc8cf0fb907724	-0.11152559415537816
20	0xbfe3f638b1724de1	-0.6238063302757234
21	0xbfb4a71f1df3782b	-0.08067507249094834
22	0xbfb95344a6657559	-0.09892682135019494
23	0x3fd31d4eded3444f	0.29866382370261574
24	0x3fbc3b532edc4a9b	0.11028022665076735
25	0x3fd03f9fb4e0bfd3	0.2538832918535238
26	0x3fa90857a58f5104	0.048891772231998615
27	0xbfc81a8dc3dbc344	-0.1883103567447738
28	0x3fe1afd4d4b98f80	0.5527137903959414
29	0x3fc4c6ea382785b3	0.16232040159142755
30	0xbfddd6e671758995	-0.46624146537774297
31	0xbfc75b210210567a	-0.18246853447697103
32	0x3fcb571d5ce37695	0.21359602962086358
33	0xbff5a630937ce40d	-1.353073669552262
34	0xbfc1495adafb9bb9	-0.13505111401101802
35	0x3fcddc4ef670ef06	0.23328578027018682
36	0x3fda96483d028625	0.41542249639505463
37	0xbfb565ae7cba5230	-0.08358278794396123
38	0x3fa452c67fdc41c9	0.03969402609630241
39	0x3f9250fb4fa9cd82	0.017887045609723547
40	0xbff1d235f9393c8f	-1.1138210044189554
41	0xbfe34d9c89cfaef4	-0.6032240573526608
42	0x3f64ad9d852840f9	0.0025241924825040144
43	0xbfd7fbe86ccf69e4	-0.37475023866650603
44	0xbfa779b4fbd3c3f2	-0.045850425472856574
45	0xbfb4b8358209132e	-0.08093580650991036
46	0x3fbbab05a632ffbd	0.10807833964918152
47	0x3fbea49779bae3a3	0.11969897005009371
48	0x3fd978f15c58eea5	0.3980067636327738
49	0x3fc9618ba9f4cddd	0.19828935431142627
50	0x3fa14021996bc776	0.033692407587195314
51	0xbfb70eb14dcfe0f0	-0.09006794118602435
52	0x3fb38039b16375f1	0.07617531376623511
53	0x3fa52467ada131ca	0.041293373055484375
54	0xbfd02a5b3717b50a	-0.2525852239621861
55	0xbfc905f2e30ff43b	-0.1954940422728287
56	0xbfbaa1c68a7e1156	-0.10403099900401477
57	0x3fb5630f05dd2bd2	0.08354276555216636
58	0x3fd65c8f9beb7837	0.34939947344344396
59	0x3fc6bd329f9b9be8	0.17764885705329836
60	0xbfd2bb988f4fc6a7	-0.29269994731212495
61	0x3fb76af387b50289	0.09147569716606986
62	0xbfb55fb5bb1dc14b	-0.08349166696803427
63	0x3fc653c0558ae624	0.17443088700183396
64	0x3fcc013e2239242d	0.21878792449050036
65	0x3fc5705185f71710	0.16749018708485908
66	0xbfa796a1c8981b49	-0.04607110570582635
67	0xbf788d5433731434	-0.005994156751687508
68	0xbfcfdfe1555f0bc6	-0.249019781766121
69	0xbfab121afc40a0ea	-0.05287250832799535
70	0x3ff73a1b6c42b5ff	1.4516863087586669
71	0xbfb68a51573caa22	-0.08804806117829192
72	0xbfe655fd0d50093a	-0.6979966411602512
73	0x3fc912f5ecd5d6f9	0.19589113296722596
74	0x3fcef589bd7b7b2c	0.24186822654788764
75	0xbff98b9f25c21130	-1.5965873217510982
76	0x3f9a7fd647c61d0e	0.025878284579019577
77	0x3fee73e4551c3e6a	0.9516469633399087
78	0x3f8079b6eebaad24	0.008044652138173243
79	0xbfe32ac3331442d0	-0.5989700315131703
80	0x3fc2e24d467e94e6	0.14753118459808617
81	0x3fd98fc436458ed1	0.399399807929723
82	0xbff64f4d0d43cd32	-1.3943605917127795
83	0xbfd2fe5395a1a021	-0.2967728577846192
84	0x3fccdbc5059ffd2e	0.2254568364587412
85	0x3f9ed184aa1da18a	0.03009612358383288
86	0x3fb63f47e972eba8	0.08690308999477614
87	0x3fd2bb1ea2877744	0.29267087814320214
88	0xbfa47271ed5a09df	-0.03993564627036838
89	0xbfc27a0d1115d597	-0.14434970220797247
90	0xbfe33ceaddbc9ed8	-0.6011862116619922
91	0x3fbfdc199cf75b75	0.1244522102564199
92	0x3fc493eda50a11cd	0.16076441343842732
93	0xbfd355f18eef59da	-0.3021205802773729
94	0xbfdd09c821c3d545	-0.4537220315681519
95	0xbfb6340cf4aea7a2	-0.08673172925651199
96	0x3fd7bb065312b8e9	0.37079008209810965
97	0x3fe8e575359dc44c	0.7780099913781071
98	0xbfe7ff4aa0719bc9	-0.7499135144870418
99	0xbfc83386c87b012b	-0.18907246388517626
100	0x3fdcbed4b612c15e	0.44914739399520964
101	0x3fdd3169c4d8891d	0.4561409399340322
102	0x3fabcdeb06de2253	0.05430540522417417
103	0xbfe2f36332a44060	-0.5922103871435063
104	0xbff3e72a878fa374	-1.2439370437006945
105	0x3fecec3bca8b1e92	0.9038371044088811
106	0xbfa8b3c232b1ae18	-0.04824644917320259
107	0xbff4bcd4df7fd262	-1.2961014490548668
108	0x3fc8fcfe04ff8e83	0.19522071117454595
109	0x3fc6b94206191657	0.17752862260583654
110	0xbfeee878463f679e	-0.9658776638054751
111	0xbfae6f0a07bb3519	-0.059440911716231955
112	0xbfd6358f58a6ed36	-0.34701903970172354
113	0x3fbd8a2604efcbfd	0.11538922901654299
114	0x3fe1df0b51b2cba0	0.5584770770714051
115	0x3fcdaef0e746e3b5	0.23190127651994677
116	0xbfc00fc6386c9e13	-0.12548139338581218
117	0x3fe32192f4f123fc	0.5978483947775426
118	0xbfc58f3f8d3011c3	-0.1684340896027959
119	0xbfc3ccaafd4bfd81	-0.15468346946725478
120	0x3fc2ea7dc1169178	0.14778110435612368
121	0x3fd43e2534eae8a3	0.31629305045829365
122	0x3fc6aef74bb4e586	0.17721453854191455
123	0xbfc4c6fcea2e6817	-0.16232263025887114
124	0xbfd7bae777809e5f	-0.3707827250495707
125	0xbfd6df91dff2b772	-0.35739561910565165
126	0x3feb708882a8e811	0.8574869682263416
127	0x3fc46ecb91677b21	0.15963120078864626
128	0xbfe4857fc14f8ba1	-0.6412962699508747
129	0x3fc7d343143dc241	0.18613470543233926
130	0xbf9a5d42b01b1c1b	-0.02574638557305429
131	0xbff6a346f342db72	-1.4148625852955914
132	0xbfc6371dbe9ba337	-0.17355701262501963
133	0xbfc728223e676522	-0.18091228529991904
134	0xbf9ae2a7ae4b5da3	-0.026255245221219813
135	0x3fdc535db6162d76	0.4425882604779966
136	0x3fd5cb3e78572761	0.340530030746427
137	0xbfbdcdc58a428cc7	-0.11642107606398887
138	0x3fb7e62e27a7fcc3	0.09335602253121338
139	0xbfca03cb88adbd05	-0.2032408158661171
140	0xbf728962db2a1dba	-0.004525552899060365
141	0x3fbe1b71cf9880c4	0.11760627096419102
142	0xbfe7e5540bb7084b	-0.7467441777046216
143	0x3fd52ec22ff19142	0.33097891504282384
144	0xbf9203f74730933e	-0.017593253822400394
145	0x3fab9c52ae9f06d0	0.05392702466589372
146	0xbf8b2275294ba50d	-0.013249316523302324
147	0x3fdbb354cdb746de	0.43282051171727953
148	0x3fc482f2c5dc9147	0.16024622594080482
149	0xbffcdb8b74215b79	-1.803599790224068
150	0x3fcb6e7a9784a624	0.21430904768321668
151	0x3fa027b38d661f08	0.03155289746342588
152	0xbf9f51ba9c125295	-0.030585208679058857
153	0x3fe7f6fd665fb6e5	0.7489001273622448
154	0xbfde03643a23bab4	-0.46895700147335195
155	0x3f72bf047540423a	0.004576699651821553
156	0x3fdb9b4b1ab84be1	0.43135335549703596
157	0x3fb652f8b4d883da	0.08720354476146444
158	0xbfbdbc6c8cc65a67	-0.11615637242207698
159	0xbfb9812251eee5b5	-0.09962667942354282
160	0xbfdefbb0e1e2bf0c	-0.4841119962611493
161	0x3fba09961a0bd847	0.10170877586264836
162	0x3faa19a7c1f54684	0.05097698443081547
163	0xbfba0ef62c2ceb65	-0.10179079607489212
164	0xbf97acc02b3f1652	-0.023119928969910504
165	0xbfba3bbb9012994b	-0.1024739481677887
166	0x3fb27a3c15bf9843	0.07217765360800947
167	0xbfd6eef66aecc681	-0.3583351177395358
168	0xbfedd9b6444aad28	-0.9328261693785054
169	0xbf9f5fc37187d658	-0.03063874607501868
170	0x3fe57b2753366f14	0.671283400082276
171	0x3fc69165acdcfbfb	0.17631216946207914
172	0xbfde1eb3abe277d6	-0.4706238916932056
173	0x3fd6d391a42653d7	0.3566631415390566
174	0xbfd46e8c022c4eb3	-0.3192472478124088
175	0xbfdcf0fb66b43c25	-0.452208376213948
176	0xbfc57ee784851d2d	-0.16793531389905905
177	0x3fc44eebac270d6f	0.1586584654415719
178	0xbf81218d2c2499b8	-0.00836477557147651
179	0xbfb67a250f269a76	-0.0878012811650509
180	0xbfcdcae3a5419f1c	-0.23275418824345528
181	0xbfd22bd0503e94b3	-0.2839241775166769
182	0x3fda0c24ee9085e3	0.406991227124392
183	0xbfdab63abe845889	-0.41737240414784843
184	0xbfce84e23343f1cb	-0.23843028548425446
185	0x3fcd3676fd40d905	0.22822463384518002
186	0x3fd34605efb199d1	0.30114887626259895
187	0xbfe883c58f9db80f	-0.766085415363479
188	0x3fcad25f0306d084	0.20954501769813672
189	0xbfbe322661d8c3d1	-0.11795272721134543
190	0xbfb38e2a748d34b8	-0.07638802857873628
191	0xbfcaf8fe22c4f4bd	-0.21072365472529056
192	0xbfa6c0cfc763a7ef	-0.044439786042701594
193	0x3fadd92eb5004faa	0.058297595591425846
194	0xbfd72cf35593d736	-0.36211856228998174
195	0xbfc80fa60f585230	-0.18797755955951478
196	0x3fbadaa414b37c4b	0.10489869599722217
197	0xbfd00bc620290eb3	-0.2507186235491005
198	0xbfc623bb078cf27a	-0.17296541088753142
199	0x3fc19207d4727d2c	0.13726899979972396
200	0x3fbca36ee8fce06c	0.11186879337481209
201	0xbfe42aa50ab8e339	-0.6302056512277893
202	0xbfce2472a0ede1df	-0.23548729761002016
203	0x3f95cdbcce19db91	0.021292638854415073
204	0xbfc46f4166ef3a44	-0.15964524770829958
205	0x3fad50a74f323df6	0.0572559627699966
206	0xbf864f2faf75b6cd	-0.010893223325833113
207	0x3fcec46ca0c33c64	0.2403693947767095
208	0xbfc0a01713f8dbdf	-0.12988556361389578
209	0xbfd02a04ada9af6b	-0.2525645919729331
210	0xbfe4f2962e11adae	-0.6546126270090349
211	0x3faaaf7155ec94e3	0.052119771708285766
212	0xbfb354a1b87eafb9	-0.0755101275851179
213	0x3fc0d942a52facbf	0.1316302591870677
214	0xbfe18ddce1c39190	-0.5485672387554121
215	0xbfd71bdfab099c3c	-0.36107627585301194
216	0x3fcc4fa0a6f213c0	0.22118003989831259
217	0x3fc0dcee5618c841	0.13174227909036243
218	0x3fd0a47629613bac	0.2600379375552915
219	0xbfc0be675b7f0f21	-0.13081066100687003
220	0x3fca0b66688011ae	0.20347290136863933
221	0xbfb97d33cb1aa5b8	-0.09956668575855232
222	0xbfd407e1f4329e10	-0.3129811177009012
223	0xbfa962c4faf36ec9	-0.049581676133781345
224	0x3fd44f52eecb1179	0.3173415500607671
225	0x3fd047e3c28eecd7	0.2543877983077442
226	0xbfd61ce6f2b8fa8f	-0.34551404670120517
227	0x3fbaad56424bb7e6	0.1042074119429511
228	0x3fc47a47597d55ce	0.15998165006264603
229	0xbfe554f612d0cb69	-0.6666212432377111
230	0x3f805c1e36000236	0.007988201163244484
231	0x3fc1bf125320b5b4	0.1386435418984725
232	0xbfadbb16e7e69077	-0.05806800442522413
233	0xbfd5dcf6a18d6381	-0.34161153580276254
234	0x3fd9756d6f9ed9c8	0.39779220486107336
235	0x3f9e95b7869d9a2a	0.029867999640737754
236	0xbfe6f5485fff4598	-0.717441737646527
237	0xbfe09ca6370b4e68	-0.5191222262460089
238	0xbfbd5b4f1e22d24c	-0.11467451558821401
239	0x3fd1401f3b6bf23c	0.26953869631669014
240	0x3fb3e30511d872c9	0.07768279729539097
241	0xbfb00969f8314d7c	-0.06264364537610406
242	0xbfdeb5876955fa58	-0.47982964789108484
243	0x3fd975b554121ccc	0.3978093453410565
244	0xbfd77f17f6786ca2	-0.3671321780145239
245	0xbfd0440622ad139f	-0.2541518534310913
246	0x3fc76a370c625ba0	0.18292892555902274
247	0x3fd271b8e92989a8	0.2881910588240779
248	0xbfbd87ccce509b54	-0.11535339390739568
249	0xbfd7ff6796d2e929	-0.3749636624230726
250	0x3ff25d56154e5bd7	1.147787173487577
251	0xbfa4e400da9a6158	-0.04080202740186917
252	0xbfded262ce1251a1	-0.48159093975234596
253	0x3fd1679ea9ded2ad	0.27194944943338833
254	0x3fc3d47dabf5cf0b	0.1549222077988975
255	0x3fc98b879024a0a3	0.19957060373531474

lstm.weight_hh_l0 f8 [88, 22]
0	0xbff4cd20ac85a687	-1.300079988397927
1	0x3f9a436ee6822714	0.025647862261883494
2	0xbfab76cc3bce4496	-0.053640730190758365
3	0xbfbdebc195a035b4	-0.116878603963605
4	0xbfc2ba9bdc97b2b8	-0.14631984969255085
5	0x3fc04dc8534d3989	0.127373734163893
6	0xbfd1f2826d230bcb	-0.2804266038694407
7	0xbf40a8e134b9bffa	-0.000508413280341457
8	0x3fbaaab6cd617607	0.10416739000489637
9	0xbfd844710823e75b	-0.3791773395056361
10	0xbfe1aa6662c8ee62	-0.5520507745163281
11	0xbfd868e201e0089d	-0.3814015405952292
12	0xbfcf21bae7c466f9	-0.2432168609309924
13	0x3fd48927244e8557	0.32087114854410487
14	0x3fafc15673e3c7ef	0.062021924635601404
15	0xbfad4ef1e18eb1f3	-0.05724292639147057
16	0x3fa655e1bea6bf47	0.043623976252432466
17	0xbfc933be079b144c	-0.19689154979110624
18	0xbfc6e724ab5ce585	-0.17892893187835682
19	0xbfc0d9bb3bb8a3fd	-0.1316446344001462
20	0xbfb804a2211bf09e	-0.09382069881752605
21	0x3fbbe4f655bf91a7	0.1089624366137004
22	0xbfc83603d842b80b	-0.18914840755081772
23	0xbfa89e8933566289	-0.04808453323056933
24	0x3fc561d12b16e376	0.16704763988471044
25	0xbfc5a0893d25b8f9	-0.1689616726466239
26	0xbfe029ec37e997fe	-0.5051175205269371
27	0xbfb6e53f8a8cbabf	-0.08943555004655489
28	0x3fcc90566b11dcf3	0.22315483310715187
29	0xbfd48d228c323486	-0.32111419383074524
30	0x3fc074a0d5ac5f0a	0.1285592120482238
31	0x3fe2c863a3049b61	0.5869615730233414
32	0xbfd0c47891e5cdb3	-0.2619916367322858
33	0x3f90aa8ecb262494	0.01627562632487363
34	0x3fa8914b80e0e9f2	0.0479835123846505
35	0xbfb9194cfee647ea	-0.09804230902798819
36	0x3fd0d657b04dd665	0.26308243004982607
37	0x3fca509d19107d00	0.20558513377998366
38	0x3fa56d5f315f3920	0.04185006597218632
39	0x3fc2c25579033a97	0.14655559929675085
40	0xbfd22e394709275a	-0.2840712732037126
41	0xbfc23b903ded96c4	-0.14244273208458058
42	0xbfcb14ec3d7f3832	-0.21157601359158346
43	0xbfd057cffc2c1d27	-0.2553596460933982
44	0xbfd6c01930634ae4	-0.3554747555291853
45	0xbfc0fb15498f3c6f	-0.13266244975827443
46	0x3f786e8cfe9c2be7	0.005964804420510262
47	0xbfd722f54d253251	-0.3615086797115384
48	0x3fdfbc0ecbdbd1cf	0.495853137093289
49	0x3fe1fd5cb785d44c	0.5621779999188532
50	0x3fcf699f729c9ca7	0.24541085335042576
51	0xbfb0bd29706f86e3	-0.0653863811017135
52	0xbfaf59821b333dce	-0.06122976858170724
53	0xbf9550fd59e22792	-0.02081676350693546
54	0x3fa7c4f549714a12	0.046424546446946505
55	0xbfebac8488787922	-0.8648092904511808
56	0xbfd5252f8b5a944f	-0.33039463623783133
57	0x3fd8c3303240a6d9	0.3869133463618773
58	0x3fa476deec288834	0.03996941216270536
59	0x3fd61b0f95d8f178	0.34540166505373504
60	0x3fa3937e35101915	0.03823465726604717
61	0x3fd19da184194c24	0.2752460279490967
62	0xbfd773a667919ff2	-0.36643371690888593
63	0xbfcea1353e57b02e	-0.23929467720097491
64	0xbfc160e7102e4ef8	-0.13576973238070145
65	0xbfccc316d2d5807d	-0.22470364851597316
66	0xbfbd5cacdbc85706	-0.11469536176477044
67	0xbf96e0fd7abdda0d	-0.022342644325783968
68	0x3fe126257f592ad0	0.5359065520545645
69	0xbfbf80ea3f427fee	-0.12306083721568914
70	0xbfdfefb73fa0b703	-0.49900609220172515
71	0xbfbab3c99d660f2a	-0.10430584042302074
72	0x3fca6e385f75f32f	0.20648865376633682
73	0x3fb075f6c9341c52	0.06429998790928096
74	0x3fe13330aec21e50	0.537498799633747
75	0x3fc979b99d967d6e	0.19902725405425364
76	0xbfc66794decbd32c	-0.1750360572692896
77	0xbfd7a5aba34733ef	-0.36948672242289055
78	0xbfb6898627be524b	-0.08803595037745386
79	0xbfc29b4c474c1df5	-0.1453643177157883
80	0xbfaa6d7733b96960	-0.05161640650176724
81	0xbf88726ef2bb3d9e	-0.01193701437242006
82	0xbfd06ddad9a64834	-0.2567050099834234
83	0x3fc13529f656acf0	0.13443493393183514
84	0x3f7ac2c8b2017bb4	0.0065334167157677266
85	0xbfccfa74ef694802	-0.2263933342933911
86	0x3fd0cee25bd66193	0.2626272103166453
87	0x3fd84f2545bbbdaa	0.37983066377543173
88	0x3fc12750c44adf43	0.13401231369584296
89	0xbfc54e75e6f45e44	-0.16645692612722673
90	0x3fbbed66ae107e57	0.10909120320911235
91	0xbfd5bdf11f36ede2	-0.33971813247964466
92	0x3f98b1e4f2efc6fb	0.024116113021540802
93	0x3fe25e6158d4aa2e	0.5740210280394586
94	0xbfd2d4a9e5988180	-0.29422995969255084
95	0xbfb69a5674907179	-0.08829250665480072
96	0xbfc467628aab4f06	-0.1594050576301173
97	0xbfcb5327d8de162b	-0.2134752091334787
98	0xbfd800bd89abb402	-0.37504518932729536
99	0x3fc23262177b7dcc	0.14216257235146512
100	0x3fcd17a4dc54ff65	0.22728405722045433
101	0x3fd6de2ea26afccf	0.35731092320561414
102	0xbfd17b9ee06d2803	-0.27317020336761305
103	0xbfd8584fd779d914	-0.38039012949538287
104	0x3f9dd4704b9aa334	0.02913070165110128
105	0xbf90f7a8e658bd13	-0.016569747027628767
106	0xbfb821d64fdf7a88	-0.09426631402991792
107	0x3fd0c216eb165fb5	0.2618462844634409
108	0x3fcf649b4ddc8d6e	0.24525777150948208
109	0xbfcd251d76f2c825	-0.22769516284967142
110	0xbfc6f085fd403745	-0.17921519151462398
111	0x3fdd5afc47aca040	0.45867831229634604
112	0x3fd40cd9e18cfec9	0.3132843687671821
113	0xbfd6266b27aa22d5	-0.34609488366599567
114	0xbf7902156b38cd10	-0.006105502765012774
115	0xbfbe0883b2d993d3	-0.11731742016270567
116	0x3fc66f6ff5362bfd	0.1752757975885685
117	0x3fbb1b2195df0ae8	0.10588273915258706
118	0x3fb7fc0d6235462e	0.0936897625699877
119	0x3fd04462bab8e527	0.2541739295443954
120	0xbfc520fafa821a72	-0.16506898147436605
121	0xbfb4f5af393a59c2	-0.08187384745756446
122	0x3fc69c09c1276e9e	0.17663690501546098
123	0xbfd712d15e400f03	-0.3605235500728982
124	0xbfc2087bf78b3ad7	-0.14088391863921032
125	0x3fb44f9445bb2837	0.07933928205889705
126	0xbfafdc5e869cedbb	-0.06222815888619545
127	0xbfb9d41cc4ee6ca4	-0.10089282806295558
128	0xbfd523d79a8f48b7	-0.33031263440819764
129	0xbfd72a642a0d8a0a	-0.36196235758521367
130	0x3f8364fce79f4124	0.009469962900681646
131	0xbfb2dbd9a9be431b	-0.07366714853402494
132	0x3fcfdb9e942893a6	0.24888975366880323
133	0xbfd9b323d2566bbe	-0.4015588335111565
134	0x3fb805317328e618	0.09382924138562776
135	0x3fc515fb2831216b	0.16473330938812167
136	0xbfae54980b362fa7	-0.059239150398837474
137	0x3fc9dec451d0f6c8	0.2021108054631695
138	0xbfdba509426e469d	-0.431948008416933
139	0x3fc646a84d947622	0.17403129375536347
140	0xbfb682eba352821c	-0.08793518769608294
141	0xbfcff4eb14c34c7b	-0.24966181291401654
142	0x3fc9f7e1ee5db7d0	0.20287727488488239
143	0x3fa5f4ce81281616	0.04288335157984251
144	0xbfd70bd763b36451	-0.3600977395668155
145	0x3f8b01133d8d5432	0.013185644451065046
146	0xbfab1a9728bb4eb1	-0.052937244150283454
147	0xbfcdf24893e7e788	-0.23395640584913857
148	0xbfd040801f6fffd8	-0.2539367968565762
149	0xbfcfaff9757e1da8	-0.24755781399674714
150	0xbfb8e596c17756d6	-0.0972532484368814
151	0x3fa99a204da25607	0.05000401446993057
152	0xbfc757548e081157	-0.18235260901577519
153	0xbf96d5532f01f937	-0.022298145050165998
154	0xbf9a43cd368eaaa6	-0.02564926763049393
155	0x3fcb862642c38824	0.21503141651106816
156	0x3fca614a7a8f244f	0.20609408363660228
157	0xbfd3e70d3abf44df	-0.3109772752478203
158	0xbfce96cd16fca200	-0.23897708532719264
159	0xbfcef252140ded1d	-0.24177003840655056
160	0x3fd48eeac642ff43	0.32122296678061363
161	0xbfcc9cfa9d35d3c4	-0.22354061771662093
162	0x3fcbb0ccf5a97a68	0.2163330268403627
163	0x3fc1d19b0ac8e30f	0.13920915629002947
164	0xbfd7a02a2468b67e	-0.3691506724888781
165	0xbfd13b4b606ee217	-0.2692440454225404
166	0x3f91e6cf318b52a6	0.01748203029531461
167	0xbfc6181db1020fe6	-0.17261096137019577
168	0xbfbc94a2479c3a78	-0.11164297340676821
169	0x3fdeb722ff91b071	0.4799277778427103
170	0x3fc5864886a55247	0.16816050123692802
171	0x3fb7a0d441d646c6	0.09229780776356752
172	0x3f86b1ea2e4dad9f	0.011081532991474683
173	0x3fc145a4045cb0df	0.13493776524536025
174	0x3fdf6bd0a77ef931	0.49095550877599964
175	0x3fde49a0219f832e	0.473243744692854
176	0xbfda9ebdd3dd6daf	-0.41593881311356545
177	0x3f83d29cd0603adc	0.009679055318000555
178	0xbfa8b196ce252f4c	-0.04822989717885537
179	0xbfca9411aae61b0f	-0.20764370770140103
180	0xbfc606b652337384	-0.17207983983726305
181	0x3fc3bb93e00b455b	0.154161915203569
182	0xbfc1e731ab950486	-0.13986798170120468
183	0x3fb580e85cfa595e	0.08399822492569828
184	0x3fb19b856617b555	0.06877931349273088
185	0xbf80846bfcb5e95d	-0.008065074586501348
186	0xbfd0cdd3c7375106	-0.262562698885873
187	0xbfd80e6c9677563f	-0.37588038152657427
188	0xbfb766c6c3c56901	-0.09141199378555954
189	0x3fcbb7536457e5ea	0.21653215789392216
190	0xbfc1dea67d6faac2	-0.13960724949659747
191	0x3f9638a04a0ec170	0.02170038654338796
192	0x3fce792652bea9f0	0.23807219543716895
193	0x3fb2513366d1367d	0.07155152568994967
194	0xbfc24867ae64ddad	-0.14283462539036176
195	0x3fd70cba51657939	0.36015184353699997
196	0xbfab9076e4e5584a	-0.0538365511335291
197	0xbfa2eab3d760f42e	-0.036946888009403586
198	0xbf928d1104382d96	-0.01811625087979748
199	0xbfb7f7baad6b7afd	-0.09362379773981995
200	0x3fc547b62b336c1b	0.1662509642545452
201	0x3fc3a23bdcdf043a	0.15338848385548137
202	0xbfd938c7a3514f61	-0.3940905661486252
203	0xbfbc80f794835a40	-0.11134288192565922
204	0x3fd5f08ca7b81da3	0.34280697230175344
205	0x3fb3188fc76d0594	0.07459353083415571
206	0xbf7214b0711ce87e	-0.0044142620334303145
207	0xbfb39361a4a857c7	-0.07646761198006323
208	0xbfb03e1d753618d2	-0.06344780074695969
209	0xbfe3481c08ed77fc	-0.602552430569403
210	0xbfd08c7e11b36b2e	-0.2585749791011719
211	0x3fae18be9824609d	0.058782535621675104
212	0x3fcfcb88b3be1187	0.24839886452185686
213	0x3fc0be7e14b6d054	0.13081336985999548
214	0x3fab1749c943c305	0.052912050074047236
215	0xbfd75f79c7dc9add	-0.3652023746275697
216	0x3fc08877e69cfa95	0.12916468391809546
217	0xbf652640f6618321	-0.0025817173764583067
218	0x3fbbabc5cb28f9a1	0.10808979234659556
219	0xbfb7847e996088df	-0.09186545605237793
220	0xbfe270a116874119	-0.5762486877447685
221	0x3fc04aba7c6c2efd	0.1272805316478908
222	0x3fdde4b56eb36a74	0.4670842724860116
223	0x3f8456c0a7fbe660	0.009931092382873874
224	0xbfe3d016aa002dc3	-0.6191514320684565
225	0xbfade5ac89e0ee1c	-0.0583928983982924
226	0x3fd151f5e9b128d8	0.27062747785079244
227	0xbfbe5043a0e9e7fb	-0.11841223410183936
228	0xbfa0ccc80f6cc366	-0.03281235874454218
229	0x3fc8abb9cae16b15	0.1927406540515554
230	0xbfed7f25f24a371a	-0.9217710239624666
231	0xbff18803c9ba4196	-1.0957067375166836
232	0x3fc0786cb3488d3f	0.12867506746361276
233	0x3fb9f1d65da4a301	0.10134639536103053
234	0x3fccd9e2fa6f4e86	0.22539937237035107
235	0x3fd204f383605022	0.2815521986933637
236	0xbf9c49183dbf95a7	-0.027622584122487883
237	0xbf890d76afefc9e9	-0.01223271107116815
238	0xbff1e6a4db919796	-1.1188095642951104
239	0xbfc050567b6cc36f	-0.1274517157230792
240	0x3fb08c524cc38e18	0.06464113592260678
241	0x3fcafc866ac2885c	0.2108314534462491
242	0x3fe0260014bfcac1	0.5046387105233735
243	0xbf8b78a25eac52ec	-0.013413685335345225
244	0xbf9a9005c11e5c77	-0.02594002715303786
245	0xbfa6cf81838dfd5e	-0.04455189448253337
246	0x3fe51ff4828215ae	0.6601507710444616
247	0x3ff0988a2a7a5083	1.0372411402977668
248	0xbfc333e9d82738f6	-0.1500217729030237
249	0xbfd01a2a5df65fdd	-0.2515970151521268
250	0xbfd20dac6d583c8b	-0.2820845668620186
251	0xbfca2481025d7f0e	-0.20423901191224342
252	0x3fe5f2adc8d2a19c	0.6858738825149433
253	0x3fa8b1455172ad84	0.04822746867406649
254	0xbfbb16caeea4b601	-0.10581653906111656
255	0xbfc1b915836fc514	-0.13846081655314235

lstm.bias_ih_l0 f8 [88]
0	0x3f9df3281314cdfe	0.029247881092670618
1	0xbfd7542dfa2f5272	-0.36451291496385985
2	0xbfc3087720851ab9	-0.1486958416737332
3	0xbfd11e3a44acc97f	-0.26746994692361875
4	0x3fce36c86cce0f0b	0.2360468417428979
5	0x3fd914411307f268	0.39186121805668117
6	0x3fed63c55a15b41e	0.9184290656536438
7	0xbfdbdd88a7ce6dd9	-0.43539635073986244
8	0x3fc0aa4b2d49b043	0.13019695006676288
9	0x3fa9f053f40f7948	0.050661681692633354
10	0x3fbc074974198a5a	0.10948618969408966
11	0x3fd759d150adb66f	0.36485703352705107
12	0xbfd2927e1f9d4acf	-0.2901912029966924
13	0xbfc4e7a1945c4061	-0.16331882232816766
14	0xbfe7e0542296f8ce	-0.7461338687496892
15	0xbfbdf77875ae651c	-0.11705735085560715
16	0xbfaa250db03233ee	-0.051063945539773545
17	0xbfd36b079e1bdf6e	-0.30340757789917105
18	0xbf8069774c6ca31e	-0.008013660449778078
19	0xbfd015616e9b169a	-0.25130496789311396
20	0xbfcc68422dd9be65	-0.22193171728894182
21	0xbfddb71b6472b203	-0.4643009644449025
22	0xbfd46a55d681d4a8	-0.3189901919170759
23	0xbfcc9ce7fdda691b	-0.22353839774297843
24	0xbfc1b6c798d7a7ac	-0.13839049304016038
25	0xbfd54ca661a98d03	-0.3328033403142429
26	0x3fbebd315ed3c918	0.12007435383910481
27	0xbfc0ad6f60298fd0	-0.13029281802584913
28	0xbfa7bd9b03f01c1b	-0.0463684503848116
29	0xbfb1254ee0b0a1ff	-0.06697552667231575
30	0xbfc78d80de80bc78	-0.18400584091566308
31	0x3faed8f1530cf2d0	0.060248891246805436
32	0xbf87f74d107b64fd	-0.011702158036700267
33	0x3fc60a1fab429b8e	0.1721839510184648
34	0xbfbfb7366297cb36	-0.1238893500047141
35	0xbfeda94ff923f74d	-0.9269180170083274
36	0xbfd76800496f4454	-0.3657227246413346
37	0xbfd0591e643899f3	-0.25543937480179507
38	0xbfd516df4bb82a67	-0.3295210112998234
39	0xbfd39b1298c5bd8c	-0.3063398830335806
40	0xbfd17e20b1721bb6	-0.27332322434125034
41	0xbfd0b96b0dfc8188	-0.26131702772001875
42	0xbfe4167ab6a34983	-0.6277440611977884
43	0xbfe4cc8f4ed92d77	-0.6499706783301197
44	0x3fd91df70f390989	0.392453923097627
45	0x3fb3a09aee38de1c	0.0766693908307094
46	0xbfd134d287fa1331	-0.26884902266492633
47	0xbfd0d489f4b1a471	-0.2629723443593042
48	0x3fd01cecb30131af	0.25176541787075285
49	0x3fdea627126c82b6	0.47889115142065053
50	0xbfe40cc285f89922	-0.626557599699286
51	0xbfc6f44bcf3a8fc4	-0.17933032625762568
52	0xbfd15f2f988504e6	-0.2714346875619199
53	0xbfd4565feeb9c9b1	-0.3177718955331797
54	0x3fe1343eb8529676	0.5376275634814209
55	0x3fd9d5d98cd13afa	0.40367735625925116
56	0x3fc04f83822ac5a9	0.12742656570257552
57	0xbfcd81781c1318da	-0.23051358576612452
58	0x3fa6795c646634a6	0.04389466023995085
59	0xbfc2c29a5b740469	-0.14656381097305207
60	0xbfd6a77e663c3615	-0.3539730070486667
61	0xbfc11994b7bf94e2	-0.13359316799247895
62	0x3fd8b838512adc17	0.386243895783481
63	0xbfd2bb2ee8b34afe	-0.2926747581924899
64	0xbfc243b5d9c8d0b0	-0.14269135602956373
65	0x3fb38d673e67b521	0.07637639306604573
66	0x3fe25566867d2d10	0.5729248644578622
67	0xbfd0dbdccf125785	-0.26341934415665264
68	0xbfec7d2594a662c6	-0.8902767089194519
69	0xbfdccebc7632083e	-0.45011817495845097
70	0x3fb7538ccebf431b	0.09111862227952054
71	0xbfd39a547ebfbd37	-0.3062945592673318
72	0x3fc39b0d346cc03d	0.1531692987423429
73	0xbfd90bee6c165c17	-0.39135323100475844
74	0xbfd008619da7f83a	-0.25051155468088704
75	0xbfc375413cfe8c31	-0.15201583364714247
76	0x3fdcdf344a87613f	0.4511233070202429
77	0x3fa5d7de4f387154	0.042662570162266406
78	0xbfd1c44104647ad5	-0.27760339192347533
79	0xbfe4738aa31a0588	-0.6391041932658235
80	0xbfdbf9204f008507	-0.4370804568771551
81	0x3fc238c21877c490	0.14235712237090015
82	0xbfd822a833998381	-0.3771152976897199
83	0xbfd6937df460cc78	-0.35275219788599754
84	0x3fc4aab92cf6e6d8	0.16146006293802517
85	0xbfe15bda732fe5e0	-0.5424625634906839
86	0xbfe041407103e6bc	-0.5079652983979126
87	0xbfe4fe014dc5a3c3	-0.6560064810738527

lstm.bias_hh_l0 f8 [88]
0	0x3f85796b26299b8a	0.010485493757369974
1	0xbfd5c6fce22f5278	-0.3402702530704924
2	0xbfe0f6a2f82146bf	-0.5301070066727432
3	0xbfde9b5754acc990	-0.47823127049482483
4	0x3fd61a3be6670788	0.345351195337678
5	0x3fd1c0bf5307f268	0.27738936527729274
6	0x3fef8b43ca15b416	0.9857500979393332
7	0xbfdf67711fce6dd4	-0.4906885920151727
8	0xbfa497e30ad93ec3	-0.04022130496434564
9	0x3fdd8139ce81ef19	0.4610123173404062
10	0xbfb3dd68cbe6759d	-0.07759718874009143
11	0x3fd6517650adb66e	0.34872205618635277
12	0xbf77831fe752b0b1	-0.0057402845606412825
13	0xbfd7a0806a2e2038	-0.3691712414661228
14	0xbfe810145a96f8ce	-0.7519628304796926
15	0xbfd17acefd6b994e	-0.2731206393058486
16	0xbfd3c4b406064690	-0.30888081158000436
17	0xbfd811b8fe1bdf6a	-0.376081703332139
18	0xbf907c89a6365179	-0.01610007359484331
19	0xbfd1f0f42e9b169e	-0.28033165503834734
20	0xbfdf0a3876ecdf32	-0.4849988137607283
21	0xbfc702a668e563e3	-0.17976837274434762
22	0xbfd2a3d29681d49c	-0.29124893854106815
23	0xbfc9f26efdda6916	-0.20271098513769265
24	0xbfdd43ceec6bd3d8	-0.45726368988044674
25	0xbfde972201a98d16	-0.4779744163735854
26	0x3fca522e0f69e481	0.20563293221110615
27	0xbfb21f0ac0531fa7	-0.07078616328646935
28	0x3fc23dd3bf03f902	0.14251181437425237
29	0xbfc78677705850f4	-0.183791093688917
30	0xbfc13b21de80bc69	-0.13461707462690534
31	0xbfc6174cbb3cc35b	-0.17258605139206903
32	0x3fcea42d4ef8499c	0.2393852840037426
33	0xbf88a1b74bd647e2	-0.01202719879328024
34	0xbfd5de7018a5f2da	-0.3417015305238188
35	0xbfe3300ed923f751	-0.5996164551758999
36	0xbfc54a7ab2de889e	-0.1663354276070707
37	0xbfbc6db990e267d5	-0.11104926860062332
38	0xbfcf5422177054d5	-0.24475504059288392
39	0xbfddb76a58c5bd8f	-0.46431978863889695
40	0xbfe353c8a8b90ddd	-0.6039775176399719
41	0xbfcb430b9bf90322	-0.2129835616670102
42	0xbfe0bcb386a3498c	-0.5230348233838398
43	0xbfdf40a6cdb25afd	-0.4883210190541119
44	0x3fe5b5357f9c84bd	0.6783702366266408
45	0xbfcd215548e39110	-0.22757974680929083
46	0xbfd19eb377fa1331	-0.275311343350313
47	0x3fade89d5a72dc70	0.058415334025476606
48	0x3fd7a8c6bb01319d	0.3696762872903266
49	0x3fe1d7d949364153	0.5575987272186843
50	0xbfdb70cc6bf13237	-0.4287596754191187
51	0x3f945ed1862b8209	0.01989295369537739
52	0xbfc04773d10a09d7	-0.1271805544566422
53	0xbfd37b4a5eb9c9b2	-0.30440005541381787
54	0x3fd7864708a52ce3	0.3675706467081012
55	0x3fe23c8c26689d78	0.5698910474938392
56	0xbfbd301dfbaa74c8	-0.11401545900521903
57	0xbfcc35137c1318dc	-0.22036975439386353
58	0xbfd7693983733957	-0.3657974036876985
59	0xbfd1b3526dba022c	-0.2765699454830919
60	0xbfd52bef863c3618	-0.3308066187754277
61	0xbf9a2eaebdfca67d	-0.02556870493496043
62	0x3fc751ffa255b823	0.18218989779001146
63	0xbfe073e8e459a582	-0.5141491374935614
64	0xbfb5a441b391a148	-0.08453760751729533
65	0x3fd1576eef99ed48	0.27096150778352923
66	0x3fe75000567d2d18	0.7285157860982592
67	0xbfbbb23c3c495e06	-0.1081884047683773
68	0xbfe9ebcb04a662ce	-0.810033330041813
69	0xbfd3daa896320835	-0.3102208582641908
70	0x3f9a0c0ebafd0c70	0.02543662086760573
71	0x3fb25fcf85010b0a	0.07177445408983033
72	0xbfa31d1b2e4cff28	-0.03733143749422957
73	0xbfda126a0c165c1a	-0.40737391643910004
74	0xbfc280381b4ff067	-0.14453793843847793
75	0xbfd6f30b7e7f4604	-0.3585842833827828
76	0x3fe1ed6cad43b0a3	0.5602324852057062
77	0x3fc9305413ce1c60	0.19678736655280016
78	0xbfc6df0788c8f5ac	-0.1786813180823804
79	0xbfe2af0cb31a058d	-0.5838683603362128
80	0xbfd6bbc46f008500	-0.35521040763894973
81	0xbfbeede70f1076f6	-0.12081760518818982
82	0xbfc411d56733071a	-0.15679423846273083
83	0xbfc1780408c198d8	-0.13647509028959948
84	0x3fa4546eb3db9b68	0.03970666833429598
85	0xbfe23fd1632fe5e1	-0.5702902734039378
86	0xbfe59aa55103e6bc	-0.6751276571587463
87	0xbfe65fe91dc5a3be	-0.6992078382000881

dense1.weight f8 [1, 22]
0	0x3fe232684e2ae4da	0.5686532522878693
1	0x3fb5d623aba94ce3	0.08529875698995996
2	0x3fe59dabf873f696	0.6754970409962933
3	0x3fa7c244c6eb3657	0.04640402725418074
4	0x3fe29a50903279ef	0.5813372436858212
5	0x3fc7fe723002ab25	0.1874525770593546
6	0x3f95b442abd4f3d9	0.02119545148638111
7	0x3fadca84b1c27cb2	0.05818571729582213
8	0x3fdc3dbe251b32a9	0.4412684786191599
9	0xbf850fb9eb900e3e	-0.010283901692680005
10	0x3fde05c7e215670e	0.4691028316352551
11	0x3fdb61dbb8bd98a1	0.42784779587817395
12	0x3fc4532e0e6d0cb4	0.15878844932931246
13	0xbfdcb24b4228c615	-0.4483822008215566
14	0x3fc16497fc697d93	0.13588237595375272
15	0x3fe0dad17a7770a7	0.5267112152028134
16	0xbfc7546f2d538773	-0.1822642299003366
17	0xbf89549ccfb84bcc	-0.012368416871174313
18	0x3fe65b3079465ad8	0.6986315125130558
19	0xbfc7c1ad41d89fa2	-0.18559804644723693
20	0x3fc89f95457cc6a8	0.19237008946361311
21	0x3fe0d9e3b7615bd2	0.526597841419852

dense1.bias f8 [1]
0	0x3fd06bfa5ddf6e53	0.2565904537893619

conv1.weight f8 [1, 12, 1]
0	0xbfb3afd15e2d31c4	-0.07690151738388012
1	0xbf96e90475a66eac	-0.022373265915674054
2	0x3f7b18caaf4b3c58	0.00661544011809586
3	0xbf521257772011bd	-0.0011030058053630297
4	0x3f5380499c879801	0.0011902541028745441
5	0xbf8166e9e21d5a4a	-0.008497073376628656
6	0x3f67b4969ded4738	0.0028937284218181446
7	0x3f924e1c70a461c9	0.017876095175866333
8	0x3fb190866c9fd613	0.06861152793847962
9	0x3fcf89c4d2b6162b	0.24639187134396087
10	0x3fe0fdb3e3cd1501	0.5309695672264355
11	0x4000c0af0c7304ff	2.094083878765218

conv1.bias f8 [1]
0	0x3fcada94782a7481	0.20979553096268336

batch1.weight f8 [1]
0	0x3fe9642d7a76f5fe	0.7934787170303819

batch1.bias f8 [1]
0	0xbfebdbef89be3a93	-0.8705976190847927

batch1.running_mean f8 [1]
0	0x3ff43abb3ad9b289	1.2643387125819194

batch1.running_var f8 [1]
0	0x400ec252220fe073	3.8448832188697053

dense2.weight f8 [1, 3]
0	0xbf759db1243b0eac	-0.005277339896284577
1	0x3febedeef368712d	0.8727946046888398
2	0xbf5c292d447cc0a5	-0.0017188016954144205

dense2.bias f8 [1]
0	0xbf89ac2a93bb6eea	-0.012535412438800592
