PytorchLSTM/Overnight optimization/hybridmodel_B0007.pt (torch, 96571 bytes, 52 tensors)

lstm.weight_ih_l0 f8 [56, 8]
0.002711647481630004 -0.07173088767951177 -0.19742233840621853 -0.06803250368679369 -0.11341033920373653 0.2191443083207665 0.03941806049582459 -0.11344202259115437
0.05176950306236596 -0.13682539800958007 -0.3628218618309323 -0.019238134528395116 0.1573637011690321 0.10461618676499822 -0.10171130191439462 0.21107551139661299
0.45110255003316546 0.032084213172500396 -0.14318567128986037 -0.11398843186695395 -0.19364676855957783 0.27187482576086924 -0.05317597639079305 0.2598575380577229
0.24319088884265902 0.29734121893872084 0.1204401372258308 -0.23127145979215974 -0.08963152720474633 0.13778918403733537 -0.0007018743000200974 -0.2341065268914109
0.20412316932259517 0.010676644765065534 -0.21604223758498117 -0.36308264556201597 0.34847578283880143 0.10298398242658195 -0.10792253450680499 0.21896671527463735
0.24520519124271778 -0.35298239114570584 0.032013031099867514 -0.13943613549715028 -0.296723652359788 -0.007572004817730152 -0.23276641901468262 0.061513528612896586
0.1352111784006512 0.24180339550023203 -0.017560355220996953 0.15308242536643385 0.09841154370367708 -0.09627017853179107 0.05928079274500179 0.10254419006095367
0.40958324913924044 -0.08809403573029864 0.1644132448876045 -0.04017067264952796 -0.025089914947428762 0.12099013854899363 -0.12064420660888948 0.2091848310420894
0.41648485457850476 -0.06493231691342685 0.034618295523017865 -0.03329628315520867 -0.21294066609273238 -0.10578231272417368 0.19640078621955775 0.1266696151979716
0.0294400035765471 -0.1068976484187723 -0.1499359538650981 -0.39263303482926243 0.12430197722209486 0.04819587330855088 0.18317370570217562 0.09750747419328525
-0.19175193819946748 0.3235478300066065 -0.09289356479226592 -0.2908320206121801 0.3433911268987646 -0.17716122382184002 -0.11472269397968779 0.2679284192198298
0.2084007835614336 -0.22043267157916613 -0.07971324999886487 -0.14136239623417732 0.2877858464854565 -0.18030202529027997 -0.150439088548129 0.0550253116327706
0.05892620756962604 -0.04831638368243031 -0.23965971959578514 0.06283093017565368 -0.1713514831301868 0.10722804828754241 0.02252747168490234 -0.02642060896638574
-0.094734289846213 0.169546327608301 -0.16538624496800308 0.008634825475712054 0.08241669241218574 0.06097036047759863 -0.06446167512892784 -0.07107946968809306
-0.038293226904530214 0.09694794752795821 0.19768303875773297 0.3957039717209649 -0.05579615255156219 0.2715064200582375 -0.06013584599035365 0.006796694446145247
-0.06372267122703702 0.47369362667219944 0.03402867218195208 0.06295609290989289 0.018011701902029126 -0.22000426784577057 -0.09222431673839929 0.024459705018490874
-0.3487397493326719 0.1643878508025033 -0.10227221610403468 0.16383372412465821 -0.18299301973329185 0.09557666945810522 -0.22436238946792242 0.1825234636352149
0.4454647532386455 0.07479421514688776 -0.02673354931061689 0.07155305055373154 0.17207698773067795 0.23445910079074675 -0.1241120163219628 0.012571027551447298
-0.08501318463504524 0.21955314504434037 0.0028761117872616033 0.0026433303861534197 0.49534264197434996 -0.27565587970319244 -0.20035236962230943 -0.04689728683773129
0.02772333335842554 -0.12757219295299116 -0.22747992956207358 -0.2770698391715206 -0.13932706034225278 -0.06903325060917936 0.052968816433509015 0.1053365486755279
-0.1626209551178959 0.38759424526654307 0.06858471530389364 -0.10777077099741153 0.01723349521682899 -0.1320871013466252 0.18377933778742098 -0.20149488506938726
-0.02442831988345336 -0.040729424430284836 0.18869551111404612 0.00030969457740946096 0.008333800987515919 0.2895341343770591 -0.3893008102820919 -0.2949668560572065
-0.25850302354880195 0.07714548920325731 -0.14316593914715164 0.08109936007242276 -0.1339199293546877 -0.15156403022680107 0.12448109270913296 -0.037445016795974326
-0.07241874674978516 0.28006937481490674 -0.2541540524472347 -0.06052713725766039 0.2756370901789728 -0.20523484589815852 0.03287827354736142 -0.12803468162467893
-0.20901643238828413 0.13151740285819252 -0.20530216253245293 -0.14866271302919834 0.059342208306114246 -0.14660429028466437 -0.16544100249563434 -0.1511562343406961
-0.2488870038208817 0.10476798117184101 0.029494467017803012 0.04687003159530543 0.016118449079958786 0.23801830855358755 -0.23652612829064767 0.2580968483645335
-0.18146797956538246 0.059826954608040286 -0.14877384850802017 0.30195015260265656 -0.1476954537544137 0.17323440286991518 -0.2083484405590172 -0.375266637004713
0.16262475583398045 0.29704040530788445 0.12822104349654692 0.05410190909397239 0.375700630311437 -0.2219381627415622 -0.08963717896869296 0.001170340048560375
0.0909626704788096 -0.07150416952296788 -0.16041233039753997 0.07262109148089095 -0.46267535881494914 -0.08949628961302449 -0.021105289130118998 -0.3122563855148594
0.004745597033476465 0.0952266714597699 0.02780909136609655 -0.22624096077711844 0.45893268302561313 -0.2066130775816522 -0.121152971592437 -0.2247335010766071
-0.1645131171791753 0.2702711837662045 -0.09403219894104063 -0.05926563985373598 0.37715089430652105 0.09605637842556874 -0.13692858840075164 -0.11022395146427069
0.026326595769472876 -0.011976553956636275 0.17618926282179034 -0.36458318746957497 -0.20200211401918128 0.17941385710152 0.014359549649725746 0.18033571264050594
00000000: 0f6a 0fa8 bc36 663f 4251 b298 f45c b2bf
00000010: ce2e 7a9b 2245 c9bf df57 6602 946a b1bf
00000020: 5687 e8c1 7508 bdbf 49ce abb2 eb0c cc3f
00000030: e912 67a1 9a2e a43f e366 0551 890a bdbf
00000040: 6383 2a45 8881 aa3f 654e dba0 7e83 c1bf
00000050: a19c b52f 7938 d7bf eec1 8a5a 29b3 93bf
00000060: f89b 0c67 7e24 c43f 83b3 c95c 20c8 ba3f
00000070: ba1c 5b7b c009 babf b9ab 37b9 8504 cb3f
00000080: b237 e23a ddde dc3f 8b6a 968c 576d a03f
00000090: 8c0e b977 e853 c2bf 10ab fd8a 582e bdbf
000000a0: 7b40 f8d4 6ac9 c8bf 95e9 4fab 6566 d13f
000000b0: bc09 10af e139 abbf 7ded e482 81a1 d03f
000000c0: 97d7 2109 e120 cf3f a10d c676 a307 d33f
000000d0: f0bc 8232 2ad5 be3f ca1a 279e 4d9a cdbf
000000e0: 81f0 087e 17f2 b6bf a268 9773 13a3 c13f
000000f0: 82fb 0d95 bfff 46bf 39ae 63e2 33f7 cdbf
00000100: 6257 4c40 b520 ca3f 2696 c600 a3dd 853f
00000110: 4bb7 7da4 45a7 cbbf f4c6 1bfe be3c d7bf
00000120: d066 af5e 6d4d d63f c3b4 8884 285d ba3f
00000130: e749 35ac cfa0 bbbf b230 82f0 1907 cc3f
00000140: f833 993a e262 cf3f 4e38 8274 4397 d6bf
00000150: 6e51 3d13 0364 a03f 20a2 eb14 0bd9 c1bf
00000160: 0770 b533 85fd d2bf 1db9 ea90 d203 7fbf
00000170: 4b36 a33e 4acb cdbf add2 4e83 b37e af3f
00000180: d367 a492 994e c13f ad1c dee5 69f3 ce3f
00000190: db73 857d 57fb 91bf da45 4575 3498 c33f
000001a0: 3694 c1b9 7f31 b93f 96c6 5f94 29a5 b8bf
000001b0: 35d1 3d54 0d5a ae3f 04e4 b406 5640 ba3f
000001c0: a1b7 02a9 9c36 da3f 822d 6faa 548d b6bf
000001d0: ee26 e942 7e0b c53f 897a 931a 4091 a4bf
000001e0: 676f a2b0 2bb1 99bf 06d9 34b0 35f9 be3f
000001f0: bd48 d6e9 89e2 bebf 5091 128c 91c6 ca3f
00000200: 656a 6c17 b0a7 da3f c2bf 9881 679f b0bf
00000210: 1fb0 3a3e 7db9 a13f 89bf 75de 350c a1bf
00000220: b6a9 6dc6 a341 cbbf 1e44 a5b5 8c14 bbbf
00000230: 4660 dc34 a923 c93f 680a 56bf b536 c03f
00000240: e6b8 3832 8525 9e3f d459 faef a45d bbbf
00000250: 3d2e 2cf1 1931 c3bf 35f0 fa4e e620 d9bf
00000260: a53d ff1e 41d2 bf3f 2c24 5327 21ad a83f
00000270: 382e bd69 3c72 c73f db95 c6f4 3ff6 b83f
00000280: 2173 c1d7 538b c8bf 367d 24f5 01b5 d43f
00000290: dda8 ca66 dfc7 b7bf 9b2b 4ae8 fd9c d2bf
000002a0: ec12 f1c6 1efa d53f de91 370f 38ad c6bf
000002b0: 5674 c06a 775e bdbf 1ef6 8d3d bd25 d13f
000002c0: 7eb6 ed7a e0ac ca3f bc82 b345 2337 ccbf
000002d0: 3091 cd69 1668 b4bf cbe0 5aba 2918 c2bf
000002e0: 9307 ba53 156b d23f d51c 0303 2314 c7bf
000002f0: 7758 ad8a 9641 c3bf 6375 d413 472c ac3f
00000300: 8b17 c76c 932b ae3f 62d6 8dcf ecbc a8bf
00000310: fc8c ea70 2bad cebf f91c 4816 b015 b03f
00000320: d926 156c d8ee c5bf 19e1 9b20 4c73 bb3f
00000330: 65c7 9708 7111 973f 1adb cd0d 010e 9bbf
00000340: 5703 b3a4 8140 b8bf e305 1eae b1b3 c53f
00000350: c243 ac60 602b c5bf 09e5 32a8 22af 813f
00000360: 4809 8ea6 4219 b53f c0a0 8dd0 8137 af3f
00000370: d62c 8672 8f80 b0bf c635 ba9d 4332 b2bf
00000380: 0431 6d7a 2b9b a3bf f001 0ca8 94d1 b83f
00000390: 4c1c 3885 ad4d c93f 2b16 5cc0 3653 d93f
000003a0: 5b36 e734 5091 acbf 7f77 b376 5c60 d13f
000003b0: c714 b127 20ca aebf dba2 dfc5 d9d6 7b3f
000003c0: 0913 ef04 2150 b0bf e15d b812 ff50 de3f
000003d0: 05ab 4bc4 346c a13f ffc5 21f8 e31d b03f
000003e0: b543 75da a871 923f 9962 b08f 1929 ccbf
000003f0: 1a91 4948 039c b7bf f034 7f04 f70b 993f
00000400: 75bd 8c86 c051 d6bf b43a 873d a90a c53f
00000410: 57ce 740f 832e babf 1b74 8ce3 80f8 c43f
00000420: 784c 93b5 506c c7bf 3c4a 956d b677 b83f
00000430: 4ccb 9b22 e8b7 ccbf 316f 88c9 ed5c c73f
00000440: 7790 ab98 7e82 dc3f 0762 fcb3 b625 b33f
00000450: 40fc fa1f 0a60 9bbf faab 0efc 4c51 b23f
00000460: 3546 5965 9e06 c63f 65aa 127d c102 ce3f
00000470: 09b9 241b cec5 bfbf 2545 afc1 d6be 893f
00000480: 0f80 bc8f 6cc3 b5bf 7e85 d944 511a cc3f
00000490: 7f16 1cc2 a48f 673f 4d23 f431 77a7 653f
000004a0: 3e05 e69f b1b3 df3f df9e 118f 58a4 d1bf
000004b0: 251a 9a7d 25a5 c9bf bd76 7ad2 eb02 a8bf
000004c0: 5332 7168 8163 9c3f 4059 4e1e 4954 c0bf
000004d0: 2a95 fbf4 0f1e cdbf 3ec7 7c22 83bb d1bf
000004e0: e213 cf17 78d5 c1bf a4f7 b3c1 29ac b1bf
000004f0: ed59 948c ba1e ab3f 1989 a207 56f7 ba3f
00000500: 3115 f071 c3d0 c4bf 2068 e217 58ce d83f
00000510: 6f56 3c95 c48e b13f da09 e680 dd96 bbbf
00000520: 9180 6849 a8a5 913f b2eb 40ea 3ae8 c0bf
00000530: 0d1f bdd2 1486 c73f 0b97 d79a 95ca c9bf
00000540: f58d fbcb bc03 99bf b271 d3b3 7cda a4bf
00000550: bb83 91ac 2c27 c83f 96be eb14 d04b 343f
00000560: 48c2 8ad5 4f11 813f aa68 8e2d ba87 d23f
00000570: d5f1 1df2 4dea d8bf 68db 0aaa bce0 d2bf
00000580: 4cca 0344 508b d0bf 0473 2989 cebf b33f
00000590: dae1 44f1 4253 c2bf 4dd2 3c7b edc2 b43f
000005a0: b535 6eca 4924 c1bf ff7a 893c 7366 c3bf
000005b0: 36f4 272e fedd bf3f fee1 1245 fe2b a3bf
000005c0: ac5a e8f4 088a b2bf 773c 5c19 a8ec d13f
000005d0: 0f08 da5b 0f44 d0bf 4695 15b6 69fd aebf
000005e0: d787 f8bf 09a4 d13f 9feb 90ab 2245 cabf
000005f0: 440c 45cb 6bd5 a03f 6177 2ac1 7063 c0bf
00000600: 5796 b7ea 0cc1 cabf dabd 10f0 8fd5 c03f
00000610: c0fe ef5c 5747 cabf 452a 4c39 6107 c3bf
00000620: cff4 e417 1a62 ae3f 14eb 1cec edc3 c2bf
00000630: 216f 91b7 2b2d c5bf f336 8a65 1659 c3bf
00000640: d0b1 e782 87db cfbf 650e cd0c 13d2 ba3f
00000650: 4285 042d cc33 9e3f 9d88 ba49 59ff a73f
00000660: 2d85 a4ce 5a81 903f 651f 8b49 6277 ce3f
00000670: d833 d4f8 7c46 cebf 3249 bba4 a884 d03f
00000680: ea93 c0be 573a c7bf 3aef eb7a a3a1 ae3f
00000690: d2c6 eb7e 050b c3bf f2d6 9cbb 2653 d33f
000006a0: af50 d243 afe7 c2bf e326 6f7f 8b2c c63f
000006b0: 6ed1 2f65 29ab cabf f3c4 4d5b 5e04 d8bf
000006c0: e2d8 e953 e3d0 c43f 26d4 98c2 b502 d33f
000006d0: 4703 3d12 8c69 c03f d067 6bd4 3eb3 ab3f
000006e0: a18c 11a8 7a0b d83f 80cb 5a3f 7868 ccbf
000006f0: c11d 2d50 76f2 b6bf 1805 f60e c32c 533f
00000700: 0202 dd5e 5449 b73f 2ff8 a0e5 184e b2bf
00000710: cf5e 7728 6488 c4bf 3306 e9bc 4b97 b23f
00000720: 0e9e b11b 799c ddbf 3154 0095 3ae9 b6bf
00000730: a08f 58fa 9f9c 95bf 2b39 f034 02fc d3bf
00000740: 24bf f080 1e70 733f 066c a06f c660 b83f
00000750: 20a2 cb87 fc79 9c3f edd3 c6bb 76f5 ccbf
00000760: 5546 2a30 275f dd3f 42ce 911d 4c72 cabf
00000770: f97f cd92 e103 bfbf 1645 b83e 11c4 ccbf
00000780: e516 060d c40e c5bf 76ee d481 1f4c d13f
00000790: 2f05 3983 7e12 b8bf ec88 e5e1 1058 aebf
000007a0: c608 2d81 3d23 d83f ecf6 e89b 2697 b83f
000007b0: 49ca 8840 e086 c1bf 1262 c60a a337 bcbf
000007c0: ee2c 61ef 5bf5 9a3f e210 80dc 2987 88bf
000007d0: 8beb dca8 5e8d c63f d69b b6b8 5455 d7bf
000007e0: 2ab6 b78c 34db c9bf a7a1 5984 08f7 c63f
000007f0: 8100 0c21 8a68 8d3f fbc0 0b9a 3d15 c73f

lstm.weight_hh_l0 f8 [56, 14]
0.18029473662177736 0.05229414015378092 0.04911612676315346 -0.11097752549743169 -0.33254524137294617 0.078295156197842 -0.5167709530514076 -0.06123159848080476
-0.19456010325274176 -0.31421848984161216 0.20019769727500986 -0.12020758821783241 -0.14059162218337198 -0.01640282343359664 0.013529847461978817 0.12517827350808441
-0.07868470182519562 0.3011571403967773 -0.2429022457897918 -0.23047823134928663 -0.11603625282135119 0.25065425832775495 -0.08563695744930763 -0.1317534667276031
-0.025243447619134534 -0.07217814400302311 0.2645828237275319 0.21570387144371725 0.08369671804289242 0.14752452903081728 0.07579422852626463 0.025630422921515454
-0.13427044195184495 0.03392670609207483 0.018512327279507447 0.1824226278078409 -0.14370448623731827 -0.11366744808855236 0.25265413503999645 0.11729576233266797
-0.026719846286851166 -0.2551979215096519 -0.08048412963340915 0.053974938938426635 -0.14199491047719315 -0.24981107105176242 0.19470601136553867 0.32068325486950366
-0.326140450033343 -0.3609049906286723 0.08446995776977108 0.21502306069249344 0.32665781099397384 0.13784740137389312 -0.20378679052704804 0.3003799707725607
-0.10049862551593902 0.2061839650551615 -0.09172396140756671 0.3249799573761637 -0.03943078054391349 0.011371712970478585 -0.2364345197920811 -0.30664584185432625
0.017576610358280426 -0.1584150653607445 -0.006592812780849855 0.03540846320096339 0.0010518869249447503 0.030092797648034318 0.0931366212332291 0.163645078263961
0.19929100755948614 -0.1345962150537142 0.0988794030655027 -0.029434907755388522 0.050932560431984256 0.2648814937158695 0.27317902261495436 -0.08320659717543777
0.2887872154499804 0.032102871767927296 -0.0016004989588201896 0.35774550228786994 0.1771506197839008 -0.11355993012957766 -0.11631622100470998 0.014999528295953649
-0.24732106453901903 0.03975566453369642 0.12244701567190912 0.22964126633880275 -0.16465926649787904 0.07825851926655898 0.14694755404163956 0.18767800965786344
-0.1347907305743708 -0.1265408750787353 -0.2687272812681769 0.22237583170703687 0.24817611127889963 -0.03837438475822873 -0.218164457458295 -0.18807138810061338
-0.29357322805293395 -0.009826021843706947 0.30772870500606536 0.1821121371901455 0.08368519239855174 -0.07092932133241044 0.2206590440644601 0.06795157393972971
-0.22140411153705689 0.367389752102272 -0.14199083293276546 -0.020903021956558368 0.07270938097453311 -0.16540942079204887 0.09366238044773961 -0.24127475767559214
-0.24261392369446422 -0.17371056982061656 0.34012441825897777 -0.05866099359734744 0.28376886818454583 -0.11525654251886805 -0.07999316448698442 0.2224510607408755
0.03625759532247529 0.05579221652457477 -0.15650736049639535 -0.06008856304615205 -0.1609192781679642 -0.2992467471270933 -0.11350691537063606 -0.23470292011370883
0.1997140073596085 0.26346090901144437 0.04317432015035497 0.1683776023041418 0.26811214321572235 -0.07531726652399416 -0.26770613688583234 -0.04174002825252656
-0.03788659489975749 -0.05477076131287796 0.20305271897629668 0.21303919115163522 0.07692494189820738 0.12072122920300268 -0.19627498859961304 0.13499763066899756
-0.0027708741739639487 0.009173261710225786 -0.0768110818020766 -0.182210052855052 0.0004196159498932071 -0.1689901224212541 0.02475902089601033 -0.2130331877634262
0.08365016729125078 -0.0879516250505863 0.012254953344840279 -0.03225452060293206 -0.0688060275674604 0.0020200958612895457 -0.1379865654695832 0.12651066300600364
-0.10318114554738425 0.007510634965665574 -0.090801058467986 0.2063599795368552 -0.06220684968386655 -0.31366429556214864 0.054527353399301974 -0.14969499159919603
0.07678029856416807 -0.006540576411048238 -0.11020655523925492 0.05056698159917846 0.16976000115881962 -0.15494733616730352 -0.07369704435708321 0.00019809114442816554
-0.37304893297685376 0.18873142876041604 -0.2225566363479039 -0.15453563278570734 -0.262154859314155 0.13272828992323127 -0.12837833448539246 -0.05261016466118612
0.03346730275034386 0.16981673170058134 -0.29254261632337014 -0.015717982300288157 0.14020271197073633 -0.32972487872340334 -0.11792068938682945 0.030434693569135605
-0.11934197837895864 0.14218838891770522 0.21775806249694807 -0.15642692083962906 0.027315455316868176 0.12685432591314938 -0.014908004058814752 0.229053433210738
-0.2526658885270297 0.011931718822248196 -0.03228642517205237 -0.18443643959451997 0.0031035974812348003 -0.28085447172685735 0.0648583213353544 0.0698883550638804
0.09091632530899538 0.1110474592009232 0.10839669251253525 -0.0658557863701285 0.0968051567274439 -0.15503349336916195 0.28473814008028636 -0.24660927266254393
-0.0702171199556538 0.1597920329878254 -0.0948988969094081 0.11569719871077215 0.07814171179008089 0.12175505900624324 -0.1502202048686685 -0.11681041378769563
0.0029398448171065105 0.1613032913832403 -0.07423108818459954 -0.09673890004061717 -0.08217059348770397 -0.05270742744678931 -0.27260442414132974 -0.15543828837128773
0.011134238938456848 0.02518645335431152 0.037185609272049516 0.17759208396639634 0.06835307515497968 -0.08047087116991551 -0.05844045670337446 0.03716386479082426
0.007480837943301309 0.0694452787096062 0.008325169726348758 0.04326695352520901 0.01898562718136636 -0.1369873031777358 0.17289952131961908 0.08816873800549958
00000000: 523a b7de e513 c73f 8842 772b 4cc6 aa3f
00000010: 7fd0 4ebc bf25 a93f d13b 9aea 0569 bcbf
00000020: 60c8 08d6 6b48 d5bf c010 4ebf 260b b43f
00000030: 0f1d dc3c 6389 e0bf 85e9 e981 bf59 afbf
00000040: 28d8 4970 58e7 c8bf 52c4 6ade 271c d4bf
00000050: 2eed 4301 14a0 c93f 816a 20ac ecc5 bebf
00000060: fd40 af01 e8fe c1bf 7862 d6d8 e6cb 90bf
00000070: bad9 f362 89b5 8b3f 1888 7177 d705 c03f
00000080: d9e3 083d ae24 b4bf aa81 3d99 2846 d33f
00000090: d863 e5b8 6b17 cfbf d2e4 0a89 4f80 cdbf
000000a0: 9ea1 0447 8db4 bdbf e5bb 8728 b80a d03f
000000b0: 4edf 92bb 4dec b5bf 2366 5d2f 4cdd c0bf
000000c0: 3b92 d917 6bd9 99bf 4e9d fa4f 447a b2bf
000000d0: a98e bfcb ecee d03f 5355 bc38 2f9c cb3f
000000e0: 7cd9 c6ea 256d b53f e5c7 c571 15e2 c23f
000000f0: 7af0 be24 4067 b33f 4e17 ec90 dc3e 9a3f
00000100: 8656 801a c62f c1bf 11c0 405a d75e a13f
00000110: 9a0d f440 e5f4 923f 5816 3eea 9f59 c73f
00000120: f9c0 569a e864 c2bf fafc 2854 4f19 bdbf
00000130: 7c8a cc3f 7c2b d03f 5c9e 2d57 1807 be3f
00000140: f61e d387 725c 9bbf 4608 b9a9 2955 d0bf
00000150: 425d 9fa0 9b9a b4bf 6f99 166b 9aa2 ab3f
00000160: d057 59a4 e32c c2bf 6e4b 2c26 cff9 cfbf
00000170: dc25 9367 20ec c83f ba84 020f 1386 d43f
00000180: 86f0 b231 7cdf d4bf 44a7 ed3e 1119 d7bf
00000190: 699c 1dba d29f b53f c8b0 c72a e085 cb3f
000001a0: aaee cc29 f6e7 d43f 82a6 5ed0 fba4 c13f
000001b0: 17d2 5580 af15 cabf 83dc b5e9 6c39 d33f
000001c0: e047 e225 47ba b9bf 268e 6f75 3c64 ca3f
000001d0: f34b 81b6 387b b7bf 6a4f 32bc 78cc d43f
000001e0: 13a2 c871 4530 a4bf cc2d 767a 0d4a 873f
000001f0: 9583 1381 7c43 cebf 7fff 8de1 15a0 d3bf
00000200: 0845 a75a 9aff 913f 4e84 75e2 f146 c4bf
00000210: dab6 84b4 1001 7bbf 9546 e6de 0e21 a23f
00000220: 4c44 45fc ee3b 513f c64b f976 a5d0 9e3f
00000230: 5ab4 4136 cdd7 b73f f3c4 a569 52f2 c43f
00000240: c46c ed23 5e82 c93f 5319 e9e2 723a c1bf
00000250: f111 6a1a 2950 b93f 2b41 ae38 2f24 9ebf
00000260: b2bd b622 d513 aa3f 89d1 3482 d1f3 d03f
00000270: 0368 05de c37b d13f 4811 ae0d 074d b5bf
00000280: 9b13 775f 7d7b d23f 06ad b3a0 c96f a03f
00000290: e4d5 ddab fa38 5abf 0885 2764 4de5 d63f
000002a0: e00f 381b dfac c63f 98e6 0a7a 4312 bdbf
000002b0: 42a4 355d e6c6 bdbf 0873 e49b 12b8 8e3f
000002c0: 844b e775 37a8 cfbf b585 01be da5a a43f
000002d0: f3bb cd07 b058 bf3f 075c 5e90 e264 cd3f
000002e0: 1abe 4b0a 8e13 c5bf 1d1d e214 c008 b43f
000002f0: 2e03 6b6d 2dcf c23f b156 d440 d505 c83f
00000300: aa78 cf99 d240 c1bf 8602 09cc 7d32 c0bf
00000310: 80bf 25e9 d332 d1bf 7b1f 4dae cf76 cc3f
00000320: b9b0 cb1c 3cc4 cf3f 5ed8 14af cea5 a3bf
00000330: 3e6b f71c d0ec cbbf 734c 9a26 b912 c8bf
00000340: ecfb 5d5d e7c9 d2bf 7b7e bf53 aa1f 84bf
00000350: a5a7 02bd d3b1 d33f ffd9 b754 734f c73f
00000360: 1ee1 828c 646c b53f dd3e 738b 6c28 b2bf
00000370: c367 e938 8e3e cc3f d769 c83b 4665 b13f
00000380: 4934 204d f856 ccbf 2c8c 8a4e 5083 d73f
00000390: 6796 e36f c12c c2bf 6492 c30e 9a67 95bf
000003a0: ece4 65fd 149d b23f 8746 60ca 222c c5bf
000003b0: 1c78 e3fc 41fa b73f 3c93 c85c 17e2 cebf
000003c0: 1836 e919 f90d cfbf 6aae 2ce0 253c c6bf
000003d0: cc92 3f35 99c4 d53f 9f5a 1a52 d008 aebf
000003e0: 906f 1ee6 4429 d23f 1ec1 c4e8 7381 bdbf
000003f0: 9d09 6099 6e7a b4bf 54d9 6bbf 4679 cc3f
00000400: 3f84 4804 5b90 a23f 1f55 b022 cc90 ac3f
00000410: 9028 75e5 6e08 c4bf de30 4b9a edc3 aebf
00000420: a67f 83be 0099 c4bf 8a18 16d4 db26 d3bf
00000430: 3000 6309 ca0e bdbf 9300 15cb be0a cebf
00000440: cbd0 1485 3a90 c93f 24a1 fe24 8bdc d03f
00000450: 2447 25ca f11a a63f 3539 a3b3 658d c53f
00000460: 6168 b1d5 bf28 d13f 876f 8b0c fe47 b3bf
00000470: d63d b7eb 1822 d1bf 13b4 8ef0 f25e a5bf
00000480: 993e 1a2c df65 a3bf 724e 3bc9 e90a acbf
00000490: 3efc aea9 a1fd c93f c29b 6143 de44 cb3f
000004a0: 7d12 b35d 5ab1 b33f f21c 5c23 96e7 be3f
000004b0: 2d70 87f0 891f c9bf ea62 6134 9a47 c13f
000004c0: 2415 acbe f1b2 66bf 7234 5858 6ec9 823f
000004d0: ce6f 4f1c e4a9 b3bf 95e7 01b5 a852 c7bf
000004e0: 3a9c 1bc8 fc7f 3b3f b4ba 92e4 77a1 c5bf
000004f0: 9d0c 1ec4 6d5a 993f 9909 34e7 ab44 cbbf
00000500: 4b23 d2ec 186a b53f 21ea 3869 ff83 b6bf
00000510: bf08 a4fe 1f19 893f 5a87 461e aa83 a0bf
00000520: ac7f 2b96 459d b1bf 8fb8 16b5 728c 603f
00000530: 2c57 fd34 8ba9 c1bf 4360 1a5c 8031 c03f
00000540: ca98 b05d 146a babf 4caf cbb8 78c3 7e3f
00000550: 46eb 8ff8 bc3e b7bf e231 a8f9 006a ca3f
00000560: 3b73 f581 93d9 afbf 0730 d768 1313 d4bf
00000570: 77c4 2c5f 02eb ab3f c692 a59a 3429 c3bf
00000580: 6c6a 4fa7 dfa7 b33f 1ae1 849c 4aca 7abf
00000590: e7b2 8e2e 7f36 bcbf dba9 7358 eae3 a93f
000005a0: d8b1 921a b2ba c53f f96e b876 50d5 c3bf
000005b0: 2e56 533b cfdd b2bf 9b02 51f9 d5f6 293f
000005c0: bf5e bca1 08e0 d7bf 786d 20f9 5928 c83f
000005d0: 189e 4f61 bc7c ccbf bbcd 70d8 d2c7 c3bf
000005e0: 4579 cf2c 25c7 d0bf 5cb5 3c98 3dfd c03f
000005f0: 539a 1086 b36e c0bf 485e 5031 b8ef aabf
00000600: 069b 9855 a022 a13f 6dda 7bfe 8dbc c53f
00000610: bfe3 72aa 04b9 d2bf 7360 c1ef 5f18 90bf
00000620: e9c6 5c97 29f2 c13f 75da b260 361a d5bf
00000630: 522e 70e0 0c30 bebf 9641 2cb6 452a 9f3f
00000640: ff74 2d26 328d bebf 63e0 22a8 3a33 c23f
00000650: 04af 6e06 7fdf cb3f 1c2f 9c1e cc05 c4bf
00000660: bd91 0b2d 95f8 9b3f d898 9336 c33c c03f
00000670: fbc9 0c6f 1688 8ebf 249c 5676 9f51 cd3f
00000680: b974 028c ad2b d0bf 4153 0331 a86f 883f
00000690: 8ffb 6fa8 d887 a0bf e9e3 1ffe 9c9b c7bf
000006a0: 1dba d135 b76c 693f 3124 c008 85f9 d1bf
000006b0: 1f41 0211 8e9a b03f cbdf 5e07 34e4 b13f
000006c0: e6e7 dfd3 4a46 b73f 6165 9235 9b6d bc3f
000006d0: 00fe 55b9 e2bf bb3f db49 b6c0 ecdb b0bf
000006e0: ad80 3a06 39c8 b83f 4010 e733 23d8 c3bf
000006f0: 8765 e451 2639 d23f afec 7c84 e490 cfbf
00000700: fe2e d4c9 bff9 b1bf 440a ecb9 1074 c43f
00000710: 9702 a74a 4b4b b8bf bb9a b3e4 549e bd3f
00000720: d083 9760 1801 b43f ddea 8dec 562b bf3f
00000730: 38ff 8d69 6a3a c3bf b8e5 0c8b 49e7 bdbf
00000740: ee7f 082b 4d15 683f dc34 9d14 96a5 c43f
00000750: cf6e 1900 cf00 b3bf 32eb ec6b e1c3 b8bf
00000760: 42fc b8cb 2109 b5bf 39cf 47ca 77fc aabf
00000770: a5a4 9bd3 5972 d1bf 39ea 8cde 66e5 c3bf
00000780: 2a28 da40 8ccd 863f 6f03 d645 7aca 993f
00000790: 621b 69ff fd09 a33f 2303 5560 56bb c63f
000007a0: a025 5f4e 967f b13f 2b96 f42f bd99 b4bf
000007b0: dacc 9b54 e8eb adbf 7436 bd5f 2407 a33f
000007c0: d8ae 0225 3aa4 7e3f 6c5b eb70 2ac7 b13f
000007d0: 33a2 aa5d c90c 813f 7cd2 c60c 1627 a63f
000007e0: 2d21 5adf f770 933f 61cc 8ec9 cc88 c1bf
000007f0: ade9 c74e 9221 c63f ed61 43f6 3992 b63f

lstm.bias_ih_l0 f8 [56]
0.18351718779024287 -0.030676457847510576 -0.10910083876719634 0.05336976807249121 -0.1816519382092834 0.22915809169002957 -0.11974108496732172 0.08490212697293281
0.2543370672612005 0.2174733329802043 0.29139093784194575 0.23688039268247296 -0.05462206796046585 0.159663008382582 -0.1986199452911705 0.08070567187803265
-0.09676771181461302 -0.1378906998869832 -0.22144819254982345 0.006125291881764 -0.1712434438854678 -0.19527991527518293 0.0289086509809211 -0.00011466099666821972
-0.09983742232991644 -0.19333297618338885 0.0067486953375021615 -0.06155767898935296 0.09291982592399724 0.07781979933024027 -0.12930700635523085 0.12587053419261532
-0.09415678505834997 -0.2563888799960602 0.0718477555467312 0.048870232345765964 -0.12711705336380896 -0.21861962246287667 -0.2729242804753938 -0.1911752974881651
0.0422159119892699 -0.08591397427203211 0.21837423561461056 -0.057856798692921645 0.08792255364629659 -0.2860460928476663 0.10243470261659982 0.1888324810696439
0.06504606163069351 0.22754671240371913 0.10502910252377982 0.23203745065761014 0.31688715814757057 0.28972819910673414 0.0013566294056501101 0.0793951184196343
00000000: d90f e8bf 7d7d c73f d745 d93c a669 9fbf
00000010: a0a5 7856 08ee bbbf 27d3 ee40 4853 ab3f
00000020: c993 eee6 5e40 c7bf b912 b666 0d55 cd3f
00000030: 9015 ec0b 5aa7 bebf 6ca7 b552 25bc b53f
00000040: bd08 83fa 0e47 d03f df77 738a 2ad6 cb3f
00000050: 7971 182d 26a6 d23f 1043 d1c1 1852 ce3f
00000060: fd67 0f77 6cf7 abbf 452c b163 d66f c43f
00000070: feef addc 606c c9bf 165f 517d 20a9 b43f
00000080: ac71 8dcd c4c5 b8bf 53f4 3707 67a6 c1bf
00000090: 3641 6114 6a58 ccbf e057 f884 d516 793f
000000a0: 4a3d 921f 4eeb c5bf 7f16 d6a8 eefe c8bf
000000b0: ff5c 23ba 3a9a 9d3f 233b 5bec c40e 1ebf
000000c0: 28ed d2ff f18e b9bf 9816 f98c 22bf c8bf
000000d0: bd6b 3e1c 85a4 7b3f 5364 27f4 7c84 afbf
000000e0: 555b 7efd 97c9 b73f 4ecb 1a95 ffeb b33f
000000f0: a03d b8c9 218d c0bf 1d94 f191 861c c03f
00000100: 4da9 85b8 a81a b8bf 8e08 a9e7 ac68 d0bf
00000110: 123d 5d50 9d64 b23f a591 58e3 8405 a93f
00000120: ac10 7b21 5f45 c0bf 4ff7 5e50 bafb cbbf
00000130: 0146 bb66 9777 d1bf 01e3 41a1 6e78 c8bf
00000140: b2bd baf2 529d a53f 238c c44d 75fe b5bf
00000150: e87a 20dc aff3 cb3f 7786 7904 689f adbf
00000160: bcdc 7dac 1782 b63f c179 7b45 944e d2bf
00000170: 68ba b621 2939 ba3f b4ee 4ea9 a92b c83f
00000180: 5afb 6fd3 dba6 b03f 970b 0b2c 4020 cd3f
00000190: 07c6 77f0 2fe3 ba3f 67c5 0237 67b3 cd3f
000001a0: 5909 3113 e147 d43f 131d f924 e88a d23f
000001b0: c616 86bb 1d3a 563f 570a 130d 3d53 b43f

lstm.bias_hh_l0 f8 [56]
0.08612024779733853 0.11712799612149111 -0.1997655980454936 -0.3752476795421788 0.15630013917948002 -0.011329334829364155 0.20554224869185014 0.13830392498280536
-0.025953640684623264 -0.06825318445868417 -0.002043950282520016 -0.13801005398042987 0.2189786146557677 0.12180523746278214 -0.2030948087011665 -0.2814158207462501
0.05370184463623076 -0.13901976087064105 -0.28785208816635555 -0.21060643524149644 0.0008014591544640781 -0.07708400899371146 -0.1276602189674659 -0.02704395009922251
0.1575635821037155 -0.045884570559952896 -0.14824018958834 -0.30622996251958834 -0.024836361991804713 -0.06765622899293346 0.0432713880577633 0.14442486406474658
-0.10177248542246287 -0.06014323947977902 -0.08376589036448549 0.2701069977304397 0.25359494915198394 0.026303224092833075 0.0900812086355529 -0.1610532557858946
-0.05682468568796093 0.2044260618817612 -0.22553758503549015 0.16432163067223662 -0.11528911150720683 -0.1996748051441519 0.136047311526207 0.3188661827278923
0.01306301807924859 0.31815578604263506 -0.16540965799524773 0.18548225937915255 0.37094693183111854 -0.14795076383920452 -0.19796794864114875 -0.2370033233718999
00000000: c91f d0ff f90b b63f 84ae c9b0 19fc bd3f
00000010: ca52 3c4b eb91 c9bf 9f25 e2d7 0e04 d8bf
00000020: 376c 1199 a401 c43f ffd3 9e94 d533 87bf
00000030: 31f5 095a 354f ca3f bad3 5a69 f1b3 c13f
00000040: 4574 cf57 9793 9abf 3c10 196b 0a79 b1bf
00000050: ee41 c773 79be 60bf f0bc 2e3e 50aa c1bf
00000060: f725 3cc2 7d07 cc3f 8758 62c7 a02e bf3f
00000070: fdef adbc 02ff c9bf 39a8 ab80 b702 d2bf
00000080: a41c e5e4 ce7e ab3f 54f4 3747 66cb c1bf
00000090: a8a0 302a 2b6c d2bf 3f3d d8d3 26f5 cabf
000000a0: c2a8 c26d 2043 4a3f ee2c ac11 c7bb b3bf
000000b0: 5b94 bb88 2b57 c0bf 325b ecc4 68b1 9bbf
000000c0: 6d89 1620 0b2b c43f 635a e4b3 2e7e a7bf
000000d0: 9e0c 1ed7 88f9 c2bf 8cec 848e 4599 d3bf
000000e0: 9d92 060a b46e 99bf c134 e52a eb51 b1bf
000000f0: 5e09 1fd9 aa27 a63f 1a94 f191 837c c23f
00000100: 50a9 85f8 c20d babf 6a44 483d 18cb aebf
00000110: ebc2 a26f ae71 b5bf 2f12 6bdc 6e49 d13f
00000120: ab77 424f e63a d03f 6c45 087d 3bef 9a3f
00000130: ffe7 12e5 8f0f b73f 01e3 41a1 649d c4bf
00000140: 4d42 450d 2018 adbf eeb9 1d19 a22a ca3f
00000150: 1885 df63 6ade ccbf 699e e1be 7d08 c53f
00000160: 4423 8253 9683 bdbf 77f3 f6aa f18e c9bf
00000170: 3d5d db90 ff69 c13f 5177 a7b4 4d68 d43f
00000180: 00db 7f9b c8c0 8a3f ca85 0516 aa5c d43f
00000190: f71c c4c7 242c c5bf 69c5 02f7 e1bd c73f
000001a0: 5909 3133 98bd d73f eec5 0df6 0cf0 c2bf
000001b0: d8f3 8884 0357 c9bf cc7a 76f9 1f56 cebf

lstm.weight_ih_l1 f8 [56, 14]
0.22951431109601939 0.010473276546563158 0.12081581027232884 0.2034670611104135 -0.22913977099588542 -0.3300835208635335 -0.38286619651908116 -0.182064866208467
-0.4903357615239659 -0.1642356865883032 0.22118777861778569 0.010217812834300552 -0.21907864134887178 0.10495777515795457 0.13150736189532686 -0.24886964509679602
-0.20890727069335221 0.3134966844413236 -0.027747743408174597 -0.24794999921211938 -0.3072297658846325 -0.28300137875516546 -0.045657817415401945 -0.00338577508250213
-0.06932373852730837 0.06531429958963088 -0.053646282495665006 0.011458263028914485 0.236531540160672 -0.18580500431438446 -0.013084194566857757 -0.03547133723290087
0.08922666949229952 -0.39085477771582594 -0.033680822569618206 -0.060155738531145024 -0.13557823046186646 0.1433228194377582 0.04220047961844561 0.10932116054646052
-0.05431030589145861 -0.13916926967700644 0.003294631224901481 -0.08952680512991756 -0.13820050508296197 0.2874437612017628 -0.21770648380562305 -0.19052217525834608
-0.3755127489846801 -0.2067309542666164 0.07115111869722414 0.05935694467683167 0.2570777794367648 0.054094788400668406 0.0760338052359117 0.23176799448377533
0.15303458551960594 -0.009294576435258939 0.14465608281381648 -0.16779942002448023 -0.03382058529372416 0.0032006643192648058 -0.18098969693642222 0.09117472068262
0.06969378728613927 -0.23832744349709045 0.059574969349874364 -0.18174390272436133 0.008992373151169282 -0.10553639057577878 -0.0077983568655342235 -0.1046060441239478
0.11204482984775929 -0.0919608498476545 -0.2472403933536785 0.3341613715197966 0.1394378371368742 0.3293878534343765 0.32056503148166016 -0.26224221207283716
0.4281844909635099 -0.11193005348479375 -0.04781554085502231 0.28446300559775195 -0.0020018690535689196 0.06328642655755921 -0.09781216542153823 0.18365260448429424
-0.11547538503501041 -0.017875888039499178 0.18153439322189596 0.0893913375471108 -0.3673863184448448 -0.16101232995672832 0.23313730776994934 0.09534795930258283
-0.26176619209442564 0.07645177364084882 0.14231079316997228 0.02297318965208164 0.04134474114808253 0.15511828980060147 -0.1866541041915669 0.1555738143576967
0.03595883206556317 0.20872544674708662 0.02626943330976281 0.09300718871976137 0.0017731540267099818 -0.22144748622595833 -0.008979502473436797 -0.08733955794424039
-0.24418315503701718 0.21475029485483618 0.3395778147129282 0.16541531483891703 -0.32746442969507306 0.3631463211220624 -0.04645705801047824 0.0021862432352001376
0.11030321444267739 -0.2438408774751243 0.26518433084597903 -0.1878752436964099 0.3147953977704741 -0.1023328505154231 0.19640859642697261 0.009023296882514254
-0.21397380256410112 0.36912151568178037 -0.24510936858661625 -0.19688679046552104 -0.13197201804373107 -0.17185615111555194 -0.2383414822318622 -0.1550268526987021
0.2641982361774221 0.26559961253198516 -0.2661739650077044 0.27054505262339007 -0.13858909753045892 0.24775265700452656 -0.16946788113594966 0.03112959615949824
-0.4124562471670892 -0.2810662344507729 -0.23082882387181483 0.09652162727505041 -0.1934017459198069 -0.16515837729325417 0.37051015641526847 0.05821879026475486
0.13170886840131463 0.12296228332092407 0.26690568022398314 0.0951084664585435 -0.20137694717013793 -0.09494185646409549 0.23817594542091783 -0.24565563449640335
-0.2330229980000103 -0.359369262449448 -0.5365544160388891 0.5240050569415999 -0.0613744840235737 -0.037982444388322316 0.04028649727423407 -0.20925304905011488
-0.09867785377904943 -0.122249748130998 -0.22390521835179872 -0.09014937550595759 0.02390760963027631 -0.22329347101277783 0.009526165381759773 -0.0212644708726511
-0.283507301840617 0.24985911679991496 0.3327180186081424 -0.03473334428398753 -0.23986858885106713 -0.23889792561965753 0.301654058969866 0.25588289842385126
-0.343590884774698 0.3634954936217613 -0.3565279312781313 -0.31792298730261087 0.018119232931052578 -0.2514714187001315 -0.23925408894795522 -0.02337382924483904
0.017597136019464502 0.3255341745264729 0.016412277817348747 -0.042886227599488014 0.23015651267993048 0.020011733965030067 -0.07454441798632201 0.12464864819275406
-0.05769312409546719 0.027490612053282876 -0.35301982166636964 0.17285881447114765 -0.11040935357166994 -0.1560867386247906 -0.155826618558677 0.2687116078898133
-0.08396831891744477 -0.06372912619352719 -0.033569977469735404 0.14715634995853333 0.1752324631594538 -0.16718844374781477 -0.14052725282703082 0.047131035326159164
-0.1201362260051865 -0.18233344528230613 0.051212527063206933 0.08412591209679299 -0.2963760878267761 0.24942987608387027 0.01742421327935225 -0.25193002756025923
0.1934505058270542 0.037305945019549404 0.27072620806768155 0.10347494179989822 -0.22660367841370793 0.25253347013055893 -0.06597596741435065 0.3382731971460454
0.1438439610110635 0.12656436306798363 -0.014708128805664866 0.09632337529059977 -0.12096769202884183 -0.05089126838193693 -0.22376764501486168 -0.08745671780118168
0.10048325657690184 0.22165109526198717 -0.054043500185052315 -0.26773246875331685 -0.39152982495724015 -0.2594776956080986 -0.30612485112711973 0.11038408846106632
-0.01872204264420308 0.09125925846941599 0.030684631023703748 -0.025664688505068495 -0.37768547684102743 0.06334433449241422 0.06497160386476362 -0.26383373334821975
00000000: 2889 0f96 b960 cd3f ffe0 fe61 0373 853f
00000010: cb9a f5f1 c8ed be3f a127 a46a 350b ca3f
00000020: f3f3 51b7 7354 cdbf 9bac c3a1 1620 d5bf
00000030: 74c6 3238 e180 d8bf 7ad8 0ecb e64d c7bf
00000040: 0580 f33e a961 dfbf 9fce 5dcb ac05 c5bf
00000050: 7b19 b891 e14f cc3f b804 ae9f 13ed 843f
00000060: ec39 ecd7 c40a ccbf 88ab c343 83de ba3f
00000070: 7807 43b5 3bd5 c03f f134 54e5 f5da cfbf
00000080: 0325 c333 79bd cabf 5c1d c565 5410 d43f
00000090: d054 e789 e769 9cbf 3d63 d458 d3bc cfbf
000000a0: 4f43 3509 a7a9 d3bf 6f7c 9ed0 b11c d2bf
000000b0: 4b37 3621 7660 a7bf ced9 0728 7cbc 6bbf
000000c0: bbad cf55 33bf b1bf 29d8 b21c 70b8 b03f
000000d0: 29e1 bd89 8677 abbf 3442 d307 6e77 873f
000000e0: 5f36 bb5e aa46 ce3f 5a51 7b58 75c8 c7bf
000000f0: d5bf 12de e2cb 8abf 32ad b892 4c29 a2bf
00000100: 6882 661b 8fd7 b63f af96 f1c1 c303 d9bf
00000110: 0bb6 e0de 9c3e a1bf b7e4 50a3 bbcc aebf
00000120: e80e f1a0 a05a c1bf 46ba 20f3 6658 c23f
00000130: fc68 ac1f 4d9b a53f dccc 4eb9 78fc bb3f
00000140: d575 4777 8fce abbf 327b ef72 4cd0 c1bf
00000150: 056b a0ab 57fd 6a3f fcfa 258c 3aeb b6bf
00000160: cf9d cfdc 8db0 c1bf 6340 7384 7a65 d23f
00000170: 4741 095a cedd cbbf 3edd f2d7 0763 c8bf
00000180: 50b2 07a0 6608 d8bf c5af d2ef 2876 cabf
00000190: 49de e0af f536 b23f c8dd 5a90 0864 ae3f
000001a0: a263 cd5b f673 d03f 023c 21e6 4fb2 ab3f
000001b0: cdf0 e092 f376 b33f 0e9e 48da 92aa cd3f
000001c0: fd57 fb25 a396 c33f 608f 8eee 0809 83bf
000001d0: dc28 6d2c 1784 c23f 147e a58e 737a c5bf
000001e0: 8747 8987 ee50 a1bf 0b76 7492 4738 6a3f
000001f0: 11a0 a09e ab2a c7bf 08c5 8dfb 3957 b73f
00000200: 77db 20b9 73d7 b13f dc96 c77f 8381 cebf
00000210: dd2b 0942 9c80 ae3f ab69 395b 6243 c7bf
00000220: 3717 c8e4 976a 823f 0794 0fd2 6e04 bbbf
00000230: 143a 337b 2bf1 7fbf 10ee 7932 76c7 babf
00000240: 76cb e14f f8ae bc3f afa8 9b0a bf8a b7bf
00000250: 0b24 dabd 92a5 cfbf e7e5 9060 e662 d53f
00000260: f4f6 295b 19d9 c13f 86d1 8cca b014 d53f
00000270: c01d 9d31 2384 d43f 30f2 1e8f 93c8 d0bf
00000280: 83ee 55ec 5f67 db3f cd1e 28af 72a7 bcbf
00000290: a6fd 6c50 477b a8bf 9cb5 7d52 a434 d23f
000002a0: 07e3 b543 3966 60bf 9f6d 580c 8a33 b03f
000002b0: 4eee a2d3 370a b9bf 05ea 0ab5 ed81 c73f
000002c0: 97e7 377a cb8f bdbf 4d01 118a 0e4e 92bf
000002d0: 1e5e fedc 843c c73f 677f 4fc7 59e2 b63f
000002e0: 16fb ade7 4183 d7bf 485d b551 0d9c c4bf
000002f0: c4b9 2c7c 71d7 cd3f 14e7 f14e b968 b83f
00000300: e49d 8ffc c6c0 d0bf 4436 82eb 5792 b33f
00000310: 7734 4475 3d37 c23f a744 f6a8 4886 973f
00000320: 4369 2f4e 232b a53f 8b3e da86 eada c33f
00000330: d35e 951c 48e4 c7bf 4de0 63be d7e9 c33f
00000340: 91a9 722f 3269 a23f bd94 cff3 83b7 ca3f
00000350: 79ae ccd3 5fe6 9a3f 6b22 d8b1 51cf b73f
00000360: 4626 8da3 250d 5d3f 789a 8f27 6458 ccbf
00000370: 347f a96b d863 82bf 0e82 04a1 e25b b6bf
00000380: 751d 8fc4 6441 cfbf c39b 9a0a f07c cb3f
00000390: 3be8 2896 a4bb d53f 00cf be3b 542c c53f
000003a0: 3c31 095e 2df5 d4bf 3b72 3811 ca3d d73f
000003b0: ea91 a531 38c9 a7bf 37f9 4766 e2e8 613f
000003c0: 1dcb acda d43c bc3f 4580 1789 2d36 cfbf
000003d0: b649 19b3 c7f8 d03f e6b9 b3c5 4b0c c8bf
000003e0: 79c0 9698 9b25 d43f c22b 4556 7c32 babf
000003f0: 604f 27b9 ea23 c93f 4798 1968 ce7a 823f
00000400: 6f56 1b5a 7e63 cbbf cb9a 86d9 af9f d73f
00000410: b4e8 0269 be5f cfbf 2c2b 081b 9633 c9bf
00000420: bd12 be86 75e4 c0bf 7b30 54e2 61ff c5bf
00000430: 52a6 bb43 f981 cebf bcde 2b7f ebd7 c3bf
00000440: 12bf 02b8 9fe8 d03f f2ed 6984 95ff d03f
00000450: a44d b086 fe08 d1bf fb2b 4732 9c50 d13f
00000460: 61dc bc9c 49bd c1bf 2170 aaeb 5bb6 cf3f
00000470: d3c4 999f 1fb1 c5bf 935b c5d5 6fe0 9f3f
00000480: 4044 27e3 ae65 dabf c575 3e3b fdfc d1bf
00000490: 9975 c084 cc8b cdbf 6fc7 8030 a4b5 b83f
000004a0: ee80 db6e 63c1 c8bf 3a46 91e2 e823 c5bf
000004b0: 4dec 283b 70b6 d73f e24c 6670 dace ad3f
000004c0: 723b 3011 d6db c03f 303e 81c9 747a bf3f
000004d0: dd6e eb8f fb14 d13f bd1c 0349 0759 b83f
000004e0: cacc 2145 b8c6 c9bf b9e9 8808 1c4e b8bf
000004f0: a96b 23a4 8c7c ce3f 47be 1ed2 a471 cfbf
00000500: 121e d095 b2d3 cdbf 001d 5aef e7ff d6bf
00000510: 3e2a ad2a 742b e1bf da16 d040 a6c4 e03f
00000520: df57 61f3 796c afbf 9fa1 f058 6f72 a3bf
00000530: e2c5 8688 6ea0 a43f 6c17 21cd cdc8 cabf
00000540: 750b d2aa f342 b9bf 39b8 2a6e c24b bfbf
00000550: 72c3 1c1b eda8 ccbf 988b 8d8b 0714 b7bf
00000560: eb45 f385 3c7b 983f 9781 b465 e194 ccbf
00000570: 84e5 2a46 7482 833f 91ef db7b 5ac6 95bf
00000580: 264a 65cf fb24 d2bf 92ac a12f 62fb cf3f
00000590: 9f8f 2d84 404b d53f 2c95 8fa3 91c8 a1bf
000005a0: 05fc 3990 03b4 cebf 9130 cf0c 3594 cebf
000005b0: 79cc 7ed3 4c4e d33f 2c83 15aa 6260 d03f
000005c0: f4e7 539f 64fd d5bf 6b53 569a 8243 d73f
000005d0: 98ce 3c87 5ad1 d6bf 2520 47a8 d958 d4bf
000005e0: e74b 7823 d98d 923f c987 cc93 1b18 d0bf
000005f0: 759d bbc3 e09f cebf ad67 c120 4fef 97bf
00000600: 11d4 d3ce fb04 923f 6594 544a 8dd5 d43f
00000610: 38dc e951 61ce 903f 902b fa01 2ff5 a5bf
00000620: 9efa 75c3 c475 cd3f ba0a aabb f47d 943f
00000630: 65c1 59cd 5715 b3bf 347e 7a4b f9e8 bf3f
00000640: 3a61 6302 f489 adbf e80d ddbe 7f26 9c3f
00000650: 5565 3973 e097 d6bf f24c 7dd5 3c20 c63f
00000660: 6148 c392 c943 bcbf 98cb dd76 a6fa c3bf
00000670: f123 476b 20f2 c3bf 084f fc2b 9232 d13f
00000680: b488 a69f f27e b5bf 86c9 cd50 8d50 b0bf
00000690: 0a4e b886 1530 a1bf a83d 3cef 04d6 c23f
000006a0: 12d3 3b71 046e c63f 7e3f 1551 6e66 c5bf
000006b0: 7c5e 8b09 ccfc c1bf 8377 b41e 8f21 a83f
000006c0: fad3 c169 3fc1 bebf 652d 3acc b356 c7bf
000006d0: 0694 c341 8738 aa3f 80af 3399 4689 b53f
000006e0: 4913 2269 d3f7 d2bf 9978 3674 51ed cf3f
000006f0: b6fc c528 a7d7 913f b91b 501f 9f1f d0bf
00000700: 5aff f575 fcc2 c83f 5d55 9ccb c319 a33f
00000710: b887 7404 9453 d13f d66e fc72 557d ba3f
00000720: b657 f86d 5901 cdbf 0ecb d624 8229 d03f
00000730: 59d9 5d0e cde3 b0bf 92c2 b69f 44a6 d53f
00000740: ce82 229a 7a69 c23f daa7 1bd4 4233 c03f
00000750: c63e a5a1 4b1f 8ebf 59a5 b612 a6a8 b83f
00000760: 10f0 2219 bdf7 bebf e26a b49a 6b0e aabf
00000770: 44f2 9e0e 6ba4 ccbf 0786 c53e 9063 b6bf
00000780: 511a cb4c 45b9 b93f 9eeb a226 105f cc3f
00000790: de5b b6f3 96ab abbf 93dc 575d 8722 d1bf
000007a0: 9965 661c d30e d9bf 0f68 2b56 489b d0bf
000007b0: c45d 05b0 8c97 d3bf a265 f0b1 2142 bc3f
000007c0: e213 7c03 df2b 93bf 9a56 954a c45c b73f
000007d0: 5750 f2ba ca6b 9f3f 9549 2a17 d847 9abf
000007e0: 4d35 cdb4 ff2b d8bf 4c24 0895 5537 b03f
000007f0: 4f90 c4a1 faa1 b03f e5fa 13e2 a6e2 d0bf
