PytorchLSTM/Data_for_first_draft/model_data_driven.pt (torch, 27958 bytes, 28 tensors)

weight_ih_l0 f8 [40, 8]
000000 ec 0f b7 4e c0 0b e5 3f e8 28 86 61 54 89 b6 bf
       0.6576844727901494 -0.08803298359831369
000010 2d a4 32 59 39 8d e9 bf af 6c 8e bb ce 02 b7 3f
       -0.7984892599243999 0.08988658980381346
000020 99 f9 85 5f 8b 15 d2 bf 4d f1 82 f5 48 b2 e7 3f
       -0.2825649674267879 0.7405133052011849
000030 e8 b0 38 69 1a 2f b8 3f 6a af 11 a9 6c 08 f1 3f
       0.09446873730547944 1.064556751657586
000040 bd b6 a6 ca 2c f0 fa 3f c2 fc fe f4 09 6e d1 3f
       1.6836364666045676 0.27234124112505864
000050 6b 81 85 f7 7c 94 fa bf 5e f6 fa c5 ba 2c d2 bf
       -1.6612519902046994 -0.2839800771142559
000060 7b 20 d2 e0 08 d8 d9 3f 71 7a 13 4d 16 c9 b2 bf
       0.40381071047932665 -0.07338084584942252
000070 cf 1f f1 3a bf d0 c7 3f e3 7c 74 53 c7 e5 d5 3f
       0.18605795267126132 0.3421495738020452
000080 37 d8 06 fb de 4b df 3f b9 11 33 d7 de d9 dd bf
       0.48900579943017725 -0.46642275825095286
000090 32 04 66 bf 76 15 d1 bf e8 56 62 6a 97 7c d3 3f
       -0.2669350499273292 0.3044794596583942
0000a0 17 44 f9 3f 43 44 d5 bf c1 4a f3 2c a0 48 e4 3f
       -0.33229142424994634 0.6338654401718814
0000b0 72 72 f1 95 a1 65 4d 3f 3a 10 9a 5c bd 88 d6 3f
       0.0008971251480818911 0.3520959286036064
0000c0 5f 58 f1 01 41 d5 bd bf c5 58 f0 c9 d4 1b e3 bf
       -0.11653524682455572 -0.5971473640554669
0000d0 8b ef a1 74 61 ea d4 3f 4f f4 a7 4f 42 91 f5 3f
       0.3268054617872102 1.3479636298718736
0000e0 47 53 54 80 e3 61 da 3f 09 53 f7 6c b7 a3 f0 3f
       0.41222465068976927 1.0399698502052976
0000f0 e8 ce 96 9c e8 79 be bf 08 af e3 be 08 3d 03 40
       -0.11904767821289008 2.404801837275844
000100 34 40 84 7c 43 1e e9 3f 06 82 6a d3 f5 17 c6 3f
       0.7849442893948493 0.1726062090210833
000110 89 ce d1 da 63 48 e3 bf 33 9f 8f 4f 00 d6 f7 bf
       -0.6025866769618499 -1.4897463901379069
000120 19 d4 c7 3e 59 23 d5 3f 29 be f6 c7 30 1f e9 bf
       0.33028250819126154 -0.7850574403327687
000130 c1 90 c0 a8 95 84 ca bf 51 4e cc 8f 3e 8c f9 bf
       -0.20717116107801384 -1.5967393509971723
000140 ef 3a 3f ef 4a 73 e3 3f 22 09 29 3a 19 0b f3 bf
       0.607823817519458 -1.1902096053968951
000150 8f e2 ed c3 39 b1 e5 bf de c0 ba b9 c9 7e dd bf
       -0.6778839899771628 -0.4608635247959806
000160 31 20 56 23 b9 35 eb bf 4e b5 6a 53 8e e9 e0 bf
       -0.8503080072559951 -0.5285102490649167
000170 b9 c9 59 3a 42 f5 c5 3f 38 3b 86 b1 95 29 e9 3f
       0.1715472016254134 0.7863262622139251
000180 2f c3 93 ff 38 1f d5 3f d4 04 18 15 ae c1 d3 3f
       0.3300306793089928 0.30869628963416784
000190 e8 0c e3 c1 7a 8e e3 bf 09 81 f1 43 44 0b f4 bf
       -0.6111425196508238 -1.252750649837312
0001a0 08 97 47 4f 90 0e de bf 59 e5 1a ca 3d bf 0e c0
       -0.4696388982978168 -3.8433795728166555
0001b0 9a a7 95 4c 2b aa e3 3f e1 b9 da 1a 24 2f f0 bf
       0.6145225997727153 -1.011509041690822
0001c0 ce 45 f8 79 49 f3 f4 bf 26 71 98 1d ac 92 d0 3f
       -1.3093962444730667 0.25895216837104085
0001d0 7c 2b b1 68 84 66 f6 3f bc 58 87 05 0c c5 f0 3f
       1.4000286187681175 1.0481071678128009
0001e0 54 3a 96 e5 68 c7 c7 bf c5 1b c5 51 07 56 f2 bf
       -0.18577300272268593 -1.1460030740870348
0001f0 99 eb bd ec 3d 34 b4 bf 78 d0 70 db 1d 86 be bf
       -0.07892214803534471 -0.11923395736158848
000200 ec 4e f9 ff 3d 6b d7 3f 49 4f 13 fa 99 66 f9 3f
       0.36592054364631 1.587549187523978
000210 73 5a 20 7c 0a 46 d5 bf e8 da 63 c6 59 85 e3 bf
       -0.33239996072499095 -0.6100281595998611
000220 78 0f 1e f7 60 d3 f4 3f b3 15 50 99 06 00 d1 bf
       1.3016061451935155 -0.2656265732951752
000230 ec fc 67 c2 eb 93 f4 bf 63 42 48 68 4a 97 ef bf
       -1.2861135095588976 -0.9872180973780583
000240 e5 9c 8a 28 56 64 e2 3f 4c 17 74 90 cc 0e 98 bf
       0.5747481147599528 -0.023493954006901505
000250 87 e4 a2 45 79 6c dd bf 6f 73 ac 2a f1 c1 dc bf
       -0.4597457103769291 -0.4493372837767344
000260 b9 74 d1 5e ea 12 d7 bf 4f 62 79 78 6a 3b 07 c0
       -0.3605295110663281 -2.9040116703074896
000270 b9 29 10 1f 4e 8e b1 3f 68 a6 16 c8 c7 7c 9d 3f
       0.06857765444161758 0.028796311938697278
000280 c1 96 98 60 56 5f d7 3f 1b d3 90 50 d6 72 d7 3f
       0.365193933803635 0.36638410442110264
000290 64 63 0a 49 69 12 da bf 16 ae 5d 22 bb 82 cf bf
       -0.4073737347876458 -0.24617709329628273
0002a0 1d 49 c6 cc 80 06 ce 3f 21 eb 47 15 56 bc ea 3f
       0.2345734596133945 0.8354902663844294
0002b0 7a 29 3b a5 d9 37 cb bf e9 0a 58 1e ec 5b ce 3f
       -0.212641912154435 0.2371802471316962
0002c0 21 29 6a e4 b5 e9 ed bf b6 28 a8 09 5f 37 d7 3f
       -0.9347791157936493 0.3627545923524268
0002d0 70 22 b1 16 59 e6 e8 3f 17 ba 6c da 06 04 c3 3f
       0.7781186526490966 0.14856038728017104
0002e0 dc e3 1c ef bc 02 e1 3f da 1f c1 ae c4 8c f8 bf
       0.5315842313931358 -1.5343672586768577
0002f0 dc ac 30 8c 66 76 f0 bf 8f 0f 8b 92 19 65 ef bf
       -1.028906390779233 -0.9810912954494472
000300 75 b2 be ca 52 0b e7 3f 37 da 75 4d d1 f3 ce 3f
       0.7201322517262968 0.2418157222961825
000310 27 b5 bf 30 11 3b e4 bf fc 44 94 9e cf 59 e6 3f
       -0.6322103454710132 0.698463258480984
000320 aa 96 54 4e fd fd b8 bf 15 4e 1a 1e d4 0a f1 3f
       -0.0976255718456637 1.0651436973465753
000330 68 ab c3 96 b2 83 ea bf 21 ca 54 c5 1d 4a e8 3f
       -0.8285763687721159 0.7590473989606076
000340 83 df 3d 8f 06 65 dd bf 20 14 56 c5 ab 68 b4 3f
       -0.4592911146969458 0.07972215240268143
000350 39 1d ca c0 22 58 e0 3f e0 4b a5 2a b0 ae fd 3f
       0.5107587590618216 1.855148474297259
000360 25 7d bc 84 c1 95 d1 3f 30 6f 33 ed a2 78 ea 3f
       0.2747653766873149 0.8272261269407633
000370 5a f2 83 8e 73 0a d8 bf 5f 12 db 28 87 72 f4 3f
       -0.3756379024269215 1.2779609294822405
000380 3c 72 0d bd 5b 4b 01 40 99 8b 05 c1 93 17 d3 bf
       2.1617960710266555 -0.2983140358903085
000390 a1 8c 60 78 46 f9 fc bf ab 51 f1 a7 c8 14 df bf
       -1.810858221266962 -0.48564354324960374
0003a0 db 8d 04 e6 93 42 a0 bf 92 50 df ad 54 9f e7 bf
       -0.03175794775804849 -0.7381995578712284
0003b0 85 be 9f 61 67 de b6 3f 79 6b c4 c4 9a ba cb 3f
       0.08933111318014582 0.2166322193887387
0003c0 0a c3 8e 9f b4 11 f2 3f 72 22 87 47 5d ba dc 3f
       1.1293226464005692 0.4488747786058759
0003d0 81 0d 8f f8 13 36 f6 bf ab 42 16 fd 53 ba d9 bf
       -1.3882026395156972 -0.40199756351015975
0003e0 a9 6a c7 f8 5d 13 cc 3f 8c ad 67 3f 69 03 e0 bf
       0.21934103629503923 -0.5004163969401119
0003f0 a0 98 06 94 17 dd e7 bf a0 e4 23 13 1a ae d8 bf
       -0.7457387820366144 -0.3856263338962638
000400 c0 de 12 44 dc 94 f3 3f 66 27 67 59 f5 bd c3 3f
       1.223842874443946 0.15423457017305536
000410 18 b4 5d fe 73 0e e7 bf 85 22 ce 59 d6 71 f2 bf
       -0.7205142944418439 -1.1527923114792042
000420 0c fe 57 ed f0 5b d7 3f 01 2c 97 f1 b3 f9 00 c0
       0.36498664072129894 -2.1219252466448784
000430 70 53 44 dd bb d2 c9 3f 5b 20 85 a7 49 6b f2 bf
       0.20174358657882463 -1.1511932891608214
000440 7f 05 02 f3 bf e6 d4 3f 18 c8 ae 76 b4 a1 e6 3f
       0.3265838502048481 0.7072393720648078
000450 58 aa c6 1c 65 2d c7 bf a0 b7 ad 20 22 6b e6 bf
       -0.18107284455375594 -0.7005777967694833
000460 65 2b c0 a4 f9 ac ee 3f b1 16 05 24 2b 05 cd 3f
       0.9586151330744143 0.2267202306631382
000470 03 ed bb 1d 82 4b e1 bf cd 3d ac 25 d5 4e e2 bf
       -0.5404673176521161 -0.572123120860789
000480 a2 19 27 e2 96 b8 fc bf 17 8a 88 aa e7 ec ed 3f
       -1.7950657686320501 0.9351690607766753
000490 0a b5 99 df 6a 37 02 40 cc b3 45 c0 32 aa db 3f
       2.277059313658019 0.432263076558965
0004a0 2b 40 b8 d7 6a c9 eb 3f 0c 98 7d b9 c2 b1 d2 3f
       0.8683370793605766 0.2920996486121801
0004b0 c2 5e 60 39 ef d2 e9 bf 7d 2c fd 1b 5d ee d6 bf
       -0.8069988365777692 -0.3582985661821068
0004c0 93 49 39 83 3c 5c d2 bf c3 bc 21 da 32 bc bc 3f
       -0.2868796617014137 0.11224668336375303
0004d0 fc e3 c6 1a b8 65 d3 3f 18 0c 42 1c b5 53 d2 bf
       0.3030834447377513 -0.28635909804887794
0004e0 b3 d5 b1 af 56 2c 93 3f 79 4d 89 d1 cf 56 e8 bf
       0.018723825906325774 -0.7605971424585923
0004f0 0d b2 f0 16 2d 6c e0 bf 91 73 82 c8 73 7f e2 bf
       -0.5132050941516028 -0.5780581394388823
000500 4a d7 33 4f aa df e8 3f 17 41 e7 45 36 5a a0 bf
       0.777302889530554 -0.0319382629710409
000510 44 35 e0 da a9 dc eb bf 14 36 48 38 92 1f e0 3f
       -0.8706864619177073 0.503853902746132
000520 4c 5e a3 cd 7b 07 c1 3f 18 e6 0f cd b1 1b f1 3f
       0.13304088154721894 1.0692613611448731
000530 48 2d af 27 cc 20 b3 bf be 16 ae a1 75 9a f3 3f
       -0.07471919983725173 1.2252098384500836
000540 1e 01 67 80 71 5f f1 3f 86 6d 6c bd da 21 d3 bf
       1.0858016029088229 -0.2989413118209189
000550 9c 64 33 4e 9e f6 f4 bf 04 38 78 b3 d5 c7 d4 bf
       -1.3102095656125021 -0.324696946395193
000560 9a 30 2d b4 0d 36 d2 3f d7 1d 4e b7 e2 5d d6 bf
       0.28454916568149147 -0.3494803228463445
000570 7f 79 8e 53 71 94 ad bf a9 00 c8 96 56 55 c3 bf
       -0.057773152780316465 -0.15104181635252203
000580 e0 1e fd e4 9f aa a5 3f c7 d7 fd 94 7d a4 c0 bf
       0.042317387297371445 -0.13001985335330188
000590 1d 36 cf 80 01 ed dc bf 38 f9 51 0e f3 cb a7 3f
       -0.45196569041294926 0.0464778857212757
0005a0 b4 54 3c cf 4b a8 93 bf f1 95 d6 24 0c d2 c6 3f
       -0.019196686290418 0.17828513907186008
0005b0 cf 7a fc dc ed 34 c5 3f a6 90 b3 0b 18 cc e0 3f
       0.16567776956886468 0.5249138096374011
0005c0 34 ec c0 14 2e 40 bb 3f f8 cf 1f 83 be 3f c0 3f
       0.10644805914573469 0.12694531824638466
0005d0 9e 62 f9 55 83 50 b3 3f 14 66 41 5a b4 72 a8 bf
       0.07544728135088483 -0.047750125901711155
0005e0 86 3a 54 f7 f7 e4 b6 3f a3 87 00 06 58 25 df 3f
       0.08943128383928398 0.4866542872060739
0005f0 4d 2e ac 27 3b 03 bd 3f aa 08 ca b2 b9 98 d4 3f
       0.11333055227822193 0.3218216176975469
000600 c0 19 66 d3 6c d8 e8 3f 83 85 c3 97 3a 2e cf bf
       0.776419079674092 -0.24359829340304992
000610 dd 19 a1 95 26 02 f1 bf d8 76 c6 7a e5 24 e6 bf
       -1.0630250782866064 -0.6920039556459541
000620 3e b9 8f 21 35 26 da bf fc a3 7c e9 96 ab cc 3f
       -0.40858200337870076 0.22398649597860742
000630 bc 8d b9 a7 67 1f c8 3f 50 c9 0a 78 5f 87 c9 3f
       0.18845840158165383 0.1994437538283571
000640 61 7d 5d 7a fd b5 eb 3f 72 4f 2b 30 08 dc f3 bf
       0.8659655942864611 -1.2412187463387139
000650 11 20 f0 29 61 4e f5 bf a5 ba 4d cf 6a bd e6 bf
       -1.331635631389876 -0.7106222199343689
000660 8f 19 47 f2 8b cb e3 bf 4e 28 81 e7 ce 50 d7 bf
       -0.6185970050799358 -0.3643071423326817
000670 15 dd cd 7f e8 94 d2 3f 26 d7 8f 7f 23 74 ec 3f
       0.29033863526224596 0.8891770831530479
000680 52 9f 3e 00 7a 38 ed bf a6 ff 09 11 38 cf e0 3f
       -0.9131441120889383 0.5252952893060765
000690 7f 15 90 5d 07 0f f5 3f e1 c1 b2 88 c6 cf b1 3f
       1.3161691336439103 0.06957665288314942
0006a0 ab dd 3d 95 f2 af cb 3f 5f 83 cf 26 1c 2f c9 3f
       0.2163069943160115 0.1967501821045756
0006b0 10 17 d2 9c 4e 52 c7 bf 45 82 89 49 46 ce d5 bf
       -0.18219931275614742 -0.3407149999748394
0006c0 de 17 77 78 a6 dd ed bf 46 9f 65 80 98 80 d6 3f
       -0.9333069184146969 0.35159885920301226
0006d0 f7 0b d1 53 b8 47 f4 3f d8 50 8e 7a 7f cd de 3f
       1.267509772690344 0.48129260032989185
0006e0 f1 8d a8 ed 15 c3 ae 3f 88 15 b2 b8 c2 f9 d4 3f
       0.06008213544944486 0.32774417912181564
0006f0 7a 76 cc 96 b1 8d de bf ea c6 3e ce c8 1f b0 bf
       -0.4773982975619685 -0.06298499141010053
000700 ca 56 94 61 a4 a6 c7 3f 61 7d 26 e4 19 00 d7 3f
       0.1847730137312083 0.3593811729460495
000710 25 6a a2 cf 8a 54 b3 3f 09 76 b3 aa a3 b4 e2 bf
       0.07550876206588748 -0.5845506986622137
000720 67 53 10 b8 c0 13 db 3f 3b 90 fa c5 aa cf e0 3f
       0.4230806157586841 0.5253499857685776
000730 11 07 7f be 4e 44 e0 bf 38 cd 20 65 88 b8 dc bf
       -0.5083383293751657 -0.4487629878596695
000740 90 91 f2 94 8d 5f e1 3f a6 0a bb 3f c2 32 ca bf
       0.5429141911632076 -0.20467403518531063
000750 8a 44 79 6b 8a ff df bf 13 30 f9 b4 e6 3a d0 bf
       -0.49997196670035093 -0.2535950438802967
000760 9b 66 bd 1e 05 8b d9 bf 8a 03 bd b8 43 c0 c0 bf
       -0.39911010744035885 -0.1308674480478909
000770 28 4a f3 a7 6c 89 bf 3f 20 ce 43 cf 7a 51 ba 3f
       0.1231906805071864 0.10280578193833678
000780 08 40 8a 92 6b 69 e0 3f f1 bd b7 7d 1b a1 eb bf
       0.5128686773405216 -0.8634164290833138
000790 09 48 7a 07 a4 52 e3 bf d9 64 dc e9 1d b0 e9 bf
       -0.6038379808471755 -0.8027486388774846
0007a0 81 21 57 1d 3f 13 f2 bf 95 6b c1 bd 7f a7 d9 bf
       -1.1296988626582734 -0.40084832697692124
0007b0 10 bf 52 4c 29 73 e1 3f 07 68 c1 61 89 01 76 3f
       0.5453077784240765 0.005372559211616951
0007c0 74 ba d7 88 2f de e5 bf 38 53 ed 0e dd 81 03 c0
       -0.683372275610806 -2.4384099165130486
0007d0 e3 b3 7f ff 2f 2f e3 3f 54 63 8c 7e 08 20 e5 3f
       0.5995101919376079 0.6601603004120116
0007e0 c0 60 36 da ca d6 ff bf 25 cf d4 d8 d1 81 d1 3f
       -1.9899395488665022 0.27354856657915355
0007f0 f7 e7 a5 41 49 c7 f4 3f 71 14 06 f9 e4 f8 04 40
       1.2986538471582187 2.621530480859797

weight_hh_l0 f8 [40, 10]
000000 4c 26 30 dc 51 2f e4 3f cf 2f 0c de 51 80 f3 3f
       0.6307763386295817 1.2188280748114158
000010 c1 df dd 99 fe c4 d4 bf 31 a5 1d 03 e3 ca f2 3f
       -0.32452359224361876 1.1745329019270907
000020 f7 5e fe ba 21 f7 ee bf fc 99 e6 bd 26 ef db bf
       -0.9676674511165108 -0.43647163910864584
000030 4f 3e 61 8a 73 8e e7 bf 48 fd d5 c0 fb 87 ec 3f
       -0.7361390784007628 0.8915995374990553
000040 72 ad 83 c6 50 95 ea 3f 62 0f a3 60 61 63 ff bf
       0.8307269932969759 -1.9617627882843967
000050 e2 01 68 0b b6 33 e9 bf b6 99 67 05 17 7d 04 40
       -0.7875623915461427 2.561079065536627
000060 e5 a6 43 56 07 b7 f4 3f 03 4c 7f 0d dd c6 f6 bf
       1.2946847314546457 -1.4235506560551137
000070 89 d5 cf 3f d6 00 f7 3f 9a ac 3d 05 9e 89 d3 3f
       1.4377043240213843 0.30527449142273044
000080 1a 6a be 5d 5c 4b cc 3f 10 e0 27 6f 21 26 fd 3f
       0.22104982926687528 1.8218092290899257
000090 4e 3a cf fd 2b d0 e5 3f 2b 55 67 3c fe c4 ea 3f
       0.6816616017548058 0.8365470103987368
0000a0 9a f6 b6 e6 18 87 e7 3f 0a fc 01 2f dd fc 86 bf
       0.7352413660189143 -0.011224487301886316
0000b0 86 c2 d6 e2 67 a8 f2 bf a0 d6 22 4b fe 8e d8 3f
       -1.1661146984953645 0.3837276204825262
0000c0 e6 f7 9a 04 3f 03 c5 bf ad 80 96 86 c3 3d f1 bf
       -0.16416156506414764 -1.0775790459957009
0000d0 ee 0a 76 97 27 28 e5 3f 1d c4 dc 9f 99 53 fe 3f
       0.6611516912674611 1.8954101795791367
0000e0 99 d2 47 6b 88 0a ea 3f 3e 34 ab 51 44 08 e1 bf
       0.8137857528041251 -0.5322591395466885
0000f0 c2 b1 20 9c fa 7f d7 3f 77 d5 48 2a 8a a5 c1 bf
       0.36718621489378844 -0.13786437096284107
000100 76 33 0c b3 bb bb f0 3f ee 56 f6 96 46 53 e4 3f
       1.0458333009766796 0.6351654957277029
000110 ed a8 39 95 f4 de cc 3f c5 82 8e 2b 8c 3d e8 bf
       0.22555405889881489 -0.7575131273952925
000120 54 04 62 45 37 dc f4 3f b2 55 69 14 d0 6d fe 3f
       1.3037636480587667 1.9018097684214408
000130 e8 5c 1d 35 8b cc f2 3f 51 1d 94 a7 00 11 f7 bf
       1.174937446097653 -1.4416510149038297
000140 bd 6e 2f a4 bc db e1 3f 12 f7 37 0e 8a ba bc bf
       0.558073349642164 -0.112221363517133
000150 81 ca fb 10 b4 2f d1 bf 7e 58 57 b1 d4 cd b2 bf
       -0.2685365835051599 -0.07345322923296924
000160 62 be c9 1c 4a 63 f0 bf 44 5f 90 74 c0 cd e8 bf
       -1.0242406010182994 -0.7751161839141578
000170 c7 d5 52 5b 13 44 c3 3f 96 f8 50 97 63 92 de 3f
       0.15051500281485472 0.47768487717611074
000180 fa da a1 3b 2f b1 c5 3f a3 f3 09 c0 5c 2c d6 3f
       0.16946974193316305 0.34645766023441577
000190 d7 cb 78 82 0e 90 c0 bf 80 52 f6 51 4a ac b0 3f
       -0.12939626093574816 0.06512894154577431
0001a0 73 66 78 c9 10 45 65 bf d8 43 d5 05 03 90 c7 3f
       -0.002596409594627863 0.1840823915941019
0001b0 3e a1 3f 90 0f 6d f1 3f bc 84 62 ad 12 28 f7 bf
       1.0891261706074853 -1.4472834370465497
0001c0 4f 1b 88 72 87 b4 d7 bf 66 6f 30 c2 c8 5c e3 3f
       -0.3703936212991054 0.6050761978872117
0001d0 02 28 40 4a 3f 8e cf bf 0e 22 45 c5 57 8b c4 3f
       -0.24652854085462655 0.16050240642859176
0001e0 b9 aa a9 47 88 ed e6 bf 5a 2a 35 99 d7 d9 ee bf
       -0.7164956473983103 -0.964092063173051
0001f0 e4 82 28 7e 06 e6 c7 bf f4 39 39 37 38 45 f8 bf
       -0.18670731697149912 -1.5168993146104386
000200 26 15 99 87 00 b0 bf bf 87 f0 21 75 9e a0 c1 bf
       -0.12377932844636472 -0.13771420211185534
000210 ba 4d 20 e6 65 4c f1 3f 3a 5b 7b 20 25 8f c9 3f
       1.0811518658928052 0.19968093954113347
000220 9e 31 1f 2b e3 be d7 bf 12 3d 9e 7b 24 27 d9 bf
       -0.3710258408653092 -0.39301406929094285
000230 86 0b 74 a1 0b 73 e3 bf ae ff 94 05 0c 77 01 40
       -0.6077936318764479 2.183128398522931
000240 ef 1a 95 d0 f5 6b 02 40 8a bd 22 c6 2c 00 05 40
       2.302714948225336 2.6250853995658803
000250 9b 74 d3 24 36 f1 f4 bf 65 4e c5 95 ca 24 02 40
       -1.308889526225619 2.267964525302704
000260 59 44 3b 4a 6d 22 fb 3f d9 7e fe cc de 41 f9 bf
       1.6959050082844185 -1.57858161998586
000270 97 c9 95 fb 89 16 e7 bf 5e 0c ae 4c ea 54 12 c0
       -0.7215013421794535 -4.582925031779352
000280 8a af 85 82 d1 ac db bf ca bf 1d a1 49 00 e3 3f
       -0.43242299791631267 0.5937851092148716
000290 40 0a 69 e4 d3 a1 e7 bf db 93 96 d1 c7 ea d4 bf
       -0.7385043584002418 -0.3268298670539573
0002a0 98 5e 4f e7 a6 60 d9 bf fc 71 c0 ed 29 13 f2 bf
       -0.3965241679083902 -1.1296786582162204
0002b0 f1 d4 77 33 fd 59 d2 bf 7f fd af d8 71 ef e6 3f
       -0.28674249674015956 0.7167290908982266
0002c0 9e 06 15 b5 aa 43 c5 bf 69 1c 76 b6 25 5a e3 3f
       -0.16612752763653743 0.6047543109606411
0002d0 9a 4f 93 c8 a2 28 d3 3f c8 4d c4 02 eb 33 d5 3f
       0.29935521686024347 0.3312938239116332
0002e0 4e 65 c3 84 63 c2 fc bf a8 7b 0d e7 c8 5c d3 3f
       -1.7974581895890256 0.30253813327538603
0002f0 e8 70 19 43 c8 68 e9 bf dc e3 0c 30 dd f1 d2 bf
       -0.7940408049139736 -0.29601220791260885
000300 92 32 ce 96 c6 20 ee bf 19 dd 86 d5 a3 92 49 bf
       -0.9415009446543812 -0.0007804203005922521
000310 08 03 fa da 88 a1 e5 bf 5c cd 57 da f6 08 02 40
       -0.6759685780417337 2.254377084545622
000320 10 22 ca af 47 b1 e9 3f 55 18 04 45 61 90 d7 3f
       0.8028906281843451 0.3681872533783282
000330 29 71 b2 13 5f 92 c5 3f e2 6b 20 8c 04 40 d5 3f
       0.16852940046090595 0.3320323341774253
000340 ff f0 0b c3 e2 5b f0 bf 54 0d 55 16 f3 87 92 3f
       -1.0224330538758861 0.01809673141293662
000350 75 18 14 55 e0 b7 b9 3f 75 7b 8d 56 82 1e f7 3f
       0.10046197964774868 1.4449485188449362
000360 e9 14 e4 e2 cc 72 e0 3f 5d 7a 8e 90 dc 4d 95 bf
       0.5140137130225898 -0.020804830859214685
000370 50 90 c9 e7 5f ee e8 bf d3 16 0d e3 96 0d c6 bf
       -0.7790984656426279 -0.17228971563797887
000380 3a 8e f6 a9 e4 b8 e2 3f 22 e8 ef 4c 4f 63 c5 3f
       0.5850699729530284 0.16709319359489522
000390 e5 4a 7a fe a9 db dc 3f f3 b5 9f 98 a6 fa da bf
       0.45090722895944985 -0.4215485086886865
0003a0 5c d4 37 5b 79 fc e9 bf 94 7a 84 86 27 06 fb bf
       -0.8120695859530644 -1.6890025381650604
0003b0 bd 59 d2 51 68 0b ef bf 16 ed 95 65 3c 10 ea bf
       -0.9701425169067118 -0.8144819244475083
0003c0 4a b5 e6 a6 b7 5e e6 bf 34 dd aa 6e 72 f7 ed 3f
       -0.6990621814526687 0.9364559327577013
0003d0 1f 54 31 d5 a3 62 ee bf 46 41 34 0f c3 64 e5 bf
       -0.9495410121841167 -0.6685500428157318
0003e0 29 ce f9 e3 bc 1f e2 3f 34 62 32 82 c6 51 f9 bf
       0.5663742497112639 -1.5824647031605652
0003f0 7f 33 14 16 1b 05 ea 3f f2 44 ed 72 a4 91 09 40
       0.8131232672909475 3.1961144426974153
000400 a6 d9 d2 f3 d6 6f ec 3f c3 7d 10 a1 b8 6d bb bf
       0.8886523019962638 -0.10714296276318351
000410 75 87 90 dd b3 19 eb 3f d8 bf 48 ea fb 3f b4 3f
       0.8468875243599842 0.07910131902531192
000420 0f 95 be a4 9c fd af 3f c1 12 2a 7d 40 49 ee 3f
       0.06248178015747829 0.9464418835273919
000430 e7 cc 59 fd 3d c1 f1 bf 83 40 51 75 88 5b e4 bf
       -1.109678258563514 -0.6361734668116842
000440 37 d3 2b 39 d4 46 e4 3f 1d 20 fd 83 e2 91 f4 3f
       0.6336461178421818 1.285616412716997
000450 d8 24 f4 28 a2 dc f3 3f 59 39 f2 53 a0 14 ec 3f
       1.2413655853036314 0.8775178565572715
000460 0c 6f 57 63 a3 ce e3 bf ee 50 9d 84 24 1b ec bf
       -0.6189743938698213 -0.8783133115889805
000470 af b9 1d 0c fb a1 f2 bf be fa 5a 7f 60 73 e1 bf
       -1.164546058014462 -0.5453340995225842
000480 32 11 a4 27 c2 10 de bf e9 bd c2 85 3a 2b d2 3f
       -0.469772852622799 0.283888464570707
000490 4d cf ba 63 65 c6 f0 bf ff e1 54 56 33 4b c7 bf
       -1.0484365363781365 -0.1819824382344137
0004a0 4f 43 bc d9 c9 e8 a6 3f 31 3e a6 4a 7a dc b9 3f
       0.04474478514578683 0.1010204727410773
0004b0 fc 32 d9 5b 3f 14 eb bf 16 0e be d0 a3 c6 ad 3f
       -0.8462216180720072 0.05815612719655065
0004c0 cb a6 08 15 1c 39 da bf 09 1f d8 a3 df d9 e1 bf
       -0.409735699215713 -0.5578458976824275
0004d0 79 cb f3 ca e1 ab d0 3f 55 92 02 fc ef 15 b9 bf
       0.2604908449131283 -0.09799098875607488
0004e0 bc 12 c9 14 57 5c e3 bf 4c a7 30 e2 5f 79 de bf
       -0.6050219922986666 -0.4761581143271669
0004f0 53 89 26 a3 14 ea ef 3f 57 7d 9e cf d8 3d dc 3f
       0.9973242937597128 0.4412748363046907
000500 a5 e7 b7 d1 94 df ec bf 09 ee 73 6a 7b 19 c9 3f
       -0.9022926422178342 0.19609015176671132
000510 4a c6 03 84 c6 a5 d9 bf a5 8d 52 64 8e fa f7 bf
       -0.40074313060822375 -1.4986709517332681
000520 a4 f1 7b 3e 80 7a b1 3f 8b b8 93 b3 16 43 9a bf
       0.06827546620838248 -0.02564654799510228
000530 9d fb 21 c6 a6 f1 ee 3f 0d 7d 9a 43 c9 79 da 3f
       0.9669984693317591 0.41368323900128773
000540 14 9c b2 55 b2 4e c5 bf 37 49 98 c4 00 43 b2 3f
       -0.16646413025338858 0.07133488464049696
000550 45 21 a6 55 64 d5 d0 3f d3 c3 88 8a 0f d5 dd bf
       0.26302440990595627 -0.46612919357999977
000560 8a 0a 1c d5 1f a0 d9 3f 97 96 59 a2 57 66 e5 3f
       0.4003982144496737 0.6687429591081181
000570 a0 3a 07 af 8a e9 e2 3f 23 de f8 06 b4 98 cf bf
       0.5910085123558311 -0.2468476327937746
000580 ba c6 46 d6 6b f2 c6 bf 78 c5 ff c1 c0 37 e5 3f
       -0.1792731090804887 0.6630557812733704
000590 35 c3 0d 3a 96 ee c5 3f e6 f0 e8 d9 28 b3 00 c0
       0.17134359202057117 -2.0874802612507777
0005a0 16 3e 98 a9 c8 48 cb bf 20 1e af 63 ef b7 e4 3f
       -0.21315868645659525 0.6474530169443291
0005b0 94 a7 1b a4 33 f4 e4 bf 68 37 cb 1f e1 5e a7 bf
       -0.6548097806200865 -0.04564574730976184
0005c0 3d a5 1a 81 95 ca fe bf 49 54 25 99 b7 1c fc bf
       -1.9244589846733355 -1.75701103041253
0005d0 4a 57 04 4e 5d 36 c8 3f b1 7a 66 79 c2 66 df 3f
       0.18915907201215482 0.4906469522046946
0005e0 51 df 8e 91 c5 90 d5 bf 98 56 1d eb 34 0b d8 3f
       -0.33696116652162283 0.3756840034524003
0005f0 4a 06 ab 1e 52 db d4 3f 59 7b 77 2a f0 90 ca bf
       0.3258862781040973 -0.20754816125460243
000600 f1 22 5e 9e dc ac 03 c0 2d 10 7d ba b4 3a f8 bf
       -2.4594051716306855 -1.5143325123508575
000610 61 90 aa d8 e4 70 e6 bf 8e 88 ec 69 50 5d ed 3f
       -0.7012809974444388 0.917640883333904
000620 5c 82 fd 7c b7 e3 00 40 1c 99 d5 73 57 0d f1 bf
       2.111189819799888 -1.0657572293071729
000630 fb f6 4f af e8 48 ec bf 15 d9 9c 10 d3 e2 b4 bf
       -0.8839000152654245 -0.08158606677611531
000640 59 18 9a ac 29 ad de 3f a7 87 64 6b e7 eb db bf
       0.47931901794107074 -0.43627343642776356
000650 cf 81 e4 86 1b ed e0 3f 1d 88 0c 2e 16 19 06 40
       0.5289437899228292 2.7622493360113496
000660 b1 83 af 78 41 c0 f3 3f f1 80 6c 88 07 a3 ef bf
       1.2344374384194732 -0.9886510529068159
000670 11 74 1a 9e 2c c5 ba 3f 26 39 75 ee c0 ce f4 3f
       0.10457114086098353 1.3004769625436636
000680 9e 50 5e a6 b4 5e da 3f ef cd 64 ea ad bd fd bf
       0.4120303749744013 -1.8588084369665656
000690 c8 d9 83 95 e7 21 b3 3f 20 e3 4c ff 5c c3 d9 bf
       0.07473609352368904 -0.4025490277449979
0006a0 da 74 ac b5 c2 95 e0 bf 6a 96 c5 59 5d d5 c0 3f
       -0.5182813213647492 0.13151137240781746
0006b0 05 4a d5 ba 5d 1e c7 3f 75 c1 0c 1b b9 9c ca bf
       0.18061420080864835 -0.20790780850212412
0006c0 69 ce 24 e7 3b 57 c7 bf 57 5b c3 2f 8a 5d c9 bf
       -0.18234967027966612 -0.19816710788901545
0006d0 89 85 d1 dc e5 1e 96 3f 9e fc 86 39 d1 bf a7 3f
       0.021602241137207243 0.046385324737906006
0006e0 e4 21 51 c3 c8 3b de 3f 12 a2 2e c8 37 6f bb 3f
       0.47239893983763026 0.10716580044994142
0006f0 73 2c 79 61 9b 94 de bf 29 bf 64 11 21 5e ab bf
       -0.4778202487838776 -0.05345252358745107
000700 f9 4e 82 10 04 47 cd bf 12 55 ca cf d1 9c e7 bf
       -0.22872973257164356 -0.7378930147557716
000710 ae c2 45 7c 47 ae cb bf 5b 55 81 ca 61 5f 00 40
       -0.21625608032220128 2.0465732403487613
000720 bf c0 43 0f aa 25 e6 3f 69 21 b7 16 1b 08 de bf
       0.6920976923120391 -0.4692447397069573
000730 0b 88 17 39 a5 90 f6 3f be 35 f6 26 04 80 e0 bf
       1.4103138189461812 -0.5156269799205615
000740 5d 65 c5 a8 12 3f e9 3f 77 17 a9 3d 2f 95 eb 3f
       0.7889493271169773 0.8619610027605934
000750 10 b0 b9 58 e0 53 d2 bf a4 51 bc 59 c1 76 b8 3f
       -0.2863694063623834 0.09556206169901899
000760 62 52 ce c5 29 18 ef 3f 8c 6c d1 6a 4f 7c f3 3f
       0.9716996062657695 1.2178491756992882
000770 94 20 f3 c9 40 e9 ee 3f b5 ca 76 12 1b 87 e4 bf
       0.9659732765512836 -0.6414924011827084
000780 78 8b a4 99 47 0c e4 bf c3 23 a9 75 2b f7 a2 bf
       -0.6264989853701612 -0.0370420056465899
000790 25 83 1b 58 67 0a f5 bf 98 b9 e9 cf 2d 08 d6 3f
       -1.3150399629304925 0.344249203720119
0007a0 ca 0f ac f9 48 3a ec bf 68 e1 07 75 c6 ff f2 3f
       -0.8821148754509462 1.1874451228632896
0007b0 7f ce 61 2b de da eb bf eb ba c9 ea c5 53 f1 bf
       -0.8704672667794994 -1.0829524203688219
0007c0 b0 1d 79 6b 6c 29 eb 3f 1d 66 25 ea e3 d6 92 bf
       0.8488065814098515 -0.018397866407530928
0007d0 b8 cf 33 40 a6 48 b3 bf 8a 0b c0 80 b3 44 db bf
       -0.0753272921318161 -0.42606818745860464
0007e0 2b 85 83 ec 82 9d d3 3f c7 13 47 7d 95 03 d2 bf
       0.30648873421712847 -0.2814687465109355
0007f0 1b 05 5c 2f 59 b1 fc 3f 27 45 27 47 74 e4 eb bf
       1.7932979440668706 -0.8716374768938849

bias_ih_l0 f8 [40]
000000 e6 3a 7f c5 e6 13 f1 3f 9c f9 99 ab be ea ef bf
       1.0673587527014035 -0.997405371817695
000010 c5 5a e0 84 19 28 e8 3f 0d 82 15 40 a5 47 f6 3f
       0.7548949809305091 1.3924915793687689
000020 34 96 08 6b 55 47 de bf 73 f3 4c 3e e7 d0 e1 bf
       -0.47310386135572746 -0.5567508904274362
000030 3c ca df 70 d4 bd e0 bf 4a b3 e2 91 9f 0d eb 3f
       -0.5231725887845822 0.8454130029036631
000040 59 bc 54 a5 ab 2f c4 bf 76 1b b4 31 12 be e1 bf
       -0.157704787948634 -0.5544520350239128
000050 d2 ac 19 03 7f e6 ec 3f d2 6c 58 39 ff 12 fe bf
       0.903136735968838 -1.8796379318289849
000060 9e 14 3c 8a f0 9c e5 bf 03 56 2f aa bd 7c e1 3f
       -0.6754076671501428 0.5464771579669904
000070 fd e1 87 8e 8b a7 f4 bf cf 4e 89 17 0b f2 f1 bf
       -1.2909045760735574 -1.1215926093472495
000080 e3 b3 4d 96 74 7f b8 3f 29 b4 95 5e 56 3f f3 3f
       0.09569481534499817 1.2029632277219753
000090 13 b9 19 39 b7 b7 c4 bf 4c 38 e6 1a c8 a0 e5 bf
       -0.16185655868634594 -0.6758766675354848
0000a0 b8 17 1a ab a8 42 f2 3f 5d fd c3 29 66 48 dc bf
       1.1412741359394953 -0.4419188888423003
0000b0 6c 3b 8a 79 4a d8 e4 3f 11 4e fa f0 1e 32 f3 3f
       0.6514026998355411 1.1997365391915802
0000c0 5f 4e a4 da 06 15 b3 bf ee 8f e6 84 0d b0 df bf
       -0.07453959310469703 -0.49512041071488866
0000d0 ab e5 14 85 ba 6b e3 3f 3d f7 86 41 31 58 e6 3f
       0.6069004630327773 0.6982656745746919
0000e0 74 5b d3 bf 36 f0 e4 3f 21 c6 8d 91 9a a0 f0 bf
       0.6543229815095928 -1.0392099080749022
0000f0 42 eb 2c 6e dd 4a ed 3f 29 5c 96 e7 d8 56 f3 bf
       0.9153887893547579 -1.2087029501324287
000100 89 2d 63 bc e8 aa ea bf 57 fe 6d 9f 27 ae db 3f
       -0.8333629302446052 0.4325045639925284
000110 f8 9d d3 aa 84 9e d9 bf b5 55 4d c5 db 5c f7 bf
       -0.4003001850346375 -1.4601705271828511
000120 ef d1 7c 90 8a e7 f3 bf c1 ef d9 38 c1 8b b7 3f
       -1.2440286296888379 0.09197623861285732
000130 75 00 24 85 08 fc f2 bf 9e be 18 0d fe 07 f0 bf
       -1.1865315628820359 -1.0019512664402224

bias_hh_l0 f8 [40]
000000 fe 3a 7f 8d c7 5f fa 3f 9f f9 99 bb c4 a8 e7 bf
       1.6483836676813435 -0.7393516220179669
000010 ce 5a e0 74 00 be e9 3f 08 82 15 58 08 d1 fa 3f
       0.8044435770742326 1.6760333481580592
000020 34 96 08 6b d0 7f d2 bf 72 f3 4c fe 2a cd e1 bf
       -0.28905115559095695 -0.5562949148949043
000030 34 ca df b8 17 29 e6 bf 45 b3 e2 21 fa 0c e7 3f
       -0.6925161944221316 0.7203341161563023
000040 22 5e aa b2 44 8e d9 bf 79 1b b4 99 e1 3a e9 bf
       -0.3993083710460913 -0.7884376527807567
000050 d2 ac 19 d3 d5 a4 ec 3f dd 6c 58 f9 91 a9 fa bf
       0.8951214907696345 -1.66639897728492
000060 a1 14 3c 3a 10 d0 e0 bf 09 56 2f ba f6 b6 e5 3f
       -0.5253983628650937 0.678584445612331
000070 fd e1 87 ee 2e 0a f5 bf 80 9d 12 df 32 9f e9 bf
       -1.3149861638650002 -0.8006834370507221
000080 eb b3 4d 96 b1 e8 b7 3f 27 b4 95 be 1c e1 f2 3f
       0.09339437407989208 1.179959053489492
000090 8e dc 8c 1c 2c 08 d1 bf 51 38 e6 92 b3 d4 e9 bf
       -0.26612379825696386 -0.807214533722581
0000a0 b7 17 1a cb b3 15 f1 3f a4 fe e1 74 90 57 e8 bf
       1.0677984174412651 -0.7606889994494463
0000b0 77 3b 8a 89 38 89 e1 3f 17 4e fa ac 57 4d f1 3f
       0.5480005918815171 1.0813824421828764
0000c0 ca 89 54 cb e7 4a e3 bf f3 8f e6 c4 e2 09 d6 bf
       -0.6028937312406069 -0.34435338238313234
0000d0 70 cb 29 8a a8 4e d3 3f 3e f7 86 d1 6d 4c eb 3f
       0.3016759251833525 0.8530797092750857
0000e0 d8 b6 a6 9f 93 b1 dd 3f 3c 8c 1b c3 3e 56 e6 bf
       0.46396341887417014 -0.6980279741950493
0000f0 4c eb 2c be 90 05 e0 3f 4e b8 2c ef 18 cb ec bf
       0.5006793703426893 -0.8997921630268679
000100 c8 96 31 76 88 5a f1 bf 59 fe 6d 5f 0d 03 d5 3f
       -1.0846027962629012 0.3283112937860771
000110 e5 3b a7 55 01 b3 cb bf 57 ab 9a 8a bf 30 ee bf
       -0.21640030557907078 -0.9434507090676146
000120 ec d1 7c 10 a0 0f f3 bf 08 f8 6c bc e7 80 cd 3f
       -1.19131475868664 0.23049637508842147
000130 6c 00 24 ad ae d6 f8 bf ab be 18 b5 e1 01 f6 bf
       -1.5524126780801693 -1.3754593919838196

weight f8 [6, 10]
000000 6c 5b 06 47 3c 5b ea bf 80 75 08 c4 c2 31 dd 3f
       -0.8236371409610519 0.45616215843059393
000010 4a 40 28 63 b1 8d d7 3f e4 c9 30 03 f4 5b de bf
       0.3680232494671186 -0.4743623763235105
000020 98 c5 dc 56 04 0f df 3f cf 87 94 e7 fc 2f c8 bf
       0.48529156191497114 -0.18896447475077457
000030 e2 58 8a 93 99 44 d0 3f 49 62 4d 14 07 7d f0 bf
       0.2541870060753252 -1.0305243294771051
000040 bb 4e 2f c1 1d f8 ca 3f f6 08 78 e3 18 8d c4 bf
       0.21069690640307734 -0.16055594546202884
000050 7c 43 62 40 30 63 d4 bf cb 65 2c 04 07 fb c8 bf
       -0.3185539845226726 -0.19516074851780582
000060 0e ba 1a 94 03 a8 e1 bf 8e a6 20 12 59 2f c9 bf
       -0.5517595188774196 -0.1967574442399393
000070 0c cd 91 a1 ee 0a b6 bf ee f2 eb 92 d6 57 d5 bf
       -0.08610431141442038 -0.3334862170011509
000080 c1 83 fc fb 26 ed d2 bf 0e ef c4 f9 8c 89 c8 bf
       -0.2957246266178651 -0.19169771381154316
000090 d8 21 ed ee 11 cb c7 bf 89 29 3f ed 0d 42 b8 3f
       -0.1858847061760247 0.09475791017681535
0000a0 75 3d f4 57 8f f1 e2 3f 75 f9 76 3d 39 cf 1e 40
       0.5919872968533314 7.702366791140197
0000b0 06 6b da 75 c5 5c 04 40 26 29 17 fe c9 4d ef 3f
       2.545298500755396 0.9782457316116833
0000c0 6d 87 08 7e 94 fb c5 3f ff 1c d7 76 85 48 e7 3f
       0.1717401137730649 0.7276027031993236
0000d0 5a 47 41 d2 c5 e5 cb 3f 23 41 ff b1 e9 df ed bf
       0.21794960752827813 -0.9335831142907732
0000e0 62 52 e8 e2 47 4c f0 bf a2 3c 7a 24 22 4e ac 3f
       -1.0186232436727995 0.05528361029893715
0000f0 1b 75 ef 58 81 12 aa bf bb 75 f6 8b 69 df e4 bf
       -0.05092243395459147 -0.6522720082900187
000100 99 66 f0 9d 9d 2c e0 bf 63 a7 7d b7 28 e7 da bf
       -0.5054462513682721 -0.4203588287260713
000110 64 05 04 e5 40 e8 12 c0 61 57 68 89 39 d7 e2 bf
       -4.72681005322497 -0.5887725528470861
000120 f2 cf 8d 54 21 3c f1 3f 80 4a 88 7b 5e 42 ed 3f
       1.0771802237404668 0.9143516934148721
000130 b3 44 f4 80 f0 2b e8 3f 77 9b f6 4f 07 05 c4 3f
       0.7553637045513341 0.1564034595914696
000140 3a f3 df 2e 6b f9 ca bf 10 31 47 6f ea 8f d0 bf
       -0.21073665417488902 -0.25878392092705926
000150 b8 af f5 c7 b3 b9 b4 3f ea ad b2 07 1d fa bb bf
       0.08095859176472586 -0.10928517759264592
000160 2e ea 10 40 bd 8f e8 bf d5 95 89 d4 8d 42 d2 3f
       -0.767546296242761 0.2853121352730715
000170 2e 7a f8 25 1c e4 e5 bf 95 cd 77 3e f6 34 b8 bf
       -0.6840954534162103 -0.0945581343183249
000180 64 7f 4e 04 17 28 c9 bf 9e fc 03 dd 64 13 e2 3f
       -0.19653594694409116 0.564867431326906
000190 a8 5c 97 dd 2b d1 b0 bf 8e 5f 88 dd 29 13 d6 bf
       -0.06569170150702297 -0.3449196494489052
0001a0 99 e2 c0 69 c2 3f c2 bf 27 17 c1 c3 c1 6d dd bf
       -0.14257078326933906 -0.4598240291273776
0001b0 7f fc 18 85 83 be c0 3f aa 1c 6d 6a 90 8e d1 bf
       0.1308140182390822 -0.27432642358003057
0001c0 6b bd 1d 3d 68 87 e3 bf f3 a4 6e 29 ad 02 a7 bf
       -0.6102791970896936 -0.04494229441417898
0001d0 3d e3 33 79 ba 4d a0 3f 4a b2 7d 3c e7 4c d5 bf
       0.031843020720720074 -0.33281880290340793

bias f8 [6]
000000 99 2f 8d 39 7c e5 c0 bf f7 50 a6 f4 2d 4a e1 bf
       -0.13200333414203838 -0.5403051164926457
000010 18 5d aa 22 55 0a f3 3f ba 76 6f b9 fb 31 fb 3f
       1.190022597705882 1.6997029536791346
000020 73 6d 83 ae 5e 65 7e 3f 11 a9 d4 79 ac bf db bf
       0.007420892572749127 -0.4335738363030411

weight f8 [5, 28, 6]
000000 31 f4 a8 63 e2 d3 cc bf f7 d8 1a 57 d5 f5 f0 bf
       -0.22521619669160622 -1.0600179102453333
000010 71 60 73 58 ea fc db bf 42 d6 32 ad ca dd d9 3f
       -0.4373117316986344 0.40416209138797765
000020 4f 35 65 83 12 06 d7 bf 61 47 e4 4c 93 23 d8 3f
       -0.3597456248433745 0.3771713496108671
000030 6f 7f 60 79 84 8d bb bf 30 f9 d2 ae 6d c6 f8 bf
       -0.10762813533119496 -1.548444445521067
000040 b7 9a 60 a4 91 5b d7 bf 22 6a e9 af 06 c5 c0 3f
       -0.36496392300106656 0.13101276006166623
000050 9a 46 ba ce 28 75 da 3f f3 5a c3 72 81 99 e1 3f
       0.4134008425545318 0.5499884835688519
000060 fd 78 5b f5 bd ac c7 bf 6a 0b 82 1e a3 3b 02 c0
       -0.1849591682466282 -2.279119718879362
000070 15 2e 86 50 95 26 d6 bf 2e 34 d1 d0 3d 04 a5 3f
       -0.3461049352997361 0.041047984829312475
000080 cd fe 80 fb 43 38 d4 3f 56 51 6a a3 3e 3e dc 3f
       0.31593417702604826 0.44129911383176557
000090 ef 91 4f 49 f8 b6 c3 bf 13 c7 0f cd 0a ed 0a c0
       -0.15402129726056965 -3.36574325756454
0000a0 d8 c2 07 f4 94 db da bf f4 c1 12 cd d2 5f 47 3f
       -0.4196522124394 0.0007133273412787675
0000b0 4e 07 09 84 d4 8f d8 3f 9d ad 8b 07 8a b8 dc 3f
       0.383778695049945 0.4487633775413203
0000c0 74 6b 98 fb c5 b7 c4 bf e2 77 80 2b 0e 0c 0c c0
       -0.1618583181851495 -3.5058864019947444
0000d0 27 0f 8a 1c e3 bc d9 bf 57 df 0e 41 e9 0c b4 bf
       -0.40215375697174455 -0.07832200849850089
0000e0 c4 00 41 9f dd 34 d3 bf 10 85 0e 7e 3a eb d6 3f
       -0.3001016669477503 0.3581072073958049
0000f0 32 5a 64 34 dc 93 95 bf c3 41 55 ce de 3e 01 c0
       -0.021071854303125366 -2.155698406197389
000100 51 22 2e 9f 76 cd da bf 3e 9a 8a 97 ab 99 c1 bf
       -0.41879048867170804 -0.13750214480860906
000110 21 20 0c c2 02 a0 db bf 87 90 11 61 b2 17 d6 3f
       -0.43164128255785 0.3451963375030193
000120 d5 8c 81 01 16 88 a4 bf 84 3e fe 3f df da f8 3f
       -0.04010075348267043 1.5534355640155875
000130 58 9b 38 52 7b a6 d7 bf 5e 4a 4b 40 9d 43 a2 bf
       -0.369536237997115 -0.03567210588302737
000140 7b 6f 08 f4 37 85 d2 bf ca 74 73 d8 e5 a2 d5 3f
       -0.28938101607649686 0.3380674947528176
000150 8c 6e a6 a7 41 e3 b2 bf 1e ac 50 be d8 84 13 40
       -0.07378015845318425 4.87973306052575
000160 9b 85 b9 63 5d 79 d4 bf 81 af 2e 5a 70 0e ad bf
       -0.31990751970996606 -0.05675078488215402
000170 32 95 c9 c7 38 94 da bf 13 ec 5a 62 38 60 da 3f
       -0.41529674063197597 0.4121228180408149
000180 1a 0c 7c da 9e 54 c2 bf 65 14 f2 00 4e 40 03 40
       -0.14320741337005033 2.406398780238805
000190 81 b7 dd 42 f8 39 da bf dd 03 19 f6 d0 8d ce 3f
       -0.4097881939877582 0.23870288864603043
0001a0 6c 92 21 03 de cb d3 bf 81 bf 2e 50 48 a9 d4 3f
       -0.30931806855941235 0.32283218221981974
0001b0 9d 96 a2 cc 90 81 b6 bf 21 cd 7f ab 20 16 bf 3f
       -0.08791451450323469 0.12143139063828247
0001c0 65 5e 13 20 07 6d d7 bf 52 f4 6f 0c 74 21 bc 3f
       -0.3660295308340891 0.10988545707364608
0001d0 13 e6 95 17 a6 8a d9 bf ad 77 4a 2c 33 2a d8 3f
       -0.39908745101237847 0.3775756771591386
0001e0 09 5f f4 37 84 76 a6 bf 39 a1 27 af 57 4e cb 3f
       -0.043872958975212546 0.21332832386475234
0001f0 b8 a9 85 40 9b 47 d9 bf 05 85 98 42 59 ca d0 3f
       -0.39499551106441855 0.26235038283819306
000200 63 e3 90 1b f0 f9 d6 bf 2b aa c8 3d 77 d8 d5 3f
       -0.3590050000380442 0.34133702310160413
000210 d9 9c 49 1a 51 2e ad bf ed ba 00 d4 53 8b a2 bf
       -0.056993994196824445 -0.0362192341129822
000220 f8 83 b6 f1 e0 be d7 bf 03 d7 d4 6a f2 1f d0 3f
       -0.37102531056194676 0.2519498866343925
000230 97 2a 54 b7 c4 9a d9 bf 30 b2 49 25 4a 13 db 3f
       -0.4000713148422305 0.4230523456706434
000240 21 ee 75 5a d5 bc b2 bf 71 df 04 90 ed b5 f9 bf
       -0.07319386919510197 -1.6069160104507
000250 0b bc 74 18 ec 4d dd bf 6b e5 db 49 aa 9e da 3f
       -0.45788099659233755 0.4159341546324728
000260 92 dc ab 1e 4e e0 d7 bf cc 71 04 8e 1d ff d5 3f
       -0.37306550021407603 0.3436960112465186
000270 71 84 2e 8f 00 81 bb bf 35 14 c8 0c c5 e3 f2 bf
       -0.10743716712615183 -1.1806078433303473
000280 13 44 24 c9 f8 c1 d5 bf a9 a6 d5 55 fe 53 d3 3f
       -0.3399641002916393 0.3020015562275185
000290 c5 60 39 b0 31 59 d2 bf e0 8b c1 f7 45 e3 d6 3f
       -0.2866939755381391 0.3576216620915016
0002a0 24 8b c0 d4 91 0d b1 bf 78 15 d1 40 7a ac e8 bf
       -0.0666133064665187 -0.7710543886138757
0002b0 06 25 07 c3 25 e3 d5 bf ab 26 9e 40 77 5b d4 3f
       -0.3419889835900708 0.318082631209658
0002c0 71 64 13 6d 73 4f d4 bf ec 69 b8 cc 6c 6a dd 3f
       -0.31734929706505627 0.45962066642974153
0002d0 48 ad ff bd 8a ef a5 bf 42 f1 7b 09 ef d3 f5 bf
       -0.04284318513222246 -1.3642416353678333
0002e0 23 7b c4 c0 a9 50 d3 bf 74 82 f1 1d d8 d1 d8 3f
       -0.3017982847685962 0.38780787395629734
0002f0 10 78 0c 9c db 82 db 3f 57 7b b7 20 eb 94 da 3f
       0.4298619293130068 0.41533926196091414
000300 07 af bd 42 86 41 c0 bf d7 5e e0 aa e2 a0 f5 bf
       -0.1269996477016024 -1.3517786669598786
000310 48 8a 9c b4 b1 2f db bf eb 70 13 3a 31 13 d4 3f
       -0.4247860206398042 0.31367140456656156
000320 d3 63 cb 03 c0 a9 d8 bf e7 66 26 ad 7a 82 da 3f
       -0.3853607213073335 0.4142138186376613
000330 ac fe 3f e5 75 ee b7 bf d1 8a 14 d7 91 3d fe bf
       -0.09348236891673406 -1.8900316621372222
000340 60 ad e3 0d f5 6d d5 bf 61 40 34 5d 4f b8 d2 3f
       -0.33483625751860835 0.29249939062083824
000350 45 25 7c b4 db 95 db 3f a1 c5 cc 3b b1 36 df 3f
       0.4310216200397757 0.48771315421898903
000360 48 b0 7a 12 c6 28 a2 bf c0 4c 79 b6 ce 2f f6 bf
       -0.03546732879235087 -1.3866717460521585
000370 a7 4c e9 5e 1a 2d da bf d0 4f 5d f4 45 8e d3 3f
       -0.409002869307367 0.30555867065163245
000380 df aa 87 7e f8 1d d6 bf f0 54 ed 02 2b 1d da 3f
       -0.34557926517906695 0.40803027425620453
000390 e1 c8 4d bd 02 92 9d 3f f9 7c e9 4a d4 0f f5 bf
       0.02887729912203774 -1.3163645673992603
0003a0 e4 82 da 4e 75 5a e2 bf 9f 7a 34 36 7b d8 cb 3f
       -0.5735422649487103 0.21754398485878298
0003b0 4b bd da 3e a3 df d8 bf 1e ec f1 75 f3 f6 d1 3f
       -0.3886497606099126 0.28069769399707123
0003c0 e8 68 b0 97 e4 1b b2 3f f8 d7 63 7d 1c e0 f0 bf
       0.07073811248156725 -1.0547146699950627
0003d0 4b b0 45 a3 09 6a e2 bf 13 1f 76 16 79 22 d5 3f
       -0.5754440487776348 0.330229064879391
0003e0 9a dd fa 5c 88 dd db bf fc 14 2d d6 da 1c d6 3f
       -0.4353962810523285 0.34551115909228236
0003f0 af 06 dd b0 93 60 bd 3f 8f 86 da af 82 27 e0 bf
       0.11475489681199734 -0.5048230585709507
000400 63 22 08 fd 27 58 e3 bf 24 cb c0 1f 41 42 cc 3f
       -0.6045112554575777 0.22077192354626007
000410 b2 8b 67 15 f6 65 d6 bf dc 84 fa ab c9 94 c9 3f
       -0.34997322168618006 0.1998531427134712
000420 99 aa 38 92 38 4b 91 3f 37 b7 c8 19 e4 9e e0 bf
       0.01688850777115167 -0.5193958762735978
000430 e4 a6 c2 ce 3f 5d e4 bf bb f3 6c 69 6b 65 d0 3f
       -0.6363829649246466 0.25619015975444953
000440 f0 14 f3 47 b6 71 d3 bf c8 de 3b 95 b5 77 d2 3f
       -0.30381543184587567 0.28855647634143766
000450 51 e8 16 b7 19 fd 73 bf 25 80 69 34 31 ff de bf
       -0.004880047273610869 -0.4843256961667087
000460 d3 32 e2 2f e1 1a e0 bf f6 c9 36 c0 9a a0 cf 3f
       -0.5032812056757286 0.24708876023721843
000470 45 c9 ac b8 e3 1f d9 bf 3d a2 54 8a 11 e5 d7 3f
       -0.39257138285315235 0.3733562327275058
000480 c5 6f 73 7a c2 d5 a4 3f be cf 1a 1d 21 06 d4 bf
       0.040693356940863214 -0.31287410585650466
000490 d2 82 e8 66 71 07 e1 bf 43 c9 50 a5 5a 90 d0 3f
       -0.5321585664679225 0.25881067413424236
0004a0 41 70 5c 9f 3c 80 da bf 80 2d 49 c8 da 5a d4 3f
       -0.41407695353132473 0.3180453258434781
0004b0 74 aa 44 19 29 44 a8 bf b0 af 63 a9 31 1a a3 bf
       -0.04739502366495155 -0.03730921929113096
0004c0 31 8b cb 61 c6 25 e1 bf 4a 19 79 b1 a0 f7 d1 3f
       -0.5358611974773791 0.28073899585105677
0004d0 02 d6 b5 1e b8 48 db bf 27 eb 77 a4 ff f7 e2 3f
       -0.4263134288697473 0.5927732670091687
0004e0 ce c0 7b 8a 85 08 bc 3f dd 5d 6b b3 3d c1 d0 3f
       0.10950502997343678 0.26179449578691366
0004f0 a7 f4 75 3f 12 6b dd bf 5d 7c 6a 7d 14 44 d3 3f
       -0.45966011235561627 0.3010302757992969
000500 8d fa fb 84 23 24 d3 bf 30 3d f5 38 1c 46 d9 3f
       -0.2990807341265416 0.39490418970395336
000510 78 6c e3 fe 92 c9 d6 bf 55 23 01 d2 bb 1f dd 3f
       -0.3560531129020954 0.45506186969992274
000520 22 24 85 d0 e0 d0 e0 bf ef 2b e2 52 27 20 d5 3f
       -0.5254978249223579 0.3300875005158436
000530 b1 65 b2 14 fc ce d8 bf f7 ee 92 6d 61 b9 f4 3f
       -0.38763334294489044 1.2952589302284971
000540 85 f6 b6 ce e9 0d d5 3f b4 b0 ae 0b 87 c4 bf 3f
       0.32897420107824643 0.12409252200331161
000550 62 4b 50 dc 3c 5a c2 bf c1 b6 33 4a 78 99 d2 3f
       -0.14337883718016103 0.2906170582417467
000560 f6 de d9 a2 fd bb d2 bf b5 16 33 45 7a 19 c6 3f
       -0.29272404578612965 0.17265251521000882
000570 87 5d d8 2d 93 78 d2 3f 59 87 db b3 0f 18 85 bf
       0.2886093089777763 -0.01029979961043963
000580 98 60 33 99 c0 a1 c4 bf 41 ae 20 c1 8e 91 84 bf
       -0.1611862896013505 -0.010043254154957217
000590 26 1a 17 e7 34 e4 d3 3f 67 c9 27 08 3d 75 83 bf
       0.3108036286106731 -0.009500958262809346
0005a0 70 be 04 0a 1b 57 84 bf 6d 9e a1 db 16 64 f0 bf
       -0.009931765788308428 -1.0244358615254001
0005b0 b1 4b b1 96 f1 24 b9 bf 34 88 86 e3 6d 18 a7 bf
       -0.09821996621148689 -0.045108255409346404
0005c0 f6 46 b1 df cd 37 db 3f 40 c8 ad dd 35 77 c6 3f
       0.4252810177323306 0.17551301311647372
0005d0 6e e7 17 00 9a be bf bf 41 ef b2 2c d7 cd 03 c0
       -0.12400209905891099 -2.475508069239283
0005e0 68 c7 e5 4d d4 16 c1 bf a8 48 52 d6 08 d1 c8 bf
       -0.13350919536201933 -0.19387922730363027
0005f0 15 6c 7c 52 98 3e d6 3f c6 0d 2b 19 12 93 9a 3f
       0.34757049613261987 0.02595165518392919
000600 73 64 53 9b 35 5c d8 bf 9c ad c7 ea 05 78 01 c0
       -0.38062801521807116 -2.183605035990423
000610 50 13 ff 83 0a 1b b4 bf db a7 4f 86 8c 82 ca bf
       -0.07853761408393933 -0.20710903700029246
000620 5c 2d c5 38 7c a3 d8 bf 7e b8 ba 06 71 e6 c3 3f
       -0.3849783472439492 0.1554700167520799
000630 0c fb 81 43 7f db ba bf b8 72 e5 a3 5d 19 e4 bf
       -0.10491176031244381 -0.628096408948827
000640 4c 12 b2 52 22 de c8 bf 7e f3 f7 69 f7 d9 c6 bf
       -0.1942789939677304 -0.1785268084930997
000650 3c 0a 3a 38 9b 2e d5 bf 9a 7c 09 90 7a 3c b2 3f
       -0.33096962443247313 0.07123533264665341
000660 85 91 72 99 6f f3 a5 3f d3 d3 3f 99 4b e7 16 40
       0.042872893792522716 5.72587432338783
000670 19 89 8b 40 9a 09 c1 bf 74 6a 18 05 10 d2 a3 bf
       -0.13310554648985187 -0.03871202528190035
000680 60 dc 23 5d 29 c3 d7 bf 12 b7 ee 1d bb f3 7a bf
       -0.3712867173739536 -0.006580096173747456
000690 64 3c af 1d 59 45 da 3f b9 bb 77 89 b8 a5 25 40
       0.4104826726806492 10.823673530450707
0006a0 9b 6e 57 4d 73 40 ca bf fc 2f 38 ff f0 25 d8 3f
       -0.20509187008325544 0.3773157589318996
0006b0 a0 ae 2a 27 1c a4 d9 bf 98 df e3 4a 67 54 bd bf
       -0.40064147782207193 -0.11456914499637916
0006c0 d1 31 ab 58 39 9e d0 3f e1 53 68 32 2f 9f 17 40
       0.25965722712569766 5.905453479402213
0006d0 a8 19 eb 6a e4 ca bc bf bf dc d7 3e e9 6c df 3f
       -0.11247089014350442 0.4910224069312327
0006e0 d9 4f 2e 9b 91 76 d6 bf 40 6a ef 80 f8 53 a5 3f
       -0.3509868636549505 0.04165627073208045
0006f0 f2 dd e4 f7 77 5f d7 3f 6e 5d 62 35 6f 8c f6 3f
       0.3652019425239522 1.4092857442209055
000700 d1 5e 04 0f c6 c0 ca bf 7d b3 fe ae a7 49 ed 3f
       -0.20900798543220003 0.9152410905713705
000710 99 69 02 fb be 42 d6 bf c6 77 bd 0c fc 50 d0 bf
       -0.3478238536132721 -0.25494290584708457
000720 81 f5 9b 86 2d 69 d6 3f 58 19 af 6d bd 04 01 40
       0.3501695456069101 2.127314431100938
000730 5b d9 9b 12 de a6 b5 bf 38 6d 51 f0 04 c0 f2 3f
       -0.0845774455482106 1.1718797099518508
000740 f2 6b d4 ae 6e 29 da bf f8 fc 16 bb f9 f4 d2 bf
       -0.40877883027286466 -0.2962021185921482
000750 70 db 72 cb 90 e7 d9 3f 5b 6c 96 1c 32 a6 05 40
       0.40475864284547125 2.7061502679257905
000760 67 4a bb 16 05 f8 ca bf 54 38 7a 6e 11 70 f7 3f
       -0.21069396600667575 1.4648603740238473
000770 54 7d 63 d9 b0 49 da bf c9 3a 85 61 0d 0c d6 bf
       -0.4107477305351115 -0.3444856121395046
000780 cb 5d f8 81 94 65 e0 3f 22 58 f5 09 d3 e2 ce bf
       0.5123999155502416 -0.24129713045357543
000790 86 69 04 7f 1b 62 cc bf 6e e4 df 2d bc f4 f6 3f
       -0.2217440004540771 1.4347497741676096
0007a0 43 f9 ba 3b 25 cb db bf 50 7c 5a e4 f8 87 db bf
       -0.43427401383441494 -0.4301740865720989
0007b0 01 7d 1c 64 6f 82 e2 3f 5c 9b 92 27 3a 5d ef 3f
       0.5784222560213551 0.980130269327542
0007c0 6c ad 03 5e 0f 59 ab bf 4d ee d3 07 ed c5 f2 3f
       -0.05341384909282962 1.1733217530990203
0007d0 d4 10 88 eb f6 93 d3 bf 8d a7 c3 ef c1 0d de bf
       -0.3059060382950183 -0.46958969511489884
0007e0 ef 90 f7 7d 03 58 e2 3f 15 de 3d 19 f8 ed f6 3f
       0.573243852643399 1.433097933388017
0007f0 6d f5 ff 90 f9 55 b1 bf 89 99 c5 07 bf 77 ea 3f
       -0.06771812238726733 0.8271174575609602

bias f8 [5]
000000 0f ae 44 41 24 95 ae bf eb 23 75 90 0f 42 ac bf
       -0.059731610266990136 -0.0551915038909739
000010 1c 32 fd fa 9f c1 a0 3f 59 da f8 02 9f 47 98 bf
       0.03272724093276144 -0.023710712963487122
000020 48 fb d7 25 e4 0e b1 bf
       -0.0666334717170517

weight f8 [5]
000000 de 77 3c 83 46 8b e5 3f bd 26 8b 1d d7 50 f8 3f
       0.673251396485053 1.5197364000363642
000010 71 20 f1 2a ba 91 f6 3f d7 31 03 a7 c9 c7 f1 3f
       1.4105779340188997 1.1112762950825663
000020 eb 32 d0 40 f0 1e ec 3f
       0.8787766710171047

bias f8 [5]
000000 3c 60 c8 33 ed 1c 21 be 4e 06 10 cf ce 1b 07 be
       -1.99221475276844e-09 -6.725494866969346e-10
000010 fe 28 0e 5f 26 98 34 be 97 5f da 97 e5 4d 16 3e
       -4.794992390024136e-09 1.2982802328095243e-09
000020 1c 80 25 14 df 40 e4 bd
       -1.473629083978091e-10

running_mean f8 [5]
000000 a0 cd 3d 18 1c 72 11 c0 cf 0a 69 e0 4a 40 23 40
       -4.361435297748727 9.625571263144051
000010 46 08 e4 44 64 13 0d 40 cb 0a c3 e5 4a 67 32 c0
       3.6344685918893758 -18.40348659526607
000020 f0 5c 90 72 51 81 f4 bf
       -1.2815718150284816

running_var f8 [5]
000000 92 a4 9d e6 d0 95 8e 40 eb 76 72 58 cb 73 90 40
       978.7270023647163 1052.9485795865137
000010 f7 cb 3b 34 2c fe 8d 40 13 4f d3 dd 43 e6 8a 40
       959.7715840026493 860.7831379421717
000020 bf 26 a4 18 57 85 84 40
       656.6675274681401

weight f8 [1, 5, 6]
000000 00 00 00 80 c9 f1 ab 3f 00 00 00 80 cf 0a a3 3f
       0.05457906424999237 0.03719185292720795
000010 00 00 00 00 65 39 bf bf 82 b8 47 02 16 b6 d5 bf
       -0.12196952104568481 -0.3392386457698039
000020 d9 3c 5c f8 64 82 c9 3f 00 00 00 80 6d a9 c2 bf
       0.1992918217369837 -0.1457955241203308
000030 00 00 00 00 a2 f8 96 3f 00 00 00 40 2d c2 b0 3f
       0.022432833909988403 0.06546290218830109
000040 00 00 00 a0 c9 1d c1 bf 8b 5d 0e 64 f1 3b e3 bf
       -0.13372154533863068 -0.6010672525616639
000050 7a 94 72 c8 24 f8 f8 3f 00 00 00 00 01 89 c0 3f
       1.5605819540008086 0.12918102741241455
000060 00 00 00 80 e1 21 aa 3f 00 00 00 00 7c db 83 3f
       0.051039740443229675 0.009695976972579956
000070 00 00 00 00 08 d3 b2 3f 9e 80 3e ff fc d6 d9 bf
       0.0735325813293457 -0.40374684263407257
000080 0f 6f 52 ad 53 ae db bf 00 00 00 c0 00 83 c2 3f
       -0.43251506734826334 0.14462289214134216
000090 00 00 00 60 96 70 b8 bf 00 00 00 80 31 4d be 3f
       -0.0954679474234581 0.11836537718772888
0000a0 00 00 00 80 90 d1 b8 bf e1 31 dd 6a f2 20 ca bf
       -0.09694769978523254 -0.2041304609105188
0000b0 aa a7 78 a6 91 ca d7 3f 00 00 00 20 70 a5 c6 bf
       0.3717388272949572 -0.17692376673221588
0000c0 00 00 00 00 f1 5a be 3f 00 00 00 00 9c da 74 3f
       0.11857515573501587 0.0050912946462631226
0000d0 00 00 00 80 6a 11 b2 3f 79 7b 7d c3 2d 79 c2 bf
       0.07057824730873108 -0.1443230824033568
0000e0 ed 8a 08 a0 87 b6 cd 3f 00 00 00 00 44 bb 98 bf
       0.23213286699418437 -0.024151861667633057

bias f8 [1]
000000 e6 30 8d e8 3d 2c af bf
       -0.06088441337360155

weight f8 [1]
000000 bd 9e fd 76 9d ad f7 3f
       1.4798864982675888

bias f8 [1]
000000 6f 19 66 30 c1 3f b6 3f
       0.08691031867610886

running_mean f8 [1]
000000 d9 e4 9e 3b 07 bd ff bf
       -1.9836494759495535

running_var f8 [1]
000000 bc f4 0b 2d 47 e1 31 40
       17.879992309016174

weight f8 [7, 1]
000000 8a 83 a5 05 08 4d e6 3f 9f 7b 77 0a dd ed c0 3f
       0.6969032392772629 0.13225901614256672
000010 18 09 15 d7 dd 7c e8 bf 1a f7 7c e5 9b 49 df bf
       -0.7652425003837235 -0.4888677350135012
000020 54 49 59 c5 01 3d e3 bf 42 ae 1a 83 0f bb ee 3f
       -0.6011971334903969 0.9603345451955152
000030 90 ce b5 b1 82 24 d2 3f
       0.2834784255457885
