PytorchLSTM/Data_for_first_draft/model_data_driven.pt (torch, 28939 bytes, 28 tensors)

weight_ih_l0 f8 [40, 8]
-0.09023765606558326 0.7301048353393409 0.22080041953597196 -0.7610895398883437 1.377003746689076 -0.7322218515144525 -0.9845598649175517 -1.2038775044406285
-0.13497485589973165 0.6523750505416299 -0.23172571421020943 0.40452485849486636 0.5568190363439202 1.1246880250431153 -1.0723294912140513 -0.6425522059825769
0.36602509412561757 -0.3556399090591236 -0.476247152353257 -0.023882577565069955 -0.1856906853919143 -0.12830527619703683 0.4231690976389825 0.4858233637684464
1.2913861900314778 0.012698480915485583 -1.1941729270458246 -0.6144501371344077 0.1376092107293814 -0.41619549970178066 0.278039157801188 0.012849496366771348
-1.875774897729534 0.7570429776545821 2.071385157380808 0.5745293514465417 0.44956621694309945 -0.7087486978715003 -1.406496065840052 -1.0598789237805892
-0.08629463941473414 -1.9115119728864987 0.21386535480985855 0.7697889988618556 -1.6387027480513547 0.08785785364426331 2.2008957277657424 1.4041997399997144
1.6822214532689848 -0.21622076488084188 -1.5457817543893597 -0.5824318602165444 -0.1790157819799024 -0.5209576607729093 0.035328105695486015 -0.014949652644496735
-1.6976196649820685 0.9373436570584057 1.7409460543316309 0.8720701627270449 0.5475295786733302 -0.2811042982620665 0.2444115280499307 -0.34663721272909387
0.5601185494298064 1.377622825593645 -0.6969907854081182 -1.145542378226208 1.3920286680510932 -0.05540826560506916 -0.9184558551267882 -1.0204204361990774
-0.5676827199676233 -1.9211029552322274 0.07953927394726401 0.651981094380461 -1.9139407102382737 0.4779822850639224 1.5320436955913113 0.8877178051745198
0.5597786154420317 1.7576803041542857 -0.7308260485260014 -1.0778632258735494 3.8617116747647384 -0.64220071323492 -2.0134588900091317 -2.070625207460849
0.24839222006212233 1.1960301315355297 0.024462201496794574 -0.4184499198660954 0.9121667738814527 1.0897186610434424 -1.2766481263258354 -0.6924410483447977
-0.28540849500570276 0.9704480032214907 0.10118849270205013 -0.0026742085820206604 1.2023303816853717 -0.28392241380033545 -1.01446465848483 -1.0881590056745372
-0.4929196669381495 -0.11296645472173726 0.4342856249954682 -0.2487977209320283 -0.45145893124186154 -0.486148270874398 0.4297240222468827 0.26627477115989656
0.28285701428579757 1.8037680913783631 -0.0922307393445729 -1.3049795909310506 1.4326026901194717 0.049682126932899126 -1.4793693867316098 -2.5459993495386986
-0.1993278172192105 -1.0226014892715842 0.5258997526374521 1.4080773680503462 -1.1254612692536083 0.2800103575796655 0.7145378187871949 0.8633678371634476
1.5509818977358278 0.07591734066754856 -1.3959078889856995 -0.21098237012704554 0.1649161307169476 -0.7292652279330633 0.14993147220785139 0.062296747284589706
-0.4375391964262583 2.2560948582248517 0.5418689475537958 0.114641595136147 1.910279524919306 -0.13708143701711928 -0.8277565214594823 -2.152636018344284
1.012536315657381 0.8981230261476122 -1.0969961737358467 -1.5578445775491878 1.5339752966524445 -0.09446700036304069 -1.7428509014639302 -1.2664875987604898
0.3713943566965945 -2.3557101635513096 -0.5152469816506725 -0.2143117403216462 -1.8231273469422047 1.6363073573534728 1.420524392252031 1.7635959332827202
-1.5390686076790006 0.6153560038231842 1.7994229195552953 1.0285488837753727 0.6460608876423775 0.15600598771043608 -0.4255926878971656 -0.010386218681174576
-0.02490841387640393 -0.9807001740086773 0.13554042231968955 0.5462124169900707 -0.902617412795107 -0.8847003059715653 0.9024712002999813 0.5991031896111813
-1.0138686504834724 0.20690159271228425 1.276646070018741 0.29619310699878176 0.6622048115429072 0.01171338481589202 -0.4598406225655291 0.2768387700146
0.5115905419661223 0.6879245283226972 0.0703290325971195 -0.9607493675160362 0.7464720197542839 0.097235281694769 -0.8159689739949658 -0.6414068695935459
-1.6263238984115251 0.3301228877093664 1.8774660050944714 0.4860513461675396 0.4712838999398352 -0.23637530227235187 -0.22048212600378558 -0.13078437328015907
-0.08075417108699197 -0.9796731599875759 -0.13470857962137525 0.7634850627844966 -1.6068116315303274 0.09505666512574712 1.100532173977154 0.7052332759849607
-0.7907982489541634 0.33430232434581214 1.112475178598983 0.07538950442629759 0.49877804684935434 -0.12050043026424236 -0.20048114196889966 -0.35824191334490363
-2.567848201611215 0.459423196155771 2.244162078081789 1.178590007986266 0.30225774889375795 0.2514453388453124 -0.5215423874880345 -0.2458486404621213
1.646950318933323 -0.5741485885362185 -1.6242152876017013 -0.005362766043000707 -0.44122944395899055 -0.356871721800114 0.6321724093726449 0.3989589653150581
0.03289064073286257 0.9874168071941695 -0.3770300532480215 -0.17347898178420715 1.5786020941662058 -0.1623998771890794 -0.992045232772492 -0.8236224426753176
-0.2706179903975716 0.8568986029437147 0.5314345738463075 -0.31170278648051364 0.9564057969703331 -0.2545648426653014 -0.41738687196538665 -1.3922584441865247
1.2169937538073738 0.8276513987927357 -0.8820396941860899 -0.7188863613181228 1.5015099431186505 -0.7339893466384719 -0.8711927771531123 -0.9513788471621901
00000000: 3c5c aba5 d019 b7bf cae2 cdd0 045d e73f
00000010: 64cf 6c2a 3043 cc3f 6ebd 6473 d85a e8bf
00000020: 1cfc a714 3508 f63f fe79 3585 5c6e e7bf
00000030: 4fcd 98b0 8381 efbf c966 df0e 1543 f3bf
00000040: 8f92 ef27 db46 c1bf 4aaf 59a4 41e0 e43f
00000050: 6a69 162e 30a9 cdbf fbe2 693b bce3 d93f
00000060: 5b65 dc27 76d1 e13f 4935 dcde b8fe f13f
00000070: 8bcf f4f7 4228 f1bf cf5e d5a4 c98f e4bf
00000080: f83a 3284 f46c d73f 29ed a3e4 cdc2 d6bf
00000090: 50e7 0a56 d57a debf 013a 58a6 ac74 98bf
000000a0: 6a0d 775e b6c4 c7bf 9dd3 95aa 4e6c c0bf
000000b0: 7b62 c2d6 3315 db3f 012a c1e0 ba17 df3f
000000c0: 500f cb90 84a9 f43f 1d58 ed41 a901 8a3f
000000d0: f6e2 3612 551b f3bf d97a 8055 93a9 e3bf
000000e0: 3104 dbb9 2d9d c13f a389 fd72 f2a2 dabf
000000f0: f3dc 70c0 64cb d13f fea4 5235 d650 8a3f
00000100: 5c7f 068a 2c03 febf 252c d631 b239 e83f
00000110: 8cf6 a261 3292 0040 74c2 e160 8b62 e23f
00000120: 290d ca61 b1c5 dc3f 0a1a cebf 11ae e6bf
00000130: 5fc5 cb04 0281 f6bf 88b7 359a 43f5 f0bf
00000140: c03c 1bce 6717 b6bf f55b 1794 8d95 febf
00000150: 8ff0 53a0 f05f cb3f 00d5 dd89 1ca2 e83f
00000160: 31ef 6b5f 2038 fabf 3d4f 1930 da7d b63f
00000170: a547 2538 6f9b 0140 8d9b 8525 9a77 f63f
00000180: d6b7 e60a 61ea fa3f 998d f03c 1fad cbbf
00000190: 60b1 1da6 85bb f8bf 7ce9 f823 48a3 e2bf
000001a0: 7328 8938 fde9 c6bf 8fd9 7366 afab e0bf
000001b0: 0af9 2e85 8616 a23f ecb0 8e69 ec9d 8ebf
000001c0: b64f e23c 7329 fbbf 7cb9 0520 b8fe ed3f
000001d0: 0446 f73f eada fb3f 9e5c 97af ffe7 eb3f
000001e0: ddd3 3fc0 5c85 e13f 1e3d f3e1 9cfd d1bf
000001f0: 0bb3 de7f e048 cf3f 1ae0 0fd9 4d2f d6bf
00000200: 26e3 75bc 7dec e13f 755d 623b be0a f63f
00000210: 7d1e 9e9e bf4d e6bf 369e aa3e 2454 f2bf
00000220: 6ffb 45da bf45 f63f 5e59 67e1 785e acbf
00000230: 4bdb 9288 fd63 edbf 4c52 1a61 a453 f0bf
00000240: 147d 98f3 742a e2bf ba8a cf73 d6bc febf
00000250: a0e0 5994 af5c b43f 092e bf74 07dd e43f
00000260: 684d 4f4b 809f febf 6cae 9a02 4397 de3f
00000270: fbb8 0940 4083 f83f 94a5 a92b 2f68 ec3f
00000280: a45b cad7 b4e9 e13f e5a7 f261 751f fc3f
00000290: a07d 2f4f ed62 e7bf de01 8b82 ed3e f1bf
000002a0: 4991 2d17 c9e4 0e40 b9fa 9982 e88c e4bf
000002b0: fd6f a355 901b 00c0 5e8a e2f2 a390 00c0
000002c0: 03b3 dff6 50cb cf3f 619c bf7d f022 f33f
000002d0: 82e6 aa8d 9e0c 993f 45ad 352c e2c7 dabf
000002e0: 8432 ca5f 7830 ed3f 235c b0d5 7c6f f13f
000002f0: 321b f195 266d f4bf 4590 2121 7a28 e6bf
00000300: 6434 03fe 2144 d2bf f7c0 89f8 e80d ef3f
00000310: f207 e332 7de7 b93f 75f6 e0cc 38e8 65bf
00000320: c236 45c8 be3c f33f aaec 77ea c82b d2bf
00000330: 123e 324b 3f3b f0bf 2f85 e36a 1969 f1bf
00000340: fc7d 43ee fe8b dfbf 5f2e 939c 5eeb bcbf
00000350: 069f 1eef 55cb db3f 7a77 5c8d 9ad8 cfbf
00000360: 28f0 4a00 b4e4 dcbf 3766 1aa3 0d1d dfbf
00000370: afc7 762f 9980 db3f c96c 7856 a50a d13f
00000380: 244f 734e 541a d23f 539d 20ee 3bdc fc3f
00000390: 3ebc 2b09 6f9c b7bf eef0 8f47 32e1 f4bf
000003a0: 9798 63cc f0eb f63f 46bb be8c ef6f a93f
000003b0: 1574 eb3b 7fab f7bf 743f 2fe8 345e 04c0
000003c0: 96dd 11ec 9283 c9bf 9532 1461 935c f0bf
000003d0: d3ac d1b7 2bd4 e03f 5039 6022 7c87 f63f
000003e0: 0cbe 05ad e301 f2bf b423 1690 b0eb d13f
000003f0: 1447 6e6a 7edd e63f db20 2196 b5a0 eb3f
00000400: 136a f764 d2d0 f83f 2bcd 5d9f 516f b33f
00000410: 6cc0 b682 a355 f6bf 9336 dd65 7801 cbbf
00000420: 2a8e 01c6 f81b c53f c7a3 0208 2456 e7bf
00000430: ab0d e358 f430 c33f 050f 78f8 5be5 af3f
00000440: 0d9c d766 a400 dcbf f7fe 0576 7b0c 0240
00000450: 8bc4 0e8c fd56 e13f 6efb decd 2659 bd3f
00000460: 0bf3 5b43 8190 fe3f 7448 7070 e28b c1bf
00000470: ad03 973e fb7c eabf c5d7 973b 9938 01c0
00000480: 2c2c 9c47 5933 f03f 61d5 2280 6cbd ec3f
00000490: 8385 20dc 4b8d f1bf f631 8d6f eeec f8bf
000004a0: 07e8 3fae 298b f83f 6948 1c45 fd2e b8bf
000004b0: 9977 79a0 b7e2 fbbf 3874 1780 8843 f4bf
000004c0: c092 fbd5 ecc4 d73f 2476 fa91 7ed8 02c0
000004d0: dbac f13c e77c e0bf c347 ea2d 916e cbbf
000004e0: d2f5 b894 872b fdbf fd98 a09f 502e fa3f
000004f0: b348 fec8 77ba f63f 15ed 8c5e b037 fc3f
00000500: 4781 8467 06a0 f8bf a42b fa12 ffb0 e33f
00000510: f69a f2af 6fca fc3f c470 a2ac ef74 f03f
00000520: 7ec2 f4e1 87ac e43f f126 9913 01f8 c33f
00000530: 0bd8 fb1c e93c dbbf 279b 84ac 5e45 85bf
00000540: b540 fa5b 9781 99bf 978f d154 e561 efbf
00000550: 8c15 9378 6359 c13f e986 7476 927a e13f
00000560: ea29 98e9 3de2 ecbf 1317 1d04 774f ecbf
00000570: 60d9 5b48 0be1 ec3f dfe5 c973 da2b e33f
00000580: 3a42 8455 ce38 f0bf ec43 185b c07b ca3f
00000590: 3ac2 f46d 246d f43f bc10 f7ee d3f4 d23f
000005a0: 8594 1a25 c830 e53f 4381 ade5 2ffd 873f
000005b0: 77a3 d25c 076e ddbf 8c90 def5 b9b7 d13f
000005c0: 45ff d520 f35e e03f 0764 e84c 7a03 e63f
000005d0: 2ec5 f65e 1501 b23f 394a 2475 75be eebf
000005e0: ad28 074a 19e3 e73f 2e79 e552 69e4 b83f
000005f0: 5c7d 3bf7 6a1c eabf 43b0 0ab3 6786 e4bf
00000600: 7517 4635 6c05 fabf 1adc 97bf bb20 d53f
00000610: 6bb8 33cb 190a fe3f cdd8 fd1a 771b df3f
00000620: 10de 57f2 8329 de3f 42c2 6bc0 8b41 cebf
00000630: bcf7 4420 c238 ccbf 4277 08d7 8abd c0bf
00000640: 658f d52b 4eac b4bf b64c dd86 7b59 efbf
00000650: 1372 fb77 213e c1bf fd9a f439 786e e83f
00000660: 2115 041d 80b5 f9bf 4c5e fb33 a255 b83f
00000670: b1d7 f69f c79b f13f ce00 0d60 4591 e63f
00000680: 16c0 1f21 384e e9bf e9b0 8293 3565 d53f
00000690: 3a1c dbc5 b2cc f13f 03fc f8ff b94c b33f
000006a0: 2091 cbc1 faeb df3f a58b 23bf 1dd9 bebf
000006b0: e04e 1cb6 5da9 c9bf 66dc 777d 6fed d6bf
000006c0: c519 78ff f38a 04c0 32d2 a08c 3067 dd3f
000006d0: 0747 623f 0bf4 0140 2118 3b32 81db f23f
000006e0: 7585 9de2 3058 d33f d49f c430 ae17 d03f
000006f0: cea4 37a9 79b0 e0bf 0483 46df f777 cfbf
00000700: 4949 df93 e859 fa3f 04d8 59dc 6c5f e2bf
00000710: c599 5e2b c9fc f9bf 2225 558c 44f7 75bf
00000720: 2483 f56b 1a3d dcbf b3ea 7f7d fcd6 d6bf
00000730: 900c f6a1 c13a e43f d958 1e2f 8b88 d93f
00000740: 1792 95c4 0ad7 a03f 256e cd21 eb98 ef3f
00000750: 10cd 13a9 4221 d8bf 033d a72c 8f34 c6bf
00000760: 9974 fd44 f441 f93f c264 b3e8 84c9 c4bf
00000770: 5023 dda4 d5be efbf 1459 f173 1d5b eabf
00000780: 40e0 9d1e ce51 d1bf f833 749e b66b eb3f
00000790: 5a46 5414 8301 e13f 4a60 803e f0f2 d3bf
000007a0: 1d28 7654 e09a ee3f e15d 7d56 ca4a d0bf
000007b0: b1bf 376d 77b6 dabf 83c6 55ca b046 f6bf
000007c0: 869f 4071 ce78 f33f e5b5 49c9 1e7c ea3f
000007d0: f9b2 094f ab39 ecbf 5bdb 6cf8 1d01 e7bf
000007e0: c903 454a 2f06 f83f b096 ed39 d77c e7bf
000007f0: 004a ccac cfe0 ebbf 875e 550d b271 eebf

weight_hh_l0 f8 [40, 10]
-2.9531793894472247 -0.26535088264021695 1.887076297337665 -0.06737960124433652 0.6466136787396661 0.010398857928604172 0.11765091437130121 -0.7543582417456892
-0.7360679405982105 -0.36011217657349315 -0.07539277220207559 -0.44144554170392053 -0.034912827860902454 0.7220443371383943 -0.5640359821985063 0.5515318136773997
-0.024944358869546202 -0.23042268783133585 -0.44426006384532857 -0.011496696289507523 1.140749229444857 0.07512481524565806 0.8869134603099537 0.777008596710678
-0.8417665701092805 -0.41163567337003815 -0.48350295732201254 -0.3553240925391268 -1.93246173971266 -2.0693226662545907 -1.2579263881861962 0.8820602317070485
-0.7986073956923634 -0.7041668638331497 0.5789070404495198 0.3302448623403494 -0.9494214003835804 -0.93690107620643 0.5644931944139425 0.23024902777423956
-0.008552355708694918 0.11279630005175893 -0.6847955663712377 0.3231621308096099 -0.35915288305752 -0.4764974195212268 1.1152589368285368 -0.04360496480928168
-1.72792201553537 -1.111115822461235 0.4958159145183319 0.42803996019970986 0.00991704215609297 -3.3294868639289317 -1.6923215255651043 1.8748906973313288
-0.3337898213529681 0.9602486576088858 0.7748175361880904 -1.7125990984639055 -0.8628030290876071 -0.2507224948160843 -1.4231517742025048 -0.36767216774361317
0.14158043070033308 -0.11590821946145745 1.13325142113751 -0.8091667736212214 -0.8226799712729976 0.8249074638226448 1.110216976243833 0.5195153769620018
0.41833437085585784 -0.060437137847364 -1.2056671257330822 0.8522329918339704 3.025346413107123 -0.059273912195228526 0.16219103900803253 -1.6675082537147974
-0.15951335724902144 -1.1692134747721548 1.0458807468004072 0.2594903814135239 0.4658864501625308 -1.170218511785643 -0.3319256892594077 -0.11055083529747983
-0.17150226990395512 -0.27724185831867676 0.7584180348427134 -0.045606739663142604 0.13607057758719834 -0.5348810966760538 -0.19079470585682526 -0.15671633641363736
0.401512815794357 1.7689263477272164 0.44316936632204357 -1.322553236730911 -1.0227007774748547 -1.1620968613940974 0.5139710045109811 1.1513194375891682
0.29317570315518 -2.151991120079277 1.083538595293888 -1.1278049366140384 0.34492791270143996 2.755037399880639 0.12752334708861754 -1.028556047338727
0.1251219931118457 -2.5457874033500896 -1.3057840929800213 0.036919351110474785 -2.333551616172289 -0.13245523899965572 1.2016291656311213 0.8935050503091262
-0.09174180565663378 0.18959532792989794 -1.1449165205705019 0.5587782288230648 -0.7985821995391295 -0.8177599639702277 0.588574475331278 -0.5882590259865744
0.7212459228940674 0.5827158796902911 -0.9961898701041529 1.8409022557157935 -1.00267314396186 0.03326850741825462 0.7779477339732471 0.8172581726913664
-0.9526538888015974 -1.3164605383596022 0.02320379167525024 1.4953660173681824 1.0547682545379877 -0.09320341630122701 0.12762184267020893 1.001482726156669
1.2554635892781665 -1.463298973475187 1.314696811814782 -0.890569741348579 -1.1363940381894349 0.7042619559431758 0.7311376009830572 0.1474124955942014
0.6926623603781991 -2.7989233659395163 -1.0400558752185323 0.2528859303327053 0.14868640361212995 0.5544060970646819 -0.622214446775787 -3.3680124423019717
-0.6650955481477726 0.3627519438039152 -0.6872037843990951 0.21248032204314712 0.7928664858507469 -0.04968195527110317 -0.11043582441365174 -1.3521525721439398
2.1000072453843477 -0.05295205530427207 0.8822234987187192 -0.3388196781457347 1.0514539368718259 -0.03134144146648117 -0.6043607087518276 0.5571393887969106
-0.9325874990525299 1.2573709503750128 -0.6402712188146896 -2.425391117597095 0.1871957373626573 -1.6184975591626467 0.4013957892788857 1.1008024241160288
0.9660695369525569 0.22460283186986568 -0.539095771257539 0.06795126875812313 -1.2359999464809708 -0.23276328860143292 -3.4615497255894194 1.3430738804096702
2.117252552998115 0.5079950363266194 -0.17387738439857434 0.26764251833150954 -0.4013845980249549 -2.5117146141769067 -0.18961788193051246 1.0218450966583976
0.1362610428236638 0.1281881963919138 0.48967040688771885 0.007118281397344305 -0.31695646921507586 -0.2823163939891058 0.40708722226007865 0.49464430905225115
-0.6383325326649553 0.029394027551681086 0.5160605118112539 0.6478616401260989 0.027848379770888807 -1.1180581377164345 0.10502548651274776 0.2795387898502732
-0.061799174189726684 0.6073036728966013 0.2869057674648563 0.016772637622682565 0.7741930495027392 -0.30854960712290536 0.5750790642168739 0.3664671837076946
0.248750977156423 -0.028576516217438196 0.7323278912819293 0.6166850174498821 -0.5377330998440948 -3.300982592164518 0.08736066769547278 0.3312661471007954
-0.23507664166051878 0.21867908923921975 -0.32848807628644827 0.20914029062361422 0.3379855295124984 -0.11482753193062202 -0.34816155655903597 1.9733054440392008
0.6423937884152278 -1.1607522074202103 0.9538278477760281 0.9098247806056142 -0.3558623458564722 -0.1769863743304228 0.4709506636574202 1.7779663925894815
-1.2528323563387804 -1.544979303837519 0.6072013423191449 -0.45828145542586207 0.6542706426937749 -0.05124697123591395 -1.2620244438634307 -1.1729047938860075
00000000: 372d 0784 1ca0 07c0 c5e2 b944 82fb d0bf
00000010: e3f3 61ea 7631 fe3f e90e c31f ca3f b1bf
00000020: e4a8 6a2b 0fb1 e43f 3dba c015 ff4b 853f
00000030: 64b9 91cd 5e1e be3f 6981 38e5 b323 e8bf
00000040: ba1b 905a de8d e7bf e891 51f1 130c d7bf
00000050: 0573 f6d2 f04c b3bf 7d55 25cd a440 dcbf
00000060: 5235 bf1b 18e0 a1bf 53af c8b9 fc1a e73f
00000070: 11ea 2930 950c e2bf fe55 ce0b 26a6 e13f
00000080: 0def 4196 038b 99bf 02fa 3e9a 7d7e cdbf
00000090: 9a9c 48c3 c16e dcbf ec94 9a74 948b 87bf
000000a0: 1e72 9643 8240 f23f f01f 9940 613b b33f
000000b0: f13a 4d56 9861 ec3f b3a9 f221 41dd e83f
000000c0: d088 2f72 c0ef eabf ac70 bf26 3d58 dabf
000000d0: b2e8 4d63 b6f1 debf 6cee 3b43 a1bd d6bf
000000e0: ec64 4d00 5deb febf dc7a c30a f98d 00c0
000000f0: d38f a06b 7720 f4bf 2a16 0961 d639 ec3f
00000100: 34f5 da18 318e e9bf 70e3 62f2 8888 e6bf
00000110: 6cf4 c40e 6886 e23f e91f db58 bb22 d53f
00000120: d6a3 18fd a861 eebf 2e9a 3cf7 17fb edbf
00000130: 8951 1a08 5410 e23f a2f2 1cd6 cc78 cd3f
00000140: 2fb1 94c0 e583 81bf 0305 d5e3 37e0 bc3f
00000150: 1454 4064 d8e9 e5bf 3b82 c837 b0ae d43f
00000160: 1ac1 bf5f 5cfc d6bf 4036 5e08 ef7e debf
00000170: 3601 44c1 19d8 f13f 1223 99d3 6353 a6bf
00000180: 8134 2c8e 91a5 fbbf 58a0 7862 21c7 f1bf
00000190: 0553 6cac 72bb df3f dd16 9cb7 0165 db3f
000001a0: e626 dedd 624f 843f 794a 4802 caa2 0ac0
000001b0: 39e7 69bc bf13 fbbf 96cd 4963 8dff fd3f
000001c0: 2eb7 9cfb cf5c d5bf 7aa8 8e64 5bba ee3f
000001d0: d371 4925 4ecb e83f 24fc f04f ce66 fbbf
000001e0: b545 1a19 159c ebbf b9d2 e65c d60b d0bf
000001f0: 2d1b 77cb 3ac5 f6bf 7bed 06d8 f087 d7bf
00000200: 7346 cebb 4e1f c23f 57af ec3b 29ac bdbf
00000210: e7e5 fe3d cc21 f23f bed0 b6b7 b1e4 e9bf
00000220: c522 76f2 6453 eabf a806 6b56 a465 ea3f
00000230: 7de6 46e0 72c3 f13f e444 3ab6 de9f e03f
00000240: e197 6786 fdc5 da3f fa5a 09d5 9df1 aebf
00000250: ae2c ae9c 694a f3bf f0f8 8f1f 7e45 eb3f
00000260: 91ed fad1 e833 0840 d6da c474 2659 aebf
00000270: 8733 1f0c adc2 c43f f43d 7822 1dae fabf
00000280: 6e71 5406 ef6a c4bf d705 4330 19b5 f2bf
00000290: 8261 3073 edbb f03f b80c 738b 7d9b d03f
000002a0: 233f c666 15d1 dd3f a6b0 d40b 37b9 f2bf
000002b0: 0e92 043f 453e d5bf b4ed 253e 0f4d bcbf
000002c0: 34b0 3650 c9f3 c5bf 22e7 a3a2 54be d1bf
000002d0: c812 0be6 f544 e83f 0828 a93e c459 a7bf
000002e0: 15a9 57bc c26a c13f cc1c 2ff6 be1d e1bf
000002f0: 2dd7 f3fe f56b c8bf f49f d2e9 470f c4bf
00000300: a3be 30cf 62b2 d93f 8056 c8b6 854d fc3f
00000310: 594d bc0b e35c dc3f bea6 2f95 2d29 f5bf
00000320: 8892 8d7d fb5c f0bf e08c e7e0 f297 f2bf
00000330: 1cf1 ee51 7372 e03f 0b1d 3bee cd6b f23f
00000340: 9f21 4206 64c3 d23f e82e d01e 4737 01c0
00000350: 41db eb90 2c56 f13f f564 7030 7d0b f2bf
00000360: 40ef 2186 4c13 d63f 29f4 5d0c 510a 0640
00000370: c36c 9c5e af52 c03f 09c4 962f f774 f0bf
00000380: d07d 365a ff03 c03f bfa8 3fc9 c55d 04c0
00000390: 89c7 6fdc 7de4 f4bf d8d2 37db 17e7 a23f
000003a0: 46e7 171c 1dab 02c0 3cfc d713 4bf4 c0bf
000003b0: 0ee3 0481 df39 f33f da6e 3ce7 9797 ec3f
000003c0: 86a2 f816 647c b7bf 9b76 77e2 a844 c83f
000003d0: b501 48fc 9351 f2bf 3961 50e1 82e1 e13f
000003e0: 9d06 c641 fc8d e9bf 575e a7f1 162b eabf
000003f0: c2dc 5923 9ad5 e23f 870d c697 04d3 e2bf
00000400: e781 6654 7214 e73f 4426 c4c5 9ba5 e23f
00000410: bc85 1694 c9e0 efbf 51e9 76ec 5574 fd3f
00000420: 8c4c 9efe f20a f0bf 033f b2de 9108 a13f
00000430: 6b32 6da5 f2e4 e83f f423 839c fa26 ea3f
00000440: 30ec 1902 247c eebf 2baa ebec 3810 f5bf
00000450: e6b7 8d19 bcc2 973f 7956 c2ea 04ed f73f
00000460: 3698 61ad 54e0 f03f 73a5 e3d8 2ddc b7bf
00000470: 080c 439c e955 c03f 0ba1 45c0 1206 f03f
00000480: c84b 14fd 6016 f43f 718a 352f ac69 f7bf
00000490: 3766 2e86 ff08 f53f 47c7 3c1d 8c7f ecbf
000004a0: b849 d683 ab2e f2bf 4ef9 925e 5089 e63f
000004b0: de23 a3ae 7a65 e73f c2a6 cca3 69de c23f
000004c0: 33d3 1f41 4a2a e63f 82c3 05ef 3164 06c0
000004d0: 5538 21a1 11a4 f0bf b370 1978 482f d03f
000004e0: bddd 6ff4 2708 c33f e110 f3da b1bd e13f
000004f0: 0b06 8045 2ee9 e3bf 19aa e181 b0f1 0ac0
00000500: e950 8075 7648 e5bf 0eb0 cced 5337 d73f
00000510: 3fcf 75ca 92fd e5bf c303 1c21 8e32 cb3f
00000520: 5559 5a89 295f e93f 3c73 2eca e96f a9bf
00000530: b8d6 29ae 8545 bcbf d1f7 48bc 6aa2 f5bf
00000540: 814f 4299 d0cc 0040 b35e 9323 881c abbf
00000550: 9e4e 58c6 2c3b ec3f a923 38bb 38af d5bf
00000560: ccd6 015d c1d2 f03f 5a50 3744 fc0b a0bf
00000570: 8772 e244 ec56 e3bf f146 c6fb 15d4 e13f
00000580: 79d9 22bd c1d7 edbf 62d1 6c00 311e f43f
00000590: 0322 2c11 1a7d e4bf 12b5 5075 3367 03c0
000005a0: 052c f6a8 07f6 c73f 7926 54b2 5de5 f9bf
000005b0: 6f1d edf6 77b0 d93f 4ef9 ae00 e39c f13f
000005c0: 66f0 5ba9 0aea ee3f ea2a bc1c c9bf cc3f
000005d0: 1ed1 5ec6 4540 e1bf 3cb0 091d 4165 b13f
000005e0: 75e5 3fe1 a7c6 f3bf 0454 20fc 2fcb cdbf
000005f0: 1c13 87fb 40b1 0bc0 a58a 8709 3b7d f53f
00000600: cbfe 431b 22f0 0040 81b3 71ce 7e41 e03f
00000610: 3fc1 c037 9d41 c6bf be2f d015 0e21 d13f
00000620: 8da8 6806 49b0 d9bf 5933 e6d4 fd17 04c0
00000630: 756d d014 6645 c8bf c89c 7b3e 7a59 f03f
00000640: 3cc0 5279 0071 c13f 7845 9e87 7868 c03f
00000650: 87b6 d98b c256 df3f 2596 e21c 0f28 7d3f
00000660: 4f33 62c9 0349 d4bf fcb3 d3c7 7811 d2bf
00000670: 527f 8e90 b70d da3f 3b0b a29a 40a8 df3f
00000680: 4b9a f858 386d e4bf 42f7 20cc 7719 9e3f
00000690: 3d90 9f55 9183 e03f a395 9555 48bb e43f
000006a0: b941 7321 4984 9c3f cd4c 08ee 90e3 f1bf
000006b0: fe98 d145 f3e2 ba3f a7b3 17aa f6e3 d13f
000006c0: 2f1e 2130 24a4 afbf 569c ba1c 086f e33f
000006d0: d4e6 1202 aa5c d23f 6473 3aa8 d82c 913f
000006e0: e8f3 8c80 30c6 e83f 7656 f2d9 46bf d3bf
000006f0: ce9f ad35 0c67 e23f c23b 45c6 3274 d73f
00000700: 8b10 de6f 12d7 cf3f 669c 598a 2943 9dbf
00000710: 1c25 e0e6 3a6f e73f 822c bc37 e2bb e33f
00000720: aed3 b90b 1c35 e1bf 6518 b08f 6968 0ac0
00000730: 8f72 b5ca 445d b63f 4878 04ed 7633 d53f
00000740: e022 fecb fd16 cebf 6cfe 4c28 adfd cb3f
00000750: 0eae 31da f205 d5bf d28e 40ea 1bc5 ca3f
00000760: 4ec1 f10e 8ea1 d53f f189 524e 5665 bdbf
00000770: 1950 c968 4748 d6bf 8cac b2ba a892 ff3f
00000780: cab3 0c6b 7d8e e43f e412 1ae8 7092 f2bf
00000790: 95c9 86fa c185 ee3f df53 b9db 481d ed3f
000007a0: 7b35 55dc 72c6 d6bf 9a1b cb50 7da7 c6bf
000007b0: 160a 9c40 0e24 de3f 56f1 58e3 8c72 fc3f
000007c0: e887 ddf0 990b f4bf f3a9 ef37 3cb8 f8bf
000007d0: 0c23 6b82 316e e33f 04b6 dabd 7b54 ddbf
000007e0: 0749 a3fc c8ef e43f 1361 f402 0b3d aabf
000007f0: 1c56 128b 4031 f4bf 0cfe 30d1 37c4 f2bf

bias_ih_l0 f8 [40]
1.270336034775809 1.2238961161414346 0.780992583430201 -1.4608429152032463 -0.6473221607396694 -0.5544389210623619 -1.4017424886919256 0.2916939619068047
0.5476022177964571 0.9267967559203475 -0.5736740197434234 0.3752788603340994 -0.6636996672332425 -0.08216485590395854 -0.3263152526303031 -0.07988797156312354
-0.8226250947097062 1.9110326162317757 0.5131394223379916 -1.572900757221966 1.5075809470717696 -0.863363957238222 0.15740987771870893 -0.24692092994910964
0.7434058561718507 0.18114110394431737 -0.24624292045605836 1.845176056056314 -0.44291198692849926 -1.1491068847817472 1.5046244952269072 -1.6363667728450042
-2.2809390430694685 -0.06100126766621708 -1.7327330528181961 -1.2707375694183396 -0.859128457919484 1.5227818759067102 0.029650638879970766 1.21919706526025
00000000: bfad c4e0 4b53 f43f 4a76 0818 1495 f33f
00000010: 5c0a 8828 e4fd e83f 8942 16d2 9c5f f7bf
00000020: 3f4b cbf6 dcb6 e4bf b2f4 32b1 f6bd e1bf
00000030: 0c87 2588 896d f6bf 3525 b526 1dab d23f
00000040: 2be4 1416 f585 e13f ebef 96ab 51a8 ed3f
00000050: 909c 2b9e 895b e2bf 8af7 00a0 9104 d83f
00000060: 6240 a415 073d e5bf 23f1 fc88 c108 b5bf
00000070: 99eb 8e5e 59e2 d4bf bf17 35c1 8973 b4bf
00000080: f8b4 d4dc f152 eabf 71e0 c4ef 9693 fe3f
00000090: 355c a75d a36b e03f a1f3 01fc 992a f9bf
000000a0: 71ef fb32 0d1f f83f 0b44 1c73 ada0 ebbf
000000b0: 6742 6fc2 0126 c43f 9427 6ae3 1a9b cfbf
000000c0: 1f37 fd13 fbc9 e73f a07a b3b6 a12f c73f
000000d0: 797a 1d55 e384 cfbf 71fc 0154 d785 fd3f
000000e0: 6d50 b784 ab58 dcbf ccef 9be6 bd62 f2bf
000000f0: 4429 7c22 f112 f83f ee15 daec 8e2e fabf
00000100: 2539 11f8 5c3f 02c0 e429 48e3 8e3b afbf
00000110: 9ad6 284b 46b9 fbbf 6c34 e7ea f054 f4bf
00000120: 9277 baf6 fa7d ebbf a55f 3f87 505d f83f
00000130: 5f0f 2eb1 bc5c 9e3f 50c0 2ac8 d481 f33f

bias_hh_l0 f8 [40]
0.9740761845122128 0.7959259898701857 0.7384136031035484 -1.26605769279209 -0.3518944509217809 -0.3531525157374252 -1.2992549097038502 0.45059136180914866
0.5660023802548769 0.7940245635613764 -0.5162331427826676 0.4338963925873641 -0.25460193611980914 -0.2571700832313051 -0.5610572086258659 -0.5139295759628046
-0.7953562677481887 1.5151774874666697 -0.08444616635562846 -1.2231095880553995 1.51133779802964 -0.8678720204353583 0.5777344118964889 -0.08139844397765893
1.183198429623849 0.08083657487346421 -0.19129602104199595 1.7429093867829375 -0.6900422020964958 -1.6265640504998236 1.7118583414144997 -1.165487292602277
-2.298822850490199 -0.3923687305396759 -1.912558001129049 -1.3890296328929936 -0.6003938144601627 1.5615466507060565 -0.19449252348975724 1.0166890031359999
00000000: 785b 89d1 a12b ef3f 8bec 10c8 3978 e93f
00000010: 5c0a 8890 15a1 e73f 8642 16b6 c541 f4bf
00000020: 5796 964d 7085 d6bf 55e9 6502 0d9a d6bf
00000030: 0b87 2584 bfc9 f4bf 3925 b526 7dd6 dc3f
00000040: 2be4 1406 b11c e23f e7ef 9633 a668 e93f
00000050: 849c 2b5e fb84 e0bf 7ef7 0060 f5c4 db3f
00000060: cd80 48eb 654b d0bf 443c 3f82 7975 d0bf
00000070: e975 473f 2ef4 e1bf f8a2 2670 1c72 e0bf
00000080: f6b4 d4fc 8e73 e9bf 72e0 c4bf 2a3e f83f
00000090: b41e c592 439e b5bf 9af3 015c db91 f3bf
000000a0: 71ef fb8a 702e f83f 0e44 1c8b 9bc5 ebbf
000000b0: 98d0 9be0 cc7c e23f 2f4f d446 87d6 b4bf
000000c0: 9a9b fe79 61ee f23f 8af5 66ad b4b1 b43f
000000d0: 7c7a 1d55 637c c8bf 71fc 01f4 f4e2 fb3f
000000e0: 1ea8 5b62 d314 e6bf c2ef 9b06 6806 fabf
000000f0: 4829 7c92 c563 fb3f f715 da00 d6a5 f2bf
00000100: 2539 113c fd63 02c0 3c05 69bc 911c d9bf
00000110: 9ed6 286b d699 febf 6734 e722 7739 f6bf
00000120: 8777 ba16 6d36 e3bf a25f 3f57 18fc f83f
00000130: 113e da89 21e5 c8bf 5ac0 2ab0 5b44 f03f

weight f8 [6, 10]
-0.10233936703605558 0.1396910199230169 0.14301304047648963 0.21614452203021733 -0.2847650183315938 0.2891284638963368 -0.12764163035462225 -0.5626813606067428
0.6955025389345485 0.5632688097993648 0.05084737967294647 0.22934035881155257 -0.23022213269019615 -0.20976707813081744 -0.1980654494395673 0.039930212789109645
0.09585003607106823 0.47127621133173686 0.5729291016894701 -0.4154749247385651 0.04116766075912095 -0.38432679412731896 -0.12334288842892158 -0.6189832592385089
-0.37784650581975276 -0.17219782112719292 -0.4723519885446324 -0.20761088286129642 -0.39013530403582203 -0.1532978582873658 -1.1462095972833948 0.4425199719367546
-0.9041695816128968 -0.26922883714273355 -0.7758910683855499 8.054438904704897 -1.7900058096335083 -0.9016289011345405 -0.2747393547078675 -0.68323492525639
2.1716637651370516 0.03034148027483935 -1.2037837820727055 0.24641007919849842 1.051876633143217 -0.5411963412894364 -0.2408637386413591 0.8588971217926971
-0.24570288435732612 0.7751175760669908 -0.17550674340079758 -1.1249432445775354 -0.5615998143381511 -0.07315223332090551 0.12860538942250774 -0.11780463764144111
0.21645615484696223 -0.4875847985954602 0.3436885053847038 0.48569030342553376
00000000: 0561 83aa e932 babf 7c9f 0e35 65e1 c13f
00000010: 03c0 df55 404e c23f a627 aaaa 9faa cb3f
00000020: b9db 310e 9739 d2bf 49c2 31ac 1481 d23f
00000030: bb98 fd99 8f56 c0bf e5fd 3b57 7c01 e2bf
00000040: 8548 608a 8e41 e63f 643e 9e4f 4c06 e23f
00000050: fbb0 90f1 aa08 aa3f a0cf 5f5e 065b cd3f
00000060: 4221 5c39 eb77 cdbf 19b7 2cca a5d9 cabf
00000070: e9bd e769 355a c9bf 5a64 1a9c bb71 a43f
00000080: 78e3 3ec2 a089 b83f b55d c3b2 6329 de3f
00000090: 95da 5569 6f55 e23f 4bda 8323 2497 dabf
000000a0: 83fb 3979 ed13 a53f 0c37 f068 cf98 d8bf
000000b0: be13 ff47 6693 bfbf a86d e6fa b5ce e3bf
000000c0: 6ad6 591c a32e d8bf 2b85 1705 940a c6bf
000000d0: 1dfc bfd5 033b debf 126b 1750 fe92 cabf
000000e0: ed53 f610 faf7 d8bf de0e f2a3 439f c3bf
000000f0: 9f18 ebdf df56 f2bf 89e4 d249 3f52 dc3f
00000100: b717 e20b f5ee ecbf fbc2 aa96 0b3b d1bf
00000110: 952e 7f81 19d4 e8bf d9ac 866a df1b 2040
00000120: 2b6a c021 dda3 fcbf 650a 70da 24da ecbf
00000130: 6a3e d95f 5495 d1bf 25c2 6e7d 0fdd e5bf
00000140: f95f 8940 915f 0140 f07c f845 d611 9f3f
00000150: c351 77c8 b242 f3bf 1ffa c78f 5d8a cf3f
00000160: 646d ac97 7cd4 f03f 0bb2 51fd 7a51 e1bf
00000170: 0be3 207c 9fd4 cebf 1c4d 17d1 157c eb3f
00000180: b07d 6c2e 3173 cfbf 8c66 f85f c3cd e83f
00000190: 4a23 9145 0177 c6bf f910 d57c c4ff f1bf
000001a0: 7ab4 802c a0f8 e1bf 5a1e bed1 1aba b2bf
000001b0: 9b5a d432 2476 c03f e8b3 fcd9 7128 bebf
000001c0: 6cf5 0ad5 d5b4 cb3f c4a1 ffde 9634 dfbf
000001d0: ebdb a812 fefe d53f 649b 4cc8 8c15 df3f

bias f8 [6]
-0.10758885415138673 0.8512901505025272 -0.41371052496055355 0.2017328730017347 0.8717201891283979 -0.6541589095674123
00000000: bf8b fe71 f18a bbbf b616 7ad7 c43d eb3f
00000010: 45dc adb5 3b7a dabf 8008 09fe 61d2 c93f
00000020: 8e38 f2bc 21e5 eb3f 7054 5faa deee e4bf

weight f8 [5, 28, 6]
-0.43787546102058833 0.10649936155743336 0.12708593865644574 0.1442699822681686 -1.1308333838442095 0.37266138971301244 -0.41996807254903623 0.45433988017224236
0.16797088818135944 -0.22334279835426438 -1.7288304351368697 0.31867500102374907 0.3816635534745438 -0.22915606209483205 0.1981276580850579 0.03264692856629794
-1.1262955875667549 -0.39151714528044484 0.28496809873497864 -0.36367991872479416 0.5588434862892614 0.047690788515977606 -1.2106937640388327 -0.3213907923752494
0.4355125644222312 -0.3422004239600076 0.20707171503904798 0.09905532914179903 -0.9053230778615045 -0.40792148170441844 0.30526987052840615 -0.3374588130374498
-0.6553985792587318 0.12740530105098516 -0.1855084119247448 -0.2939795379696493 0.31109772854100765 -0.03980208386344592 -0.5481685033828931 0.1234213258280674
0.03269825023181148 -0.3877934348162632 0.3448034085373339 0.03550730770718226 0.8329199458126628 0.03817156373645801 -0.3330751305440952 -0.31450441431248166
0.35374716780694354 0.025935148079639477 1.6077341113337882 -0.031890951911146694 -0.2583542338388737 -0.4069182407704656 0.35468593216040645 -0.3393460607902651
2.257401575796138 -0.14632970562858738 -0.055638405335595734 -0.43248120832466486 0.3462289162813608 -0.9353445221710057 2.9648029376998575 -0.11654842705774525
0.43200280492813825 -0.3796849878932666 0.37017867299123325 -0.8282263404382104 3.053483869706892 -0.20433310289702256 0.6759174988128448 -0.4288856790396881
0.29418393065949466 -0.8836317929078655 2.199521489659591 -0.27580823834227913 0.6314834346100784 -0.30127003346425996 0.39130620339861616 -1.5141482975847103
1.3400220124881232 -0.20543550719445847 0.28686306254589844 -0.3447340752773235 0.3082859185933453 -1.8161296321554004 0.5113157559699325 -0.10954927825259132
-0.2946748359699766 -0.3933992585054309 0.3590855756677197 -2.6817637762846958 0.3234371016114619 -0.206276326482529 -0.5841518757329097 -0.39151432587942775
0.3377992489300073 -3.4293557280036984 0.3817009449331707 -0.11789013929037205 -0.6938824443260054 -0.42586374510992564 0.3202756201933218 -3.770033021314538
0.3723763570048488 -0.09971481272036528 -0.8897708237672148 -0.4073783349805479 0.374422093535175 -3.656860183357753 0.6497750697306257 -0.10000115211484276
-0.9503652026072233 0.4008978888399905 -0.3412431240968907 -3.800376392976942 0.47720822858179235 -0.06033988328172049 -1.2225390759694175 0.40872294099100753
-0.42896844383956445 -3.6137317339863904 0.5580404760758655 0.07287328402023054 -1.3439553983790244 0.29745159495719375 -0.37225204072977613 -4.066988214805698
0.4566322842735207 0.055610485325717406 -1.346202523467648 0.3539906278120773 -0.38018284285696097 -3.9798553332842053 0.5214417122734125 0.08478650953536794
-1.4765864871503134 0.34463430087033065 -0.32671265177534126 -4.1980518334531025 0.5744072362603331 0.11447560228021547 -1.6111774252141862 0.4168646992517685
-0.30288650611095547 -3.883158669240575 0.5052176326287254 0.1454648018397693 -1.5632475064421365 0.4077685600183027 -0.4227333829567907 -6.137116787060488
0.614758722114025 0.004929127486189353 -1.8274719684567244 0.30661180080196865 -0.36156036851205237 -3.290826284615225 0.05638908547699775 -0.09787890474029495
-1.5851081887363807 0.37798937531525495 -0.3871536673698545 -9.987425103148063 1.212602100649638 0.11978913294066756 -2.1447415798569764 0.3465844597152099
-0.44302426130387673 -1.1675258167588833 -0.23985138092602618 0.4130771653104068 1.3442421763863464 0.31127261492412356 -0.32785513160431345 -1.3412579872981172
-0.5966722539911354 0.2723085239304495 2.1195950862036352 -0.29787595556626123 -0.369606370435205 -1.1045150593478348 -0.05957824228600607 0.1008702957321822
2.0873077976265146 0.332398875711813 0.39157132601025607 -0.8025250172780001 0.37545690308887486 0.13320109897315988 1.986514321120243 0.35865862923223346
0.35658259885838217 -1.181576061267341 0.044087354523614425 0.0689168159552046 1.6857702951245124 0.4117150501077764 0.3745348158327642 -0.6100159103389967
-0.6552715956484457 0.07522203993976302 1.111124478053072 0.29023037315575567 0.3982790939085061 -0.1725657854857401 -0.5252600420332961 0.09693141375678274
1.0448908532373153 0.3251324053030279 0.37122389031691877 -0.515494609580919 0.40421981637481585 -0.007481061081195819 1.1359168654537937 0.2842947120724361
0.29701926132063133 -0.1640577591741398 1.029486841445403 0.040259431679552905 1.090879535409412 0.4140973764424043 0.35505153904984493 -0.6292698825195929
1.453708049586486 0.0396933962517877 0.7419356597379537 0.2850014452083851 0.3449850751307772 -1.6338414779172652 1.9665002955703093 0.08647172161297581
0.38157557092803585 0.31782768564844166 0.40832346887219517 -1.3652921844001829 1.907014875695555 0.06916054916758596 0.32610036059844405 0.3445699196267365
0.40894261163303625 -1.2942954145862477 1.4093141547106875 0.15386290699641614 0.4262000357957022 0.2972790087548827 0.43328144370554506 -1.6731048458710163
0.708573500888257 0.1707307501179 0.6933977366114622 0.30675660030789254 0.37891798966203144 -2.74256161264464 0.21679764734233684 0.08534656542932534
00000000: 777a 33cc 2606 dcbf 4a1e efca 8a43 bb3f
00000010: 76cb 271f 5a44 c03f c171 d153 7077 c23f
00000020: d35f 0dbf e417 f2bf b827 5328 afd9 d73f
00000030: c495 3dc4 c1e0 dabf 0aef a693 e713 dd3f
00000040: 2da2 b5ef 1180 c53f a745 5d2f 7f96 ccbf
00000050: 7be0 331a 4aa9 fbbf 03c9 dcd4 2b65 d43f
00000060: 5be4 0ff8 2c6d d83f 3f50 3060 fc54 cdbf
00000070: 3e46 f441 3f5c c93f 53a2 0325 19b7 a03f
00000080: 2fa7 a385 4e05 f2bf ef60 b3ed 9d0e d9bf
00000090: 0215 1ed6 ea3c d23f ada2 4823 8846 d7bf
000000a0: 753d 26bc 0be2 e13f 3c3f fe51 ed6a a83f
000000b0: 6e49 a06c 005f f3bf a72e 9faf aa91 d4bf
000000c0: 6632 4c17 70df db3f f079 659b 9ce6 d5bf
000000d0: d079 0272 5381 ca3f 3f96 28a7 b05b b93f
000000e0: cc55 771a 68f8 ecbf de67 d0b3 621b dabf
000000f0: 06ea 97a3 8a89 d33f 738a 6fd9 ec98 d5bf
00000100: 125b f870 06f9 e4bf 15ee ac20 d14e c03f
00000110: 29c2 2c59 bdbe c7bf 1d76 518d 8fd0 d2bf
00000120: 8762 7c72 06e9 d33f 0926 0351 f060 a4bf
00000130: e041 57ac 988a e1bf 8f7d 0f3e 8a98 bf3f
00000140: ad9c c336 d3bd a03f 3feb 088e 9bd1 d8bf
00000150: 37e6 cd50 4211 d63f 7222 be8a 032e a23f
00000160: 8472 eeba 47a7 ea3f ae41 c523 398b a33f
00000170: 7a0f 335a 1a51 d5bf 12dd 7a1f d720 d4bf
00000180: fd23 3229 cba3 d63f bf9f 4653 be8e 9a3f
00000190: d479 4d67 47b9 f93f 554d fec6 0254 a0bf
000001a0: 16c0 4732 e088 d0bf fb51 10ce f20a dabf
000001b0: eebb be9f 2cb3 d63f 2eb8 478a d8b7 d5bf
000001c0: c1dd af8e 280f 0240 e4d5 0d8a eeba c2bf
000001d0: b2cd a216 a37c acbf 5ae5 78a9 c5ad dbbf
000001e0: ede8 1654 9d28 d63f 70f3 a6a2 57ee edbf
000001f0: 7f0b 449a eab7 0740 6ffe 9c22 1ed6 bdbf
00000200: 7295 bc17 efa5 db3f bb28 7243 c24c d8bf
00000210: 3b23 8be3 01b1 d73f a4c5 bb86 d480 eabf
00000220: 7909 7af3 886d 0840 c069 374d 9627 cabf
00000230: cb3f 06bc 1da1 e53f 86af 4ceb dc72 dbbf
00000240: a03d 4cd6 e8d3 d23f 15d8 872e b646 ecbf
00000250: 467f 07b9 9e98 0140 0570 e998 d7a6 d1bf
00000260: 9cb6 73bf 1c35 e43f c89a 3f1b 0248 d3bf
00000270: 2d6a 942c 290b d93f fcb9 b690 f339 f8bf
00000280: cee7 f8eb ba70 f53f 002f 6bf0 b54b cabf
00000290: 8e29 04e4 f65b d23f 8b81 c882 1f10 d6bf
000002a0: 443f 8bdc f4ba d33f 9976 f6f1 dd0e fdbf
000002b0: 8740 3adc b25c e03f 5131 65e7 6b0b bcbf
000002c0: 637e dcd7 f3db d2bf 604b 6315 742d d9bf
000002d0: fa52 fd10 42fb d63f fdeb 1591 4074 05c0
000002e0: 14fe 6e87 31b3 d43f c33a 173e 4367 cabf
000002f0: d96f 4546 5fb1 e2bf 0754 641a 920e d9bf
00000300: b922 b1bd 809e d53f 5e02 510e 526f 0bc0
00000310: e7c6 d5cc c96d d83f 77e5 c554 0c2e bebf
00000320: 6ec2 b4f4 4834 e6bf 4426 7302 5a41 dbbf
00000330: 8aee 9b50 657f d43f 8d16 9b12 0729 0ec0
00000340: afec c8a4 03d5 d73f 3e8c 8ff3 e886 b9bf
00000350: 407c a0a9 0079 ecbf e2c8 7594 7c12 dabf
00000360: 1d8a a815 88f6 d73f 6687 6ce9 3f41 0dc0
00000370: 18f9 4716 f5ca e43f 2244 e5ed ac99 b9bf
00000380: c28a 0e49 6469 eebf df9a 669e 4fa8 d93f
00000390: f4c8 7e66 edd6 d5bf 7d9c 02bd 2b67 0ec0
000003a0: 5a04 c961 948a de3f f4cb ad82 dee4 aebf
000003b0: 6bee 5522 858f f3bf ab9a 2b44 8428 da3f
000003c0: f0a4 530f 3874 dbbf 4ee9 ef2e ece8 0cc0
000003d0: 34e2 52b3 77db e13f 6977 9ed3 d2a7 b23f
000003e0: 0521 3560 d780 f5bf e6fc 1e6a 7209 d33f
000003f0: fa6e 3339 fad2 d7bf 493b ff8e 9844 10c0
00000400: b929 d09d 7639 dd3f 2bc9 933f fa78 ac3f
00000410: 2961 41a8 0b8a f5bf bdc6 624e c8a7 d63f
00000420: 858a 246b ea54 d8bf 7e22 9a64 bed6 0fc0
00000430: 6c81 9f87 a6af e03f 81ad 9895 91b4 b53f
00000440: fd6a 0027 19a0 f7bf 6258 d406 7d0e d63f
00000450: 3621 a42e dce8 d4bf 2b60 8e19 ceca 10c0
00000460: 315d ca48 8b61 e23f f8c1 fbe7 454e bd3f
00000470: 1c93 d5fa 61c7 f9bf 8a2a 8946 e9ad da3f
00000480: 4a5c 8915 7e62 d3bf 8689 0c7e b510 0fc0
00000490: e817 302b be2a e03f a07a 4f33 979e c23f
000004a0: 778f 3bd1 0f03 f9bf 5f66 674d e118 da3f
000004b0: df84 ae51 100e dbbf 2ba1 d057 688c 18c0
000004c0: bb22 cd7b 1aac e33f 0ab0 9d95 9030 743f
000004d0: d30d 2e3f 533d fdbf 9bc6 401a 879f d33f
000004e0: 897e 9219 ce23 d7bf a9ea 29bb 9c53 0ac0
000004f0: 443a f3bb 07df ac3f 0aef d386 970e b9bf
00000500: aee9 7367 9a5c f9bf 33ba 4d59 fa30 d83f
00000510: b751 f82c 20c7 d8bf 6c8a 7ac8 8ff9 23c0
00000520: 169e d575 d166 f33f 1478 6528 80aa be3f
00000530: 50db fe45 6e28 01c0 80d5 f195 702e d63f
00000540: 129f 686e 825a dcbf 0571 038d 2fae f2bf
00000550: f325 7d36 73b3 cebf a3e2 ee34 db6f da3f
00000560: 46bb 9715 0482 f53f 2b54 4ff9 e3eb d33f
00000570: 4c3e 0417 94fb d4bf 6e1b 6fef ca75 f5bf
00000580: 2f52 2a69 f017 e3bf 1903 2dbb 806d d13f
00000590: 290e c044 eef4 0040 72ff da4f 6610 d3bf
000005a0: db65 5a7a a1a7 d7bf 4a6a 9dfb 17ac f1bf
000005b0: c2d6 5714 0a81 aebf f8bc 4ebd a2d2 b93f
000005c0: efee 3b6e ceb2 0040 b333 1aef 0546 d53f
000005d0: 61fc d02d 810f d93f 7cc9 edf1 48ae e9bf
000005e0: 05bf f463 7c07 d83f fbc3 f0cd bb0c c13f
000005f0: 10f4 a33d c3c8 ff3f aec2 be52 43f4 d63f
00000600: 14d8 1ad2 3fd2 d63f 5713 ce4c bce7 f2bf
00000610: 9c31 b123 9e92 a63f c80b ac4e 88a4 b13f
00000620: 7d0c e245 eaf8 fa3f 3cf8 de14 8a59 da3f
00000630: 49c4 4de0 60f8 d73f d742 1e16 4085 e3bf
00000640: 95d9 2923 fcf7 e4bf d5cc 7a69 c041 b33f
00000650: 445e f075 2ac7 f13f 55a1 406a 2293 d23f
00000660: 7b1f c198 677d d93f 60ef 88ba a216 c6bf
00000670: 07b7 cd25 eece e0bf 6259 0a44 7fd0 b83f
00000680: 6db3 a878 dfb7 f03f 565d e925 f8ce d43f
00000690: 75ec 19d9 21c2 d73f 3c42 2d8d ee7e e0bf
000006a0: bc65 eeca bcde d93f 6909 ee0a 76a4 7ebf
000006b0: ff94 c129 b72c f23f e7b7 b172 e231 d23f
000006c0: 3dde 6913 5d02 d33f b56b 273b d8ff c4bf
000006d0: bab9 ba31 c778 f03f cda4 d65c e29c a43f
000006e0: 7858 8719 3e74 f13f 607d 4b48 9280 da3f
000006f0: 6b44 2717 2ab9 d63f f5f0 b897 fa22 e4bf
00000700: 957e 2e5f 6342 f73f 9185 895d b152 a43f
00000710: 37f1 49da efbd e73f 60e5 9eb3 763d d23f
00000720: dbdd d247 3c14 d63f 200c 28f6 3624 fabf
00000730: efc7 9003 c976 ff3f b246 5bc0 0223 b63f
00000740: 0aa9 85f1 bb6b d83f 34e6 e7ee 4957 d43f
00000750: dab3 3fc2 f821 da3f 22bb 179e 3cd8 f5bf
00000760: 0e91 c107 2283 fe3f 7022 d978 81b4 b13f
00000770: e4fb fe0b d4de d43f 11dc fefd 6e0d d63f
00000780: eee6 b9a1 1d2c da3f cf2b d01b 6fb5 f4bf
00000790: 4a5b c4ff 8c8c f63f 08fd ce9c c7b1 c33f
000007a0: 02fb d283 dc46 db3f e1ed 1889 9e06 d33f
000007b0: 6d74 ab17 e2ba db3f e0b8 3c96 09c5 fabf
000007c0: c412 a455 a2ac e63f 5ec6 1656 81da c53f
000007d0: 9dbb 3b73 5030 e63f 04e4 896f e6a1 d33f
000007e0: 39ba 5d3d 3140 d83f 0a97 8c24 c4f0 05c0
000007f0: a3b0 977a 06c0 cb3f d449 58c3 45d9 b53f

bias f8 [5]
-0.07355552413224524 -0.06825234153139356 -0.04854524803306557 0.06158224632447344 -0.026601115463690178
00000000: d38f 96ea 88d4 b2bf beb4 c046 fc78 b1bf
00000010: 4d40 5b39 ecda a8bf 16a6 f44b b587 af3f
00000020: a88e d0a3 523d 9bbf

weight f8 [5]
3.576595648566453 0.7372521661325865 1.3820127810544907 1.8442223914941742 3.5471016397353843
00000000: e0de ec2d de9c 0c40 4f3a ceda 9197 e73f
00000010: 5b87 146f b91c f63f 504b a056 ef81 fd3f
00000020: f802 12d3 7660 0c40

bias f8 [5]
2.1485202421341328e-09 1.4513246425140336e-09 4.275930441514112e-10 2.7426942644219886e-09 2.90730702258937e-09
00000000: 68aa c75e a574 223e 2b4c a147 feee 183e
00000010: 328d d2df 4b62 fd3d 6e72 c09b 3f8f 273e
00000020: 2bcf 5a5a 3cf9 283e

running_mean f8 [5]
11.93707611675124 34.724477331020935 25.768169575104253 19.569106334110632 19.40990484844668
00000000: 569e d670 c8df 2740 d2b6 55ac bb5c 4140
00000010: e0da e2c2 a6c4 3940 9df3 e4f3 b091 3340
00000020: e28c 2e86 ef68 3340

running_var f8 [5]
2019.5779450461455 669.9654901364853 2441.9033722943113 258.8378191228972 871.5554568143657
00000000: 5280 d3d0 4f8e 9f40 8586 e452 b9ef 8440
00000010: 5c38 d086 ce13 a340 e94c 06b5 672d 7040
00000020: 54a0 5793 713c 8b40

weight f8 [1, 5, 6]
0.10845133662223816 -0.17871735990047455 0.041524678468704224 0.1961185473011263 -3.2949664849914253 -0.03159993886947632 0.01990218460559845 -0.17891034483909607
0.06688068807125092 -0.04487827603262808 -1.3713016239996656 -0.07618119567632675 0.17950528860092163 0.04891841113567352 -0.048249244689941406 0.20690381266885352
-0.9815273801476151 -0.06343910098075867 -0.06868675351142883 0.16675472259521484 0.1059960126876831 -0.14330196394823358 -1.8644381518805826 0.03322313725948334
-0.0988728404045105 0.0020116567611694336 0.1512860357761383 0.22058652194289488 -3.787845548444646 0.06220720708370209
00000000: 0000 0080 77c3 bb3f 0000 00e0 35e0 c6bf
00000010: 0000 0000 b942 a53f 1b10 669d 691a c93f
00000020: 4ca2 7363 175c 0ac0 0000 0000 de2d a0bf
00000030: 0000 0000 3d61 943f 0000 00c0 88e6 c6bf
00000040: 0000 00c0 171f b13f c3d4 b80f 49fa a6bf
00000050: ea7b c0f8 d9f0 f5bf 0000 0060 9c80 b3bf
00000060: 0000 0080 07fa c63f 0000 0080 d50b a93f
00000070: 0000 0000 20b4 a8bf bd4b 6afa d27b ca3f
00000080: 259a bb1b ac68 efbf 0000 0080 8b3d b0bf
00000090: 0000 0080 7495 b1bf 0000 0000 3858 c53f
000000a0: 0000 0000 8e22 bb3f 281c 4e00 b857 c2bf
000000b0: 58de 7b19 bdd4 fdbf 0000 0080 9f02 a13f
000000c0: 0000 0000 bb4f b9bf 0000 0000 c07a 603f
000000d0: 0000 0040 575d c33f 7970 d7dc 2d3c cc3f
000000e0: 96f3 86f7 814d 0ec0 0000 0080 9fd9 af3f

bias f8 [1]
-0.08965516446365275
00000000: b1f4 490f a4f3 b6bf

weight f8 [1]
1.4905676586084569
00000000: 872d 2379 5dd9 f73f

bias f8 [1]
-0.19809448492849352
00000000: 8e96 24fb 285b c9bf

running_mean f8 [1]
-20.656667413729437
00000000: 1c51 0a5b 1ba8 34c0

running_var f8 [1]
850.5246843403127
00000000: ee12 b48d 3294 8a40

weight f8 [7, 1]
-2.1719215039559567 -1.5129710777020764 -0.11305525991928324 0.5276565640218736 -0.07698819788145149 -1.1057704011384724 -0.6961513534005905
00000000: 7fc2 a761 1860 01c0 8163 2829 2135 f8bf
00000010: 697d fe83 30f1 bcbf 34cc bf04 90e2 e03f
00000020: ef2c 14a0 7fb5 b3bf 8464 dc4d 3cb1 f1bf
00000030: 5c7e fd33 df46 e6bf

bias f8 [7]
-2.3589387726714794 -0.09273129089055433 -0.8909013622392029 0.22001205404505592 -0.8610670459240315 0.23145779885594045 1.0341804471414624
00000000: 811f 8f4a 1bdf 02c0 d9d7 b0e5 3cbd b7bf
00000010: 6bef d892 4382 ecbf dab5 6ce0 5a29 cc3f
00000020: 8406 3d7a dc8d ebbf c5c5 3ebe 68a0 cd3f
00000030: ef29 eacb 008c f03f

weight f8 [7, 7]
-0.6747352547625075 -0.7201608494618125 0.02117354702707378 0.41110705349323123 -0.2084707381603047 -1.1769763353256344 -1.0946084639530493 -0.12682903783706884
-0.1588442230851918 -0.336357057094574 -0.11251131867670207 0.17431467201011266 -0.7338916087308117 0.10585696314477963 2.3045328153943676 0.702086832711659
0.29561647772789 -0.3579000288200592 -0.33693704467879976 0.55904330196382 0.12389954935884358 -0.03205791115760803 0.19113114476203918 0.035392940044403076
-0.32888320088386536 -0.024082869291305542 -0.0967765748500824 -0.35942184925079346 -1.5233163514653953 -0.7724336914467117 -0.6025591027934036 -0.12557270380198501
0.1850610082992325 -0.5072563248631908 -0.15411751884148883 -0.3759875629164593 -1.0665080398182072 -0.03555783652337144 0.05081058453264272 -0.3737710488017888
-0.7623710856335597 -0.060286877505856644 -0.03300076723098755 -0.22721876204013824 -0.10453617572784424 -1.2336433264246958 -0.007196664810180664 -1.3728813351028857
-0.724014472203278
00000000: eb38 9563 6e97 e5bf bd89 09c4 8e0b e7bf
00000010: 4a1e 16b0 84ae 953f 6b22 7af5 934f da3f
00000020: 8426 494d 2baf cabf 833b 4623 e5d4 f2bf
00000030: 78a6 292a 8483 f1bf eebf d814 ef3b c0bf
00000040: 4e9b a7eb 0155 c4bf 0000 00c0 df86 d5bf
00000050: e971 25b2 8acd bcbf 0d8a bf73 f14f c63f
00000060: 63d8 4941 0a7c e7bf 9ebd c222 7119 bb3f
00000070: c16b 95e6 ae6f 0240 8e5c 2ece 7e77 e63f
00000080: 0000 0060 61eb d23f 5241 c185 d5e7 d6bf
00000090: 9b34 ed64 6090 d5bf 4f70 5fc7 aee3 e13f
000000a0: 4541 7c80 e1b7 bf3f 0000 0000 e569 a0bf
000000b0: 0000 0040 fc76 c83f 0000 0000 061f a23f
000000c0: 0000 0020 6c0c d5bf 0000 0000 2ea9 98bf
000000d0: 0000 0080 59c6 b8bf 0000 0080 c400 d7bf
000000e0: 3a18 70f7 805f f8bf 27f3 62dc c6b7 e8bf
000000f0: e2f3 0c07 2a48 e3bf ebc6 0c30 c412 c0bf
00000100: 7e7a 3441 14b0 c73f f33f bf9d 713b e0bf
00000110: 141a 9573 1fba c3bf ac73 9b23 2e10 d8bf
00000120: 540b ffbb 6a10 f1bf 9402 f801 a334 a2bf
00000130: db78 b74d d803 aa3f 3ee6 b267 ddeb d7bf
00000140: f8c9 060c 5865 e8bf 57fe 87ee ebdd aebf
00000150: 0000 0000 7ae5 a0bf 0000 0020 8115 cdbf
00000160: 0000 0000 e2c2 babf 77c3 dec8 00bd f3bf
00000170: 0000 0000 407a 7dbf 31e4 386b 52f7 f5bf
00000180: 7233 fe65 202b e7bf

bias f8 [7]
1.006140668161547 -0.28728572075287995 -0.26903630693780184 -0.11642855405807495 0.2680464210939149 0.038315367980799445 -1.0263207036138566
00000000: f5de 0ef5 2619 f03f 3a73 cfa5 e362 d2bf
00000010: ab01 ef0e e437 d1bf 0000 0000 43ce bdbf
00000020: 1920 1a2d ac27 d13f 7acf d268 129e a33f
00000030: e6aa 1342 cf6b f0bf

weight f8 [7, 7]
-0.253737211227417 -0.28280380368232727 -0.18976540863513947 0.16610482335090637 -0.11939027905464172 -0.04241150617599487 -0.02315676212310791 -0.2784852385520935
-0.03370511531829834 -0.13490276038646698 -0.08357253670692444 -0.055914998054504395 -0.27903321385383606 0.2217487394809723 0.23988796382174948 -0.23366044461727142
-0.2514689270731226 0.2355998456478119 -0.13820014661974533 -0.8353594086945075 -0.05408564209938049 -0.08628198504447937 -0.11751505732536316 -0.014132767915725708
0.3184269368648529 0.07130062580108643 -0.26372230052948 0.3466227948665619 -0.474122845154639 0.20342290804692043 0.5972277042698463 0.33884844183921814
-1.2935454807703841 -0.6870129736169676 -0.19886532425880432 -0.08869824624960969 0.04076828539194764 -1.0877732224767585 -0.3554619252681732 -0.014777561624551079
-0.10524738343539833 0.9578740323039412 0.6993203295490271 0.1490655299442013 -0.5556686301953639 -0.10422426462173462 0.017407684069187104 0.028474907256888556
0.7169370523857357
00000000: 0000 0000 3b3d d0bf 0000 0020 7519 d2bf
00000010: 0000 00a0 3b4a c8bf 0000 0040 ec42 c53f
00000020: 0000 0080 5c90 bebf 0000 0000 f6b6 a5bf
00000030: 0000 0000 68b6 97bf 0000 00c0 b3d2 d1bf
00000040: 0000 0000 cc41 a1bf 0000 0060 7e44 c1bf
00000050: 0000 0080 0265 b5bf 0000 0000 e4a0 acbf
00000060: 0000 0020 aedb d1bf 0000 0040 4362 cc3f
00000070: d0c2 a817 a6b4 ce3f 0000 00e0 95e8 cdbf
00000080: 3550 6f20 1118 d0bf 0000 00c0 2228 ce3f
00000090: 0861 04db 8ab0 c1bf 3cf6 97a7 43bb eabf
000000a0: 0000 0000 1db1 abbf 0000 0080 9316 b6bf
000000b0: 0000 0080 7715 bebf 0000 0000 a4f1 8cbf
000000c0: 0000 0060 1b61 d43f 0000 0000 c240 b23f
000000d0: 0000 0080 d3e0 d0bf 0000 0060 112f d63f
000000e0: fe70 8e58 0758 debf 6ccc a808 c309 ca3f
000000f0: 3155 4346 7d1c e33f 0000 0060 b1af d53f
00000100: 23c2 fcbe 5cb2 f4bf 4f9a b3a1 02fc e5bf
00000110: 0000 0040 6b74 c9bf ebc8 daa2 edb4 b6bf
00000120: aedf f1a8 94df a43f 0d09 00e5 8467 f1bf
00000130: 0000 0060 e3bf d6bf 64f6 22bf b243 8ebf
00000140: 3a38 d815 7ef1 babf c0db 4d71 e7a6 ee3f
00000150: 96e9 1a07 d560 e63f d41e 094c 9414 c33f
00000160: 4645 4394 09c8 e1bf 0000 0000 71ae babf
00000170: 97e3 1ae7 51d3 913f 2f2b b3ad 8628 9d3f
00000180: 2a32 29f9 25f1 e63f

bias f8 [7]
-0.1819387674331665 -0.031219959259033203 -0.5720904496360985 -0.08567145466804504 -1.613342465134559 0.10162354164870634 0.8402603304760781
00000000: 0000 0000 c549 c7bf 0000 0000 20f8 9fbf
00000010: b14f 71a1 904e e2bf 0000 0080 90ee b5bf
00000020: e503 5030 40d0 f9bf ff87 e21b 0004 ba3f
00000030: 46ab f0a1 69e3 ea3f
