PytorchLSTM/hybridmodel.pt (torch, 96283 bytes, 52 tensors)

lstm.weight_ih_l0 f8 [56, 8]
0	0xbfc27376343e2448	-0.14414861250796407
1	0x3f9deaaa606c25d6	0.029215490470084614
2	0x3fc7b62df6d856a6	0.18524717858297385
3	0xbfb00ad4de79aa72	-0.06266527587437468
4	0xbf9c6b5271b0be1c	-0.02775315112029207
5	0xbfd234be9813267f	-0.2844692692857293
6	0xbfb6c2227f50a560	-0.08889976127888621
7	0x3fa01c111385ece1	0.031464131959148885
8	0x3fa9ff527a0d8dd5	0.050776078604737464
9	0xbfa075e5ad96cefd	-0.032149484100413496
10	0xbfc61dd13fcbb2f0	-0.1727849542143285
11	0xbfb05f3f4962b269	-0.06395335713995966
12	0x3fda1e5ac44af2d4	0.408102695171505
13	0x3fc3fe5c088106a0	0.15619993605837568
14	0xbfc0378992ab8c8d	-0.12669486676813727
15	0x3fbb5698efec752f	0.10679012162696176
16	0x3face2e17a0c1b31	0.056418462894774264
17	0xbfcd1d09270f3054	-0.2274486008376494
18	0x3fa44afdd5a632ed	0.03963464005491866
19	0x3fc43e7624ae76dc	0.15815617362107204
20	0xbfd278217555839c	-0.28858219583895006
21	0xbf9f965ca4d8eaa3	-0.030847022592051087
22	0xbfa4eb6ee68fe8b7	-0.04085871281127267
23	0x3fc83bc87664c836	0.18932443409863858
24	0x3fca2ff0a0c9190c	0.204588011272968
25	0xbfc754314b2ca5b6	-0.18225685282349752
26	0xbf96bdfd5fec5a13	-0.022209128360453145
27	0xbfc237f35880a147	-0.1423324758664057
28	0xbfacf20c5b82dd41	-0.05653418175773562
29	0xbfcee50b769512d7	-0.24136489191200525
30	0x3fd0a62d0a8934b5	0.2601425745859374
31	0x3fb7e575d8c0488c	0.09334503690505097
32	0x3fd413c24780671c	0.31370598776412506
33	0xbfd3583f50b3ea1f	-0.30226118928081463
34	0xbfc02f16ed5239fc	-0.12643705928753934
35	0xbfc6b1befcfa7a1a	-0.17729937889539898
36	0xbfb7948ea6b8bc93	-0.09211055345871193
37	0x3fd339ad342193ae	0.3003952988713604
38	0xbfc70e475884e28b	-0.18012325117321767
39	0xbfbee34bcfbfc112	-0.1206557638358883
40	0x3fc02c9c3df4a00e	0.12636139893697912
41	0xbfd30ef4197acf50	-0.29778769005064465
42	0xbf9faf041872a7cf	-0.030941070549182655
43	0xbfbd86fcc1a168b2	-0.11534099318797322
44	0xbfcba98694d2b251	-0.21611101404905012
45	0xbfc79d0c50d15c7d	-0.18448022791082855
46	0x3fc096e476e7c5a8	0.12960487180639046
47	0xbfa57a23cad3921c	-0.04194747782620231
48	0xbfaaf34043eedc50	-0.05263710812817435
49	0x3fca978423f09ba7	0.2077489066589042
50	0x3fcf867bdc8cf976	0.246291620913279
51	0x3fc54dc680746b94	0.166436016771368
52	0x3fbfb6894438dcca	0.1238790313299091
53	0xbfba20c835a6e218	-0.10206271467075856
54	0xbfb16fb47f278264	-0.06811073402742235
55	0xbfb3a30795ae2a62	-0.07670638469986948
56	0xbf434ba98e9acf6b	-0.0005888536372453517
57	0x3fb692d8cbcb94ad	0.08817820525617277
58	0xbfc775888d10104c	-0.18327433479146504
59	0xbfd12dcaffe17c3c	-0.26841998089179575
60	0xbfc4a8ecc1221bcd	-0.1614051764520056
61	0x3fc45484d5448132	0.15882931149918417
62	0x3fc36ce12571477f	0.15176023796317037
63	0xbfb2c411f29afd2a	-0.07330429242118855
64	0x3fd1a6077388018b	0.27575861246443684
65	0xbfc8103731777103	-0.1879948607955911
66	0x3fc0a214ae3773de	0.1299463129679727
67	0xbfcaaa5006ecd050	-0.20832252824914343
68	0x3f9f8892516a5edb	0.030794416636665694
69	0x3fd0b1f9eb180427	0.2608628078306218
70	0xbfa47d1d42ee9beb	-0.04001704637567357
71	0x3fb4ace6276a9dda	0.08076322996441068
72	0x3fc42ff61659a6e4	0.1577136620647287
73	0xbfb3fa21f19b55c4	-0.07803547047236409
74	0x3fb0f86795e58d42	0.0662903538664539
75	0xbf96bc35a6eacf2d	-0.022202337563341935
76	0xbfc4e9ab7dd07b53	-0.16338103907852516
77	0xbf8bc2cd2ece0210	-0.0135551481159846
78	0xbfcc3ffcb6b33452	-0.22070273323916695
79	0xbfa247c6b0f009ad	-0.03570385846980471
80	0x3face7c6930a4349	0.05645580811427082
81	0xbfb38eb373addb10	-0.07639619421193466
82	0xbfce6679b77e36dc	-0.23750230273838369
83	0x3fbd7aa16a6966f6	0.1151524433893448
84	0x3fb2d8368c25581a	0.07361164971857229
85	0x3fc7f4988e7ba661	0.1871519752233324
86	0xbfaa98544dc974e1	-0.05194343041942218
87	0xbfc1066324b7fb68	-0.13300742428688328
88	0x3faac4155d201673	0.052277248018111865
89	0x3fbb7b61acdb42aa	0.1073514029515176
90	0xbfcea01e89a45d9a	-0.23926145287326223
91	0xbfd26fb456a51253	-0.2880678983822566
92	0xbfbc8b07833c5a4f	-0.11149641946790577
93	0xbfcc89ffa05b4481	-0.2229613812437812
94	0x3fbebd3259e84ba1	0.12007441229825001
95	0x3fcbfdb6332a1a23	0.21868016718163216
96	0x3fb256002452afcb	0.07162476431648128
97	0xbfbff4bcb689af7f	-0.12482814270486918
98	0x3fb91312bf3cf4a9	0.09794728440188528
99	0xbfb53de67aec4b6f	-0.08297577382135811
100	0xbfc31811e11ce763	-0.1491720532592878
101	0x3fbecf8614aeb4f6	0.12035406117384526
102	0x3fd1a5b8f83fc2e9	0.2757399009997657
103	0xbfcfe147acaae752	-0.24906249934229635
104	0x3fc151de2f29e6f0	0.13531091025270525
105	0xbfda98f04741d4f5	-0.4155846305723821
106	0xbfbb67579525d2ec	-0.10704562560369951
107	0xbfa332640ec9ec0b	-0.03749382668043929
108	0x3fa637821e38753e	0.04339224451926292
109	0x3fd6dd4630a6e615	0.35725550414244484
110	0x3fcb56498f66ec51	0.21357078077366734
111	0x3fc3529afa2bab08	0.15095841613159444
112	0xbf940e920cbb90cf	-0.019586832072392476
113	0x3fbaf425ce4b67cd	0.10528789793480016
114	0x3f9ed299df968d55	0.030100254317983872
115	0x3fce172c9f794e2f	0.23508222376641316
116	0xbfbc7147500d531b	-0.11110349373241173
117	0xbfb851d349cf4712	-0.09499855567926499
118	0xbfcd896796257c19	-0.2307557566773262
119	0x3fa5763400fbf615	0.041917443390030375
120	0xbfc10206556c76ae	-0.13287429019049085
121	0x3fd5856aa92d907d	0.3362681057099122
122	0xbfbfd03305ea8e2e	-0.12427061933936365
123	0xbfb0bd0b563f6bd4	-0.06538458686502163
124	0xbfb4989c57fd75b9	-0.08045365474887135
125	0xbf90aa0e2231a0c1	-0.016273709141757523
126	0xbfb656bc3a000eaa	-0.0872609750368222
127	0xbfaf3af9e084be46	-0.06099682679848377
128	0x3fa5fb5113f5aedb	0.042933019339071975
129	0xbfb800ea8250b0c7	-0.09376397782824873
130	0x3fc05ac53d05e2e4	0.12777009467733713
131	0x3fd966ee307e5aa6	0.3969073747224833
132	0x3fb39d0c31666424	0.07661510664037557
133	0x3fc390c6c89c6973	0.15285572810610012
134	0xbfb72eebf7d16da1	-0.09055971908804007
135	0xbfa7731ebfa4af85	-0.0458001717509822
136	0xbfcc123c0f0022b8	-0.21930647594878905
137	0x3f9c643ed6343e35	0.027726156066874636
138	0x3fc21af564b5afe9	0.14144771020380567
139	0x3fda8848d2316004	0.4145681431450614
140	0xbfb763484f5fe788	-0.09135868013245674
141	0xbf95cada4f8c32e8	-0.02128163443107925
142	0xbfa2b8f0c5218752	-0.036567234100188487
143	0xbfd32328e597c508	-0.29902098103691843
144	0x3fd0c8462e9303d5	0.2622237639262129
145	0x3f9bbae1ab4850fe	0.027080083922627722
146	0xbfd1189c3aca145d	-0.26712709180021027
147	0xbfa129ea3d2ea9fa	-0.03352291104177492
148	0xbfc7eb5e16aecb9b	-0.18687034709509195
149	0x3fa006b146ece91c	0.03130105963505711
150	0x3fce2833951d69d1	0.23560185223580146
151	0x3fc5ddafdcd1857d	0.17082784921789687
152	0xbfc32ad5d0d3b906	-0.1497447271025935
153	0xbfc64daeb80f0f5a	-0.17424568164107762
154	0x3fc1cfba00812129	0.1391518118346167
155	0x3fc07e56216f28f5	0.1288554824116727
156	0x3fc97b3a7c44cc74	0.19907313411531258
157	0xbf862b7d2e9160f4	-0.010825136169089401
158	0x3fb3d40efd25c966	0.07745450668679651
159	0x3f9beb07623168a6	0.027263751381135258
160	0x3faf771b392493ee	0.06145558426423024
161	0x3fb89426c503fcbc	0.09601061162901464
162	0xbfbf9faed71b736a	-0.1235303187526832
163	0xbfc41a962e55c080	-0.15706136000108373
164	0x3fcb26928c7a7ab5	0.21211463794039323
165	0xbfc1bb5b7585a587	-0.13853018988019647
166	0x3fc0c0827aca5ff7	0.13087492938643638
167	0x3fc465f4dc4df616	0.15936146504456933
168	0x3fb9d659809d9acf	0.10092696561842306
169	0x3fd8bac7263d3584	0.38640001997267626
170	0x3fa030e1ca6e8fa8	0.031622940026209634
171	0xbfa25e87245475df	-0.03587744062881958
172	0x3fcb676688cc5cb2	0.21409303359607673
173	0xbfc7c63b20d9847f	-0.18573702911365683
174	0xbfc21d2615b88042	-0.14151454983312034
175	0xbfd16c9818c92747	-0.27225305958255713
176	0xbfb69013a768c6d5	-0.08813593709126206
177	0x3fc3f5958e69d172	0.15593213514115295
178	0xbfabe890481464ed	-0.05450869445685123
179	0x3fbbd86cca2e1341	0.10877113281283092
180	0x3fd417fa7bdc8db9	0.3139635285935714
181	0xbfce0a6cc82b6638	-0.2346931435957218
182	0xbfad5be1dc7cf795	-0.05734163109308025
183	0xbfb1f0b38fc5ab6e	-0.07007906208097633
184	0x3fa5cb0378591dff	0.04256449550717533
185	0xbfb7bf1e62935005	-0.09275998980166385
186	0xbfc262943e282b67	-0.1436333945751713
187	0xbfc80c5c77c58636	-0.1878772339651264
188	0xbfc505e307e3ca60	-0.1642421520733306
189	0xbfcfeaf4d17ac882	-0.24935779789445084
190	0x3fa81f6de8286462	0.04711478671033188
191	0x3fd432cb85f38360	0.31560028153585584
192	0xbfceb7a2e4f1276a	-0.23997913531121223
193	0xbf92d60377e003cc	-0.018394521895974056
194	0xbfbe655f27b4cc43	-0.118734309381396
195	0x3fb559f45098bf68	0.0834038445252624
196	0xbf90ef9778f61f5f	-0.016538969762705743
197	0xbfa6db6b057168e7	-0.04464277688448864
198	0xbfd5a58e159f6197	-0.33822967635708195
199	0xbf9054eb55817225	-0.015948941320276817
200	0xbfc890c1afa60335	-0.1919176204355836
201	0xbfa1e110dc55b0a1	-0.034920241257027536
202	0x3fc550820a6a6fbc	0.16651940830786127
203	0xbfcd8c412ceab034	-0.23084273045731296
204	0x3fd05aeef333dda0	0.2555501341843982
205	0x3fce94d91952a9cb	0.23891748177022828
206	0x3fa30d75fcdd2f79	0.037212073437870204
207	0x3fc3739225d25905	0.15196444365273734
208	0xbfab347ff7fbe20b	-0.05313491727969585
209	0xbfc0842d71a20b1c	-0.12903373764501047
210	0x3fa6da8a0495cd61	0.04463607126208547
211	0x3fcaf6f712c9f4d7	0.21066177766252878
212	0xbfd26320ff6aa0c4	-0.28730034773844815
213	0xbf78e21cfae9c122	-0.006075013354902377
214	0x3fb1644aafaf9374	0.06793658055501145
215	0xbfd11d42a289f3ab	-0.2674109065335936
216	0xbfa2f72fc8bc3370	-0.03704213452701921
217	0xbfd0e3c50aa5e576	-0.2639019588455861
218	0x3fb5270362d3abcc	0.08262654459728863
219	0x3fc89b079d3f74a4	0.19223113229864908
220	0xbfd4b7696f0f2d34	-0.3236945709765735
221	0xbfb356e33b472727	-0.07554454991546021
222	0xbfc078c3565eaec1	-0.12868539540555982
223	0xbfba379b251b346f	-0.10241098075785414
224	0x3fc3f950cb103290	0.15604600825499348
225	0x3fa2f123684ef77d	0.03699598930641821
226	0xbfb3292a11d8d025	-0.07484686790195434
227	0xbfc408cf1c99085c	-0.15651883026481783
228	0xbfd3a9a3a8759638	-0.30722896052461435
229	0x3fa0053c64523230	0.03128994679091013
230	0x3fd270e543b5f521	0.2881405984151844
231	0xbfc146793a411e82	-0.1349631819195914
232	0xbfc23eb292212da1	-0.14253837714418885
233	0xbf92955b1d5022de	-0.018147872604489794
234	0xbf8baf20db528e60	-0.013517624562445707
235	0x3fd423df77b7019f	0.3146895093050492
236	0xbfcb1ccfed44347a	-0.21181677899622625
237	0xbfbb9eaf21aa64c5	-0.10789007732309404
238	0x3fce7ac21f72ddb9	0.23812128577786298
239	0xbfa1ae0e26bf537e	-0.03453106139173821
240	0xbfc5032cfb1876bc	-0.16415941486859775
241	0xbf9b8666918b63da	-0.026879885323839982
242	0x3fc07c3c98ed5736	0.12879140345710888
243	0x3fb8fd227d743646	0.09761252940025952
244	0x3fd6035c50ab7d41	0.34395511510770765
245	0x3fa7db28a1a0b588	0.04659392331118811
246	0xbfd04e42b6f0bf87	-0.25477664819026596
247	0xbf59e38aedbc10d9	-0.0015801293110949048
248	0xbfc45bf6bbb8cff5	-0.1590565125094369
249	0xbfd0881b0aeb6881	-0.2583072287212716
250	0xbfb87f0383bf158d	-0.0956880756994762
251	0x3f94b3c2a927a5df	0.020216981481928072
252	0xbfdee2464f2d83e1	-0.48256070835310366
253	0x3fb0c556d821601a	0.06551115776653696
254	0xbfc10b9b1118d168	-0.13316667876064092
255	0xbfb1800e1a5d0d48	-0.06836021560325378

lstm.weight_hh_l0 f8 [56, 14]
0	0xbfc7768613599360	-0.18330455727405148
1	0xbfa5dca79f67004b	-0.04269908734158941
2	0xbfcde8661db1584a	-0.23365475129929997
3	0xbfce18afb0b63763	-0.23512836578850757
4	0xbfc315d5c3719ea5	-0.14910385172992338
5	0x3fbda93215fafb4f	0.11586297070151129
6	0xbfb115a3db1a823f	-0.06673645114143144
7	0xbfc57fdde25ca2bf	-0.16796468308282006
8	0xbfc7067683028e0b	-0.17988473317119288
9	0x3fd19591780f0132	0.27475392078851535
10	0x3fa77c2b91819ed4	0.04586921836090388
11	0x3fbc730eb20d359d	0.11113063666308283
12	0x3fc0a0946ce455aa	0.1299005061816108
13	0x3fd0762ede56af4a	0.2572133227611074
14	0xbfb2091d13ffff8c	-0.07045156229287225
15	0xbfbc4614c2ecab58	-0.11044435271166486
16	0x3fc5d2aad42a7400	0.17049155578288833
17	0x3fae426a37dff35c	0.05910045558991925
18	0xbfbc458f500be3a2	-0.11043639854678003
19	0xbfc52f9adbf29ef9	-0.16551528682361275
20	0xbf9af3642440f1b0	-0.02631908866190863
21	0x3fb6a369b6874f11	0.08843098360312875
22	0xbfaad670d8c39150	-0.0524173035244383
23	0x3fc41fb33c4cf620	0.15721741146437385
24	0xbfbe9c9195a9c7f1	-0.11957654861342328
25	0xbfc83a3140f38365	-0.18927589103170842
26	0x3fc0d225e9c044a3	0.13141321099877698
27	0xbf817ee2a701950d	-0.008542795869468845
28	0xbf756973ac75cd3d	-0.005227519846232651
29	0xbfc57c81974c4fe2	-0.16786212813951723
30	0x3fb5c0b82a5ff897	0.08497191462081087
31	0xbf91252cd53b2fc7	-0.01674337436160991
32	0x3fa45b65d58a547e	0.03975980979627368
33	0x3f80e96100b5b1ee	0.008257634958419548
34	0x3fd6efe79693b936	0.35839261727132354
35	0x3fbce3eee51e2783	0.11285298436828665
36	0x3f7e09e10dcedc4d	0.007333640210098369
37	0x3fd3ee2d322437ad	0.31141214272144674
38	0x3fc98088ec02214b	0.19923507236331725
39	0xbf944330a3b5e353	-0.01978755950173945
40	0xbf9cfb29e33c3eab	-0.02830186318811793
41	0x3fb10301d34f4f51	0.06645213517122996
42	0xbfa1a66464cec79d	-0.03447259645999099
43	0xbfd12e1592a4818c	-0.2684377605492265
44	0x3f71fb2e2dc6fc6c	0.004389934907918929
45	0x3fc2da1b3ac37fd8	0.14728107804603385
46	0x3fcc5064dfa19984	0.22120343131537024
47	0xbfd192851153788f	-0.27456785861966976
48	0x3fd66961d8fde856	0.3501820200978093
49	0x3fc83bc1aec323b5	0.18932362588227894
50	0x3fc1fd2a69622b24	0.1405385031287888
51	0x3fd2b6df11564619	0.29241158192698574
52	0xbfa67c251d2ba569	-0.04391590100369564
53	0x3fa3b7875043ed98	0.03850958685685696
54	0xbfd56b9588bbc6b4	-0.33469141343003206
55	0xbfa28aa04b8a8e86	-0.036213883611051975
56	0x3fa07bca9fc25e5a	0.03219445419489082
57	0xbfd80c88ee0a16b2	-0.3757650684932329
58	0x3fba17642ad1b932	0.10191942258254441
59	0xbfb0488cfb4afb4a	-0.06360703597145548
60	0x3fc6003d960bf0e9	0.17188234163757635
61	0xbfc98010d25dfea0	-0.19922075530847838
62	0xbfabb38b4deaf3a9	-0.05410418821472913
63	0xbfd1dcb3edff0efa	-0.2790956329520068
64	0xbfa6beb640b59f21	-0.0444237665167846
65	0xbfbc0811a0214fd6	-0.10949812087466113
66	0xbfcef9cc24ef77f0	-0.24199821284759038
67	0xbfb53e20379e961a	-0.08297921522042664
68	0x3f9d2ea3a6e6a3c5	0.02849822717840646
69	0x3fb393dddac92760	0.0764750155587115
70	0x3fbc6ed828d24375	0.11106635090460577
71	0xbfd78d6fc7fa78c2	-0.3680076077379334
72	0xbfbdbb65320cdcc6	-0.11614067527704028
73	0xbfbdf1fb405d3f83	-0.11697359391587096
74	0x3fbdf493989464db	0.11701319193925334
75	0x3fc6c872a5cb0227	0.17799218268739134
76	0x3fa00f9fd9df378c	0.03136920485086056
77	0xbfbdff2679f4357f	-0.11717453458205361
78	0x3fcd1ba607f99205	0.22740626706503533
79	0x3f7663dca6f18b37	0.005466329500537984
80	0xbfd2a6e2ccb16527	-0.2914359091715419
81	0xbfd3067b495fef73	-0.2972706047582882
82	0x3faa32c2a80291fc	0.051168520936048595
83	0x3fc95ea2208e5ce0	0.19820047940877483
84	0x3fc39d7dc680b8ce	0.1532437533618975
85	0xbfc8b47d0849601c	-0.19300806908245327
86	0x3fd4e9219977678a	0.3267292021461051
87	0xbfd2f9200ab8fbb8	-0.29645539328697224
88	0x3fd3d826aac98769	0.3100678127140016
89	0xbfb9190ca3570f15	-0.09803847301287434
90	0x3fcaf139edc1d0f5	0.21048664197190417
91	0xbf9e15d55c78e1f8	-0.02938016297250276
92	0x3fd14d14d183437a	0.27032967052678425
93	0x3fbe33780f23d663	0.11797285432461417
94	0x3f7662d109ba8f52	0.0054653325602521275
95	0xbfc9b05e5e2e9951	-0.20069484328014167
96	0x3fc57feb5e4c9e3a	0.1679662905164479
97	0xbfa300ac8666a1ff	-0.0371145166457758
98	0xbfa4d3be03115399	-0.04067796504447258
99	0xbfb039c7aa883736	-0.06338165200596965
100	0xbfc80f86c9e17758	-0.18797383172471416
101	0xbfcbec1dd3fec865	-0.2181432042248758
102	0x3fc535e83026ffdc	0.16570761061848216
103	0xbfbb0e8d3d20ac5a	-0.10569079153417374
104	0xbfbe26f58a4b70fa	-0.11778196932158727
105	0x3fbd83b4376ea532	0.11529089310956378
106	0x3fd17da458abec77	0.27329357776006397
107	0x3fa5713b33714313	0.041879510907739136
108	0x3fc01d5405b1bd9e	0.12589502599756214
109	0x3fc783f2bf1495d4	0.18371424036119655
110	0xbfc696d490a2afd4	-0.17647797643928576
111	0xbfa2dd2732c6ae7b	-0.036843514393095377
112	0xbfbd178e4643639d	-0.1136406823674307
113	0x3fa679c6afd37a3f	0.04389782806696418
114	0xbfcff4178470f0da	-0.24963659254888776
115	0xbfcb7cb832625d66	-0.2147436376587663
116	0x3fca5c0a27f8dc20	0.20593382789385917
117	0x3fcd4e72168d4f56	0.22895647145434833
118	0x3fd2154f040f41d3	0.2825505771297944
119	0x3fabf20d194f5d0f	0.05458107885322693
120	0x3fd15e14d2ee78fc	0.27136726950438095
121	0x3fc196fe837c6600	0.13742047710620398
122	0xbfbcb1db28c8247f	-0.11208886857652266
123	0x3fb1a04ff48588c8	0.06885242194906305
124	0xbfc780e79a78c8d2	-0.18362135927743012
125	0x3fc53ce9ea8a9453	0.165921439668781
126	0xbfd095ffab807efc	-0.259155194742547
127	0xbfc482acb08e520b	-0.16023787136931875
128	0x3f9b6ee1cff3667e	0.02679016906481601
129	0xbfcab8c02bc49895	-0.2087631429396352
130	0x3fdc95a10f1255a2	0.4466326377090245
131	0xbf94f97d622cdd1a	-0.020482977978841445
132	0x3fa378b17373ec61	0.03803019079529047
133	0x3fd6bdc0b8951215	0.35533159280410703
134	0x3fbce3b50c82179a	0.11284953647017773
135	0x3fd4e61751a0ccab	0.326543645586933
136	0xbf9d5a5df8d848f8	-0.028665035546574708
137	0x3fbf966a7467173d	0.12338891355383637
138	0x3fbe3b150260cfea	0.11808902080593922
139	0x3fdc2a352a4cb69c	0.44007615214182194
140	0xbf77df8c04c403ef	-0.005828425357550223
141	0xbfcfd4a065f3845a	-0.24867634752357298
142	0xbfb4aa78c7e57ad7	-0.08072619324000684
143	0x3fc27920b67af95c	0.14432152662443343
144	0x3fe0cfe41d3ffd7b	0.5253773280418693
145	0x3f6f5c7c7ca3f09d	0.0038282805809313884
146	0x3fc581ba16764821	0.16802145096568302
147	0x3f87ffb71c33df16	0.011718206928420776
148	0x3fdae1bbc4d832a3	0.42002767775628963
149	0x3fcb96f9c4ed8fe2	0.2155449115335833
150	0xbfc09ed69d3075b1	-0.1298473613286837
151	0x3fa74fe0be255460	0.04553129502407027
152	0xbf7095230019f63b	-0.004048477859780737
153	0x3fcafb3f394266ea	0.21079244895809462
154	0x3fd3b438bf27187f	0.3078748575902707
155	0xbfca9a3286ccb691	-0.2078307302667111
156	0xbfceb627dac4867b	-0.23993395025268058
157	0xbfd1826b7c8f552e	-0.27358519710590457
158	0x3fc1760d9d87bf8c	0.13641519729526086
159	0x3fb5d5a032ad89b6	0.08529092061284058
160	0x3fa3c7f9062bfc73	0.03863504600848779
161	0x3fc128527576d164	0.13404303298524234
162	0xbfbb8dc561c8776f	-0.10763200413972894
163	0x3fd3a421756fe38f	0.30689274280990103
164	0xbf7d82b6a94294bc	-0.0072047362520254975
165	0xbfb8ee6aacfe8707	-0.09738795016758327
166	0x3fb3a00b32af3caf	0.07666082370200188
167	0x3fd1837fe27ef6d4	0.27365109556909073
168	0x3fd11f82107fdc40	0.26754809962534765
169	0xbf9850e15e3e022c	-0.02374603402813784
170	0xbf94e7151ce17bd2	-0.020412759673828003
171	0x3fc46c516d553b2e	0.15955560530206853
172	0x3fd0556908313e3c	0.2552130298617816
173	0xbfb64ddbcfef9049	-0.08712552858884338
174	0x3faeaa18478eea72	0.05989147065652824
175	0xbfc748c341d02bbe	-0.18190804208310668
176	0xbfa1b0213ed1e612	-0.03454688922733963
177	0x3f93ddf021ad4f03	0.01940131383464828
178	0xbfc7ec1575210680	-0.18689220637502402
179	0x3fac3378b8a3bb7a	0.05508019689465633
180	0x3fca77c764d5117d	0.20678036139919334
181	0xbfb753d13a48c10b	-0.09112270043329233
182	0x3f87f1f697bc9656	0.011691977029452943
183	0xbfa2aa585e72ed8c	-0.036455880669986035
184	0x3fb11955e53a84d4	0.0667928394928084
185	0x3fbfa468fd00331e	0.12360244919564109
186	0x3fbc91caa7ed2e73	0.11159960365073988
187	0x3fc9f719e1823f7a	0.20285342703982306
188	0x3fc78a74392c6765	0.18391278068230146
189	0x3fbfb876de2b068b	0.1239084522631179
190	0xbfc41c06b9c5e3ec	-0.15710529395053585
191	0x3fb6a4f17b8db912	0.0884543348927063
192	0xbfd03907f1bae5c6	-0.25348089796497353
193	0x3fb041e859139421	0.06350567030638433
194	0x3fa9540ba6ef4e56	0.04946934139993846
195	0xbfcea678b8531664	-0.23945530891630817
196	0x3fb5e565882ced46	0.08553156447026308
197	0xbfc4ceaf0c7d9e0d	-0.16255748853585353
198	0xbfbef2ad15671aa5	-0.12089044353988727
199	0xbfcf39e528234b22	-0.2439543195710821
200	0x3fbe946de60902bd	0.11945235124677374
201	0x3fc5f01801a9d380	0.1713895805475225
202	0xbfa1de1b25a82ffc	-0.03489765963249167
203	0xbfc55e69ec88950c	-0.16694377946365824
204	0xbfc950959b1e7562	-0.19777174066704634
205	0xbfcc07716c0090fb	-0.21897714398904342
206	0xbfca26dfd084709d	-0.20431134873877435
207	0xbfc089521f9f4fd1	-0.12919069809015452
208	0xbfcb78971def5979	-0.2146176239172737
209	0x3fbe2677ee956094	0.11777448248665429
210	0x3fc6fd18e19261f0	0.1795989133286322
211	0xbfd7c7237d7a8210	-0.3715294576050221
212	0x3f69b989ddb60d5b	0.0031402294823138894
213	0x3fc1be1037463759	0.13861277293147614
214	0x3fc6923efc5d5e9e	0.17633807489868486
215	0xbf9306b8a23bd22b	-0.0185803269404962
216	0x3fd57be149642e14	0.3356860367500485
217	0xbfc50ce3eb7c928b	-0.16445588110322648
218	0x3fc190ae4e45822b	0.1372278101143974
219	0x3fcd552d7f745e74	0.22916191790931217
220	0x3fc56b3bd808d68a	0.16733501480637286
221	0x3fb4049a4fbba55f	0.07819523283582928
222	0x3fc45c7d21ef87a8	0.1590725341512187
223	0xbfd2c2bad7fe068c	-0.2931353673267061
224	0xbfc9da1077748708	-0.20196729500553823
225	0xbfcccdcfb09ebd28	-0.22503086208369294
226	0x3fd048308a249e68	0.2544061039975305
227	0x3fcdc2d1d7970f04	0.23250792528971698
228	0x3fd5eafda05860ac	0.34246769579614056
229	0xbfaaa60e1059a52c	-0.052048148628111995
230	0x3f32f16b5bb104b6	0.00028904791878765366
231	0xbfb385c6d9d30fe0	-0.07626002138118748
232	0xbfcb93bf2b88c96b	-0.21544637323092827
233	0xbf96cc465138f124	-0.022263621051238705
234	0xbfb8a78272094414	-0.09630599292837899
235	0x3fc6c66a0a5c96be	0.17793012147847337
236	0x3fb6d33286079138	0.0891601159306149
237	0x3fa891ae4dddc73c	0.047986456875959566
238	0x3fa9ef12b1caa8a0	0.050652107432442195
239	0xbfb67dde8f561334	-0.08785811423701945
240	0x3fc3d0ab2da474fe	0.15480556229241665
241	0x3f8bd64d53ff54a0	0.01359234249677349
242	0x3fa7e5328f8829ba	0.04667051317308642
243	0xbfb454ff9ea1c660	-0.07942197440004284
244	0x3fd7ff447d783fce	0.3749552941599149
245	0xbfb80c3b2956c8ce	-0.09393663176777808
246	0x3fa5767d2ba598e5	0.04191962392614971
247	0xbfbb2e551f5b7deb	-0.10617572799264223
248	0x3fccaccfdb41b3be	0.2240238018597704
249	0xbfb39957ad07d87a	-0.07655857061749485
250	0xbfb19adcaafb9456	-0.06876925634749517
251	0xbfc65248f146f737	-0.17438613682855372
252	0x3fc47f8f8adf33eb	0.16014284401754195
253	0x3fbe82ab349cdca3	0.1191813472222401
254	0xbfc2524eaf715add	-0.14313682142775166
255	0x3fa98a66a44b00a3	0.04988404040841601

lstm.bias_ih_l0 f8 [56]
0	0xbfc455290fd9a1fe	-0.15884888910228762
1	0x3fd570b675a4aa93	0.33500443924519024
2	0xbf9220d7e0303b7c	-0.01770341211163949
3	0x3fcfc41382c3d8f5	0.24817127118121332
4	0x3fcfdd2e516e850f	0.24893740631254288
5	0xbfba833381574f8a	-0.1035644713186327
6	0x3fb3433b115bf037	0.07524460958296762
7	0x3fd5b6a952286c78	0.33927376769287987
8	0x3fc61ec1360e5f01	0.1728135599084837
9	0xbfb42bb089b93435	-0.07879165041340815
10	0x3fb69d3e4d0cd722	0.08833684331042638
11	0xbfad18aa625981ab	-0.0568288083129603
12	0xbf7cee6572284454	-0.007063289902832077
13	0xbfc87e3b78fde1c8	-0.19135230453299656
14	0xbf939ab0cd9a33c2	-0.01914478545090837
15	0xbfc43b553d27c6fd	-0.15806069837667983
16	0x3fc3dfcc5806b373	0.15526727960732564
17	0xbfcbaab8cd6c7895	-0.21614751844839888
18	0xbfd0f95b1ed2e975	-0.26521947870391865
19	0xbfbebaf3bd6ebc74	-0.12004016280001101
20	0xbfc5732bb8315d6d	-0.16757723325529686
21	0xbf6c430338bd5418	-0.003449922840369723
22	0xbfa9b1ad3a91799e	-0.05018369045204739
23	0x3fc4e8073df202b4	0.16333094143558002
24	0xbfa25175a7a26cd2	-0.03577773734397173
25	0x3fc183ddf9568cf2	0.13683676409446083
26	0xbfccce712a687afb	-0.22505011149129203
27	0xbfa11e3e3b124317	-0.03343386145673415
28	0xbfc8a66efdc495af	-0.19257914916049176
29	0x3faf8fdc04e07beb	0.06164443549663886
30	0x3fac38d58d42987c	0.05512111043326315
31	0xbfbb915054f633ba	-0.10768606256733806
32	0x3fba63e395615c35	0.10308668515186599
33	0xbfbf1061d93366a0	-0.12134372284654171
34	0xbfce15544066cc6c	-0.23502591271025908
35	0x3fb017f0fb325a55	0.06286531574947081
36	0x3fb6323bf5e1eed2	0.08670401337615921
37	0x3fc27c078cf33ba9	0.14441007978754541
38	0x3fc311e519298487	0.14898360947248454
39	0x3fa21e763c7b2712	0.035388655550901885
40	0xbfb2138850b63533	-0.07061054201604548
41	0x3fc4d0d8d444c229	0.16262350430180675
42	0x3fc693d829524ef9	0.17638685243274901
43	0xbfb5b952d36ef142	-0.08485906278560143
44	0x3fc4cdbf13d582e6	0.1625288817258685
45	0x3f6d3ac2629e3bb2	0.003568057688375836
46	0xbfcf8f88403d2301	-0.24656775604878337
47	0xbfb7e1dfea70f062	-0.09329032395993545
48	0x3fd075da4ccd30cc	0.2571931600584889
49	0xbfb434598bc6b5e7	-0.07892379438882068
50	0xbfb41e101cd85a82	-0.07858372406222183
51	0x3fc1bb489fcf0326	0.13852794459492052
52	0x3fd8bb9ec5cac1b0	0.38645142856241943
53	0xbfc95a336d46693f	-0.19806521259017448
54	0xbfc0e12c691703f2	-0.1318717492231652
55	0x3fd2278eb5b8a238	0.2836643957730618

lstm.bias_hh_l0 f8 [56]
0	0xbfa645b9bf668816	-0.04350071393425041
1	0x3fb65a839692aa3e	0.08731863428207817
2	0x3f889ce03f9f892d	0.012017967168450905
3	0xbf9f1d6fe9e13889	-0.030385731363189925
4	0xbfbf67669d22f5e2	-0.12267152153341201
5	0x3fd2258ecfaa2c1f	0.28354234962233876
6	0xbfb190cfeea40fba	-0.0686159093493747
7	0xbfbd7213775e4dd9	-0.1150219122339914
8	0x3fd1d3453b072f84	0.278519923824881
9	0x3fd7cf0c0d91b2fb	0.3720121510039431
10	0x3fd37d49934335c3	0.30452193623645146
11	0x3fb639fe0ed33f2e	0.0868223940080923
12	0xbfc4c19c2b91422d	-0.16215850951495395
13	0xbfb5b5dbf1fbc399	-0.0848062005786815
14	0x3fc4b010e64cb98f	0.16162310834029056
15	0xbfbfc3c97a4f8e06	-0.12408122287848053
16	0xbfd17fa873fca64b	-0.27341662718626897
17	0x3fb98a7da5270ec3	0.09976945192380086
18	0x3fa451008968b45f	0.03968049695354447
19	0xbfc2b0a91eb75e40	-0.14601625442331745
20	0xbfd1a1047c18aeb3	-0.2754527294043598
21	0xbfcfabe10ce2f555	-0.24743283395029417
22	0xbfa8849b3a91799d	-0.04788670625633815
23	0xbfc4fac5a20dfd5b	-0.1639029542238671
24	0xbfc26a85e9e89b33	-0.1438758270389485
25	0xbfb6c2b98d52e616	-0.0889087648419252
26	0xbfbf31bc94d0f602	-0.12185267098626443
27	0x3fbfd1966276de7f	0.12429180053629273
28	0xbfadce53f71256bd	-0.0582147826291197
29	0x3fb5439b02703df7	0.08306282815487252
30	0xbf915390e57acf08	-0.016920341497736607
31	0xbfab171d29ec677a	-0.052910720222100374
32	0x3fc47879cab0ae16	0.15992662808399477
33	0x3fbe9764e6cc995e	0.11949759135004487
34	0x3fa535ddfe64ce32	0.041426598838736686
35	0x3fd1b9091ecc9695	0.27691867835742673
36	0xbfc6d59fe50f0899	-0.1783943050814443
37	0x3fb9f71a19e6774d	0.10142672664957537
38	0xbfd3bede636b3dbe	-0.3085247012031366
39	0x3fd219cda78f64ed	0.282824910767501
40	0xbfd13ae4c42d8d4b	-0.2692195812034767
41	0x3fc6e0955444c229	0.17872873892476207
42	0x3fc3a02aa9524ef9	0.15332539813663695
43	0xbfa448fa26dde296	-0.039619271511530815
44	0x3fcf8e8353d582e3	0.24653665154894275
45	0x3fcf69fe098a78f5	0.24542212930550247
46	0x3fbac70c3f85b9fe	0.10459972906912893
47	0x3fce766f0ac787d0	0.2379893114694469
48	0xbf74fe48ccb3cbee	-0.005125316976079637
49	0x3fd7d34cad0e5284	0.37227169895167145
50	0x3fda5001f8c9e958	0.41113328262112736
51	0xbf96ba310187e6e2	-0.02219463893741292
52	0x3fd0359e85cac1af	0.2532726580202746
53	0x3fb3908c65732d75	0.07642438389591695
54	0xbfb8012a122e07d0	-0.09376776641695916
55	0xbfc3b6f1748ebba2	-0.15402048293387077

lstm.weight_ih_l1 f8 [56, 14]
0	0x3fd2e171467d33ec	0.2950099171037539
1	0xbfc4aa4ea06910dd	-0.16144736130275464
2	0x3f908122fb5005f6	0.016117617215064294
3	0xbfd46c0c710b7398	-0.3190947631790606
4	0x3fc4f77bfa56de95	0.1638026211128262
5	0x3fc074c2f344725f	0.1285632789448696
6	0x3fc5510e88ef206f	0.1665361565230827
7	0x3fb26961daa98b22	0.07192050541338493
8	0x3fc7fb5a8bd3bb4b	0.18735820605749107
9	0x3fd2ea755b38aa06	0.29556020649275216
10	0x3fc360b968ead634	0.1513892900745063
11	0x3fc30807441317e1	0.14868250678972486
12	0x3fc7082cd8fc82c0	0.17993698687589266
13	0xbfc59f777543d2ee	-0.1689290354330732
14	0x3fccffef1538797c	0.22656048332369128
15	0xbfdfc31d7d4bd3b5	-0.4962838862987227
16	0x3faf85b7b2821489	0.06156705907873412
17	0xbfd59692dc9272d0	-0.33731528797379173
18	0xbfb226a52f0ba71a	-0.0709021797044013
19	0x3fcaa4ee9c73cdf8	0.20815832747722118
20	0x3fd94e37599975bf	0.39539893865534376
21	0x3fbbcec93e2e87c4	0.10862405555829385
22	0x3fd6aeb940d2c8e2	0.35441428499610883
23	0x3f9bf913cec44e2a	0.02731734227661612
24	0xbfc40c0bd6708d75	-0.15661762209593247
25	0xbfdda1a7d3e3f02f	-0.4629916733972576
26	0xbfbe3d99ff96269b	-0.11812746515183863
27	0xbfaa70f60a03b78a	-0.051643074724650864
28	0x3fd1994321e7ac0f	0.27497938452751297
29	0xbfc310cff9ccc652	-0.14895057389508054
30	0x3fc0017654295a14	0.12504462346505874
31	0x3fb6f4d164000563	0.08967312518509156
32	0x3fc9cb43555a226e	0.201515595126938
33	0xbfd216204150dd2f	-0.2826004636621801
34	0x3fc8b8f4d30728c4	0.1931444197092046
35	0x3f84ca25128fadb5	0.010151185635513519
36	0xbfb344a8270249a5	-0.075266370319048
37	0x3fd1c9586596f925	0.27791414185402835
38	0xbf9a06684d27c413	-0.025415067395389523
39	0xbfbe39d5ca162fb6	-0.11806999381786806
40	0x3fb8c5b987e18e2e	0.09676703994187427
41	0x3fbd392bd5dffbda	0.11415361377292702
42	0xbfc74c264cbb065a	-0.18201140162095691
43	0xbfc50ab221dd867a	-0.1643889108045647
44	0x3fc35b7ba7c4dac4	0.15122934047550107
45	0xbfc35c351ab342ea	-0.15125144771311422
46	0xbf96f3bb178f8efd	-0.02241413432410776
47	0x3fd6dee45e5fe6de	0.357354252016746
48	0x3fd56e7f5a5d5171	0.334869230505567
49	0xbfaecbbad4259aaa	-0.06014808501895648
50	0x3fb1c20e0ffae1d5	0.0693672932637875
51	0x3fd336dc50e3a915	0.3002234258589323
52	0xbfd1a11f0d207aaa	-0.2754590633575541
53	0xbfd25a35838c967c	-0.2867559227619052
54	0x3fb46b5ce8146191	0.07976322809225268
55	0xbfd224a5ee839ca5	-0.2834868268241258
56	0x3fb1f12261b20b86	0.0700856674684883
57	0xbfcdf360b87b49cb	-0.23398980148210877
58	0xbfae41c7f49d7738	-0.059095619783632036
59	0x3f7b849160d74754	0.006718223461079937
60	0x3fd2a12dfc5ba05c	0.2910876240189333
61	0x3fcbdfe21e186f38	0.2177698752355981
62	0x3fd0993f4363ba56	0.2593534620381538
63	0xbf95cc7f465a7337	-0.021287907284761345
64	0x3fd38dd10d5e7dbc	0.3055307989652325
65	0x3fbc9b4483da985f	0.11174419612015772
66	0xbfc73a80781871de	-0.1814728342441318
67	0x3fc87abe981c2be9	0.19124586512802402
68	0xbfc52ff708162fb9	-0.1655262746320412
69	0xbfa4dc53039d2d28	-0.04074344081035469
70	0x3fc3f95ffe8defed	0.15604782037178158
71	0xbfd4bc754b6400c5	-0.3240025745617568
72	0xbfaf2ae96ca463c0	-0.06087426615903935
73	0x3fe09524c7f7b88d	0.5182060151689868
74	0x3fd6a9e8e84832f8	0.35412047084609766
75	0xbfdb3da800291b5d	-0.42563819900208505
76	0x3fca8dcd241daba8	0.20745243323775964
77	0xbfd8bbf6a197aa9a	-0.3864723756839027
78	0xbfbc5866c528e0c7	-0.11072389901608225
79	0xbfe12422becaa779	-0.5356610990904606
80	0x3fd9940f2ac7a25b	0.39966181924549965
81	0xbf80d610535c2ec5	-0.008220794242809313
82	0x3fcc26e0b21531b3	0.21993645377587043
83	0x3fd630c720c71d87	0.346727163323941
84	0xbfaac25fe55ca6cd	-0.05226421046093108
85	0xbfd76d97e6b29269	-0.36606404809052734
86	0x3fc395f8ef23d24b	0.1530142944026401
87	0xbfd8b416e903b424	-0.385991790345374
88	0xbfc5af647811a6be	-0.16941505301229215
89	0x3fd774c4181861e2	0.3665018306069482
90	0x3fd3781ca878b6fc	0.3042060513715652
91	0xbfb5bedb90511650	-0.08494350694044184
92	0x3f7978e9cac96aee	0.006218827486544438
93	0x3fa65c8bdb72fc9d	0.0436748223669323
94	0x3fb070c71624fa9c	0.06422085085521662
95	0xbf8d9e0d2be1e468	-0.014461615468677816
96	0xbfb8c2cc60f5716c	-0.09672238700063013
97	0xbfc4b0563b450be7	-0.16163137334851216
98	0xbf633fa934339177	-0.00234969184531247
99	0x3fa68a02070bc82b	0.04402166687022232
100	0xbfabbc89dbb7ec74	-0.054172809668636385
101	0x3fb8576839089ba7	0.09508372681066977
102	0x3fd0a071769a0dbb	0.25979267675594614
103	0xbfd9a4a2fa726d7e	-0.40067362268174367
104	0xbfc20f8a308ca823	-0.141099237161428
105	0x3f9445bcc60eb89c	0.019797277058096627
106	0x3fbdabd3cbf317a5	0.11590312699544698
107	0xbfd865e57211f64e	-0.3812192548719836
108	0x3faed9fb4886ab82	0.06025681743934454
109	0xbfb79e47bc2b021e	-0.09225891441293085
110	0xbfd448dad338f28b	-0.31694670321648094
111	0x3fbc50b13b2219fc	0.11060626691514835
112	0x3fc7e0df2b910230	0.18655004145877419
113	0x3fb1127f0493fb94	0.06668847905892356
114	0xbfcc8ea9cce5e285	-0.22310373787674478
115	0x3fb2ed16f3cbfc36	0.07393020107336742
116	0x3fe004869d4339d3	0.5005524703536203
117	0xbfa14ea938376887	-0.033803260910375825
118	0x3fd38f44e5bed9ef	0.3056194537743115
119	0x3fb20a2c1f39dad2	0.07046771776536367
120	0xbfb25bda01122e6c	-0.07171404386661501
121	0xbfbf77995c187839	-0.12291868685176234
122	0x3fc61ed7224824f5	0.17281617330471702
123	0xbfc5212bddd1e956	-0.16507480937054692
124	0xbf9c3578f11deaaa	-0.027547731129269927
125	0x3fd75e8a5ac44c05	0.3651452909845719
126	0x3fd5be688757966d	0.33974660126691597
127	0xbfd14ccc22222001	-0.27031234105425034
128	0x3f90da7fb99c2b80	0.016458507255304067
129	0x3fb3312270af64d4	0.07496848345853674
130	0x3fdd9e4d510492d1	0.46278698837185767
131	0x3fa3d23ee8769f4b	0.03871342265784835
132	0x3fb61d61ea5e1099	0.0863858411012778
133	0x3fa6bea182ed23b7	0.04442314837667232
134	0x3fd0e0bf738b5c82	0.26371752055769815
135	0x3fc51bcac2b83961	0.16491064555925575
136	0xbf9d924629139f3e	-0.028878303773040452
137	0x3fb17e1b5cb44ab0	0.06833048833167754
138	0x3fc6c291d9d39327	0.17781279693658655
139	0x3fd949473ffdab1a	0.39509755372152855
140	0x3f9d22e07ac87e15	0.028453357214060022
141	0x3fbf0a9989d450ec	0.12125548949217418
142	0x3fc482ffd56c0591	0.16024778290743005
143	0x3fd0776ec6afe580	0.25728959467922863
144	0x3fcbc3b190890885	0.21690959508311294
145	0xbfc4ba760b59ca06	-0.16194034151301667
146	0x3fd53226b783a55e	0.33118598862946225
147	0xbfc467b59d24434c	-0.1594149606030676
148	0xbfc91c61c08f3fe9	-0.19617864515612318
149	0xbfdcc6701e791a1d	-0.44961169219860314
150	0x3fca9c0e57dbeb91	0.20788745203011819
151	0xbfd7c4a57100257f	-0.37137733493053554
152	0x3fb981d056dd1f3e	0.09963705177972046
153	0xbfb732326025ee7e	-0.09060969207160416
154	0xbfaa8206a64ce35d	-0.051773269462904926
155	0xbfbb16ccc2ebd56e	-0.10581664809054356
156	0xbfcfa1ce27a13ea8	-0.24712540564586516
157	0x3fd98e0571216e59	0.3992932896414679
158	0x3fd10b72ae4a12ec	0.2663237287563749
159	0x3fb0f9cf24fc6d32	0.06631178524951478
160	0xbf8a0b4cc88b3e47	-0.012716865415682522
161	0x3f89597739312c06	0.012377673561919888
162	0xbf6606bc27849a61	-0.0026887583627684263
163	0xbfcfe1e228105b00	-0.2490809150337654
164	0x3fc8cdedaf73968d	0.19378443781822732
165	0xbfd0ecde822cef59	-0.26445734703496765
166	0x3fa1636cd611f7e2	0.033961678630461525
167	0x3fa758e859156286	0.045600186228232295
168	0xbfc970d7748770ff	-0.1987561530103292
169	0x3faaebebcef2098b	0.052581185352226965
170	0x3fa44f456533a536	0.039667290309646594
171	0x3fcb0888b6f7d0da	0.21119793828950756
172	0x3fd934c336c77a73	0.3938453707650417
173	0x3f8d3a7c48574dac	0.014271708448098185
174	0xbfcce1ebced5a859	-0.22564456557603554
175	0x3fcf2168fdd20cfb	0.24320709603862398
176	0x3faaafe49da9ca07	0.052123207326889846
177	0xbfbea93f63712242	-0.11977001359731168
178	0x3fd72008bd00a2ae	0.36133020837091123
179	0x3fb3babcc9ff99f4	0.07706813747027025
180	0xbfc4cc484c74d621	-0.16248420460912974
181	0xbfb6b3308b3587b6	-0.08867171667728155
182	0xbf9723758199bf86	-0.022596202883903092
183	0xbfd550a65cd5bc9f	-0.3330474764433777
184	0x3f915eaea4c02778	0.01696274643476367
185	0xbfa5dc39264aaae6	-0.04269579498698821
186	0x3fd94ed69cd14baf	0.3954369098111625
187	0x3fc146e3bce7351c	0.13497587894236396
188	0x3fd6ffa402f00f4d	0.35935306822670016
189	0xbfa74dbcc1697de4	-0.04551496373164435
190	0xbfbf7563a16679df	-0.12288496675908032
191	0x3f8c10f8d5de5955	0.013704246546507074
192	0xbfc98e1acad0216c	-0.19964918997744563
193	0xbfd24aec8c3fcde7	-0.28582299896444713
194	0x3fc40a62ac706ac1	0.15656693858985274
195	0x3fd23d5a2c51b43b	0.28499464347879994
196	0xbfb2798e40d3bc96	-0.07216729242985517
197	0xbfd5b445cee01ae1	-0.3391279716746976
198	0x3fc5ef70d9f8bf86	0.17136965411327426
199	0xbfd1c90d59352e93	-0.2778962489289622
200	0x3fc15dd7f10ec46a	0.13567637701411012
201	0x3fd8689c8f72ac17	0.38138498314464314
202	0x3f77691620dafc00	0.00571545261271833
203	0x3fca726e1e892b46	0.20661713114744823
204	0x3fa9b3c45262cda5	0.05019963746726867
205	0x3fc196ce0f91dec3	0.13741470108265305
206	0xbfbe1d02accdf4e8	-0.11763016432628925
207	0xbfaad7c7f8e7aa77	-0.05242752946272316
208	0xbfc8b1838def7e9b	-0.19291729383893572
209	0xbfcc0c71d01ba731	-0.21912977849506768
210	0xbfb9258c5f13eb31	-0.09822919198260817
211	0xbfd631732f209e75	-0.3467681846836748
212	0xbfa49c0104c55921	-0.04025271590460223
213	0xbfdd1c6720fc11ef	-0.45485857220799536
214	0xbfd16e237a6b9115	-0.27234732585044813
215	0x3fe3d3b335d10f71	0.6195922900301253
216	0x3fd01782e8279194	0.2514350192198205
217	0xbfa422c2059dac2d	-0.0393276817183835
218	0x3fc593ea2641e73a	0.16857649677313608
219	0x3fadc7d268a9b3c4	0.058165145183785266
220	0xbfd3714948b9b96b	-0.3037894449434108
221	0xbfd47c497409259d	-0.3200858719979694
222	0x3fb68137182144f4	0.08790916766271889
223	0xbf9f50f2de460969	-0.03058223230028415
224	0x3fbb478d56592d11	0.10656054838289132
225	0xbfa130293a2fc5df	-0.03357056460653118
226	0x3fb149ae5d4da897	0.06753053453363332
227	0xbfd5cd35a57773ee	-0.34064999731873413
228	0xbfdd0312dd263369	-0.4533126029644366
229	0x3fe25a24648dc4fa	0.5735036815587187
230	0x3fc78897c7fe1f39	0.1838559843565635
231	0x3fc783c8f207f9de	0.18370925729682502
232	0x3fd60b51bc9f069c	0.3444408742908338
233	0x3fce93bde30f57dd	0.23888372027312146
234	0xbfc5fca91cdf85bc	-0.171773089502535
235	0x3fc145625adc7d67	0.13492993771158554
236	0x3fc4cfe0ae40732f	0.16259392269503212
237	0xbfadfc929c3921bb	-0.058567601747714325
238	0x3fb87a2f25ec2eec	0.09561438251347071
239	0x3fb80df38f3bd94a	0.09396288153570712
240	0xbf9498bc85c13038	-0.02011389318822429
241	0xbfda78afb245a151	-0.41361610803007404
242	0xbfc1e675c9dd4e88	-0.13984558445610085
243	0x3fbbf4d30fc0bdd9	0.10920447477905472
244	0xbfb536a56695d3fe	-0.08286508326075645
245	0x3fd254ac8df037a7	0.28641809331099427
246	0x3fd58e3b2ac55e66	0.33680609871723843
247	0xbfba8fdd7726af81	-0.10375770720446377
248	0xbfd77ef87dde05d3	-0.3671246747181531
249	0xbfc146fa6c2bccd7	-0.13497858316222874
250	0xbfae46709d807cc3	-0.05913116381292973
251	0xbfc6062ca6358c88	-0.1720634280746689
252	0xbf9882141e419bef	-0.02393371042890274
253	0xbfca8fd3c3a8411b	-0.20751425794197406
254	0xbfb9ef93201d04c3	-0.10131186994569234
255	0xbfa4b5c166c7be35	-0.0404491842235725

lstm.weight_hh_l1 f8 [56, 14]
0	0xbfcad6a3695da8cd	-0.20967524189774736
1	0xbfc5859a173a0845	-0.16813970693698557
2	0x3f8236c80f1eda9e	0.008893549882356407
3	0x3fa367d6de0293a1	0.0379016061790829
4	0x3fc03d97f7b38c97	0.1268796882132832
5	0x3fc7cf48a940ed7d	0.186013300555583
6	0x3fc230455a38e415	0.1420981112039789
7	0xbf9d547970d414b6	-0.028642556678296592
8	0xbfa12f26f8ced813	-0.033562867996281075
9	0xbfcb557dded85dee	-0.21354649907219375
10	0xbfa31f239d8ea195	-0.037346947653819
11	0xbfb8a082173d1106	-0.09619916026446526
12	0x3f77574aaf4901d9	0.005698482262744575
13	0xbfd0d45a7ba27dc1	-0.26296102594093546
14	0xbf9213790d567b7c	-0.017652408064914735
15	0xbfd1aacef46f54a1	-0.2760503184375214
16	0x3fb90d0256e439bf	0.09785475369810735
17	0x3fc26b66b88fabb9	0.1439026261499217
18	0x3fd86dc247b00c47	0.38169915199995724
19	0x3fd34a44db45b3d0	0.3014080182390986
20	0xbfcae5ed5eb47198	-0.21014182209263477
21	0x3fcbfbc0fda89d7c	0.21862041841198365
22	0x3fbe99e234a15cee	0.11953557763023401
23	0x3fc7cfe44fbcd488	0.1860318555206144
24	0xbfc709950de03529	-0.17997992684869615
25	0x3fc8c580b9f57dbf	0.19352730827357154
26	0xbfd75dc46faf7cd9	-0.36509810358798017
27	0xbfc7f50cfbe175f0	-0.18716585444319334
28	0xbfc2343a5edfb52b	-0.14221887238037687
29	0xbfd10508ab8aa7b9	-0.26593224289046763
30	0x3f96a14308645765	0.02209954012604189
31	0xbf7ea59cdd962614	-0.007482159382001825
32	0xbfb6ad587b912a41	-0.08858254448674875
33	0x3fd30b435737fb78	0.2975624419922762
34	0xbfd8db6a15842418	-0.38839199162663496
35	0xbfcfe7fbfeb35936	-0.2492671006827522
36	0x3fcc4f680676dd72	0.22117328944817022
37	0x3fc1e3ee63c763e7	0.13976840850844427
38	0xbfd6220a561856dd	-0.3458276596805783
39	0x3fcb6d1005e3b75d	0.21426582610677772
40	0xbfbe08cbeb194464	-0.117321724793571
41	0xbfc162311bbd0fee	-0.13580907682819493
42	0xbfb096a23e16ae57	-0.06479848876795678
43	0xbfc9ec06f5889e19	-0.2025154780287586
44	0x3fadccfca2afc25f	0.058204550608824894
45	0x3fcffb328dc850f3	0.2498534385964671
46	0xbfc51b94bd7097fd	-0.16490420579901857
47	0x3fd0486dacaa8bfe	0.2544206796830507
48	0xbfc8bb570cb9e526	-0.1932171642436426
49	0xbfd0e755751398ac	-0.26411949570900606
50	0xbfb9d5a8927d6f85	-0.10091641975799177
51	0x3fc47efb9567fc9b	0.16012520594810983
52	0xbfd05019e8aad2b3	-0.25488898965276546
53	0xbf8ed155fcc599fe	-0.01504771402023852
54	0xbfc46c4c74933148	-0.1595550126279568
55	0xbfcdd3017ce448bf	-0.23300188635091065
56	0xbf7df8f41fe69d11	-0.007317498790519809
57	0xbfd4a6e852e1d751	-0.32268722623790774
58	0x3f87baaf087e24d0	0.01158653969447912
59	0xbfbc48a7b23cad3e	-0.11048362828721722
60	0x3fb935810df5f378	0.09847265806997807
61	0x3fd5de6a8b42167e	0.34170020675114887
62	0xbfcc6314cc84351f	-0.22177371965555268
63	0x3fc5ae1c39249f6e	0.16937592306316723
64	0xbfb6955e6de4f1ec	-0.08821668799368582
65	0x3fa4e96fff9db776	0.040843486741194576
66	0xbfd36762fd4f3fe6	-0.3031852220274217
67	0x3fb5c69519fa055d	0.08506137737460535
68	0x3fb8ac6bafc0032a	0.09638093033573783
69	0xbfbae6bc51f35a2d	-0.10508324623820249
70	0x3fbf8b83a364aa0a	0.12322256793110156
71	0xbfd5546f8726b10d	-0.3332785434565871
72	0x3fcbc1e1665d48e6	0.21685426233540922
73	0xbfd529899512155f	-0.33066024358443785
74	0x3fc20a19175aaeb1	0.14093316688864868
75	0xbfd2b75baa3b422d	-0.2924412882248671
76	0x3f958a75102e15d2	0.021035985100317074
77	0x3fc591354873207d	0.1684939006574985
78	0xbfa7f87f7ce20f80	-0.04681776427699358
79	0x3fc18649bcbd8cd6	0.13691064563599892
80	0x3fd0c4d1258d6dcd	0.26201275508148286
81	0x3fa74cf8e8046734	0.04550912697068413
82	0xbfc0145561207f78	-0.12562052958037007
83	0x3f910b83afb6c21a	0.016645486449933335
84	0xbfd201ddcbb7324a	-0.28136391538717886
85	0x3fc02b6ad30708cc	0.12632499031139444
86	0xbfb72cff3a9c66a4	-0.09053034954959088
87	0x3fbc8cef17d6e7b7	0.1115254815294112
88	0x3f826d746cc98343	0.008997830934448841
89	0x3fd3f08ec39c5b70	0.31155747511495857
90	0xbfc227b4575b849f	-0.1418366838979965
91	0xbfcc54688ec9d8da	-0.22132594081967377
92	0x3fbd35cec9c19ead	0.11410229135219181
93	0xbfb688c005289840	-0.08802414060537078
94	0x3fc5feb9d89d188a	0.17183611943091065
95	0x3fc1aec3e2099684	0.13814590966210372
96	0xbf77e7e715a37743	-0.005836393999030967
97	0xbfacbfcda77a59f3	-0.05615084332855593
98	0x3fb4fc719c2045bf	0.08197698651954165
99	0xbfe349a841463aa7	-0.6027413630379969
100	0x3fda06898db01fa9	0.4066490062400541
101	0xbfb1afbff8a7f982	-0.06908798046786127
102	0xbfabf2cf0b6acefb	-0.05458685888643618
103	0x3fd6eb9c223fb94b	0.3581304869138832
104	0xbfbfc75dc44a04a5	-0.12413583795752688
105	0x3fc810550e2cc1ee	0.18799842064028333
106	0x3fc8954b85290348	0.1920561218448944
107	0x3fcbbd6c6cb546db	0.21671824749005605
108	0x3fbd6269252220c3	0.11478287846159944
109	0x3fb8cfae01189757	0.0969189407993246
110	0xbfd634b182dfdfca	-0.3469661500998852
111	0xbfd13c2d25d7dcc2	-0.26929787345529743
112	0xbfb5f93cedfc7e67	-0.0858343201657533
113	0xbfd642ff1d314b81	-0.3478391442378595
114	0x3fc1dc8bfd31e33d	0.13954305518179835
115	0xbfd938a8c35ee2aa	-0.3940832050243822
116	0xbfb75e9d62fc1427	-0.09128745714777207
117	0x3fbe8c9b7f5e4ff5	0.1193329988439585
118	0xbfd2f909d6d98cd5	-0.2964500997679356
119	0xbfbb00cf1025a0c3	-0.10548109192098125
120	0x3f8283a4e6bb1fd9	0.00904015378127092
121	0xbfbb4c63b04d6823	-0.1066343598771771
122	0x3fb8eebe224bce78	0.09739292466456984
123	0x3fc5ffc42511ffd5	0.1718678647048352
124	0xbfd4b716183335f2	-0.32367470134053555
125	0x3f8283ae78f0a7b4	0.009040225091741273
126	0x3fab1e6f451e6ada	0.05296657294021197
127	0xbfc4813e0650ac3f	-0.1601941614947879
128	0x3fb04fa017ac2da8	0.06371498659080166
129	0xbfc5fec58e83b7d3	-0.17183751543728806
130	0x3fdb61771cfb6ace	0.42782380895884564
131	0x3fb1d92decea221e	0.06972014459655226
132	0xbfdb3a80e162f247	-0.4254457665481692
133	0xbfc670954e482461	-0.1753107673869492
134	0xbfb5897149ca907b	-0.08412845660729033
135	0xbfc6e582f7e4e583	-0.17887913803296493
136	0x3fc9383934350869	0.19702830361535753
137	0x3fadfad315b4657d	0.058554264449592865
138	0xbfc2cb91591410df	-0.1468373951867141
139	0xbfd0217ec942d5f7	-0.2520443883362015
140	0x3fbaf322a14516ce	0.10527244984867964
141	0xbfc53ed374be5ada	-0.16597979736680807
142	0x3fdc2f01eac601b9	0.44036910941215585
143	0xbfdaf159fb7bc632	-0.4209809261220442
144	0x3fe0530a8ca4f63f	0.5101368662796587
145	0x3fd6f238a7e31552	0.3585340156099238
146	0xbfd39be6bcbafc9d	-0.3063904612608413
147	0x3fc5513014a3b7cf	0.1665401554850505
148	0x3fcacd43b2dc4877	0.2093891738264266
149	0x3fc4a415abe16c30	0.16125746624570203
150	0x3fc10c5b3d9812eb	0.13318958766480846
151	0x3fc8a3258ed03e76	0.19247884248078478
152	0xbfd2ff03d13f1370	-0.2968148749753743
153	0xbfdb17a9f1f5084d	-0.4233193266737814
154	0xbfac16a7bdbe3a87	-0.05486034575652803
155	0xbfd893cb25179a34	-0.38402060148510775
156	0x3fc2c089afe931c6	0.14650078858757193
157	0xbfd38bfd78e77c82	-0.3054193192201141
158	0x3fc9408b3e3bdb5a	0.19728222407112633
159	0x3fc811551a88403b	0.18802894397276923
160	0xbf8485c60e9906d9	-0.010020778007973007
161	0x3f9ea8113515c5f6	0.029938000550321996
162	0x3fd2162d5dd3fed4	0.28260358965779386
163	0x3fe0164fb82760b4	0.5027235600237163
164	0x3fc9907c6e354055	0.19972186452150945
165	0x3fcc913212c5c6af	0.22318101803425835
166	0x3fb681438b59a94b	0.0879099097452684
167	0xbfd5a7986a2590a1	-0.33835420957462686
168	0xbfb96107515cb2d1	-0.09913678871516686
169	0xbfc15e9c76cb9b0f	-0.13569980431130843
170	0x3fb56ed472d15c6d	0.08372237971467351
171	0xbfbd4c38d9aa7970	-0.11444430650815263
172	0xbf9a96f33ac37d4c	-0.02596645399250734
173	0x3fc35e1826f07c7d	0.15130903149927014
174	0x3fac1fe1dfea09a5	0.05493074282005076
175	0x3fb8c839213be12a	0.09680516301512357
176	0xbfa050af51b6cc16	-0.03186557648168546
177	0x3fb5e128a9958218	0.08546690120920919
178	0xbfc0eac461b0ab6a	-0.13216452379250693
179	0x3fb2bd99b867dcb1	0.07320557357876357
180	0x3fb820f3cae3afef	0.09425281241755078
181	0xbfd2698bc534f5d1	-0.2876920152519605
182	0xbfc8c51d9bd715c9	-0.19351549252875902
183	0xbfdb0e5087b6a705	-0.42274869206686133
184	0x3fdcc9ddd34f6d2b	0.4498209537102464
185	0xbfdd1b099d7f36fd	-0.45477524166641087
186	0x3fc587944702dcad	0.1682000490888859
187	0x3fe22113b3a72cba	0.5665377148483437
188	0xbfd772a1f7ab947e	-0.36637162386461586
189	0xbfb8d1e868a21efd	-0.09695293955348556
190	0x3fd25a0acae28364	0.28674573719950147
191	0xbfc1bc85a41a2090	-0.13856573593898647
192	0xbfd5935dafad0686	-0.33711950450752004
193	0x3fd6f89452f06cf2	0.35892208194282127
194	0x3fc1aff35e1a7640	0.1381820878495308
195	0xbfd12ba88a43a41c	-0.2682896948086311
196	0x3fd01ee4fd0742f2	0.25188564977456374
197	0xbfc44767b2507429	-0.1584291096377524
198	0x3fcbc5947cdca964	0.2169671640088594
199	0xbfbb514ebddc826f	-0.10670940528189886
200	0x3f9a7aec00e1f6d4	0.025859534791826302
201	0x3fb051d974a763f2	0.06374892328257412
202	0xbfb72e0ee5da9f0c	-0.09054654227895415
203	0x3fc1a026887717a8	0.13769990599956583
204	0xbfcbef3469eea27f	-0.2182374493834409
205	0xbf928be97243b36f	-0.01811184654154679
206	0xbfc0bbb35a77e02d	-0.13072816769977305
207	0xbfb17ba8b2b5fde1	-0.06829313624438484
208	0x3fc0132758cf6308	0.12558452450209523
209	0x3fc33ddeb6cdbd26	0.15032562185249637
210	0x3fc2bda08a908edd	0.14641196027616035
211	0xbfb410f3c17cc6b1	-0.07838366960347788
212	0x3fc3868ea238d0d3	0.15254385872834195
213	0xbfb1f7904ead0947	-0.0701837722854509
214	0x3fabd0eaa9dfc048	0.05432828258187833
215	0x3fca665fe83c5a3f	0.20624922599445658
216	0x3fbe6077765c9ce1	0.11865946426097508
217	0xbfd49e02ecee4420	-0.3221442521835929
218	0x3fc5376cc5975096	0.16575393341066008
219	0x3fc214aaf63cafd7	0.1412557318047891
220	0xbfd2108481b6e8cb	-0.28225815455847386
221	0x3fa91eea26a64b71	0.04906398507878052
222	0xbf905913f482a20b	-0.015964805411075072
223	0x3fc516d92e732fc3	0.16475977676452488
224	0x3fc30f8b218c9a6f	0.14891184938570087
225	0x3fd2babb9d7a39ea	0.29264726999909263
226	0xbfa81f2e9c4abc2c	-0.04711290033207435
227	0x3fcd8de89f8683a6	0.23089320935562546
228	0xbfc8d83ff51389b3	-0.1940994211827963
229	0x3fd3652c3fd2ec69	0.3030501006393878
230	0x3f9b4f806920506f	0.02667046205176898
231	0xbfdec2db708ba2c6	-0.4806431387974438
232	0xbf92ee8c6c68cd96	-0.018488115422042727
233	0xbf660f049352ec8f	-0.0026927079548762565
234	0xbfc9331794a7ed64	-0.19687170752136318
235	0xbfca79b03bbaf251	-0.20683863560215568
236	0x3f767037e1096662	0.005478113439119166
237	0xbf9842b582299d87	-0.023691974706165488
238	0xbfcd1c8be70c8ce8	-0.227433669869334
239	0xbfc193627b7bc520	-0.13731032399622567
240	0x3fc0551cb962943c	0.1275974183273848
241	0x3fba771cad948a51	0.10338000524328918
242	0x3fc6ded4f607a329	0.1786752892797037
243	0xbfbf30c187125660	-0.12183770702025631
244	0xbfa5ec09e133477a	-0.04281645654704298
245	0x3fc94e2fb6580263	0.1976985588408012
246	0xbf917d117d2126bc	-0.01707866026143877
247	0x3fbd2fa06358d139	0.11400797296011413
248	0x3fb4a8f84443e1c4	0.08070327440862629
249	0x3fc06871541edcb4	0.12818733794640524
250	0xbfbaf180fb25566b	-0.10524755603304363
251	0x3fc143cddb0fdaff	0.13488171764739573
252	0x3fc0ee5c69d75506	0.1322742001345107
253	0xbfbf2a0d3e582587	-0.12173540851667584
254	0xbfc53fbda4a10ad1	-0.16600771463898537
255	0xbfc3fefbd3aba19d	-0.1562189849421544
