PytorchLSTM/LSTM-CNNmodel.pt (torch, 58918 bytes, 42 tensors)

lstm.weight_ih_l0 f8 [80, 7]
000000 d5 6b cc 5a ba 31 cd 3f b9 bb 5d e0 9e 78 de 3f
       0.22808007653733733 0.4761120978427545
000010 3e cb 21 57 21 de c1 bf 14 6b 6b f9 19 5d a1 3f
       -0.13959137682430794 0.03391343278572925
000020 84 67 d6 60 69 60 c9 bf 83 1e 0f ff b5 4d df bf
       -0.19825474956888567 -0.4891180983363272
000030 cd 33 0e 7d a6 fb c9 bf 08 db 17 9b 94 bf ce 3f
       -0.20299225908493526 0.24022157261762112
000040 54 98 73 82 89 63 c5 3f 47 5c ad 5e 52 07 d7 bf
       0.16710013265327694 -0.35982188459224
000050 67 9a e1 cc 52 8b ca bf fb 5c 1d 84 8e 48 c7 bf
       -0.20737681392639049 -0.1819017548648175
000060 76 e7 f0 91 40 15 cb 3f 6d 37 47 fe 52 af d2 3f
       0.211586066494245 0.2919509394822544
000070 63 32 ce 58 e1 bd cc 3f 41 4e dd c5 fa 06 d6 3f
       0.22454468570903705 0.34417599985792796
000080 41 bd 35 62 ae e5 dd bf bf 88 fe c2 3d dc aa bf
       -0.4671436270791283 -0.05246155743886182
000090 0b a2 eb 82 d5 74 b1 bf 7e 1e 62 3d 55 0c ba bf
       -0.06818899580287778 -0.10175068615546398
0000a0 43 3d 96 f9 32 1e 78 3f c5 1c e4 18 15 3d c2 3f
       0.005888175125974118 0.14248908725151047
0000b0 bc b0 47 e8 0f d4 cf 3f e1 b5 ab 62 11 7c cc bf
       0.24865912286566594 -0.22253625219256803
0000c0 2a bc 27 80 d6 72 c0 3f b5 cf 48 d8 9d 4e ca bf
       0.12850457437113622 -0.20552418766749062
0000d0 5d b8 35 56 5e ed bf bf 2f 76 1d 92 22 03 ab 3f
       -0.12471570591671495 0.05275829347258953
0000e0 a3 f8 06 ee ae 6a cc 3f 82 7f e0 ea 10 01 c0 3f
       0.22200571653769882 0.12503253429985867
0000f0 69 c1 ae 93 ee 69 a9 3f dd 5c 65 64 89 09 c5 3f
       0.049636321571031435 0.16435353662629995
000100 dd c8 0c e1 7b 6f b7 bf 22 ab 55 0c 4d ff c9 bf
       -0.09154485935576724 -0.20310366728093593
000110 d3 b7 d9 5f f1 73 b9 bf 86 9c fc ff a3 15 cf bf
       -0.09942539777850294 -0.24284791945794754
000120 e3 57 62 a5 66 2c b6 3f 6f de 95 fb 91 3c 89 3f
       0.08661500489901601 0.012322559824254868
000130 91 a7 9c fe d3 df 94 bf f8 9d df 93 6e 6d c7 bf
       -0.02038508645561127 -0.1830270978964419
000140 2b 68 ed 19 09 cd bc 3f ab 58 50 7c 90 19 bb bf
       0.1125035942363019 -0.10585883173948456
000150 97 e4 c4 a3 38 2c dc 3f 31 47 90 72 f4 46 c9 3f
       0.44019905083730165 0.19747787088322746
000160 41 71 c4 7f a4 c9 da bf 5c a4 8f a8 3c df ca bf
       -0.4185572860458429 -0.20993765097162764
000170 94 3b c7 ac c3 40 9b bf f8 03 8b 4d b7 fc da bf
       -0.026614243908450755 -0.4216745621925493
000180 1a f3 41 7e 68 34 bf bf 98 db a2 94 b0 a5 e0 3f
       -0.12189343531094857 0.5202258017587722
000190 fd 1e 61 9e 8e 56 d3 3f 80 ee d9 03 92 0c c8 bf
       0.3021580263780235 -0.18788361728717362
0001a0 7a 17 8a e8 22 81 ca 3f d4 49 71 5d b9 8b 78 bf
       0.20706592897857573 -0.0059926262684535
0001b0 6e be 92 aa 03 a7 d7 bf 7e 77 3f 7f c8 f0 b1 3f
       -0.36956874520817606 0.07008030993116951
0001c0 35 74 fe 57 f6 84 cc 3f d8 ad e6 ad 22 75 ca 3f
       0.2228076867731105 0.20669969073547523
0001d0 a0 a2 14 92 49 5d d4 bf 88 82 7d a8 d8 7f ca bf
       -0.3181938101356909 -0.2070265600878154
0001e0 cb 12 80 21 2f 1a c8 bf a7 b4 8a 59 46 2c c3 3f
       -0.18829907546764554 0.14978865978392727
0001f0 61 c5 c8 b0 85 00 cb 3f 48 80 2f f5 37 9c c5 3f
       0.21095343715709716 0.16882991287184468
000200 87 dd fc 17 2b e3 d7 3f 40 25 53 94 ec a3 d6 bf
       0.37324025480798934 -0.3537551353916406
000210 58 80 cc cd b2 46 b4 3f 57 da 30 d4 f5 d1 d1 bf
       0.07920377277741986 -0.2784399578262415
000220 33 82 85 0c eb 33 b5 3f 30 b7 ae 3d 27 60 dd 3f
       0.0828234582491028 0.4589937307708736
000230 56 f4 0a 77 7d ac c9 3f b2 0c 1a 6d 6d a1 bf 3f
       0.20057648003231304 0.12355693734757514
000240 69 db 47 50 ed c7 cb bf 0c c7 04 48 15 e2 a2 3f
       -0.21703878803210877 0.03688112739690838
000250 d1 54 e3 b0 b9 1c bc 3f 36 38 89 ee c3 98 b5 3f
       0.10981331413798336 0.08436226438172487
000260 28 b9 12 19 28 c1 9a bf e5 6f 93 13 12 f5 d2 3f
       -0.02612745907816208 0.29620792304717575
000270 3a 89 5e d2 d7 f9 a3 3f 1f 70 4e 33 36 9e c9 bf
       0.0390155262278022 -0.20014073853678924
000280 3d 1e 6b 78 25 5b d0 bf d7 56 a7 0e 0f 33 b4 3f
       -0.25556313285457916 0.07890409572368227
000290 cb f3 dc 5c 1d 36 d3 bf a9 cf 19 cd f8 15 c8 3f
       -0.30017789906179065 0.18817052855194774
0002a0 99 d8 71 63 fc 6a dc 3f 24 fa 48 db a9 7d af 3f
       0.4440299006595381 0.0615056114370314
0002b0 7e 79 94 c6 c9 3d d1 bf a0 aa 10 42 0a 48 b1 bf
       -0.26939625160766656 -0.06750549424092833
0002c0 b4 2a 91 cd 28 39 ba 3f 39 12 54 ac 50 0a b1 bf
       0.10243468302466391 -0.06656364638554003
0002d0 7b 91 44 24 f5 a5 b9 3f ce 12 59 42 e5 cc ca bf
       0.10018856177754813 -0.20937791576047576
0002e0 ae 54 d7 7e 4a 35 b5 3f 0d 3d 35 c0 70 8a c5 bf
       0.08284440609652918 -0.16828736672548708
0002f0 8c e0 f9 c6 cc aa 93 bf 85 4e bd d9 ca d7 c2 bf
       -0.01920623745397214 -0.14721046096621052
000300 15 75 16 78 91 d5 90 3f 03 76 bc ac 0e 94 c1 3f
       0.016439698175976753 0.13733085092910366
000310 50 f6 f6 85 d8 af de 3f 97 92 a6 15 75 f5 db 3f
       0.47948277552118146 0.4368565284187666
000320 e8 16 8b 3c 59 40 b7 bf 7c 2b c9 97 a3 2c b0 3f
       -0.09082563140972477 0.0631811376162385
000330 98 8d 32 76 38 c7 af bf 3e f2 b8 bf 1a fe d2 bf
       -0.062066807201769325 -0.29675930712599896
000340 92 e3 ab b8 f0 69 cd bf 88 60 31 f4 09 b3 b0 3f
       -0.22979554192695822 0.06523191653957572
000350 bc 57 c2 a7 10 86 c6 3f e0 47 a1 5f 1d 0f d7 bf
       0.17596634093632513 -0.3602975305449245
000360 04 db 3c 01 d0 ab c6 3f de 92 99 34 38 a3 ac bf
       0.1771183019679584 -0.05593276636208143
000370 c3 20 7f b9 a1 6f 9d bf ab 73 68 71 14 56 c0 3f
       -0.02874615378075941 0.12762694871426325
000380 b6 02 97 5e 62 0b d6 3f ac 86 07 85 0e f3 da 3f
       0.3444448398331973 0.4210850047221395
000390 6f a2 a4 a8 57 a0 cc bf fa 3f 0c fd c5 77 cf 3f
       -0.2236432622387556 0.24584269386150465
0003a0 35 6d 45 c4 15 00 d9 bf 96 2e df 88 05 c7 d2 bf
       -0.3906301895819582 -0.29339731565844696
0003b0 b2 ef 23 91 07 bb c7 bf b4 79 69 1a 51 8e 79 bf
       -0.18539518916065628 -0.006239239510789241
0003c0 1e e1 5e e8 de ec c1 3f 12 0b 04 c3 1c 83 c1 3f
       0.1400412211057835 0.13681373140578806
0003d0 d1 79 b4 7f d7 cd ad bf 4e cc 3a 32 39 91 d0 bf
       -0.05821107324503639 -0.25886373429529363
0003e0 3a 8a 5f d3 84 4f 72 3f 3e b2 38 b4 f6 09 b6 3f
       0.004470366335200421 0.08608953380525805
0003f0 49 77 0c 94 05 29 d0 3f 1a c7 56 ed 07 1d d4 3f
       0.25250377138023744 0.3142719095004495
000400 59 8e d7 47 27 ba c8 bf a5 4d 9f e6 41 6d bb 3f
       -0.19318095214758804 0.10713588600565645
000410 33 9d da 17 96 11 c5 bf 73 a8 1b 83 8e d9 c0 3f
       -0.16459919132942388 0.13163930322417947
000420 22 1f c3 00 c6 3c d2 3f 5b 7e d2 3d c8 ed d9 3f
       0.2849593169635104 0.40513807332351853
000430 05 bd eb 81 8f 3b d3 3f 06 91 30 1f 5f 83 d4 bf
       0.3005102890737848 -0.32051828428144835
000440 5f a9 96 1a d8 aa d1 bf 37 da 29 ad 94 a4 d0 bf
       -0.2760524997380766 -0.2600452128457706
000450 81 de 0d f1 b0 98 a1 3f 0d a9 aa f3 1b 35 cf 3f
       0.03436806623988976 0.24380826375756506
000460 3b 47 37 d4 17 4d a0 bf 5f 71 b9 d9 3d b5 c1 3f
       -0.03183817353750703 0.13834355479310553
000470 21 85 d3 88 24 cd b7 3f 3e 08 9a dc 49 c2 c5 bf
       0.0929739793823683 -0.16999171516005335
000480 97 11 fe 38 39 7f c4 bf f2 c6 d6 68 e5 a6 c4 3f
       -0.16013255389055978 0.16134326571550833
000490 8f 48 e5 f6 17 4d cd bf 71 4b 3e bc 6c ee d2 bf
       -0.22891521029902548 -0.29580229170931377
0004a0 5b 23 38 14 c2 8c b4 bf 96 d1 cd d2 91 31 b6 bf
       -0.08027279847750661 -0.08669387241918111
0004b0 b6 82 47 9c b4 37 cb 3f 99 83 02 8f 35 63 c7 3f
       0.21263749724223197 0.1827151249208583
0004c0 5b 32 25 ee eb 36 b0 3f f2 44 25 c2 f2 8a 87 bf
       0.06333803714842061 -0.01149549155221272
0004d0 18 29 65 a7 2e 49 cd 3f 23 f8 5f 9a b2 62 b3 bf
       0.22879584477988923 -0.0757247568980977
0004e0 8b 89 5c 62 e9 e8 c9 3f 50 9b f8 4c a8 7d ab bf
       0.20242039969259581 -0.053693065067185075
0004f0 50 ca 56 8e e9 a1 cc 3f 1e 98 7b 52 8f bc c4 3f
       0.22369117212436374 0.16200439002494788
000500 79 bf 67 aa 1a 8a ca 3f a2 88 f7 57 00 59 ab bf
       0.20733960457391357 -0.05341340135397955
000510 f2 76 c7 c5 2f 7d c3 bf 0d 49 b9 76 b9 fc d3 bf
       -0.15225789220033153 -0.3123000773822618
000520 32 0c ad 79 91 95 b8 3f a4 b6 fc 3e d4 eb bc 3f
       0.09603223057369872 0.11297346627972132
000530 d0 97 2c 8a 4e 21 ca 3f 7d 3d c2 84 d6 df d1 3f
       0.20414144274508184 0.2792869850608993
000540 dd d1 29 72 92 af d3 3f 6b c1 5c d3 cc 4a d1 3f
       0.3075910677792118 0.27019043579914265
000550 e7 b9 82 a5 4c ba c5 bf 71 73 09 4a 05 2a 80 3f
       -0.1697479065091578 0.007892648050239011
000560 f5 97 75 27 d1 fc c7 3f 08 4c 11 e6 3b 32 c8 bf
       0.1874028628037078 -0.18903301938789263
000570 b6 b8 6e e1 ba 1f c7 bf 5e d3 3b d9 0e 15 c5 bf
       -0.18065582282492237 -0.16470513922800029
000580 3e 57 f3 65 ba 5d c3 3f e2 3f 1d 75 bb 41 b2 bf
       0.15129785516790578 -0.07131549462542311
000590 ac 79 54 d2 7e 75 b0 bf 0b 8d 5b f7 b8 07 b5 bf
       -0.06429283747681919 -0.08214908637051026
0005a0 51 01 e2 85 2f 77 d4 3f d2 6c c5 59 99 02 b6 bf
       0.3197745139550721 -0.08597715799025998
0005b0 ae fb 8c 54 75 77 a6 3f 35 98 f1 14 ba 03 60 bf
       0.043880144663936846 -0.001954902115858049
0005c0 f2 f0 28 9a 2d 63 a1 3f bf fd f2 36 f3 a6 ca bf
       0.033959794109678657 -0.20821991141381876
0005d0 9a 27 a6 69 2e c1 b6 bf c5 3e 52 e1 73 91 c5 bf
       -0.08888521270105657 -0.16850136281981612
0005e0 29 ad 74 1d 49 ee a5 3f 14 db 76 8c df 1e bb bf
       0.04283359989707442 -0.10593983821204872
0005f0 b9 c0 03 90 04 69 cc 3f 7d fb e2 61 14 a1 c2 3f
       0.22195488960233492 0.14554075984593942
000600 5a db af f7 79 d3 9e bf 87 a7 7a c1 9c f0 bc bf
       -0.030103593580828793 -0.11304645274745272
000610 2d c2 08 be 3a c5 c8 bf 1c 45 8c ec 38 70 be 3f
       -0.19351896552099515 0.11889987731071411
000620 07 fb 4c bf 8c ff d0 bf aa ab b6 2c 67 31 c5 bf
       -0.2655975216074897 -0.1655701607063212
000630 ff 4e 2a eb 2d 0f b8 3f 14 b9 2e 05 ac 1d b4 3f
       0.09398161879863308 0.07857775808836137
000640 be 21 d5 70 62 17 84 bf 9e 8f cb 35 ba d8 ce 3f
       -0.009810227459312478 0.24098899485317998
000650 8a 18 5f 03 03 52 b9 3f aa fa e5 51 18 09 ce bf
       0.09890765030204043 -0.23465255736296814
000660 30 89 11 26 35 9e c2 3f 7b 13 89 e7 57 f6 cb 3f
       0.1454531131631227 0.21845530324403825
000670 5e b4 d7 bb 45 50 c8 bf 49 b5 00 8c 7e 99 d4 3f
       -0.18994971916200404 0.32186855003495346
000680 cf 4a 5b da 74 26 88 3f 7b da dd bc 7c b0 ba 3f
       0.011792099870409882 0.10425548182488768
000690 1b 30 47 c9 dc 65 c2 3f 56 bd 2e 9e 17 14 cb 3f
       0.14373359516173498 0.2115506670356619
0006a0 d9 08 46 8e a5 92 ce bf 42 0a 08 73 a1 21 c0 bf
       -0.2388503021903208 -0.12602632633941552
0006b0 42 6f 70 05 33 ef a3 3f 69 55 82 6d 4b 01 af bf
       0.03893432084461647 -0.06055675231724928
0006c0 18 7e cc 06 cb 08 bd bf 5a 5a 0c 4d e5 f4 b3 bf
       -0.11341542163835816 -0.07795556193409806
0006d0 92 03 73 21 83 d5 a1 3f c6 de 37 fd 5e 44 d1 3f
       0.034832094033396946 0.26979803779930156
0006e0 8b 92 93 9f ce c4 d1 bf 19 33 ef 1f b7 21 a1 bf
       -0.27763715346944967 -0.03346035256217856
0006f0 ed 3c 39 30 6a e6 a7 bf e2 ec b7 00 6c e6 43 3f
       -0.04667980040232487 0.000607302413697577
000700 f8 86 a2 92 c8 0a b3 3f cd f8 b1 0b 24 09 ad 3f
       0.0743832929606717 0.05671036379588799
000710 eb 32 f2 73 23 d8 b9 3f 24 85 95 af f3 58 b3 bf
       0.10095426159586977 -0.07557604824753078
000720 72 c3 32 21 91 90 bf bf a3 73 5f 0a 79 73 b2 bf
       -0.12329966602807277 -0.07207447531932458
000730 b4 f4 82 a9 68 e3 d2 3f ee 4b 8d c7 44 af ba bf
       0.29512993387090636 -0.10423688766358882
000740 03 cd 47 6f c0 25 c0 3f a1 c3 e5 be 4d f3 b7 3f
       0.12615209039322658 0.0935562697466268
000750 f3 9f 20 25 34 96 b3 bf 05 9b 00 43 75 21 a1 3f
       -0.07651067644530922 0.03345838969135254
000760 9b 1c 0b 28 49 dc b3 3f b3 e5 3f c2 5f 4e b8 bf
       0.07758004405615042 -0.09494589321538775
000770 6d c9 aa 08 5b a5 d2 3f 44 f2 59 ff 88 35 d9 3f
       0.29134250494384767 0.39389252602248725
000780 94 4b 84 3e 35 70 bc bf 7b 6c 92 bf ba fd ae bf
       -0.11108715797699481 -0.060529552350282644
000790 c9 45 54 c0 aa 96 c3 bf 36 53 2b 5c 61 76 c3 3f
       -0.15303549185823176 0.15205018043948265
0007a0 e4 be 11 38 8a 55 ae 3f 0b ad dc 2f c2 29 ab 3f
       0.05924636778297357 0.05305296739819639
0007b0 c9 bb 31 b7 cb cc d0 bf 20 45 23 2c ae 3e ab 3f
       -0.2624997414595183 0.05321258820334607
0007c0 44 30 00 3d 45 a7 b8 bf 6d bf a3 cb ba aa b2 3f
       -0.09630234469676774 0.0729176280181016
0007d0 92 4e bb 3e a6 ce ba bf 36 9f 01 3a 8d 20 ba bf
       -0.10471571952376227 -0.10205919901056579
0007e0 44 6c 8f 32 21 31 a8 bf d1 b0 10 c1 8a 4c c3 3f
       -0.047249829694657325 0.15077337672244664
0007f0 e2 0a d1 89 95 c8 d5 bf cb b0 d6 17 c4 4c 87 bf
       -0.3403676839699711 -0.011376888253686343

lstm.weight_hh_l0 f8 [80, 20]
000000 e4 52 4a 94 c3 3b c9 bf 1d d0 57 64 64 e3 bc 3f
       -0.1971363519739021 0.11284472894459481
000010 a2 56 5f 04 61 66 c9 bf 04 b7 28 44 28 ad c4 bf
       -0.19843685830590113 -0.16153434112623455
000020 4a 02 d1 d2 e3 3b a3 3f 70 cb c3 55 e8 91 cb 3f
       0.0375662989467896 0.21539024532065865
000030 c4 76 35 ce 06 a3 d0 3f 57 bc 50 b9 2f 2d ad 3f
       0.2599503530271756 0.056985370036607357
000040 3a b2 0e e8 aa 14 c8 3f e1 e5 4f ec fa e6 a8 3f
       0.18813072520187452 0.04863723883313376
000050 14 02 86 14 5b 5d ba bf 87 ad 84 1b e9 a4 ca 3f
       -0.1029869961839796 0.20815767139115968
000060 97 10 e8 08 ec 65 8a bf 12 b9 1b 06 a3 b8 cc 3f
       -0.012889713308148294 0.22438466833359222
000070 49 5c 2a 8c 7a 01 ab 3f ab 24 eb 32 e3 7c 89 3f
       0.052745656595270925 0.012445235244188465
000080 7a a9 25 47 41 73 b1 bf cb 87 5f dd 10 a9 9f bf
       -0.068164901609327 -0.030918372642083896
000090 cb ae 26 da d9 61 d1 3f 3d d8 16 e7 74 18 af 3f
       0.27159735015696346 0.06073346444047487
0000a0 23 c6 07 c0 ff bc ca bf 0b 01 a7 5e fd 89 e1 3f
       -0.20889279247744338 0.548094448917284
0000b0 cf 60 86 27 74 42 9e bf 07 4b 67 4d d0 9a c6 3f
       -0.029550375854882568 0.1765995386072847
0000c0 37 e2 1e 74 81 81 99 3f ac 01 61 70 ea 15 cb 3f
       0.024908087456170427 0.2116063164448979
0000d0 79 29 34 81 8a 83 bb 3f c0 a8 48 56 78 b1 d2 3f
       0.1074759068907606 0.29208191324381616
0000e0 26 31 3d 2c d5 55 ce bf e5 f6 81 2d 60 a9 d6 bf
       -0.23699440631970353 -0.35408787197216746
0000f0 16 3f 71 ce c0 84 bd 3f c4 73 25 c5 c2 c0 c1 3f
       0.1153069023141565 0.13869509340557162
000100 eb 3f 3b f2 13 84 cc 3f 75 c0 77 ba 8d 7c d3 3f
       0.22278069808680753 0.30447715005630666
000110 ab c2 e3 bb 27 02 c0 3f 32 23 ee 49 96 e6 ac bf
       0.125065771811497 -0.05644673969715654
000120 e9 c9 40 97 12 59 3e bf da 10 9f 3b 38 7d d1 3f
       -0.00046307281377547124 0.2732678014983897
000130 dc 03 52 21 f2 6c cc bf 9f cc 34 f9 44 f2 aa 3f
       -0.22207476260157832 0.05262961904591034
000140 09 16 4a 99 1d b9 b3 bf e0 82 c5 14 c6 5f b0 3f
       -0.07704339020173036 0.06396139151685132
000150 29 1f 77 67 66 03 c2 3f 90 5a dc 41 ae 9e 94 bf
       0.14072876026170292 -0.020136568803617083
000160 c3 34 49 65 90 00 a7 bf 07 2e 54 2c 5b 06 aa bf
       -0.04492617832566161 -0.05082974353907948
000170 4e 99 1d f5 70 e2 ba 3f 90 59 89 f2 e9 ef cd 3f
       0.10501771911876753 0.2338840898762098
000180 2c d5 bd 1f f1 47 c0 bf ce ef b2 36 a1 9b a6 bf
       -0.12719549226646032 -0.044156110694046555
000190 ce aa 38 f6 33 78 cb bf c2 33 e6 d0 46 54 d0 3f
       -0.21460580370452081 0.2551438369781033
0001a0 cf f2 6c f1 a4 6f c0 3f 9a 38 6b 89 f9 0e cb 3f
       0.12840711391790768 0.21139449319747855
0001b0 1c 10 af 66 62 c0 d0 3f b2 a7 c7 b0 d8 db bd 3f
       0.2617422106525298 0.11663584056773749
0001c0 c0 71 13 45 ac e7 a5 bf 4a 88 71 79 7a f4 d8 3f
       -0.0427831491776689 0.3899217782947103
0001d0 c8 d0 13 a2 09 b8 b7 bf fb c9 97 0d 1b 15 c0 3f
       -0.09265194136588939 0.12564409412114216
0001e0 31 90 18 2f 43 dc b5 3f ae e4 ad 09 82 c1 a0 3f
       0.08539218807033035 0.032726348573257055
0001f0 a6 c7 70 cc 08 98 64 3f 45 c5 e7 ef 23 08 d2 bf
       0.002513901886708819 -0.28174684932954036
000200 4f e3 ac 63 5a ab b2 bf 10 53 9f 2d 80 d4 d2 3f
       -0.07292714055519166 0.2942200131922599
000210 93 f6 e8 68 0f 89 be bf 96 39 62 6f e7 be d9 3f
       -0.11927887259749985 0.4022768581134185
000220 37 b9 50 ab 82 fd a2 3f 48 50 95 ce 5b 73 d5 bf
       0.03709038106204548 -0.3351659314550983
000230 5e 0a c7 f8 72 ea b8 3f f4 f2 db 88 5f 4d b6 3f
       0.0973274094931553 0.08711812106407618
000240 87 61 23 f2 ba c7 a2 bf 7f 3c 15 b5 8b c7 df 3f
       -0.036680070932280144 0.4965543049228884
000250 e2 3d 55 08 da 88 c4 3f c9 d6 9c 03 54 86 c2 3f
       0.16042638213046617 0.14472437073134461
000260 43 44 5e 3e 80 8b ac bf 64 ca a0 8e 04 1b d9 3f
       -0.055751807797726836 0.39227403572582475
000270 13 44 81 e7 23 1f cd bf 5e 3a 86 21 f5 ab cf 3f
       -0.22751282504989997 0.24743522774629673
000280 f5 c3 02 54 6b db d6 bf 56 5f f4 79 64 ff d1 3f
       -0.3571422882478708 0.2812129202807133
000290 9b 27 19 d3 46 48 ad 3f f5 a9 9c b4 04 bc cf bf
       0.05719205214388908 -0.24792536562865988
0002a0 54 14 9a d2 39 51 a3 bf d8 16 62 d1 c3 1d d5 bf
       -0.037729079206692134 -0.32994170615743945
0002b0 a2 bf 7d 14 47 f1 50 bf db e7 ce 14 25 7c b9 bf
       -0.001034087576012845 -0.09955055006039919
0002c0 a2 83 ad 0a 62 4e cb 3f 8f 0f da 2d 55 c7 ab 3f
       0.21332955857635932 0.054255163046973746
0002d0 d7 00 a3 af a3 23 b2 bf fc 5c e7 c4 49 a9 83 bf
       -0.07085631406789915 -0.00960023529198261
0002e0 92 53 7b a5 f1 6f bc bf cf df 6a e9 58 27 bd bf
       -0.11108312883454932 -0.11388164232891927
0002f0 a7 20 86 12 3c 9f b0 3f 63 2f 0a 2e 6f 71 9f 3f
       0.0649297280525639 0.03070615499977637
000300 dc 0c a3 e2 82 a5 d1 bf af 51 26 dd 0e 97 cf 3f
       -0.27572700626860835 0.2467974262077752
000310 59 82 e0 f9 e2 7f b4 3f 68 66 8c 58 06 e1 c4 bf
       0.08007639503967691 -0.16311721156744174
000320 2f 01 4c 8d 81 0b 9a bf 1b 94 e6 d5 e2 ee c1 3f
       -0.02543451714427752 0.1401027244984626
000330 4d f3 f2 ac 51 23 d9 3f 66 37 2a 4d f9 85 c6 bf
       0.39278070344498844 -0.17596355693643345
000340 31 92 61 49 be 1c c8 3f c8 a3 c0 ab 5e f5 c9 bf
       0.18837717612326935 -0.2028005922923326
000350 82 ae 23 3f e0 05 d3 3f 98 21 29 71 cc b4 d0 3f
       0.2972336403461001 0.2610350709042222
000360 72 77 24 db e8 2a d2 3f d4 1f 27 72 63 6c ce 3f
       0.28386899376516006 0.23768275331371902
000370 4a 49 64 de fb 26 cb 3f 94 58 8a 99 f5 b2 c9 bf
       0.21212719305965272 -0.20077390668001682
000380 7d 88 e2 bc 8e df b8 bf b2 3c 2b 84 40 89 a7 bf
       -0.09716121779868732 -0.045969024785898496
000390 bd 84 1b 73 9c fb d9 3f 7e f4 22 ff 7b 28 cc 3f
       0.4059821247192977 0.21998548467482587
0003a0 d0 7e fe 48 b3 72 c0 3f 99 d3 ba 63 fb 1f b9 3f
       0.12850037635961664 0.0981442564469276
0003b0 e4 71 cb 38 8f 90 be 3f b3 1c 13 ad 1d 5b d0 3f
       0.11939330231275097 0.2555612745458788
0003c0 67 31 68 de ee 3a c4 bf f9 be e7 e2 26 35 c3 3f
       -0.1580484949084948 0.15005956725462236
0003d0 08 e6 09 2b 04 30 ca bf cb 41 8e d4 c4 f4 c4 3f
       -0.20459034062859893 0.16371975306220884
0003e0 8c 83 4e 3f e0 89 b6 3f 65 1c 0e e3 50 10 97 bf
       0.08804132028173067 -0.022523177965492986
0003f0 ba 7b f5 94 de 73 a6 3f 61 df 1d dc 6d 4f 91 3f
       0.04385276382776433 0.016904560623032142
000400 03 b5 62 ed b8 04 b4 3f 69 e6 f0 0f ad 08 ac bf
       0.07819705768152478 -0.054753692813801554
000410 02 a3 a5 62 a4 97 bc bf 89 3c b9 26 8f 05 89 bf
       -0.11168887527822949 -0.012217634553193928
000420 a3 2a c4 a6 21 5b c9 3f ac 76 9c 39 d7 71 c7 3f
       0.19809361117252874 0.18316164315267736
000430 dc 24 73 df 7b 91 b9 3f af 5b 02 4d ac 79 b4 3f
       0.09987615781132625 0.07998158340556814
000440 a9 d0 bd 01 1d e9 96 3f 8b 49 d6 ef 1a 7a c5 3f
       0.02237363169793186 0.16778885565561227
000450 bf 77 5d 3c 8d b7 bc bf 64 44 50 9a 6f 72 ca bf
       -0.11217577670819788 -0.20661730799523348
000460 45 a1 f2 d9 98 81 c7 3f db 98 b9 91 6e f4 b3 3f
       0.1836424888799774 0.0779484849714182
000470 40 9a c9 70 96 30 be bf 4a bb 05 8c 2a e7 bc bf
       -0.11792888883210484 -0.11290231627002104
000480 b5 ed b7 ec 90 ac aa bf 3e 7d a3 3f 99 fc c4 3f
       -0.0520978249514558 0.16395869834284754
000490 a3 4f d0 8b ae dc 8f bf 1f b7 ef be ee ce a5 bf
       -0.015557635919357276 -0.042594395454086824
0004a0 e4 6c 5a f7 ce d4 bb bf a2 b6 5c 95 8f bf c4 bf
       -0.1087159494294841 -0.16209597390245728
0004b0 0d ba bf 8d 89 ac c3 bf 36 4a d2 ec b8 2a bb 3f
       -0.1537029211171589 0.10612064153455311
0004c0 ba 77 56 f1 3d 33 c5 3f 19 8b 6a 14 cd 38 aa 3f
       0.16562628063269164 0.05121460794659622
0004d0 47 c4 81 f6 bf d9 c2 bf 6e 16 20 a5 69 02 a0 bf
       -0.14727019821615014 -0.03126840725603307
0004e0 c1 b8 f2 d0 66 1b b9 bf c6 4a 9c 4d 3c db b2 3f
       -0.09807436562798257 0.0736577691534804
0004f0 10 f6 ed 2a 53 87 b5 bf 2e 3c c6 aa d5 89 c5 3f
       -0.08409614370426532 0.16826887930480566
000500 97 b9 a5 94 6a eb d2 bf 2a 4e 70 7c 19 f6 d3 3f
       -0.2956186725267797 0.3118957247945412
000510 2b f0 4a 96 dc 8b 9d 3f 9d f6 5f f5 5d b1 5e 3f
       0.028853842423572622 0.0018733422816689445
000520 90 83 03 af 63 b0 b9 3f d4 99 d6 6b a7 e6 a4 bf
       0.10034773848339129 -0.04082225028405487
000530 aa ef e2 bd d2 26 b8 bf b0 19 d8 ed 57 9f b2 3f
       -0.09434239517116674 0.07274388844243762
000540 85 bc 29 b2 59 77 d3 bf 4e 6b 59 30 2d 10 b4 bf
       -0.3041595687745445 -0.07837183409121204
000550 39 94 c7 06 f8 5b bd 3f 32 33 02 23 ed 32 b2 3f
       0.1146845833350917 0.07108957390501017
000560 63 35 e0 5b c1 5e be bf 3c 70 34 49 25 02 c1 3f
       -0.1186333512598217 0.13287797998862227
000570 41 ea fa 68 8b 69 d1 3f a5 80 28 55 17 5d 8b bf
       0.2720669293591165 -0.013361151014635484
000580 5a 69 cd 16 ed ad ca bf d9 0c 3f 93 d9 36 d3 3f
       -0.20843280423543825 0.30022277240295875
000590 a9 96 96 a2 7a fd aa 3f ee ae a8 a8 ac a9 b4 3f
       0.052715141627499414 0.08071402661942859
0005a0 9e 88 ea d3 86 b6 7d bf bf 78 56 aa 16 cb dc 3f
       -0.00725414912327174 0.44989554056691
0005b0 3a 44 2c 26 55 6c 95 3f 66 57 e7 83 97 ef d2 3f
       0.02092106862534513 0.2958735263940667
0005c0 d0 e1 e7 0e c3 f2 b8 bf 62 d0 4b 1c 4a 96 9c bf
       -0.09745425332938074 -0.027917058922824707
0005d0 e3 ef 36 c2 26 c1 a9 bf e5 c9 20 1e db 3b b4 3f
       -0.0503017532423369 0.07903832898663372
0005e0 57 fe ab e3 26 5a c6 bf a7 1b dc b7 b2 8c d0 bf
       -0.17462621800221953 -0.25858753161485953
0005f0 7a 3f 43 07 95 fe c6 3f 56 fa 03 5f fd f1 d1 bf
       0.1796442304098454 -0.2803948810468787
000600 b6 bd 98 79 f6 13 a3 bf 77 63 6d ee 61 f5 d5 3f
       -0.037261679023113656 0.3431019619361488
000610 54 6c dc 50 ba 06 9d bf da 63 b7 62 5b 50 a6 bf
       -0.028345977006307102 -0.04358182506593496
000620 f7 ce b2 76 6c ad d1 bf 81 0a 05 5b 04 8b cf 3f
       -0.27620994178435815 0.24642996258087993
000630 94 66 94 4b 35 b2 a0 bf bd 4a ca c3 d9 c8 c0 bf
       -0.03260962054828301 -0.13112947521275045
000640 99 ca 2d b6 09 d1 88 3f 16 d7 c0 e7 41 5d c0 3f
       0.012117458221586207 0.1278459912879774
000650 6a ac 38 44 9b f3 a1 3f 94 df cb af f5 db a4 bf
       0.03506169517307785 -0.04074065943672092
000660 f5 7e a5 3a 6c 49 8c bf b9 42 a4 00 02 b4 9c 3f
       -0.013811917819736655 0.028030425347483432
000670 0c 7f 88 79 62 86 b4 3f 7a fa 04 6b 1f b4 c2 bf
       0.08017554728621351 -0.14612190938528952
000680 66 a2 24 e3 c2 11 b6 3f e7 1b 5c dc 93 fa b1 3f
       0.0862085156010238 0.07022976045492123
000690 de c4 3e 58 4e ed d0 bf e0 59 bc ba 31 05 c6 3f
       -0.2644840108651588 0.17203351610142104
0006a0 fe 5a 97 46 fc 73 b1 3f f7 4b b0 49 5a c3 bd bf
       0.06817604754847292 -0.11626209544219522
0006b0 03 98 01 9f e4 71 8d bf 4c fe 13 f9 9f f5 af 3f
       -0.014377390005574147 0.06242084422592295
0006c0 b0 1d 14 6a 76 f1 b9 bf 48 70 66 69 d2 d5 a1 3f
       -0.10134067621048959 0.03483445679305014
0006d0 49 e5 2c d2 ec 82 c9 3f 7b a6 64 da 6e 24 bb 3f
       0.19930801641911902 0.10602467376579654
0006e0 25 83 44 45 25 81 82 bf 45 68 73 52 e7 b4 71 3f
       -0.009035388161068145 0.004322913743829264
0006f0 7b 48 54 d0 76 cc a7 bf 0b e9 e8 46 08 89 a6 3f
       -0.04648181241113122 0.04401422372434823
000700 86 0b 66 df 5e de d3 3f 1b 5e a5 4d 42 8b d2 3f
       0.3104474240901073 0.28974969465841277
000710 c3 c5 d2 9b 29 63 aa bf 5c c3 fa 1a a5 6f ce 3f
       -0.05153780009403477 0.2377821332679798
000720 0d 18 8a c9 c5 88 d0 bf c7 d0 69 9f 08 3e d1 bf
       -0.25834793740830336 -0.26941123550137686
000730 f8 88 b0 30 c7 e2 c3 3f 44 3e 2d 07 26 34 55 3f
       0.15535821797772775 0.0012941714637299132
000740 f2 19 6c 24 ca c8 bd 3f 0e 75 e0 ff b6 1b c7 3f
       0.1163450564309654 0.18053328985198686
000750 b1 86 b2 60 48 dd a1 3f 10 b1 30 b6 b8 5c a8 bf
       0.03489137821567335 -0.04758240913392531
000760 60 6a 7c ed bf d8 b7 3f 68 02 f6 e5 9e 39 c9 3f
       0.09315108821866991 0.1970709441047973
000770 7d 40 7e f6 58 50 d1 bf 57 8c 35 01 2a 0c d1 bf
       -0.27052902289961606 -0.26636743658145207
000780 b7 07 c0 e2 31 91 b5 bf 88 dc 4c c1 cd 4b c1 3f
       -0.08424674783603235 0.13512584627617152
000790 9a 6a 8e 70 57 c7 70 3f 1d 65 4d fb 30 38 d0 3f
       0.004096356927130751 0.2534296468853244
0007a0 f9 a8 5c 84 2a 75 c8 3f e8 ac ff 40 36 d2 a8 3f
       0.1910756250666237 0.04847878974381975
0007b0 bc af 1e 31 b0 72 b8 bf bc 8e 86 db ac 56 af bf
       -0.09550000380721618 -0.061208154485283356
0007c0 7c 29 d3 f8 a5 d9 b6 bf 65 b1 23 99 fd 29 c3 bf
       -0.08925854992700083 -0.1497189519644834
0007d0 31 9c e0 87 54 e1 a6 bf e5 25 95 a3 8a 4c 69 3f
       -0.04468788298282112 0.0030882556717741643
0007e0 39 5b 52 33 97 28 90 3f d7 b1 06 1d 6f aa cd 3f
       0.01577984095328164 0.23176373402874503
0007f0 c4 85 48 12 18 e2 c1 3f 76 b5 06 d3 22 a0 a8 bf
       0.1397123421930201 -0.04809674097064491

lstm.bias_ih_l0 f8 [80]
000000 92 9b 6c d0 ca be b6 bf c2 10 e1 01 ee e0 c0 3f
       -0.08884875858767163 0.13186431018596606
000010 5b d0 3c fb 9f 1c cb bf 05 75 71 0d d5 01 78 3f
       -0.2118110634561415 0.0058611223567741665
000020 35 9a 59 47 10 1c c1 3f dc 02 8b 74 dd e3 cc 3f
       0.13366893276106998 0.2257038897569349
000030 2e 32 fa 30 30 e7 d2 bf 27 29 b6 f5 78 1b a6 3f
       -0.29536061079923825 0.04317834853562124
000040 06 66 b5 92 c9 8a 70 bf fd 0c c5 ac 18 5c c5 3f
       -0.004038607973904989 0.16687305866262384
000050 95 ff 8b 9a bf e6 b2 3f 25 4c 41 eb 28 52 87 bf
       0.073833441954774 -0.011387176207938119
000060 23 05 01 44 14 bf be 3f 14 2b 6f 26 d1 32 d2 3f
       0.12010313663724452 0.2843516230902179
000070 6d 9a 72 77 59 92 ac bf bc b1 01 ee 5f 94 d0 3f
       -0.055804057913793816 0.25905607455095114
000080 19 71 f7 66 b1 9f c1 bf c8 7b 3f 4f 2c f7 bb bf
       -0.13768594291367078 -0.10924031195416639
000090 d6 01 7a 98 e5 ec 5e 3f a6 a0 02 1d a8 f6 c0 3f
       0.0018875352997441606 0.13252736488835132
0000a0 c9 62 89 52 89 88 d6 bf ea 17 b3 97 14 d2 d5 bf
       -0.35208352146359495 -0.34094729246532884
0000b0 53 70 51 0f 8c be e0 bf 19 31 fd 60 d0 64 d7 bf
       -0.5232601451093707 -0.36552819701752665
0000c0 63 26 91 dc 68 2d d1 bf b3 16 4e f8 56 66 d5 bf
       -0.2683965829824954 -0.33437132118738616
0000d0 92 c0 01 88 01 20 d4 bf 5a 75 52 32 44 42 d9 bf
       -0.3144534900848238 -0.39466957964198957
0000e0 a9 0d 5e 45 1d 4e d2 bf d3 6d ba 11 db b0 cf bf
       -0.2860177209297157 -0.24758470883976588
0000f0 a0 4c 00 6d 6c b4 d9 bf c9 5d 44 5a 14 67 c4 bf
       -0.4016371788467925 -0.15939573676653954
000100 1e 00 74 eb d6 cd d9 bf 58 b5 f0 82 e9 d9 d1 bf
       -0.40318844788999 -0.2789253023828073
000110 4b 7d 3a 4b 8c bf d8 bf 84 c7 c9 ac 5e e9 dc bf
       -0.3866911635068006 -0.4517437636742374
000120 da 14 88 f1 35 51 ca bf 81 ae 97 0e 75 9c d3 bf
       -0.20560335439237215 -0.3064243929390856
000130 ee 5d 0c dc ca da d0 bf 72 d7 52 6b a8 be dc bf
       -0.2633540295514355 -0.44913683396168047
000140 94 59 cd 7f fe 44 b2 3f 28 e2 32 5a 35 dc cb bf
       0.07136526699227935 -0.21765772728191846
000150 7e cc 25 b5 08 2a 97 3f 19 25 42 cb 66 53 ba bf
       0.022621284538626878 -0.1028351064907337
000160 4f a7 b9 e4 19 0a b4 3f c7 06 9c 75 62 ec af 3f
       0.07827913126098206 0.062350346428514274
000170 ec e5 3e 85 77 df b2 bf 2a 93 78 c9 18 46 b6 bf
       -0.0737223339373469 -0.08700709265447118
000180 3d 5d 24 75 94 36 ad 3f 4f 12 5e 8c bf 88 c2 3f
       0.05705703668553006 0.14479822496299952
000190 dd cb 53 2d da 2a b1 bf 46 b7 a4 9f cd d9 b6 3f
       -0.06706012350677733 0.08926091334862205
0001a0 34 b5 ba 8a 37 3d b7 bf 4a 85 e0 70 de f0 b3 bf
       -0.09077784668871375 -0.07789411788737258
0001b0 70 53 7c 26 5f 69 c8 bf a4 03 54 9e 01 b2 c2 3f
       -0.1907156885069088 0.14605732184284392
0001c0 e7 2c 4a 03 f4 ec bf bf e5 50 42 aa f5 a5 90 3f
       -0.12470936851802926 0.016258085743701484
0001d0 c2 9e 65 cd 44 5c ac bf e6 00 2b 81 05 54 bc bf
       -0.05539145476614983 -0.11065706637873837
0001e0 d2 cb 99 41 af 91 99 3f 0e e4 18 1d ee e6 b4 bf
       0.02496980512519171 -0.0816487141645583
0001f0 9f cd dd cf 26 ba aa 3f 15 61 72 4a 02 0c bf 3f
       0.05220147406989927 0.12127699201153448
000200 9f 28 9f 58 fa 4f 9c bf 95 e8 cb 32 10 83 b3 3f
       -0.02764884153274549 0.07621861686848981
000210 b9 e7 e2 c3 82 06 b5 3f 17 f3 eb 89 48 a6 b7 bf
       0.08213059694654036 -0.09238103263119189
000220 e8 05 98 fb 36 b8 cc 3f 42 bd c4 12 cc be d1 3f
       0.2243717888341472 0.2772703345571764
000230 91 df 11 ed b9 d2 bb bf 15 8d 89 94 db f9 d2 3f
       -0.10868417775952667 0.2965001059112223
000240 cb da f8 d0 7b b0 d0 3f 21 a8 c9 10 57 4a ca 3f
       0.260771707605653 0.205393679806833
000250 b3 19 eb a6 cc a2 bb 3f 48 0c 47 4d 7a cf c4 3f
       0.10795287203936858 0.16258171819035483
000260 fb d7 eb be 7f 55 c1 3f d3 ee f8 30 6e a6 a1 3f
       0.13542172262503968 0.034472888448787174
000270 dc 38 91 b2 fc 63 c8 bf d4 d8 71 10 9a a0 b1 3f
       -0.1905513641272084 0.06885683919412894

lstm.bias_hh_l0 f8 [80]
000000 ce c8 26 df 2a 93 af 3f 21 43 84 07 0e 6c ad 3f
       0.0616696736718879 0.057465017716941576
000010 50 fa 32 4c 5e 1d 85 3f a7 e8 28 2f 67 3e bf bf
       0.010309921932614291 -0.12204594518053345
000020 dc 65 a6 f8 8b 1a cf bf 48 17 58 a4 e7 1c 93 3f
       -0.2429976429091728 0.01866495075775923
000030 63 64 f4 91 1c 85 ce bf 51 a4 d8 d6 67 fa 87 3f
       -0.2384372437161658 0.011708079570853654
000040 a3 a9 d4 a6 d9 4a b4 3f 25 cc eb 4c 00 6a a0 bf
       0.07926712344184365 -0.03205872477510522
000050 a6 ff 45 0d b6 05 ce 3f 82 d6 97 22 22 00 b7 3f
       0.23454929016224674 0.08984578461226003
000060 6a 7d ff 1d ef 40 c1 bf 15 2b 6f 26 8d 1f d3 3f
       -0.1347941299891134 0.29880074265808904
000070 6b 59 23 72 ba 83 c8 3f 6b 63 03 1c 88 bd c7 3f
       0.19152002881191818 0.18547154777368333
000080 5c c4 dd db 1e f0 a7 bf 2b 42 60 b8 a1 eb c2 3f
       -0.04675384935297508 0.14781590941176267
000090 ff 79 98 75 dd e6 d0 3f d4 be fa 85 40 df b7 bf
       0.2640908859629291 -0.09325030585273036
0000a0 c9 62 89 b2 62 8d d5 bf eb 17 b3 47 c1 f7 d9 bf
       -0.33675448832722715 -0.4057467651549575
0000b0 a0 e0 a2 2e 22 f8 de bf 1b 31 fd 40 a8 61 dc bf
       -0.48389486841507257 -0.4434605250032903
0000c0 b1 99 44 f2 6f 93 bd bf b2 16 4e c8 f4 9f d4 bf
       -0.115530964515165 -0.32226295052565057
0000d0 9a c0 01 80 18 a6 d8 bf 5c 75 52 92 11 c7 d4 bf
       -0.385137677199063 -0.32465018548267266
0000e0 5e 1b bc 4a 9b 7b c9 bf e3 36 dd a8 a1 93 d0 bf
       -0.1990846743503551 -0.2590107106269512
0000f0 ad ca 04 d0 94 d9 95 bf d3 2e 22 bd bd 16 db bf
       -0.02133781928678029 -0.4232630106932735
000100 38 00 e8 d6 f3 b5 c2 bf b3 6a e1 c5 12 83 c8 bf
       -0.14617774957150842 -0.19150004064689127
000110 13 f5 e9 2c 7d 2f bf bf 0d 8f 93 99 4e 5e ca bf
       -0.12181837412386569 -0.2060030221829198
000120 d5 14 88 f1 b7 1a c0 bf 7a ae 97 0e d5 44 d0 bf
       -0.1258153848031386 -0.25420118737267894
000130 dd bb 18 b8 75 9b cc bf 70 d7 52 2b 8f 24 d8 bf
       -0.2234942578229199 -0.37723139983005805
000140 95 a9 0c 70 31 50 d2 bf 28 e2 32 fa f4 b5 c5 bf
       -0.28614459936457 -0.16961538521515362
000150 d2 19 6d a5 3c be a5 bf 26 25 42 cb bc 01 b4 bf
       -0.04246701735842219 -0.07815151178705956
000160 73 b1 8c 36 d0 8d a6 bf 5e fe 98 62 e9 28 c1 bf
       -0.04405069986237011 -0.13406102480256527
000170 09 8d 60 3d 26 2e c8 3f cd 6c 87 76 b0 cb b9 3f
       0.18890836712771655 0.10076430219435224
000180 aa 2e 92 ba 89 d3 b8 3f 90 24 bc 58 54 57 b5 3f
       0.09697781376797346 0.08336379209881017
000190 63 68 58 a5 ab 7b a9 3f 96 5b d2 4f 7a ae c4 3f
       0.04977165597320334 0.16157463929695542
0001a0 62 a5 a2 ba f4 ee cd 3f 97 0a c1 e1 51 63 ac bf
       0.23385485756925123 -0.055445250327939614
0001b0 9c ac 83 69 90 52 c1 3f 62 fc ab 91 d0 30 c0 bf
       0.13533215667789456 -0.1264897071159537
0001c0 d3 2c 4a c3 4e 29 ba bf ca 6b 6f 95 ae 49 ba bf
       -0.10219280498329235 -0.10268679760285618
0001d0 5a 3d cb 9a 7b 69 9c bf 29 ff d4 7e 7a c8 b8 3f
       -0.027746135065908596 0.09680905910954309
0001e0 93 c6 cc 87 27 a4 c3 bf db 01 c7 b9 38 10 58 3f
       -0.15344709521155106 0.0014687112771839459
0001f0 66 73 f7 73 57 df c1 3f 59 98 9c 12 65 10 d1 3f
       0.1396283451312243 0.2666256601099853
000200 1e ca 27 d6 c0 3a ba bf 99 e8 cb 32 0d 6d b5 3f
       -0.10245900371936797 0.08369524469518054
000210 3c 18 1d fc c4 38 be bf 1c f3 eb 69 a7 7e b2 bf
       -0.11805373339765962 -0.07224508605936503
000220 ec 0b 30 f7 69 60 bf 3f 10 ea 25 96 50 19 a1 3f
       0.1225649097905685 0.03339626152861197
000230 72 20 ee 12 79 06 b2 3f d5 68 4c a4 aa 4b a5 3f
       0.07041126930391942 0.041592915111509456
000240 ce da f8 50 9e fa d3 3f f2 57 36 ef b7 82 c3 bf
       0.31217153460913216 -0.15242671184813578
000250 1c 99 53 64 73 03 97 bf 6e 0c 47 0d 84 a1 cf 3f
       -0.022474101065108262 0.247116571887179
000260 fd 4f 28 c2 d5 38 b2 bf d8 ee f8 b0 82 5f ad 3f
       -0.07117973318264599 0.05736931238467741
000270 1b c7 6e 0d d3 08 cd 3f 93 13 c7 77 14 d2 c3 bf
       0.2268318000401955 -0.15484863136785218

lstm.weight_ih_l1 f8 [80, 20]
000000 0a 52 2d 1e e8 0d d9 bf 97 a0 46 39 72 ed c2 3f
       -0.3914737982461537 0.14787128254579748
000010 08 b9 58 3b c5 25 ce 3f 64 bc 0f 9c 47 b2 ba bf
       0.23552766225606825 -0.10428283271879618
000020 da 11 1c 87 b9 ce cb 3f 66 78 af a8 91 6c ba 3f
       0.21724623772764923 0.10321913116737988
000030 64 74 0a d0 21 4c d0 3f f0 bf ce 27 c5 1e 9c 3f
       0.25464673344123967 0.027461128763832166
000040 a0 4d d9 ea ab 04 5a 3f 84 25 db 62 e6 b7 c8 bf
       0.0015880278473517709 -0.19311218096690308
000050 54 47 c1 08 d6 68 6c bf 26 ad cc 96 25 bf d2 3f
       -0.0034679584842160303 0.2929166767741712
000060 18 83 57 66 64 5f d0 bf 70 79 e0 f6 e2 40 c8 3f
       -0.2558222770149299 0.18948018126043165
000070 8d 3e 8b 1f 79 3d bf 3f 38 89 67 c4 98 d9 b4 bf
       0.12203175563922226 -0.08144526286153997
000080 e3 c7 5b 65 f3 7c bc bf f8 2d 46 4a 61 2b d2 3f
       -0.11128159737179959 0.28389770749410514
000090 e2 9f b0 ba 79 b0 b3 3f d9 65 fb 5e 8c f3 ad bf
       0.07691155250415663 -0.05849875125359078
0000a0 dd 81 10 97 f8 65 d5 bf c5 5a 48 59 a0 77 d1 bf
       -0.3343488192786291 -0.2729264137173398
0000b0 c3 bd 33 21 9f 95 d9 3f d6 2f 99 b1 d6 7a c1 bf
       0.3997571777572057 -0.136561238019907
0000c0 99 b4 c0 22 c3 03 c2 3f 14 7b 5c 40 a7 ac d5 bf
       0.14073981472885036 -0.33866292271879783
0000d0 34 8e 7d d7 11 55 e0 3f 29 77 ef af 4a df df 3f
       0.5103844841764329 0.4980036466712244
0000e0 d3 32 e5 e8 1d a2 af 3f 6d 79 7b b0 38 58 ca 3f
       0.06178372829399383 0.2058173047761999
0000f0 4b 3e 1f 01 81 f2 c5 bf b6 25 a0 2d 3d 09 e1 3f
       -0.17146313242709463 0.5323778048634071
000100 fd 54 2c 37 01 f8 d1 3f a5 9a 7b ea b5 9e c0 3f
       0.28076200855259953 0.12984346341473443
000110 c3 e7 c6 0b 6a 9e d4 3f aa 98 a5 c0 1a 0e dc 3f
       0.3221688380250464 0.43836087048692696
000120 bb 88 4d d9 ea 62 e1 bf c1 f4 e6 25 ff 45 a9 3f
       -0.5433248752781518 0.04936215722725868
000130 2c e4 8c c4 82 19 d3 3f df 28 41 8b fc 71 c4 3f
       0.2984320563733174 0.15972859191453545
000140 71 4c 7d 62 7f d9 c1 bf 74 7c 9f be 41 87 a1 bf
       -0.13944999989562093 -0.034235052604111
000150 23 e2 eb 2a cd ec cf 3f 4f 9a 11 f3 15 17 cf bf
       0.24941410632870128 -0.24289202087966763
000160 1f 98 e8 9c 6e 1c b6 bf bc 01 21 d4 ff b9 c0 bf
       -0.08637133913779892 -0.13067624910219233
000170 f4 1f 25 23 c9 70 b1 bf 23 6f 89 50 92 c9 bc 3f
       -0.0681272230914372 0.11245073763114681
000180 64 d4 8c d2 2c 2e cb 3f ef 0e 65 12 bd 64 bc 3f
       0.2123466518475282 0.11091214846697615
000190 f4 9d 1d ec b6 32 ac 3f 8a 0b a5 a9 a1 58 b7 3f
       0.055074421236721266 0.09119615928379524
0001a0 a7 61 7a af f5 39 b4 bf 1e 29 e8 85 bd 44 cb 3f
       -0.0790093949712004 0.213035288223474
0001b0 69 64 30 f3 ed 9f bb 3f 52 a9 ac 22 75 e7 c8 3f
       0.10790908038360815 0.19456352418030548
0001c0 92 ff 85 b2 6b 9c 87 3f a0 ba 46 d2 8b 89 bc 3f
       0.011528817544558288 0.1114737881059491
0001d0 a2 1a b5 1c e9 9a 61 3f c1 90 53 83 c9 77 d4 3f
       0.0021490624400571515 0.319811228035416
0001e0 e7 8c a7 99 12 66 c4 bf 0f 28 ca c5 fc 5d 91 3f
       -0.15936501028691127 0.016960095951198236
0001f0 ee 48 94 dc 1e e0 c2 bf c2 19 04 fc b0 5c c2 bf
       -0.14746461649389836 -0.14345371537656432
000200 57 1e ac 73 4b 1a a1 bf b5 72 0b e2 5b bc cc 3f
       -0.033403737898024026 0.22449825799312398
000210 1c 0d d3 13 42 cd c1 3f 71 95 5c 31 84 5d b7 3f
       0.13907648056019972 0.09127069668882883
000220 5a 03 99 9a 29 25 8e bf 14 c8 2c d2 5b 85 c6 bf
       -0.014719319372604001 -0.17594478380630163
000230 6c 1c a4 26 aa 8e a1 bf 77 60 5d 09 84 d5 ca 3f
       -0.03429156991665469 0.20964098412764873
000240 c3 33 53 d7 7b 2c d9 bf 7b 6a 41 77 0a 2f bb 3f
       -0.39334007289727085 0.1061865368987273
000250 bb a8 cd 13 23 5f da 3f 69 19 7a 7e 4f dd ba bf
       0.41205670293733093 -0.10493943059745948
000260 ce 91 d4 99 5a a5 b3 3f a1 0b a6 2b b7 a0 7c bf
       0.07674185042976164 -0.006989207753920563
000270 b5 2f 79 26 2d 4a 53 bf 91 cb b8 ce ab 48 c6 3f
       -0.0011773529930847297 0.17409274667587885
000280 18 72 c1 a1 cf 5f d4 bf aa 7a e6 ed 54 b4 8a 3f
       -0.3183478431363098 0.013039268026486656
000290 98 1a ec c7 52 92 b4 bf 9f ed 9a c5 c6 b3 c8 bf
       -0.0803577173320299 -0.19298634194079242
0002a0 57 2f 1a d6 b2 81 b4 3f d2 79 94 49 50 23 d2 3f
       0.08010404326540531 0.2834053724817781
0002b0 3b 5e cb ae 75 e1 c0 3f f1 85 5a 03 e4 56 c6 bf
       0.13188048395999083 -0.1745266929984122
0002c0 a3 8b 5e 05 df 51 cb bf b5 81 87 f6 21 8c ce bf
       -0.21343600999997844 -0.23865150964321705
0002d0 e0 32 aa f3 cc 2e c8 3f 1b 9b 4e 3a e3 f9 c3 3f
       0.18892824075410086 0.15606346461319096
0002e0 7f 0b 46 51 05 c7 d0 bf 7a 72 4a 80 3e ac c6 3f
       -0.26214726387859594 0.17713147415351554
0002f0 9d 3d 53 a2 97 33 d0 3f 50 83 59 c4 d2 f3 c4 bf
       0.25314894535127924 -0.16369089686761606
000300 27 84 61 b5 f9 e9 96 3f 88 75 1e c4 4f 0f 9b 3f
       0.02237692040978714 0.026425596566345827
000310 9f 3e b6 65 85 10 4e bf fb 01 e2 0d 8b dc b5 bf
       -0.00091749681034688 -0.08539647187172499
000320 dc 34 bf 8f 62 dd d7 bf 2c 4a 54 ff 2c 67 d3 3f
       -0.37288726842673525 0.30317234930513126
000330 72 cd 63 66 91 9d aa bf e8 3a a7 cd fe fb c7 bf
       -0.051983398197900224 -0.18737778703367458
000340 c6 fe de 39 43 ff d5 3f b3 03 79 a6 5f 65 c0 3f
       0.3437049927851884 0.12809367779303002
000350 c5 1a 2e b5 67 06 c3 bf 67 3d 5f fe 2d 65 98 3f
       -0.14863296839413045 0.023823469782482756
000360 38 40 0a 2d 86 c5 ca bf b9 41 04 cb 02 49 ce bf
       -0.20915295790882893 -0.23660311615868837
000370 f5 c4 c7 b3 86 4f aa 3f 7d 37 b7 bf f4 40 b4 bf
       0.0513879866083559 -0.0791161506706128
000380 37 25 a6 c4 d1 63 b9 3f cd 19 9c 69 ce e2 d5 3f
       0.09917937327386005 0.3419681578965566
000390 be 7b c2 72 4e 57 c2 3f 68 59 24 57 aa 2f a1 3f
       0.1432893810606099 0.03356678308243738
0003a0 e9 fb 24 76 10 a6 cb bf c5 63 e5 e3 84 b9 6a bf
       -0.21600538033268826 -0.003262290526589303
0003b0 56 d4 33 98 6b 2f a4 bf 68 4a d5 68 7b 03 bd bf
       -0.03942428811016245 -0.11333438214686853
0003c0 41 a9 30 37 29 52 bc bf 71 d6 d4 54 47 64 ab 3f
       -0.11062867734350325 0.05349944029368892
0003d0 e5 ea 23 95 9d 4e c6 bf 97 a0 ed e9 93 fe d0 bf
       -0.17427415640107494 -0.2655381950812709
0003e0 2a 71 72 73 e2 53 c1 3f fa be fc fc ba b4 c5 3f
       0.1353724540430304 0.16957795479674315
0003f0 6f f3 c0 e5 d2 84 c7 bf ba 62 77 1b 29 d8 c8 bf
       -0.18374096125071612 -0.19409669724588757
000400 e5 d1 e5 3c 12 27 ce bf 78 9d 2e 27 79 95 a4 3f
       -0.23556735967180412 0.04020289042756081
000410 e8 b7 7f 15 3e 4a 9e bf 12 af ae db 89 68 c8 3f
       -0.029580087721050946 0.19069026209523848
000420 02 97 6b 0f 7f 17 b4 bf 1a 23 55 73 fa 81 cc 3f
       -0.07848352552863605 0.22271662360642425
000430 df 92 a9 7b 87 60 a8 bf 3a 8d 2a 91 2d 33 bc 3f
       -0.04761145958472012 0.11015591425034624
000440 77 df 55 9b 01 1f be bf 14 a6 51 34 de 8b 76 bf
       -0.117660618232433 -0.005504482255767513
000450 18 1f f7 59 1c 03 c7 bf 53 b8 23 fe 49 d7 c2 3f
       -0.1797824324878483 0.14719509991795351
000460 0f f3 d6 03 3b a5 d5 bf 37 78 76 69 19 fb a3 bf
       -0.33820987105336625 -0.039025110362885966
000470 5e 31 ab a1 e9 40 b0 bf fa e0 44 62 4e b7 a0 bf
       -0.06349048802366528 -0.03264851522038899
000480 9b 59 ad 35 4d 92 a5 3f 43 78 2a b9 21 29 cb 3f
       0.04213181762922887 0.2121927408342704
000490 87 54 7d f2 53 6d bf bf ac 45 4c ab 6d c0 b6 3f
       -0.12276196165233176 0.0888737242896897
0004a0 70 54 ea 75 0a e3 a2 bf 4c e7 a1 d0 a9 13 b3 bf
       -0.03688843430897115 -0.0745187887531788
0004b0 1a a2 be 2b 8a ae d3 bf 60 69 74 26 34 eb c0 3f
       -0.3075280596918063 0.13217784764931206
0004c0 39 c2 c4 86 44 01 c0 bf 32 19 23 65 62 71 b8 3f
       -0.1250386865663289 0.09548010796706732
0004d0 9f ee 81 6a b0 d6 d3 3f 9d b4 a5 5a 36 f6 c6 3f
       0.30997858430030506 0.17938880373131819
0004e0 5e 36 46 7e 0c 43 dc bf 65 cc d3 21 d2 30 bf bf
       -0.44159233409377474 -0.12183869672644361
0004f0 df 81 14 fc 8e 0a b0 3f d5 e4 d5 7d d7 c8 d4 3f
       0.0626611104421566 0.32475840843797005
000500 26 a5 78 a5 b6 6e d0 bf 5a 38 ff 3d f7 17 af bf
       -0.25675741347602565 -0.06072971946524382
000510 13 39 82 c1 89 18 c8 3f ee 66 c6 01 88 ab d5 bf
       0.18824884365717107 -0.3385944382986129
000520 04 84 c6 98 42 02 a8 3f 10 b7 5e ab 3c d6 d3 bf
       0.04689224352774349 -0.30995098815297784
000530 5a f6 08 4e 3b 9b c1 3f b7 8f 67 df 9f ff ce 3f
       0.13754979429534125 0.2421760407297577
000540 37 b5 c3 70 fb b0 dc 3f 90 13 c6 02 7d 5e d4 3f
       0.44830213558346393 0.31826710959313065
000550 30 74 00 af 08 e8 d3 bf 27 6d 95 87 2e 0a 96 bf
       -0.3110372265817345 -0.021523215318081015
000560 89 23 14 b1 5a c2 d6 3f f7 e3 81 e3 1a f5 9f 3f
       0.3556124429019794 0.03120843900294187
000570 ab 89 02 a6 74 b5 dd 3f 17 59 4c 35 21 ba d5 3f
       0.4642001744452055 0.33948545651345924
000580 3f 18 68 9d ad 12 c5 bf b7 c8 c1 5f 76 a5 7a 3f
       -0.16463251291151157 0.006505453489909544
000590 e3 5f 5f 81 ab ca a7 bf 5e 47 4b b1 6a 7a da 3f
       -0.04646812395338864 0.41372172654984307
0005a0 c1 28 6e ee e0 08 b9 3f 30 57 7e c1 81 b8 b8 3f
       0.09779172726681208 0.09656535123789634
0005b0 b0 b5 eb 60 3e 24 b0 bf ff a8 1a 75 e5 5a d7 bf
       -0.0630530344603446 -0.3649228709788445
0005c0 a2 42 08 6b cc 56 af 3f 32 18 62 d5 1b 46 c6 bf
       0.06120909506365037 -0.17401454848385495
0005d0 81 af e5 1c a3 fa b6 3f b3 0d f1 e6 a4 4c b0 3f
       0.08976191955087921 0.0636694969007781
0005e0 8a 8d 4f bf 83 47 a5 bf 98 48 ec 59 02 fc b5 3f
       -0.04156123838745447 0.08587660498986549
0005f0 b3 5e b0 f1 f1 55 d3 bf e9 79 75 b9 04 c3 c4 3f
       -0.302120672249184 0.16220149093255934
000600 75 94 78 bb c7 5b b2 3f e5 ae 4c 2d 57 80 c4 bf
       0.07171295477799496 -0.16016664230243474
000610 b4 10 dd 52 68 12 b4 bf e0 58 cc b2 e2 20 d2 3f
       -0.07840587637935209 0.2832571741177059
000620 f2 21 80 2b f6 b4 d1 3f 2e 6f 06 78 d0 be ba bf
       0.27667001960847337 -0.10447409563351748
000630 fb e8 b3 61 3c 4c ba 3f cc 12 0c 83 15 2b b9 bf
       0.10272576699563622 -0.09831366013902282
000640 f9 e3 de b6 35 ac cb bf b5 15 da 09 ae 4d b9 3f
       -0.21619292668563597 0.09884155025982617
000650 d0 cd 92 1a ee e9 c5 3f f0 b9 5e da 4d dd b5 bf
       0.1712014798882664 -0.0854080827836936
000660 03 7d 5c 5c f1 47 8a 3f ae d2 eb 31 03 4a a8 3f
       0.012832532530920654 0.0474396704138703
000670 33 1f 2b 6d 30 3b b8 bf 73 77 9e 14 90 d0 b0 bf
       -0.09465315499539599 -0.06568241599458506
000680 4d a8 61 82 7a cb a6 bf 46 61 9d 81 01 0f cd bf
       -0.04452116815157634 -0.22702044323774312
000690 48 25 32 6b 12 14 c1 3f 30 72 0c 9f 05 d3 c5 bf
       0.13342504724668403 -0.17050237909360666
0006a0 0e 5e ef f2 e9 28 ab bf 08 9b 11 8a ee 62 c3 bf
       -0.05304652300372591 -0.15145665876044512
0006b0 bf 8b db 86 15 80 80 3f a2 c0 c0 57 3c f9 bc 3f
       0.008056801012065294 0.11317803518682237
0006c0 06 0a 43 0a 9d d0 b9 bf ca 2e 3c 1f e5 57 bd 3f
       -0.10083943844350793 0.11462242138457693
0006d0 a6 de e1 71 b0 b4 a9 bf bb 7e f0 a9 a7 b2 bc bf
       -0.05020667448201026 -0.11210105799591023
0006e0 9c fa b9 de 8a 0e e0 bf 60 94 89 6e 52 23 91 3f
       -0.5017752027632301 0.016736305233639448
0006f0 f9 31 08 e7 6c bf bd 3f ab 2d 16 16 e1 c7 c5 bf
       0.11620216980390542 -0.1701623304219145
000700 b6 9a 95 5c 1e ed b4 bf 82 08 e1 6e 2b 8c be bf
       -0.08174314270363933 -0.11932631928451268
000710 68 26 ac f9 37 24 cd 3f 1a 62 f4 b2 ae 1a cb 3f
       0.2276678055862249 0.21175178277987144
000720 3b 46 82 a8 82 9f cb 3f b7 77 88 68 3d 60 aa 3f
       0.2158053705975805 0.051515501985917415
000730 4c 86 b4 52 ae 81 cc bf a4 2a 21 a5 7a d0 d7 3f
       -0.22270754850710472 0.37209955335553446
000740 46 aa cf 18 f9 03 ca 3f e0 d4 62 f1 88 86 7f bf
       0.2032462474010847 -0.007696661885508521
000750 45 2a 52 5a e4 69 df 3f a0 c3 f0 8a 0c 94 d9 3f
       0.4908381349602318 0.39966119354635943
000760 a3 86 c7 ae f8 26 dd bf ed 82 79 f4 12 f0 d2 bf
       -0.45550362652111626 -0.29590295671918804
000770 64 7b 43 f2 88 2a c5 3f 71 b5 f1 00 c3 f0 dc 3f
       0.16536056355740947 0.45219493000225613
000780 7f 4f a1 c6 1c ed c0 3f 04 b6 b9 04 d6 ea d4 3f
       0.13223609637008946 0.3268332525393307
000790 af e9 30 60 8b 6f d3 bf 8a ea 81 6a 50 0f c3 3f
       -0.3036831321111561 0.14890485001145165
0007a0 38 ea 2a 55 69 04 ae bf f7 0d 64 fd ba 64 b2 3f
       -0.05862740673679351 0.07184952436733015
0007b0 17 12 aa bd 72 85 bc bf 57 ea 18 06 69 67 93 bf
       -0.11141125803448691 -0.0189491662951958
0007c0 a2 3b 36 cc d7 0d cb bf 58 21 8f ed 50 55 b7 bf
       -0.21135995360643017 -0.09114557075293328
0007d0 00 2f 85 77 33 d3 c4 3f b4 9e 17 35 ea 1a a8 3f
       0.16269534431409483 0.04708034418200438
0007e0 6e 47 f0 a6 99 78 ce bf 45 75 e4 b0 e4 31 cd 3f
       -0.23805542613313996 0.22808512341809198
0007f0 e3 32 8d d9 2f 0d ad 3f bc c2 b1 1b 3f 3d cc bf
       0.05674123316439308 -0.22061909534706625
