PytorchLSTM/modeljustLSTM.pt (torch, 23600 bytes, 22 tensors)

lstm.weight_ih_l0 f8 [40, 7]
1.2133812495725638 -0.7428299942690617 -0.8774223280330732 0.19760279576824935 0.8628240604795305 -0.8980458880014639 -0.7328252484605248 0.09536093221352099
1.7947866075925998 0.5390592734188908 -1.810508716481598 -0.3264385683580001 0.6626839022197065 -1.0047853087514225 0.9054090580957569 -2.0903636429856975
1.284471557858171 2.407851000639017 1.8513195394771196 1.6495730931837773 0.2452964688853942 0.7012231221182263 -1.5570652155568891 1.3454538609531015
1.570171276210667 2.308289066515291 1.1602977150179319 0.652234483082464 2.6234334398624104 0.3835857761096703 -1.1973145003997976 -0.3060075741348388
0.37217419343876773 -2.308916111696121 0.2251961441307887 0.5365536109829833 0.28745460315685273 0.8269081769149906 -0.20773822118785465 1.7055604524006711
0.4241246450174003 -0.40827120426415564 1.5659776314484364 -0.7964208922861254 -0.7061676883970411 0.9790716525667086 0.7089565222211004 -0.42508933432452717
-1.5254239812714652 -1.198962889448156 1.4555423622855133 0.5753685684971849 -1.4671902990567705 -0.14670047007544454 0.28316572291157527 -1.3019178896066184
-1.9781248907318725 0.15502016510011318 1.4928114894771825 -0.7377914318744143 -0.9541843015046673 1.751200060413656 0.5273722151845072 -1.9209654840306543
-0.28624759984147796 2.1755151107571358 -0.27332875485511043 -0.47166599783582724 1.4775431850773535 -0.45949432397942613 0.48138931454485073 0.5371592647760249
-0.4169653942811942 -0.5897157684181416 -0.5324166168307632 0.22213143568566204 -0.5678899930437409 0.19732232703934843 1.7418812373807409 0.11346015265990322
-2.0396536810827723 -0.7046713303582802 0.48897194551611 -0.9053753151255527 -2.805411360943058 0.9832613958306973 1.4360519827018876 -0.941391183891923
-1.3414048940512615 1.9152927574703469 -0.631012885650064 -0.7172283655501647 0.7297901931428782 1.0598181517392466 -0.40873617537718115 -0.6568497436687996
0.5448451062654665 0.2881472759077849 -0.5682445153834599 0.5793122529205658 -0.45450021211112057 -0.7193962950682078 -0.7282197537319142 0.17642239401675194
0.054899367253128266 0.0810801913564419 1.09533473837043 -0.11946363538268621 -0.7504594020708877 -0.5732466635703628 0.02530506982090452 -0.3990900363908768
0.5386331505245815 -0.9100981292299323 -0.42295839598569956 0.5593402196433711 0.4972577282586613 0.18059920759519266 -1.307107979652214 -2.0115139920289034
0.6343232831745701 2.29355013021481 -0.8576509211510375 -0.6593174661404128 2.3184194065939807 0.06530534461426055 -0.4933702924087913 0.5822977622868677
0.26371521038654716 -0.7795960500192193 -0.7977024195083526 -0.3895968872996626 -1.3507252593167485 -2.204629613407613 -0.1523355779147453 1.9502994848123703
-0.33521324085893606 -0.882157843225092 1.973562227438019 0.12272010620838991 -0.1396411490307549 0.6742924348906902 0.3211196251050706 -0.6099835945147414
-1.6874187752233767 0.4572870580196596 -0.29414272585181583 -0.9148016646417068 -0.024662257340269573 0.4996884342980475 -0.3116454259055631 -0.458405098902126
0.3727093860996874 0.4713219642400808 0.08993786397456985 -1.1640197740415639 0.6446218826442083 1.106180138921683 1.0274289511897148 0.5258890722319601
-0.3704006246554059 -0.10418854837698743 -0.7895327575017107 0.4113637453108416 1.176002835860719 0.958380199938326 0.5291359137064269 0.36387188887639366
1.4577215480953052 0.07550604514174974 -0.25208542813310486 -0.11560074592630647 0.5313322894682383 -1.4923957916518358 0.07466777720971213 -0.6002040024370924
-0.020254881533274108 0.42664279126809473 -0.10099012938269519 -0.6953723742226066 0.6883962745274131 0.22982236582234175 0.41237462749203657 0.10042085063758376
-0.02324236758089137 0.025770097706084183 -0.021050728569588704 0.3605629489784584 -0.05283702655872974 0.0906976650768782 1.078659218823443 -0.7696003470849313
-1.4040072588607102 -0.8126545367856126 -0.3431795659462879 0.07586916499364084 -0.45678471239579427 -0.8459299458376639 0.5116890367842482 0.6806902474721896
0.5190386811022047 0.7553279977859383 0.3884518461794578 0.13819077024479326 1.8590605577327752 -0.8316749781414089 -1.364169885525343 -0.24931867788124948
-0.7021113794665165 -0.4511806900882314 -0.9028664095587873 -0.3321839488558184 0.5352555367167495 0.4949113580190335 -0.623706245686441 0.4681834220859739
-0.4115214630381409 -1.2212496736917378 0.29312278625581745 0.9755638725501565 0.12572717494618893 -0.8090273031118552 1.2572487276818678 -0.3822513727107271
-1.877733725994229 0.7761580327518386 0.1726038247968285 -0.6246068081843873 -1.8168454739624287 3.084237615609981 0.11771911494585473 -1.9126763489226937
0.2007126098219652 -0.46303859331642405 -0.7012411471228945 -1.0155169836718048 3.438921184680824 -0.12067988186566687 1.7396204188902753 1.2568987444236563
-2.0761268714326047 -1.219180463129066 0.6008267840359799 -2.039374257688968 -0.06379267902316921 1.6446137949399806 -0.533969356013805 -0.6192330555994515
0.5900877131174804 3.259428228934141 -0.12470070596714056 -0.2507259189675826 -1.279348540342052 1.2366541419038457 0.8121326866404164 -1.1355922653454482
00000000: 81e6 0775 026a f33f 9cf3 7b68 43c5 e7bf
00000010: dbd4 75fd d713 ecbf 401e b664 0c4b c93f
00000020: b0c4 3e34 419c eb3f 0ec1 e8ba cabc ecbf
00000030: dd45 7aef 4d73 e7bf 4453 2cf5 9269 b83f
00000040: 458b 6e29 72b7 fc3f ae11 be3b f93f e13f
00000050: 1895 e6fc d7f7 fcbf fe0a d097 5ee4 d4bf
00000060: 51d1 f3de b434 e53f ff6a 89c2 9913 f0bf
00000070: 05c0 c06a 1cf9 ec3f caf7 da92 10b9 00c0
00000080: cb49 5a0c 328d f43f 6815 ab62 4743 0340
00000090: 0a00 c83c 019f fd3f c85f 79c1 a664 fa3f
000000a0: 3ef1 d7eb df65 cf3f 284c 1679 6b70 e63f
000000b0: 7fe5 2837 bde9 f8bf c720 b1a0 fa86 f53f
000000c0: 2818 87ea 6b1f f93f 2b2e 1342 6077 0240
000000d0: 3c02 3a56 9490 f23f 6a34 c5d9 1adf e43f
000000e0: e188 dbab cafc 0440 1784 e65a ab8c d83f
000000f0: 3ce6 e33f 3328 f3bf 0632 cfca a095 d3bf
00000100: 1505 4fb5 b3d1 d73f e189 a702 a978 02c0
00000110: a40f 1d2d 3ad3 cc3f b31f 777a 722b e13f
00000120: 7f2c e9fd a765 d23f c0a2 1423 0876 ea3f
00000130: 3fc6 1081 2a97 cabf ed96 c6c1 f949 fb3f
00000140: 00c0 f1b1 db24 db3f 2ca3 8d8b 1d21 dabf
00000150: ce6a 958f 3e0e f93f a10a c7aa 477c e9bf
00000160: de07 e5fa ec98 e6bf b9de 0613 8e54 ef3f
00000170: 7d37 a796 c5af e63f 2358 33e5 a934 dbbf
00000180: 5d85 01fa 2268 f8bf 89c2 f4b5 f32e f3bf
00000190: 8157 bfc9 e649 f73f 93ef 1a58 6b69 e23f
000001a0: 0e51 f788 9c79 f7bf 0514 a4bc 14c7 c2bf
000001b0: ee37 d01f 631f d23f 1501 5fda a7d4 f4bf
000001c0: 2c8d 1149 66a6 ffbf 34aa a965 b3d7 c33f
000001d0: 5a5c e64c 8ee2 f73f 8a6d e5c6 fc9b e7bf
000001e0: 7936 2a84 ad88 eebf 93ad c35a ea04 fc3f
000001f0: 472b 21b2 3be0 e03f e780 aa4d 46bc febf
00000200: 4c2b f873 e151 d2bf e83e 6577 7467 0140
00000210: b42e cae3 377e d1bf f3c3 d594 c62f debf
00000220: c95b a552 04a4 f73f e61c 8ce1 5a68 ddbf
00000230: a14b a720 15cf de3f 179b 5ea0 6830 e13f
00000240: 2918 009f 8faf dabf 6053 699a f3de e2bf
00000250: ab52 a492 8e09 e1bf 277b d789 cd6e cc3f
00000260: 3227 7ba2 272c e2bf 86ca b3a6 db41 c93f
00000270: 8b0f 41dc bede fb3f bccd 127d b90b bd3f
00000280: 0955 fbf2 3551 00c0 fd29 cae3 aa8c e6bf
00000290: cecd a9fc 504b df3f f93c 22a7 d5f8 ecbf
000002a0: 489e f882 7b71 06c0 9463 509a e076 ef3f
000002b0: 13f8 d0a4 11fa f63f 7ddf 7167 e01f eebf
000002c0: ed4f 6afa 6476 f5bf e09c b904 0aa5 fe3f
000002d0: 7317 67ef 4131 e4bf cfa5 b9e6 88f3 e6bf
000002e0: 99af 8ff6 705a e73f efd5 d6e0 03f5 f03f
000002f0: abf9 7bc6 bb28 dabf f730 eec0 e904 e5bf
00000300: 6277 1901 5f6f e13f ae25 9d45 0171 d23f
00000310: ac81 361f 0f2f e2bf bde8 8ed9 b989 e23f
00000320: 78b5 c20e 8816 ddbf 00cf 0561 4b05 e7bf
00000330: 468d 5283 934d e7bf b7bf 4a4e 0295 c63f
00000340: 0fb8 d815 c51b ac3f 04b6 3ae2 abc1 b43f
00000350: 5494 f7b7 7d86 f13f e7a7 0737 2b95 bebf
00000360: 7ed8 9b6f c303 e8bf 246d 1263 0958 e2bf
00000370: 7f12 377d 92e9 993f 3a54 9def b08a d9bf
00000380: bb6c c196 7b3c e13f d92f a61c 861f edbf
00000390: cdf0 9417 c011 dbbf 6395 d675 1de6 e13f
000003a0: 1a78 2314 12d3 df3f e405 27f5 df1d c73f
000003b0: 7926 8f0e eae9 f4bf 32af d9a5 9417 00c0
000003c0: 9f6f 8a57 604c e43f bd12 88cf 3059 0240
000003d0: 9e4b 3758 e071 ebbf 2d26 58f1 2019 e5bf
000003e0: eddc 4d79 1f8c 0240 5a4c 5fdf d9b7 b03f
000003f0: 85ad adfd 6093 dfbf 66cb b1ea 2ea2 e23f
00000400: c759 04c3 b5e0 d03f e58b 5d6a 73f2 e8bf
00000410: 704f 7739 c786 e9bf 26d4 64c8 27ef d8bf
00000420: 4958 ea16 929c f5bf d307 cbd9 14a3 01c0
00000430: a19e 9472 bb7f c3bf e5cb 8a3b 6d34 ff3f
00000440: 2338 ab3c 2274 d5bf 2af9 d115 a33a ecbf
00000450: ac79 77fc b593 ff3f c807 baba 956a bf3f
00000460: 7da8 21dc c2df c1bf 9276 79ba cd93 e53f
00000470: 1586 fb53 398d d43f e231 b150 fc84 e3bf
00000480: 3ada 63d4 aaff fabf 0506 c5ef 3044 dd3f
00000490: 2ff3 f802 3cd3 d2bf b8cc fe23 0e46 edbf
000004a0: 5552 e312 1041 99bf c5f8 df32 e5fa df3f
000004b0: b697 0da8 fff1 d3bf 78ac 0657 8256 ddbf
000004c0: 1a77 0d78 78da d73f 590c 9399 232a de3f
000004d0: 3260 71f8 2a06 b73f 447e d632 d39f f2bf
000004e0: 38c5 0712 bea0 e43f 2f74 02f2 e9b2 f13f
000004f0: ab2c 0557 5970 f03f efeb d151 15d4 e03f
00000500: 3407 54d2 a4b4 d7bf 9899 e5c7 19ac babf
00000510: c1e5 9233 da43 e9bf 57b0 379a c853 da3f
00000520: 9566 8059 e8d0 f23f 45cf fbf3 0cab ee3f
00000530: 0643 9070 aeee e03f 541a aa51 ad49 d73f
00000540: b7e6 7bd4 d352 f73f c0bb 883a 5d54 b33f
00000550: 5c4f 68eb 2a22 d0bf 938d 25af 0298 bdbf
00000560: 7d65 d292 ac00 e13f 9852 dd68 dae0 f7bf
00000570: 2c44 2e6d 6d1d b33f e3a8 2c06 df34 e3bf
00000580: b43d 1417 b2bd 94bf 0f85 e490 1d4e db3f
00000590: 44e0 ea36 7dda b9bf b87e ba90 7d40 e6bf
000005a0: 3f12 b99f 5707 e63f c153 8cbc d16a cd3f
000005b0: 9cd2 b18c 5864 da3f 272e 534d 2eb5 b93f
000005c0: 9eef 90e2 d8cc 97bf 800d 73fb 7963 9a3f
000005d0: 49ad 0d7b 528e 95bf 42c1 809e 7613 d73f
000005e0: 88dd 2c6a 740d abbf 2b29 5451 f637 b73f
000005f0: 7002 462b 3042 f13f 7a0a 37e8 90a0 e8bf
00000600: 2674 c250 d076 f6bf 6816 4e16 4401 eabf
00000610: 1b44 196d a7f6 d5bf f929 6c5e 296c b33f
00000620: 795f 43f2 f53b ddbf de8d 82ad db11 ebbf
00000630: 08b9 d6af c15f e03f a82c f3e9 36c8 e53f
00000640: 962c 1602 f79b e03f edcc 079f a52b e83f
00000650: 8e57 da21 65dc d83f 66bc 6733 3cb0 c13f
00000660: c1ee 8b48 b6be fd3f 8d9a 00d8 149d eabf
00000670: 834f 48cd a3d3 f5bf 1f16 e4a7 ace9 cfbf
00000680: 09a9 9e48 b277 e6bf a900 21f9 24e0 dcbf
00000690: 28c8 b618 48e4 ecbf 4fe1 2577 8042 d5bf
000006a0: 9871 2638 d020 e13f a615 47b0 a0ac df3f
000006b0: 3518 f1cc 66f5 e3bf 2fdf 9899 b7f6 dd3f
000006c0: f374 561e 5e56 dabf 621b 0c19 3d8a f3bf
000006d0: b497 2b13 86c2 d23f 9662 f8b9 d137 ef3f
000006e0: 8d61 4efc d317 c03f c9f7 0d3a 8de3 e9bf
000006f0: ba4c 85d7 b01d f43f 0d32 2976 ce76 d8bf
00000700: efdc fb84 320b febf 8b4c e65e 49d6 e83f
00000710: ba5c 55d3 e117 c63f 3359 c06a c7fc e3bf
00000720: 36de 488f cc11 fdbf 651a 61c5 84ac 0840
00000730: 7f77 ce04 d722 be3f 5c4a e783 529a febf
00000740: 5242 8a67 f3b0 c93f d81c c59f 6ca2 ddbf
00000750: 4e13 3046 9170 e6bf 8e72 96bc 8e3f f0bf
00000760: 44ce 2d1c e982 0b40 4def e571 e0e4 bebf
00000770: 9e66 6938 7cd5 fb3f d7ed 9adb 411c f43f
00000780: dc32 b967 e89b 00c0 cafb 905f c381 f3bf
00000790: 39da 7f17 f939 e33f 8da0 6873 a350 00c0
000007a0: e8f4 208e b754 b0bf 2a15 fd8d 5650 fa3f
000007b0: b8a7 24e7 4616 e1bf 7fdb 4cd7 c1d0 e3bf
000007c0: 628d b3a0 ffe1 e23f 6173 771b 4f13 0a40
000007d0: 40bf eaad 62ec bfbf 896b 8eb9 e40b d0bf
000007e0: 6d45 cf2c 3678 f4bf 140a 7fda 55c9 f33f
000007f0: 3643 24b0 fdfc e93f f2fc 93cb 622b f2bf

lstm.weight_hh_l0 f8 [40, 10]
-0.6239289701572536 -0.7431782457610293 -1.6804063107516303 -1.1272570202924854 -0.1379876280882852 -0.2101906266294936 -1.7236162587144868 1.9794973979940569
0.36422187167743214 1.4044438085913853 1.5438485341173636 -1.6047654748606397 -1.0216625893322553 -1.365882210417857 -0.8503002879201221 -0.054437724274108625
-1.281800848492852 1.37411037665649 0.5789729193031481 0.944836942948654 -0.22854734207577768 -0.9160844539936189 -1.2103644627767867 0.8442134682919832
-0.1744938090356202 1.0623296933533712 0.34455188541409537 -0.7663859722336525 0.2727674155265752 0.6829505852248179 -0.7022138983306804 1.1738210731335579
1.5690498513388016 -0.32948696825057633 0.12246519650567826 -0.45103593235350914 0.8537309433671241 0.21468850435182116 -1.2734152011436413 0.9548154253371371
0.14078353792371512 0.03070514988593075 -2.005371821620016 -2.3626130270792447 -3.160075544176313 -1.3440402282632957 -0.7464521651260115 0.6316880390643891
-0.3802583378381179 -0.991113689427756 -0.6309252184522309 -0.08413384908728086 -0.3155097267882692 -0.4400994231492921 -0.8858441405201657 0.16731807519050074
0.7697823232584399 -0.6988888372059369 -0.2946223804555634 -0.4050399580906879 -0.8234792479196261 -0.8110505501582658 -2.096247982557705 -1.5485218787277664
0.9330360990321561 0.830404610006645 -1.8807609962672867 2.3255654555962786 0.056996473244115206 2.1165170981759966 1.2298532881400903 1.072845448806125
1.5477132207803226 1.8826455997263782 1.6594418590409763 -0.07575742062358926 2.451831008706203 0.7154064262187629 1.270241785189992 -0.9402047640968934
0.14668304763219486 -0.5338815727228216 0.08518498040697321 0.15549457868207728 0.14556213073750882 0.6347909770721107 -0.4727584592524631 0.2500464477505198
0.3873992700458734 0.09602898692054711 -0.5105528006887192 0.8835508409456069 0.2743416116318625 0.7583025097473343 -0.3905263931299345 -1.658943506637087
0.9959564445815745 -0.3442675062480057 0.7591391793172558 -0.29234975959977516 -0.11594682203534952 -0.03917852225565688 -0.013145884548327548 -0.25039823633787633
0.2442978775989338 -0.8265560293275402 0.4093433843397096 0.8071583977207114 -0.29865044681495767 0.6777803503445187 0.7803471471611241 -1.5367822443108434
-0.9631085796866629 -0.6091831109965973 -0.20002326385574076 -0.0027908263982875546 -0.8812517669340963 0.3955577140962121 0.39490453903054673 0.3982512023184334
0.6471288045172389 -0.14888067480674258 -1.497428205339188 -0.977572643775177 0.2706796226536267 -0.11685653364127215 0.037406965948644795 -0.8527615747193137
-0.44267054087988067 -0.7449602663969193 -0.8269478771759512 0.5969312520734195 2.200613803847928 1.7966025505997985 -0.18716100160510535 0.11164786017787796
0.9062585448520026 -4.254396211314629 -0.8659736856703841 -2.786948034790317 -0.5520105806054041 -0.8456877844053162 -1.5862850454216457 -1.6296012628984369
-1.8784305740900424 -0.04446095980015067 -4.218055488834185 -0.3320310145171111 3.9212767786012983 -2.9748759391806754 -0.4495794099288101 -0.04572448299488149
-0.27105351973839276 -0.877023621890525 -0.43884678670434135 -0.5170232791635638 -0.11622269138598824 -0.7359939447559252 -0.4361888086113411 -0.09998581938149301
0.8415810345772883 -0.5549067255735732 -1.772022436276428 -1.7318586985547455 3.7845755058942565 0.5643311720897453 -2.009201106908311 2.848058720557494
-1.4926022525836595 0.201550022755828 -0.16416965267364927 0.6627264407915902 1.7173179938275456 0.6847752308010077 -0.6129284356565433 -1.8588720369169376
1.3039216770370223 1.4955643144224244 0.45513630126434 3.0583929088782895 -0.15167958745447133 -0.09905351235066258 -1.3079844274192012 -0.6128454095317428
-0.8938238839467655 0.7639197815719351 -0.37389468303457063 0.8813915655256651 -0.3692386965474845 0.0512893974266419 2.91031152737268 0.5706099021128992
1.6834302751831487 1.0727394716189078 -0.1241702925353715 1.352865992268503 2.003919315146779 -1.7953889885826522 0.973538527848296 -1.8512305426575557
-0.5313843255913019 -0.2879293154327763 -0.11903320982709517 -0.2552260931098317 0.21156376542437932 -0.7550130630270658 0.43918306103804583 0.12185771903055323
-0.35268110484197346 0.07155655808694572 0.4127021854962772 1.0759262270501244 1.3746941010904914 1.40529569950726 -0.609965787851231 -0.03373532833101096
0.5733136428992577 -1.7680633315485492 -0.025714027400294534 -2.1870983948595013 0.7539192197485773 1.414722875581753 0.008562695334750986 0.4708229353695989
0.08513385287916597 -1.7793048019273245 0.07882584787764298 0.025177276457477856 -1.571334771437463 -2.1268795416905264 0.3460462553546561 1.6318371993980396
1.0595208072080187 0.7397952828804404 0.0003333641978900428 -0.5955028709840308 -1.005235407503319 1.2404264354319958 0.5543100868859133 -0.9415291391612064
0.1318029340289273 0.7665067879175181 0.03925980375821329 -0.17810942281336492 -2.488245240441374 -0.9842329736922008 0.36716520600119557 0.8000979513626922
-0.24420356290548714 0.9324780106391359 -0.5731236936977356 0.7915877091953892 -0.2367057090712589 -0.27485238563224046 -0.08811894889402676 -1.0912268227529422
00000000: 9146 3be3 39f7 e3bf 7d8d 94be 1dc8 e7bf
00000010: 68b9 4aba f1e2 fabf 6d7b 45a8 3e09 f2bf
00000020: 5f26 f21e 94a9 c1bf 7353 a6c5 86e7 cabf
00000030: 8385 60a4 ee93 fbbf d56c ae76 05ac ff3f
00000040: 30eb d540 694f d73f d383 2f12 9a78 f63f
00000050: 952f 4085 9ab3 f83f f66b 0490 1ead f9bf
00000060: d1a8 0bdf ba58 f0bf 1aed fe4d a7da f5bf
00000070: 8fae 0cf3 a835 ebbf ad17 daea 42df abbf
00000080: 8a30 449b 4182 f4bf 8457 8d29 5bfc f53f
00000090: 44a7 3537 f286 e23f f98b 40af 1a3c ee3f
000000a0: edce e60f 0a41 cdbf fdd9 4858 9050 edbf
000000b0: dbde 7d20 a75d f3bf 8304 a5f6 cb03 eb3f
000000c0: 6dcb 9429 d055 c6bf e85b a86b 4dff f03f
000000d0: 473c e859 230d d63f 196a dbdf 3b86 e8bf
000000e0: 2578 4676 0575 d13f 9063 8a2f bbda e53f
000000f0: e70f 0448 8978 e6bf 976d 079b f8c7 f23f
00000100: 77b3 5404 d41a f93f e80a 4682 5016 d5bf
00000110: b3dd e30d e159 bf3f 40de b1d0 c5dd dcbf
00000120: 740a 2b8e c351 eb3f 3755 82b4 e97a cb3f
00000130: 5c42 329e e85f f4bf 3942 3114 d98d ee3f
00000140: bc48 99e9 3105 c23f 3dbe 50ba 2b71 9f3f
00000150: 5e6c b161 000b 00c0 7745 a3a8 a1e6 02c0
00000160: 6a03 d9af d547 09c0 3f63 8e53 3081 f5bf
00000170: dbd3 a7a6 efe2 e7bf 1cca a1d5 c936 e43f
00000180: 40f2 4211 2756 d8bf 3fb9 560e 34b7 efbf
00000190: e82a 6f15 8a30 e4bf 3a04 51c2 cb89 b5bf
000001a0: 6108 88b5 4f31 d4bf 098a 5ac5 962a dcbf
000001b0: 1765 9ccf d558 ecbf fe86 7cbe ad6a c53f
000001c0: 81e2 ed89 0ea2 e83f d1d8 6a1f 4c5d e6bf
000001d0: ef7b 2ed4 17db d2bf 5da7 64b7 2cec d9bf
000001e0: a9fb d726 f159 eabf 53a4 8a48 20f4 e9bf
000001f0: 6d21 8ba9 1dc5 00c0 756b a4e0 bec6 f8bf
00000200: af93 6a85 6edb ed3f 39a3 4db0 ac92 ea3f
00000210: 4bf7 a8d7 9817 febf 65f2 c30f c29a 0240
00000220: b641 2449 a42e ad3f cfb9 3084 a0ee 0040
00000230: 3a09 37a4 7aad f33f 558e 44fd 5f2a f13f
00000240: bb69 2df0 6ec3 f83f 9587 0cfe 501f fe3f
00000250: 681c 23e8 128d fa3f 28f4 019c d664 b3bf
00000260: d6b1 6d93 599d 0340 7ea6 7e04 9ce4 e63f
00000270: 7275 d60c e952 f43f 9cdd 2a4d 2816 eebf
00000280: 0c9c 3a96 82c6 c23f 9302 d9ce 8e15 e1bf
00000290: 7956 f5d0 aece b53f 7c89 1211 3fe7 c33f
000002a0: e1de 86a7 c7a1 c23f 5e42 ca2a 3550 e43f
000002b0: 2b63 59b2 ac41 debf f571 e4d0 c200 d03f
000002c0: d6d7 d54e 26cb d83f e3b0 4a0e 5b95 b83f
000002d0: 2edb bad3 7256 e0bf a7de c669 0c46 ec3f
000002e0: 9502 791e d08e d13f 5ddd fa9f 0344 e83f
000002f0: 33f2 ad69 62fe d8bf 81af ae58 088b fabf
00000300: 4efc b60c e0de ef3f 4148 1a94 7a08 d6bf
00000310: e3f4 883f de4a e83f 265e 1ec4 dbb5 d2bf
00000320: 958a b7e0 b0ae bdbf e059 960f 350f a4bf
00000330: c14b b2c1 3aec 8abf 4506 0353 8606 d0bf
00000340: 4a83 6221 2745 cf3f b6bf 48a1 2573 eabf
00000350: 38ac 2498 ae32 da3f f5de 1cd9 3dd4 e93f
00000360: ce62 80c3 161d d3bf 753c d36a 60b0 e53f
00000370: 88af 9294 9af8 e83f 8537 86fa a896 f8bf
00000380: 0d0a 8815 c9d1 eebf 8630 6094 6d7e e3bf
00000390: 048c 59c0 5c9a c9bf 26af 8083 c9dc 66bf
000003a0: e7c5 d0e7 3633 ecbf e851 6e4d d150 d93f
000003b0: df66 0bb0 1d46 d93f f338 639c f27c d93f
000003c0: 8f6f 7677 47b5 e43f 4f93 a69e 850e c3bf
000003d0: f6a2 2047 77f5 f7bf 0c51 cf6c 4648 efbf
000003e0: af6b bf9f d052 d13f 112d 504e 4fea bdbf
000003f0: 31b6 c87e 0127 a33f a58e 56a4 d249 ebbf
00000400: 7ad4 fed1 b654 dcbf 9ed0 9fe9 b6d6 e7bf
00000410: 69f4 fe64 5b76 eabf 8fb3 b391 0f1a e33f
00000420: 5d39 f568 db9a 0140 f7c7 eb50 e2be fc3f
00000430: 0a82 7d46 e4f4 c7bf c7e2 2144 f494 bc3f
00000440: 4e84 7beb 1100 ed3f 614a bf70 8004 11c0
00000450: 0ad4 6472 0eb6 ebbf 689b 4869 ab4b 06c0
00000460: bae0 d717 12aa e1bf 95b8 14d4 df0f ebbf
00000470: 7a84 836d 6c61 f9bf 92b4 1ac6 d812 fabf
00000480: 2e5f b837 0d0e febf a5b1 9440 96c3 a6bf
00000490: 4406 25f0 49df 10c0 d5f4 2603 ff3f d5bf
000004a0: 2541 155c c65e 0f40 9c81 a3c1 8bcc 07c0
000004b0: 9359 a6b7 e8c5 dcbf 1bd6 2d0e 3369 a7bf
000004c0: 5c7e afdc f058 d1bf 56db bad7 9310 ecbf
000004d0: ad63 36d5 1016 dcbf e4e6 6867 748b e0bf
000004e0: cd50 8e32 c5c0 bdbf bcfb 582c 438d e7bf
000004f0: 817b f776 84ea dbbf 9aa9 4eb0 ab98 b9bf
00000500: 802f 8e59 3bee ea3f fd67 d5bf cbc1 e1bf
00000510: 385e b932 345a fcbf 405f 7977 b1b5 fbbf
00000520: c877 d885 cf46 0e40 48a4 073f 000f e23f
00000530: c910 aa07 d812 00c0 6b0e af02 d3c8 0640
00000540: 2486 4ce6 b2e1 f7bf 7046 1f22 64cc c93f
00000550: f54f 9ddc 8203 c5bf 999e ac14 0e35 e53f
00000560: 6e25 c56e 227a fb3f 77d6 acbe ade9 e53f
00000570: 8bdd 3d18 1c9d e3bf 4b1d e09a f0bd fdbf
00000580: 36b6 f6f9 dcdc f43f c224 b8d8 d4ed f73f
00000590: 8ec6 4902 f420 dd3f c09a 8fb3 9677 0840
000005a0: 9d3a cb99 3c6a c3bf 6d9b 192c 925b b9bf
000005b0: 8615 3714 81ed f4bf 7829 eef9 6d9c e3bf
000005c0: fdeb bd8b 349a ecbf 3bce d3e5 0772 e83f
000005d0: 7808 f2f6 e3ed d7bf 27e5 9c15 5c34 ec3f
000005e0: 0bb4 8557 9ba1 d7bf 386f 2899 9a42 aa3f
000005f0: 56e6 f968 5148 0740 4028 8bb2 6f42 e23f
00000600: 6020 9095 54ef fa3f 58b4 3bdd f029 f13f
00000610: 09fd 92d1 9fc9 bfbf f69e 8acf 56a5 f53f
00000620: 6b06 93d9 0608 0040 e4f9 d8cd e9b9 fcbf
00000630: 2e24 5045 3a27 ef3f e920 e1ea a39e fdbf
00000640: 6bb1 80b3 1901 e1bf f5fa 5514 6f6d d2bf
00000650: 3e64 58df f578 bebf 6686 bfd2 9f55 d0bf
00000660: ee16 c27e 8514 cb3f 0d21 b827 1129 e8bf
00000670: a465 0745 931b dc3f a25a 0046 1132 bf3f
00000680: baa8 cdc4 5392 d6bf c039 ccd4 8751 b23f
00000690: 5d6e 6c6d b669 da3f 5c6c 616b fe36 f13f
000006a0: 2401 e33d bffe f53f 717d e957 177c f63f
000006b0: 46ff cff8 d684 e3bf 4993 cdc7 c145 a1bf
000006c0: 3d4b 53da 9558 e23f 0c20 a4c6 fc49 fcbf
000006d0: 4c4c ee2a c754 9abf fa71 7871 2d7f 01c0
000006e0: d8ab 1433 1b20 e83f 636d 3874 b4a2 f63f
000006f0: d04b 6d83 5189 813f 23a0 6785 f621 de3f
00000700: a803 e609 55cb b53f 414c de4f 0878 fcbf
00000710: 45c5 b646 ee2d b43f 4fe9 f26b 12c8 993f
00000720: be43 e6ed 2f24 f9bf fdbc d06b d903 01c0
00000730: 63b2 6931 9f25 d63f 15f9 bc52 011c fa3f
00000740: 483d 0617 ccf3 f03f 249c 3628 67ac e73f
00000750: 2d44 dd53 ecd8 353f db9d 7109 5c0e e3bf
00000760: b820 00b9 7115 f0bf 7163 d463 c9d8 f33f
00000770: c592 e081 e8bc e13f 92b5 9db7 0121 eebf
00000780: 38e6 9525 ebde c03f 6591 483e 3987 e83f
00000790: 05b8 606a dc19 a43f 23e2 0b21 4acc c6bf
000007a0: a3fc e01e ede7 03c0 fde3 3426 d67e efbf
000007b0: 6f45 007e a27f d73f 2c61 d604 679a e93f
000007c0: 9b74 1ff6 0f42 cfbf 34e5 fd1f dcd6 ed3f
000007d0: e9d2 1f80 0757 e2bf b71c 5dbf af54 e93f
000007e0: f567 9e67 5f4c cebf c827 e175 2e97 d1bf
000007f0: ab61 a8a3 f68e b6bf b9de c341 aa75 f1bf

lstm.bias_ih_l0 f8 [40]
-0.35768755627759663 -1.097717291607924 1.995095852323418 1.5819885592888567 -1.1995475572413934 -0.8260099293112722 0.3432824136779317 0.9123661515504747
-0.30888515411662765 0.42591884332887026 -0.29078985110707006 -1.302270379707755 -1.232822319807569 1.2717359561302988 -1.9132725626590268 -0.8532833833109336
-0.774039258265887 0.9633611196481442 -0.701057848629286 0.3936290186417537 0.04127590077847493 0.7977018003212728 0.5781835913499491 0.6259584189674366
-0.34108616784101825 0.23174831189833375 0.9188517990014713 -0.6168696191089119 -0.07300378596332349 -0.7942118396230176 -0.6179284487753444 -0.6492595193471966
-0.5839173298719802 -0.03395763219939778 -1.1326705354638524 -1.5148648801169604 0.30909356140580196 -0.8232078719987963 -1.2923021436274142 -1.9490821015683684
00000000: fe7f 1959 5ae4 d6bf 0d5b bb01 4090 f1bf
00000010: 47d4 e1a0 e9eb ff3f 33ab 4c3c d34f f93f
00000020: 5893 85c7 5831 f3bf 9e05 1260 ac6e eabf
00000030: 6779 02cd 56f8 d53f 975f dc7f 1a32 ed3f
00000040: 4aa7 c93c c6c4 d3bf d33f b61b 4142 db3f
00000050: 6bde 2009 4d9c d2bf 184f 3677 19d6 f4bf
00000060: 46a3 95e5 a3b9 f3bf 7ba1 4bcd 0759 f43f
00000070: 2b46 cfb0 c39c febf 594d 31f4 184e ebbf
00000080: 804e 82fa edc4 e8bf 1c0e e4b2 dad3 ee3f
00000090: dcf0 8ede 106f e6bf 80aa 74c4 3731 d93f
000000a0: 28b9 e967 1d22 a53f d4e2 0aed c586 e93f
000000b0: ccd1 fddf 7a80 e23f 49df 43f3 d907 e43f
000000c0: 61b0 ff13 5bd4 d5bf abd6 40be eda9 cd3f
000000d0: 70a0 52e3 3b67 ed3f 0700 ff5a 65bd e3bf
000000e0: 3258 3249 60b0 b2bf 04dc a8f2 2e6a e9bf
000000f0: 7b42 d8e1 11c6 e3bf fccf 46e6 bbc6 e4bf
00000100: 02c5 6b65 73af e2bf 06f5 7d0f e562 a1bf
00000110: 625c af23 6b1f f2bf 8261 dff4 e23c f8bf
00000120: f517 695c 30c8 d33f 3c6d 0109 b857 eabf
00000130: 14e3 3603 45ad f4bf 0f48 b7b6 702f ffbf

lstm.bias_hh_l0 f8 [40]
-0.7754450823176757 -1.1973055665636732 1.8475485178908124 2.0600085716675434 -1.4556646925277241 -0.9600622655272453 0.6233657421634196 0.8926995095998688
-0.44487566946792295 0.3260928501485951 -0.24414552108235135 -1.3972215623115911 -0.8243555932660516 1.308667798695836 -2.042782935536149 -0.6427934545885522
-0.9960030811075286 0.8860615247689932 -0.5983168157904649 -0.18604552330847351 -0.1718361554768658 0.6327935700165557 0.7469741701921117 0.8878964842578877
-0.14261886849886182 -0.20402371964730626 0.8141843440435088 -0.726047744967219 0.025714276079866285 -1.2002612699933486 -0.7096109722643426 -0.7279235837545455
-0.2499043446424876 0.07118260680092302 -0.8298114079423344 -1.5772132906041358 -0.18488613105330373 -0.6607235986843193 -1.5762529194891528 -2.005949254020843
00000000: 10c0 8c34 72d0 e8bf 0b5b bbe1 2928 f3bf
00000010: 37d4 e108 8f8f fd3f 8c55 26c6 e57a 0040
00000020: 5693 850f 674a f7bf a005 1280 d4b8 eebf
00000030: aa3c 81b6 9cf2 e33f a35f dc8f fe90 ec3f
00000040: 47a7 c9cc d778 dcbf d03f b68b b4de d43f
00000050: e9bc 4112 2940 cfbf 184f 36ff 045b f6bf
00000060: 9c46 2bfb 1e61 eabf 7ea1 4ba5 4df0 f43f
00000070: 18a3 6794 9e57 00c0 5b4d 3194 c391 e4bf
00000080: 674e 82da 41df efbf 170e e4b2 9d5a ec3f
00000090: dff0 8e4e 6925 e3bf 32ab 16f7 56d0 c7bf
000000a0: bb91 0526 bafe c5bf dce2 0a4d d83f e43f
000000b0: c7d1 fd5f 36e7 e73f 49df 43e3 a569 ec3f
000000c0: 9f60 ffc7 5541 c2bf 7829 bf01 731d cabf
000000d0: 6ca0 5253 cc0d ea3f 0900 ff7a c83b e7bf
000000e0: f79e 36db d754 9a3f 036e 5429 4534 f3bf
000000f0: 7942 d811 22b5 e6bf fecf 4666 264b e7bf
00000100: f913 af95 ddfc cfbf 9705 41f8 0539 b23f
00000110: a8b8 5ea7 d08d eabf 8461 df00 443c f9bf
00000120: fbcf 2d47 59aa c7bf 336d 01d1 a524 e5bf
00000130: 0de3 36fb 5438 f9bf 14a4 5b1f 2f0c 00c0

dense1.weight f8 [28, 10]
-0.3817903493539938 0.3918362416482373 -0.5529928017472444 -0.5125961020976607 -0.05588031607838197 -0.2524000537453902 -0.36800946414146135 -0.5973149353393912
-0.3444226542489508 -0.033715053793672914 -0.03866637238953382 -0.4272372964113628 0.9025135714298368 1.1632164556407416 -0.7998789855786593 0.1445076127208239
0.2065476098747184 -1.0690924742025756 0.6300102116919243 -0.9469304116013049 -0.3872044094966189 -1.1820463298153032 0.9069834717007754 1.0311194055554052
-0.11823065492964578 -0.14727140164460814 0.510113313154464 -1.1342422902765037 0.5512497246654388 -0.7352066305290393 -0.2476425014547868 0.013905291816765478
1.2660619690422907 0.9357093240263281 -0.43057175398117 -0.1432762050270283 0.8428882270642409 -1.712283100046827 1.1876713955588227 -1.6944895441691483
-0.12596813167059118 -0.8151875511330012 -2.789304311453734 -2.574902812363263 2.3304034244178666 0.44868140677684437 -0.12519453050022755 1.8252780142915896
-0.7171651197933504 0.4752360590853889 0.30935848650092296 0.7480203964500406 2.5750336662739937 1.4462778008813302 -2.352384353429911 0.23861615076351506
-0.30155530075419723 0.9155761458438294 -0.2357277693463957 0.8338272085169827 -0.11478066930346689 -0.451613712060105 -0.574607569636321 -0.1378586466130754
0.017694532871246338 -0.2131458818912506 -0.19269702408595518 -0.16460292027046441 -0.4891733108336823 -0.2165433168411255 -0.5937677059602257 0.36086902712662444
1.8738304131070544 1.5205089092802457 -0.9421850200291173 -0.1681506096212843 0.7417250388390635 -2.261607333652534 1.1566162582766601 -2.4274338887795306
0.013300216123313736 -0.4346212200492199 0.07070179604025076 0.12705234218089165 0.4128160674573201 -0.04492805901359558 -0.38154930547193683 0.002643342685413652
-0.488871795253148 -0.53437140266575 -0.35316189213612187 -0.4502078820990268 -0.5297031869685938 -0.20449833369156722 0.09970492163702793 -0.12434736646702858
-0.6840874320677461 -0.19775621544109565 -0.25570907324251296 0.39454604968512896 -0.11488929879322306 -1.140797471710252 -2.3094618068140216 -1.8629828502194303
4.212924898458027 0.8245444170525639 -1.8963802020539753 5.079693398412172 -0.3312524251167857 -1.1601473520133057 0.16901974255276303 -0.4563624452933462
-0.12560221833499507 -0.03375995198192963 -0.11113205824560922 -0.11898505497684592 -0.4596664312980417 -0.16050043013480514 -0.5808214201944992 -0.08667039248689376
-1.1989233130321213 -2.9363738569876663 -0.8096058049879162 -1.0129371016251063 0.12954960894370834 0.8787713749691153 -0.15041339989310604 2.0772622956712823
-0.5109869658383477 -0.60876831730224 -0.708074095089155 0.10742547016050698 -0.7520412154864423 -0.9506444613930104 1.0758636883100547 -0.1790305605444604
-0.7573367529887494 0.67663667977733 -0.2883938149313807 0.6895528811847506 0.27980468295177224 -0.15791175050057277 0.9323669936629134 0.763053926888495
-0.37719537841011735 0.4525768379491466 0.23477980990166378 -0.7964669375509518 0.12864318015990914 -0.5914508806857635 0.1771857522522326 0.886407677968698
1.7141472135552243 1.8045092713542032 -0.8867493986208871 0.7503767061749003 -0.16857361226000306 -2.604202523043603 0.28580358666248057 -1.7257996230034438
-0.41605212983277207 -0.49158532717429276 -0.15868144247762025 -0.6429036796208242 -0.36218963585952624 -0.5616349648752288 -0.637291745999899 0.2784759243786775
0.08418341832432476 -0.30212187669372387 -0.06875322502372612 -0.6430860006574814 -0.42923147497543085 0.10146730945724888 -0.9944836018162119 0.3023100200387857
0.475046832197621 -1.3163112176718934 0.22589538060445088 -1.633216546146573 -0.04786687844673889 -0.28428717183776353 -0.16966966557100385 -0.03774660148540988
-0.23576049506664276 -0.06595197319984436 -0.16975291287085267 -0.09793671135406053 -0.19190263748168945 -0.15723122436654688 -0.35355964512142235 -0.7054871844956684
-0.9859567198881756 -1.1347036942272455 1.7694634297744452 -0.2640410053751094 0.22130912167779765 0.19795316946639852 -0.034733732383187776 0.6606645061786702
0.4075177806836913 0.9980677099277467 1.594342568520501 1.377467573358218 -0.6027035195801161 -0.06187887457325383 -0.09409838329212056 -0.7389704255811977
0.23151588502214604 -0.9624798666678158 0.08516181297124699 -0.7116792336379371 -0.6242113747057266 -0.5057969875489812 0.1100311884442431 0.121988218760728
-0.20541290146846494 1.0823292101072644 -0.33797278264686087 0.02456894116603004 -0.5030449137471317 -0.4952558628430517 -0.31422120332717896 -0.2125992774963379
-0.2841406910468583 -0.649442987429774 -0.08360898536913297 -0.3744298340826454 -0.37301548686822045 -0.41082852822400545 0.0013710024819043268 -0.06515115486178233
-0.41613147209067497 -0.31517762810344074 -0.11520522127583642 -0.4177423749854757 -0.28706185495497927 0.0063069989644715324 -0.2792459932988733 -0.44883356615615255
0.45725956578325677 -0.21065650507279868 0.2178718219675748 -0.10500165870107608 -0.41004483969085853 0.21347263454202442 -0.33347874142938266 -0.2827234270801394
0.08333137227894712 -0.1304208746938339 -0.05279272415515175 -0.532226358803894 -0.09239634558580648 -0.5881775108313063 0.19711473963035972 -0.29726359287328
00000000: 28d8 19ca 406f d8bf 2512 d150 d813 d93f
00000010: c1b0 cdf5 1db2 e1bf 0321 d2f0 2f67 e0bf
00000020: 52f5 1744 589c acbf 0216 168e 5227 d0bf
00000030: b5c9 4691 778d d7bf c43d 1636 341d e3bf
00000040: 700c 0051 050b d6bf 3279 da7a 1943 a1bf
00000050: 2b6b bc29 14cc a3bf fff7 ed19 db57 dbbf
00000060: 0998 2f24 64e1 ec3f 1956 b2db 889c f23f
00000070: 092d 7ad0 9b98 e9bf 3459 54b7 397f c23f
00000080: 034c bdee 2670 ca3f b998 d1b5 001b f1bf
00000090: 7b9c eb2c 0b29 e43f 264b ad01 414d eebf
000000a0: 07eb e900 f5c7 d8bf ee9d 8e69 a9e9 f2bf
000000b0: b6f4 9e33 0206 ed3f 521a d20f 777f f03f
000000c0: a7b7 4e3c 5d44 bebf df8e d90e cad9 c2bf
000000d0: 8a15 a827 d952 e03f c0a4 673e db25 f2bf
000000e0: fdbe 6b76 d6a3 e13f 2796 3d0e d086 e7bf
000000f0: 5b89 6cde bfb2 cfbf 8237 c1ac 607a 8c3f
00000100: a1ef fb31 ca41 f43f cc2b 28ae 54f1 ed3f
00000110: 088d 7bd4 7c8e dbbf fc6a 71eb df56 c2bf
00000120: 2b94 2dbb f0f8 ea3f 281d c3f6 8265 fbbf
00000130: ff1d a5b8 b300 f33f 52ed 7911 a11c fbbf
00000140: 4084 ee46 b91f c0bf 471f 0734 0416 eabf
00000150: e148 62c7 7e50 06c0 41d4 4ba5 6699 04c0
00000160: a0e3 f28c aaa4 0240 2982 1b38 32b7 dc3f
00000170: 887a 11d7 5f06 c0bf dad7 17b8 5634 fd3f
00000180: 0405 eb43 04f3 e6bf f2b4 e980 446a de3f
00000190: c5bc 9089 87cc d33f dbcd 6f78 c8ef e73f
000001a0: 5cf7 3540 ab99 0440 3375 fb30 f423 f73f
000001b0: 1ed4 4ce3 aed1 02c0 64d1 e959 f98a ce3f
000001c0: a22e ab9a ae4c d3bf 02b4 6c58 664c ed3f
000001d0: cf07 0dda 532c cebf a00d e365 b6ae ea3f
000001e0: da12 df14 4462 bdbf bd4a ee32 3de7 dcbf
000001f0: c3e7 f369 2f63 e2bf fa44 5625 5aa5 c1bf
00000200: 0000 0000 841e 923f 0000 0040 5d48 cbbf
00000210: 7a2b 3ecc 4baa c8bf 78a1 b15f b511 c5bf
00000220: 4ed4 0693 9d4e dfbf 0000 0000 b1b7 cbbf
00000230: c5a4 d021 2500 e3bf ed7b 6967 7a18 d73f
00000240: 31b8 6899 35fb fd3f 222a 6a26 0154 f83f
00000250: 18cc f932 6126 eebf ce1c 908c f585 c5bf
00000260: fa04 0e26 36bc e73f 7f73 f395 c517 02c0
00000270: 501f b50c 8081 f23f dc14 6c75 626b 03c0
00000280: 6723 3cca 243d 8b3f c493 9085 d5d0 dbbf
00000290: 22e7 c24d 8319 b23f 6308 464b 4043 c03f
000002a0: 7185 3f15 946b da3f 97b5 4580 cf00 a7bf
000002b0: 1910 34c7 4d6b d8bf e6e2 59cc 7da7 653f
000002c0: 1b24 23ed ac49 dfbf d2be 4b0e 9219 e1bf
000002d0: 87c2 3a56 349a d6bf 5512 81b8 34d0 dcbf
000002e0: 26bf 1319 54f3 e0bf ec58 a55b 002d cabf
000002f0: 3868 ae01 4386 b93f 47d2 51a0 3ad5 bfbf
00000300: 2abd 8a53 0be4 e5bf ef3a f35e 1350 c9bf
00000310: f17d b796 895d d0bf c078 0a13 3e40 d93f
00000320: 0f2e fa94 6269 bdbf 27ae 85d9 b440 f2bf
00000330: b204 9d1c c779 02c0 9b38 eb1a c7ce fdbf
00000340: 8086 0dfc 08da 1040 7be2 2af9 aa62 ea3f
00000350: bda8 49c4 9257 febf ad8c 6f25 9b51 1440
00000360: e539 265f 3d33 d5bf a702 77ab f68f f2bf
00000370: 063c 525d 70a2 c53f a914 6ad4 0a35 ddbf
00000380: bce4 06c6 bb13 c0bf 0495 5a03 fc48 a1bf
00000390: 1fba b38b 2673 bcbf d49b d6f7 cd75 bebf
000003a0: a99f 5fc0 2c6b ddbf 4622 3631 478b c4bf
000003b0: 1aa7 91cd 1696 e2bf d63f 43e5 0730 b6bf
000003c0: ae28 3e36 ca2e f3bf 34bb a493 b17d 07c0
000003d0: 3465 e26e 4ae8 e9bf 6328 c688 fd34 f0bf
000003e0: 73b8 cfe2 1495 c03f dce7 8425 e51e ec3f
000003f0: 4ee5 b50c bf40 c3bf f0f9 c8b1 3b9e 0040
00000400: b6a7 5e56 015a e0bf 28ee b4b1 077b e3bf
00000410: d7af 3101 8ba8 e6bf f9c7 1851 3c80 bb3f
00000420: 7944 38bd b810 e8bf f7ce f9ee ad6b eebf
00000430: 12ee c3d7 bc36 f13f d7f1 4231 79ea c6bf
00000440: 02a8 4449 1a3c e8bf 725d 5df7 01a7 e53f
00000450: e8ee df54 0b75 d2bf 6da2 3134 d110 e63f
00000460: a5e9 a2e6 51e8 d13f d2eb 06c6 7336 c4bf
00000470: 9ddd 344e f3d5 ed3f 3841 a211 f06a e83f
00000480: b752 9e15 f823 d8bf 98cb 7ad7 04f7 dc3f
00000490: 87f5 a4ca 430d ce3f 350d 243b a87c e9bf
000004a0: 93f3 d135 6177 c03f 488b b765 2aed e2bf
000004b0: 9ec8 9ed1 05ae c63f 3e90 79a2 735d ec3f
000004c0: cafc eba0 256d fb3f b3b8 1c1d 45df fc3f
000004d0: 4d61 5a46 4060 ecbf da71 9602 1603 e83f
000004e0: c209 d0f3 d193 c5bf 4e10 e521 68d5 04c0
000004f0: ebde 7220 9b4a d23f 94fb c310 e09c fbbf
00000500: 9606 c41c 99a0 dabf 110d da4d 2276 dfbf
00000510: bb34 f66a ac4f c4bf 5162 cebc aa92 e4bf
00000520: 48e0 3d70 1d2e d7bf 24bc cde3 e9f8 e1bf
00000530: dc91 e2a8 b164 e4bf aa81 fbae 8cd2 d13f
00000540: b986 9164 0b8d b53f 6790 f3fe f655 d3bf
00000550: cdaf f8b4 cf99 b1bf b0db aa17 2994 e4bf
00000560: 7bbb db4a 8778 dbbf 0e64 bbf7 c2f9 b93f
00000570: 71af 4646 cfd2 efbf ca75 5420 0c59 d33f
00000580: 12dc 16d4 2a67 de3f b723 f459 9c0f f5bf
00000590: 4bbd 01cc 23ea cc3f 0bc5 4fac a721 fabf
000005a0: 430f fbea 0182 a8bf 30cb 6dd2 c231 d2bf
000005b0: 8d17 6050 bcb7 c5bf 5178 d4c5 8553 a3bf
000005c0: 0000 0060 662d cebf 0000 0080 3ae2 b0bf
000005d0: a32c 97a4 76ba c5bf 6dee 575c 6112 b9bf
000005e0: 0000 0000 4490 c8bf db3c 481b 2720 c4bf
000005f0: 0ad7 3ea2 b8a0 d6bf 11fe 24dc 5993 e6bf
00000600: e01d 661b f58c efbf d4b3 950f bf27 f2bf
00000610: 7796 a5e2 b84f fc3f 47e6 b83e 0ce6 d0bf
00000620: ead0 f477 db53 cc3f 88b5 7f8a 8756 c93f
00000630: e0bf 4ea9 9ec8 a1bf c84a f5e3 2924 e53f
00000640: 0fcc 2475 c514 da3f 49aa aab1 2bf0 ef3f
00000650: b8a8 665a 6d82 f93f 04fc 2d70 1b0a f63f
00000660: 73fb 38e4 5849 e3bf 73f8 357d 96ae afbf
00000670: 049c d8e6 d416 b8bf 66a3 524e a5a5 e7bf
00000680: bc59 5601 50a2 cd3f d8b1 cc93 a2cc eebf
00000690: fd5e 9421 2acd b53f fbf3 3687 13c6 e6bf
000006a0: 9fdf 0422 8af9 e3bf ae05 fe29 7d2f e0bf
000006b0: 2175 e803 012b bc3f 531a 13b2 9e3a bf3f
000006c0: 39e4 fd4e f84a cabf cfa8 0e6f 3851 f13f
000006d0: 3102 1a98 58a1 d5bf 22c7 38bb 9928 993f
000006e0: 7bd1 9ea5 f118 e0bf f40a 84a5 45b2 dfbf
000006f0: 0000 0040 331c d4bf 0000 0000 7436 cbbf
00000700: 0995 e06f 5c2f d2bf d013 f4a8 3cc8 e4bf
00000710: 48ea cf01 6667 b5bf da06 028d a8f6 d7bf
00000720: 9708 4059 7cdf d7bf 4119 3fbd 034b dabf
00000730: 6811 a4b4 6676 563f 8690 6dff bead b0bf
00000740: 6fcf dde5 e5a1 dabf f2a5 48c9 de2b d4bf
00000750: 074a b5e1 167e bdbf b9d2 ad83 4abc dabf
00000760: a07c bdaf 385f d2bf 19ec 9c24 5ed5 793f
00000770: 177e 3096 2adf d1bf ee36 ff6b b0b9 dcbf
00000780: b89f 34a0 bd43 dd3f 1919 fdd7 caf6 cabf
00000790: a70b 094f 39e3 cb3f a499 2582 63e1 babf
000007a0: 4569 17b6 2c3e dabf 5a77 f93f 1253 cb3f
000007b0: 976d 1638 b757 d5bf c6d2 4700 2418 d2bf
000007c0: a53b ab6e 3455 b53f 244b c397 a1b1 c0bf
000007d0: da1e 6ddf a507 abbf 6a38 a492 ff07 e1bf
000007e0: 9a9a 8f72 49a7 b7bf b26b a8a4 59d2 e2bf
000007f0: 43cf 2248 0e3b c93f 1ba9 6be0 5d06 d3bf

dense1.bias f8 [28]
-0.000956518144452015 0.24571156909286668 0.8883361739915485 0.004443047183912594 0.5579744231639744 0.7716682502218011 -0.6474886085519438 0.18462394070354543
-0.5434562937934908 -0.4927124831663298 0.5594164556729334 -0.5761452517174136 1.288985989058308 0.02362694061326146 -0.1796252937704032 -0.1734555318624399
-0.297039328181999 0.7798480175046172 -0.5774715408258376 0.1998186180469602 -0.17967868517727498 -0.17587881018751594 -0.5486617063172813 -0.5143534689789863
-0.2851609356761497 -0.2601191577822342 -0.6193806791114091 -0.5802229634183094
00000000: b479 0013 db57 4fbf b258 c008 7a73 cf3f
00000010: 0cb8 e4fb 3f6d ec3f 4a82 9765 df32 723f
00000020: adcc 6f2d edda e13f c40d 429d 81b1 e83f
00000030: ae6b c807 3ab8 e4bf feaf b0dd c1a1 c73f
00000040: c8bf 1474 fe63 e1bf 0bf1 61f0 9988 dfbf
00000050: 15b4 be56 bde6 e13f 41e7 bb2a c86f e2bf
00000060: 521f c0c5 af9f f43f 4a37 f424 a931 983f
00000070: 7e9e 232d f6fd c6bf 5c69 5476 ca33 c6bf
00000080: 45b8 0a3e b102 d3bf 6c0c 61d4 83f4 e83f
00000090: 69f7 c698 a57a e2bf cb61 d20e a893 c93f
000000a0: 62f5 4f0e b6ff c6bf 784a e864 3283 c6bf
000000b0: b168 a6fe a28e e1bf 292a fb67 9575 e0bf
000000c0: 47da 34a7 1340 d2bf 7537 efd2 caa5 d0bf
000000d0: 46d9 116e f7d1 e3bf 8ea2 88bf 2f91 e2bf
