PytorchLSTM/model.pt (torch, 23480 bytes, 22 tensors)

lstm.weight_ih_l0 f8 [40, 8]
000000 2f dc 94 50 56 53 fc 3f a7 55 45 63 a3 83 dd bf
       1.7703459880556343 -0.4611595601503162
000010 ab 8a fe e2 ea 86 fb bf 82 f6 5d 78 7f 91 c8 3f
       -1.7204388491597153 0.19194024445816998
000020 e6 59 35 22 9c cf e0 bf 51 06 b6 2b 58 8c f2 3f
       -0.5253430050022956 1.1592637736761342
000030 51 84 ac 7d 7a 1a ac 3f a4 1c 09 b3 34 15 d4 3f
       0.05488951477151061 0.31379430278725295
000040 10 8e 27 e7 89 cd de bf a4 6d b8 e0 65 a4 da bf
       -0.48129508565600165 -0.41628405518869216
000050 95 e0 2b bf f8 34 b3 3f 95 b2 c5 82 77 a0 eb 3f
       0.07502703349371338 0.8633382372041348
000060 69 6b 3e 5c c8 d7 d9 bf 8e 32 be d6 7a 7a d4 bf
       -0.40379532821832825 -0.31997557612411576
000070 ae 47 6b e3 65 1a d2 3f 73 a1 d0 27 4c 55 e8 3f
       0.28286120613949606 0.7604122903476721
000080 e0 fc 5a 26 7c f1 e0 3f 61 df c8 e3 44 06 d1 3f
       0.5294781445626562 0.2660076355418735
000090 49 39 17 b7 c9 e1 ee bf cb e5 78 33 13 76 f1 bf
       -0.9650620056143363 -1.091326905311109
0000a0 95 8c 64 ce f1 50 b0 3f 18 fe 09 e8 6b 46 83 3f
       0.06373511589895238 0.009411662119645434
0000b0 a6 4e be 22 fa 4e cf 3f 38 27 fa c7 c7 a4 e0 bf
       0.24459768959478828 -0.5201147943309712
0000c0 fe 8d ba 13 59 64 ec bf e4 ba 39 e9 cb 88 94 bf
       -0.8872495065047017 -0.020053087339358636
0000d0 66 83 df 15 b6 12 f1 3f cb 82 81 e8 20 22 f2 3f
       1.0670681814592284 1.133332164980106
0000e0 9b b0 6f 6d 66 50 30 3f 3c 2c 68 98 a4 4c b6 3f
       0.00024893284483940855 0.0871069786154956
0000f0 cc fb 17 87 99 84 cd bf a8 5d a4 e1 3a ab bd bf
       -0.23060912224170094 -0.11589401253546916
000100 7c 3d 89 da 00 ab da 3f 56 b1 f2 bc 17 2f c3 bf
       0.4166872152463481 -0.14987465597131217
000110 e3 8d e0 f8 72 27 b3 bf 31 1d 9c a3 df fb c4 bf
       -0.07482069564917242 -0.16393657196770442
000120 e4 31 09 43 d4 56 d6 bf 10 0f 0a 69 92 35 e8 bf
       -0.34904963060833283 -0.756539540438526
000130 7e f3 05 6c 5e 7b d4 3f c1 82 9f 39 aa c8 c8 3f
       0.32002983616967373 0.1936238080370654
000140 a6 90 6d c5 46 84 c1 bf 1a 4a 72 88 78 40 ef 3f
       -0.1368492568973398 0.9766199746102899
000150 c4 ec c6 0f 79 ba d8 3f e8 39 19 56 3b 0c ed bf
       0.38638140240409435 -0.9077431375133616
000160 86 7d b2 81 1b a4 c2 3f 29 91 69 b0 01 47 f1 bf
       0.14563316185829595 -1.0798355952366114
000170 94 85 1c ba 1f 42 d2 3f dd 0d f5 6c 29 95 e4 bf
       0.2852858846182127 -0.6432082298346661
000180 34 50 c9 ef 11 0c cf 3f 75 e6 1a 48 32 07 e4 3f
       0.24255584915465678 0.6258784683515858
000190 18 86 42 85 f5 e0 b3 bf a1 fc 07 5a b7 b0 e4 bf
       -0.07765135291494862 -0.6465718038961265
0001a0 95 cd 0d f7 7a c2 cc 3f 23 54 b7 e5 25 f9 d0 bf
       0.22468506873302077 -0.2652067893334921
0001b0 e4 f5 1c 9a a9 5b da bf 6f d8 14 08 fb 5c e2 bf
       -0.4118446354876524 -0.5738501699295407
0001c0 98 71 5c 38 ca 29 b8 3f 6e 05 6c e8 7a 62 ef bf
       0.09438766361240025 -0.9807714976779331
0001d0 85 89 e2 62 c4 73 b1 bf 01 30 07 b6 38 19 e6 3f
       -0.06817271627600092 0.6905787997470726
0001e0 15 8d e1 96 b1 a5 e4 bf 12 97 7e e2 0c f5 cd 3f
       -0.6452262827773746 0.23404084262181662
0001f0 71 81 e9 6c d2 70 ef 3f 33 2f c5 4a 37 9c f0 3f
       0.9825222136678758 1.0381386681282947
000200 0e 83 a9 5c df a0 e5 3f 1c 8e 3d b4 30 4b f4 3f
       0.6758877572829947 1.268356994690186
000210 be 39 71 2a 79 2a e4 bf ef f9 16 80 90 2b ee bf
       -0.6301847294760632 -0.942817926574035
000220 61 f2 32 59 e4 63 e5 3f d3 6f 47 dd 2e c8 ba 3f
       0.6684438459556753 0.10461705114670332
000230 9a c1 cf 9f 12 87 d2 bf 7e 7c ba 70 cf ab f3 bf
       -0.28949418646427605 -1.2294458774047423
000240 c2 f9 0b 73 6e e2 e4 3f cd 8e 00 08 4b b9 ea bf
       0.6526405570037286 -0.8351187855045851
000250 60 fc e1 ea a5 73 ec bf 2f df a3 98 1c 9e dd bf
       -0.8891172015718318 -0.46277537256490836
000260 b5 e1 7d a4 37 0a e0 bf 12 eb 43 57 7e e3 f0 3f
       -0.5012472355584153 1.0555404099274637
000270 52 df 30 5d 08 e2 c4 bf 64 c1 c8 79 9f 16 ce 3f
       -0.1631479697259644 0.23506539770597634
000280 4b 80 4c 57 71 00 ee bf 68 5a e2 53 bc 8a cd 3f
       -0.937554045205624 0.23079637618930637
000290 36 70 84 ee be 23 ed 3f 2a 8a 3c 99 37 b4 d6 3f
       0.9106135042707197 0.35474958385944666
0002a0 6c f4 07 74 e0 e4 97 3f 56 15 ef 8d 23 f7 d0 bf
       0.023334033090567294 -0.2650841604302817
0002b0 77 03 9b 2d b0 4d d7 bf 86 32 2b fa e2 08 d4 bf
       -0.3641167111746237 -0.3130423968366717
0002c0 80 f9 4c 15 9d bd ce bf b7 e3 0b 9b 69 e2 e3 bf
       -0.2401615480429875 -0.621388247323117
0002d0 bc 18 bf 39 7b 11 e2 3f a9 f2 74 c2 7f 7d e0 3f
       0.5646339538441434 0.5153197095856586
0002e0 53 4b 1e 27 d4 63 ca bf da 6b f8 95 0e 28 e1 bf
       -0.20617153081965486 -0.5361397675618449
0002f0 c2 52 14 e4 f7 dd 66 bf 8b 4d f8 b2 65 60 e4 3f
       -0.002791389619810709 0.6367672439104565
000300 a6 52 fe a6 00 b9 d1 3f 52 90 75 bf d9 e1 81 3f
       0.2769166594310185 0.008731557040569413
000310 3e 74 ce f3 58 af e5 bf 9b 9d 68 85 d3 00 d0 bf
       -0.6776547204823442 -0.25005043056668236
000320 61 33 67 1f 8f 4e d5 bf 17 64 fc bc 90 33 d4 bf
       -0.3329198652907533 -0.3156473012509777
000330 98 fb 48 f0 19 e2 a9 bf 6e f0 c3 90 fc b7 89 3f
       -0.05055314119498816 0.012557957809342404
000340 79 5a 7e 50 ee f2 ea bf 93 e6 cf e6 1f ab e4 3f
       -0.8421546527996063 0.6458892353104652
000350 c7 95 83 c3 54 32 f0 3f 2d d8 c9 ca 0a 3e e2 3f
       1.012287868239001 0.5700735054695137
000360 87 d8 3f 11 70 f1 bf 3f 06 93 60 83 fc df e3 bf
       0.12477779790046571 -0.6210920873605523
000370 38 2b 87 f1 1d 70 b4 3f 67 d0 cd 05 40 cd c6 bf
       0.07983576914481894 -0.1781387356128363
000380 90 6c c5 ee be b0 e1 3f 58 5d f1 a6 dd 61 cd 3f
       0.5528254188060533 0.2295491280699291
000390 af d2 08 09 2a 17 e7 bf ab 8f d4 d2 91 b0 ef bf
       -0.7215776611761465 -0.9903039090900071
0003a0 73 72 50 b5 6b 41 ac 3f 4b 53 ab 79 c3 08 c7 bf
       0.055186620600783075 -0.1799549430931172
0003b0 c9 3f 5b 6c 32 39 8f 3f f6 e4 af ff 64 71 e1 bf
       0.015245813304687677 -0.5450921052826334
0003c0 76 f1 39 d1 3f fa c0 3f b2 f5 d9 d7 e2 f9 c4 3f
       0.13263700214509883 0.16387591876620672
0003d0 1f 39 81 91 a5 03 c3 3f 6b fd 3c 07 dd 83 bd 3f
       0.14854879002309304 0.11529332567896737
0003e0 0a 88 39 00 20 91 bc 3f 90 09 6a b2 86 a4 e5 bf
       0.11158943181501982 -0.6763337597515591
0003f0 1c 0d cf 14 37 44 cc 3f a9 c7 ed 5f e4 52 dc bf
       0.220831761513275 -0.44255933158921806
000400 29 5c 25 23 ec 03 c7 bf 62 7e 01 f0 90 91 c2 3f
       -0.17980720249281149 0.14506732672724626
000410 bf 33 d5 07 55 7c d7 3f f1 38 d4 b0 ef cc d5 3f
       0.3669636322491065 0.3406333186002391
000420 1f 80 77 70 81 d0 c3 bf 44 44 1f c0 9d 82 e9 bf
       -0.15480058661978632 -0.7971943619142015
000430 93 9f 66 db d5 4a d4 3f cc b1 8c c2 c4 b1 d5 3f
       0.317067589052834 0.33897513388617706
000440 90 ac f0 64 9a 16 f1 bf cf e5 1c 38 6f ae 80 3f
       -1.068018335626025 0.008145207309655426
000450 c1 20 ba 87 2b 4b ef 3f 66 55 e4 21 46 0e e9 3f
       0.9779260302466569 0.7829924261047096
000460 f1 8c d2 3f 2a da d2 bf d2 db 0e 73 cb e7 e0 3f
       -0.2945657370821229 0.5282952544429185
000470 77 24 c1 77 66 bc e4 3f ff ea a2 5a 3a 15 d9 bf
       0.6479980792002057 -0.39192065097056167
000480 12 c2 74 5d c3 19 f8 3f 18 b7 4a b4 d8 0b e0 3f
       1.5062898302677508 0.5014461060834234
000490 99 18 9c b5 c7 e6 fa bf 6c 8e 20 2b 0a 31 ec bf
       -1.6813428014880059 -0.880986294014702
0004a0 06 b7 3b 10 74 3f b7 3f a1 16 5c e3 ba 03 d6 3f
       0.09081197162933216 0.34397766306970295
0004b0 7d 89 e3 13 b8 7d d5 bf cb 93 9c 72 24 04 e5 bf
       -0.3357982820727086 -0.6567556608684922
0004c0 18 2b 96 90 1d 81 d6 bf 4c c8 9f 51 31 7f d6 3f
       -0.3516305839518039 0.35151322337253954
0004d0 6e 52 a2 b0 de 5c d1 3f 5c 5d 48 61 09 4f d7 3f
       0.27129332780285764 0.36419901371251284
0004e0 da 1f 2f 2c 63 e0 76 3f 4d 55 a7 d8 43 ee da bf
       0.005585086243577531 -0.4207925430067306
0004f0 d3 f4 f0 26 ca 11 c8 bf 33 95 45 77 2d 66 f2 bf
       -0.1880428972380402 -1.149945703416347
000500 0c e1 76 1c 27 4e c1 3f 9f fe c9 41 f5 bf e7 bf
       0.13519753351079833 -0.7421823773328987
000510 ff 92 26 21 5e 38 d5 bf 0c 66 cb 8b 60 a5 c7 3f
       -0.33156541097041264 0.18473440957932075
000520 28 8d a9 60 f7 26 d1 bf bd 9d da bc 0e 80 e1 bf
       -0.2680033153503296 -0.5468820274881449
000530 26 0a 3c 6d 57 e5 da 3f 60 fc 62 41 d5 a8 e3 3f
       0.4202478949302154 0.6143595006068487
000540 30 42 96 25 56 54 c2 bf 88 1f d3 86 6f fb d0 3f
       -0.1431987460641877 0.2653464142463169
000550 b4 bb 1c 6e 6b dc ae 3f 56 81 90 f2 c4 6a e7 3f
       0.06027541846412224 0.7317833650195478
000560 c8 5f c7 de b6 55 d1 bf 56 e0 5e 83 8a 1e e5 3f
       -0.27085658794157697 0.6599781575996626
000570 d0 c3 f7 06 64 03 ce 3f 3c 2c de a4 96 9d ab bf
       0.23447847690797952 -0.05393667948290967
000580 ef a6 52 14 38 e9 d0 bf 3f 31 44 6a 7b f0 7f bf
       -0.2642345617738177 -0.007797700968023512
000590 81 99 32 93 60 29 cb 3f 4d 1e 4f 9b db 8d da 3f
       0.2122002333391713 0.41490831534290323
0005a0 49 c4 07 9e 10 b7 ba 3f 74 91 ca af 17 6e e2 bf
       0.10435584886705941 -0.5759390290664173
0005b0 e6 ab 34 86 bf f3 c1 bf 72 3a 51 7e 32 a1 c0 3f
       -0.14025110295310056 0.12991934936367816
0005c0 59 d8 93 41 3d 01 d9 bf 30 b5 74 16 89 fc df 3f
       -0.3907006397633999 0.4997885436340139
0005d0 a6 6b 2f 1a b1 83 ce 3f 57 0b 61 9f 4c cb c6 bf
       0.23839391497207635 -0.1780792024820481
0005e0 30 9a 6c 71 80 58 dd 3f e4 9a 9b b9 85 27 e0 3f
       0.4585267169626688 0.5048245072510693
0005f0 73 01 bb db a9 e7 d8 bf f9 06 c2 2d 88 60 a1 bf
       -0.38913961847358464 -0.03393960531776758
000600 b0 cd f2 19 e1 03 d0 3f 0c d3 a2 e3 af 12 dd 3f
       0.2502367738154261 0.45426556806641893
000610 b8 44 d1 f3 40 c6 b8 3f fa 71 f0 7d 4f a7 d7 bf
       0.09677511169981556 -0.36958682345155547
000620 64 b1 dc 2f 56 78 c8 3f 2d a6 fa a6 11 39 e1 bf
       0.19117238366141998 -0.5382164250669966
000630 f3 80 09 3a 52 a4 b1 3f bd 21 54 64 c0 95 c9 bf
       0.06891359249994249 -0.19988255404338232
000640 47 6a da 17 07 9e c9 3f e0 6b d8 98 34 20 74 bf
       0.2001351229162813 -0.004913526017413766
000650 68 4c e9 18 bd b6 d0 bf a5 3b 01 21 f4 a0 a0 3f
       -0.26115348274942685 0.032477978733928915
000660 49 b5 5a a5 f6 5d d0 3f 27 e5 34 4c b8 c9 dc bf
       0.2557350744999281 -0.4498120063977517
000670 ae fc 4d 52 f3 2b cb bf 68 23 74 92 e6 11 c9 bf
       -0.21227876204281898 -0.19585878516252397
000680 53 60 a5 78 f4 3b e4 bf 51 83 6f 00 f0 5c e4 bf
       -0.6323187214247902 -0.6363449104793323
000690 a9 75 0a 69 c1 af e5 3f 0c 98 4d 01 1f 87 eb 3f
       0.6777045299128776 0.8602442765666196
0006a0 81 1b e8 92 bf 86 c6 bf fd 44 71 3a 33 ea ea bf
       -0.17598719285180311 -0.841088880677631
0006b0 f5 ad ed 95 a1 69 d1 3f 63 43 f0 ac 7a c5 e1 3f
       0.272072216429222 0.5553563478189115
0006c0 9a 83 31 4d 88 43 c1 bf 30 d6 a7 d2 e7 3a e7 bf
       -0.1348734261437386 -0.7259406198851988
0006d0 f7 10 01 34 48 73 d3 3f 11 8e 12 83 44 22 d1 3f
       0.30391125753909826 0.2677165298466387
0006e0 ef bc 69 c1 2e 3e d3 bf 1e fb 01 c0 cc 6e d5 3f
       -0.30067032707206826 0.3348876833987776
0006f0 fc a5 b1 f4 60 13 e3 3f 1a b9 02 78 21 48 d6 3f
       0.596115568082666 0.3481525108317257
000700 f5 83 5a cf e8 f7 f9 3f 36 f9 07 44 7e 5d db bf
       1.6230247592686713 -0.4275813736311592
000710 31 91 73 38 63 76 fa bf 9a 62 d5 d7 98 71 c8 3f
       -1.6539032178053044 0.19096670664545884
000720 f2 9e b2 84 dc da cd bf 6b 72 33 fe 25 90 ea bf
       -0.23324161986715058 -0.8300962414610472
000730 2a c6 17 c9 e2 72 df 3f c3 eb 7a d7 b5 99 cd 3f
       0.49138707769370404 0.23125336667530236
000740 97 b2 40 c4 15 15 d0 bf eb a5 ac ab 54 03 f0 bf
       -0.2512869278460043 -1.00081317005458
000750 4b b1 36 9d 64 66 d5 3f 02 13 1f f8 20 1c d8 3f
       0.3343745742120247 0.3767168448505772
000760 e4 09 37 bd 04 b8 ef bf 5b 2e 29 48 d5 58 d0 bf
       -0.9912131972890248 -0.2554219441123899
000770 fc c4 9d 80 0b 55 f4 3f 2c ba 6c 5a e8 16 fb 3f
       1.2707629226754866 1.6930926830497226
000780 6c 67 4d f3 3a 62 04 40 16 71 c5 7e b8 6c c0 3f
       2.547964001464541 0.12831789197924398
000790 0d f8 91 10 b1 cb 04 c0 59 e6 ad 2b ee 4c f4 bf
       -2.599458817915553 -1.2687818247053626
0007a0 4e e1 ba b7 37 3e bb bf c8 f3 c0 52 2f 45 c3 bf
       -0.10641811595531189 -0.15054885426243758
0007b0 58 1e 92 94 7c 40 d7 bf 31 bd ca 78 d7 91 e3 bf
       -0.36331095227112575 -0.6115529402940522
0007c0 65 62 d4 dd b0 9e ee bf da 61 da 08 60 b9 d4 3f
       -0.9568714459047213 0.3238144003348943
0007d0 57 90 70 2d 08 61 e5 3f 53 e3 29 5d 50 0a a4 3f
       0.668094719647807 0.039141188976776896
0007e0 98 81 d8 ed 48 a2 be bf 91 94 16 ad d2 d7 b7 bf
       -0.11966377074032264 -0.09313694692407838
0007f0 db 1e 16 1c c2 82 e0 3f 23 64 f5 48 2a 67 e4 3f
       0.5159616993487036 0.637593405244051

lstm.weight_hh_l0 f8 [40, 10]
000000 42 b6 67 d3 fa 5e e6 bf 6c db 1b 02 c2 02 c4 3f
       -0.699094212437281 0.15633416274041723
000010 ac 00 1f db d5 fa 84 3f 9a fe ee 63 24 8f a5 bf
       0.01024405550913373 -0.0421077129353737
000020 b1 65 8b 4c 66 9f bb 3f 3d ae 89 b8 78 23 f2 3f
       0.10790099495661455 1.1336600502499004
000030 42 f6 f6 c3 0f e5 bd bf 7f 08 cd 5d 5b d8 f3 3f
       -0.11677645239157022 1.2403215087984163
000040 cd 7d 2f 84 2d 16 e4 3f 59 5e da 47 36 18 b4 bf
       0.6277072507618243 -0.0784944463178986
000050 00 45 e6 ca 7b b1 f0 3f 06 3f da f0 e7 3c f1 bf
       1.043330948425421 -1.0773696335126615
000060 e4 80 3f 74 39 e0 e3 3f f0 7a 0e 9b f6 26 c8 bf
       0.6211211462469035 -0.1886890656578184
000070 44 92 e1 42 25 7e f0 3f 08 65 ce d0 57 61 f9 3f
       1.030797253851362 1.586265388154347
000080 84 03 63 11 14 53 b3 bf f9 dd ea 43 f8 62 db bf
       -0.07548642563325642 -0.42791563637317115
000090 65 0e d4 cb b4 23 e0 3f d8 ea fd 0e 44 4d eb 3f
       0.504358671285854 0.8531818669137818
0000a0 3e e1 bd eb 12 ca 89 3f 43 bb 8c 80 e0 d9 e2 bf
       0.012592456645265867 -0.589096308778473
0000b0 6d c6 5c 40 3b 7d aa bf 76 4b 7b 2a e2 b5 f7 bf
       -0.05173669014619695 -1.4819051417768754
0000c0 50 4a 93 bf 84 8c bf bf af ab 27 cf 93 88 f5 bf
       -0.12323789288647302 -1.3458440868368873
0000d0 6c eb e2 4f c5 01 a3 3f 1a 5b 4f b0 0a df dc 3f
       0.037122884752043145 0.4511133882310091
0000e0 21 aa 5e cf df 1b ee 3f ce 9d 7d ee 3b 5c f5 3f
       0.9409026193801006 1.3350180927317186
0000f0 b8 27 5e 2b 9d 85 ce 3f b7 75 99 b4 fe 8d c1 3f
       0.23845257394378705 0.1371458417733444
000100 34 d7 4e 05 26 77 e0 3f 38 66 7f 0a 24 d5 e0 bf
       0.5145444968863786 -0.5260181622535987
000110 67 89 7e e5 ba 68 d5 bf 89 96 83 65 0b 46 e4 bf
       -0.3345172158389204 -0.6335503561683292
000120 a7 8d c8 de 23 35 e5 3f b4 a9 0b a3 ac cb c6 3f
       0.6627368308294778 0.17809064828118226
000130 b7 bb 55 c1 dc 2f 01 c0 03 7b fe 9b f2 9b b8 3f
       -2.1483702759064403 0.09612957294892159
000140 a4 ed b1 c1 12 b1 ec 3f 8b a8 23 8e eb 75 b7 bf
       0.8966153891664601 -0.09164306850621722
000150 95 ef d4 55 60 db de bf a2 4f 35 29 5b 84 c7 bf
       -0.48213966733941876 -0.18372668754693416
000160 84 f7 d5 d7 a0 79 e1 3f c3 6a ff be c6 37 d0 3f
       0.5460972037833334 0.25340431835290306
000170 d8 2a fd 20 e5 cc d1 3f 6a c3 bb 29 a5 6e de bf
       0.27813080045295413 -0.47550324512035635
000180 96 5a f7 76 3f 61 ec 3f 15 90 ed 5f 62 4d f0 bf
       0.8868710826453305 -1.0188926455675802
000190 6d 21 63 9d 15 93 ec 3f 08 99 61 b0 5d 8f ed 3f
       0.8929546426743805 0.9237507290788765
0001a0 b1 c4 38 6a 25 01 ce bf 32 f3 df 03 1c 28 f8 bf
       -0.23440997778519582 -1.5097923423156314
0001b0 fb 97 9b f0 ca 9f da 3f c4 27 0f 22 e6 23 f2 3f
       0.4160029744801929 1.1337643938481827
0001c0 c0 61 c4 1d f0 15 f7 3f 2a 42 29 42 03 76 eb 3f
       1.442855945852088 0.8581558506212492
0001d0 85 fe 74 4f 84 db cf 3f 57 da 4b 9d 61 c6 bb bf
       0.24888662223564864 -0.10849580850831707
0001e0 50 8f e9 7a 21 76 d4 bf 84 ae 2a 3f 6e 1c e2 bf
       -0.3197101307216501 -0.565970538494597
0001f0 db 5d 52 6f fb 2d df 3f 55 e1 b6 a9 96 f4 e7 bf
       0.4871815287710583 -0.7486069979413893
000200 9c 6e cd 17 99 30 ef 3f 0e 89 a0 3f b0 4f c5 3f
       0.9746823754207585 0.16649439913550917
000210 20 57 23 ab 35 4d ca bf 3b 71 16 f1 f6 39 f1 bf
       -0.205481251300335 -1.0766515176283764
000220 5f c6 d4 97 ad 18 eb bf 3e 61 e6 72 9b ea e2 bf
       -0.8467624631359277 -0.5911385769023025
000230 48 88 55 92 6a 33 ec bf bf a2 e7 30 67 3a d8 3f
       -0.8812764032447911 0.3785646417223169
000240 e2 55 55 0c 11 2c b2 bf 39 8e e6 9f 6f ed f2 3f
       -0.07098490286929107 1.1829677816503035
000250 15 f6 be e7 e2 f8 fe bf 5a a5 cd 61 ec 7e 00 c0
       -1.9357632687164188 -2.061974300468745
000260 0e dc 18 b8 4d 0e d4 bf 39 d1 7f bd 17 33 e6 3f
       -0.3133730218718832 0.693736906162065
000270 c7 92 c8 46 af 8d e6 bf 64 eb e2 69 ad ef 9b 3f
       -0.7047954924097092 0.027281484210770826
000280 49 90 c4 6f 01 99 dd bf 55 82 ab b9 0c b4 c7 3f
       -0.46246372141672915 0.18518218103328601
000290 5c 39 55 ac 79 56 e1 bf 21 db 34 06 1f d7 e9 3f
       -0.5418060651661949 0.807509910699853
0002a0 50 5d 69 8b 87 e1 b3 3f f5 95 40 f1 1b d9 cc bf
       0.0776600566253951 -0.22537564544579394
0002b0 46 5b 8f 08 96 f6 e1 3f 2d 2f a5 a8 36 39 eb 3f
       0.5613508383929477 0.8507340711453019
0002c0 db 61 ee 0a d6 d1 dd bf 56 ff e1 bb 42 80 db bf
       -0.46593237941263305 -0.42970341060571593
0002d0 f7 d8 10 8f a5 95 e7 bf 90 42 18 6d eb e8 a5 bf
       -0.7370174211744417 -0.04279266077731336
0002e0 0d ce 3d 01 2c 02 ad 3f 3a 23 62 4b c0 d4 e6 3f
       0.05665719523576849 0.7134705993968062
0002f0 22 c7 ba 1f af b7 d9 bf 20 a9 c8 d2 57 cd d2 3f
       -0.4018361863955865 0.2937831457553717
000300 ee 14 fd d1 89 2f c7 3f a4 8e 0d 4b e9 09 b6 bf
       0.18113825562810554 -0.08608873445842363
000310 17 32 9a 67 d8 dd e7 bf e9 e8 7d 27 b8 ef e1 bf
       -0.7458307288630434 -0.5605126162838846
000320 2e b9 00 95 f1 b3 f0 3f 58 4e a4 ea 96 d9 da 3f
       1.0439315624640346 0.41953061022033955
000330 95 21 05 12 96 ed f2 3f 2b 22 74 a7 61 fb bf bf
       1.1830044464023548 -0.12492952669357098
000340 d4 42 ac 9e 3e 3f df bf 53 62 99 6a 78 03 c1 bf
       -0.4882351445713031 -0.13291840748822156
000350 8d 0f 87 89 8f ce f9 bf 43 3e 84 df f2 f0 e0 bf
       -1.6129298565074095 -0.5294126859243494
000360 ce cb 65 aa d0 65 ed bf 4f 6a 98 83 a9 e7 e8 3f
       -0.9186786010817458 0.7782790727827179
000370 70 ce 9d a2 ca 50 fa 3f 0f a7 8b 65 40 36 e5 bf
       1.6447244980053277 -0.6628725035963913
000380 bd 19 22 03 1f 74 f8 3f 98 6e 42 c8 e5 ff da bf
       1.5283498880759077 -0.4218687492045574
000390 29 7c d8 97 43 a2 f3 3f b5 72 f2 e8 a4 61 f4 3f
       1.2271152430983057 1.2738389110083237
0003a0 40 c4 79 a4 82 99 d2 bf dd 0d 31 1d 2c a1 f4 bf
       -0.29061952650141976 -1.2893487110421724
0003b0 c5 e7 6f f9 7d ed f5 3f bc ef 47 13 18 97 e3 3f
       1.3704814666402723 0.6121940971929614
0003c0 fc b8 1c ae 83 e5 f3 3f 97 18 f8 bf 9f 94 c7 3f
       1.24353378307893 0.18422314523212854
0003d0 aa 82 05 92 6f 5d de bf bd 4c 14 b4 8b c8 f7 bf
       -0.4744528699866729 -1.4864613565776346
0003e0 98 cb cd 63 d2 24 eb 3f 5a 5d b9 20 93 c5 fd 3f
       0.8482448529524502 1.860736015156212
0003f0 3d ac 18 fb 73 3b d9 bf 25 a8 cb 8f 9a d8 ce bf
       -0.39425372620707205 -0.2409852220656045
000400 78 df 58 7d e4 87 f3 3f 9e cc 8a 07 71 61 e1 bf
       1.2206768890736992 -0.5431447169597907
000410 8d 2a b8 70 58 3a e4 3f c4 f8 77 9c 28 2b c9 3f
       0.6321222497511642 0.19662959709234518
000420 d9 c8 5b 57 6c 42 c3 3f 07 6f 05 0d ce 34 b7 3f
       0.15046457543900862 0.09064948861981402
000430 28 d4 a9 4a 7c 34 f5 bf d5 91 0d ae 41 55 e9 bf
       -1.3253138462580498 -0.7916572951767714
000440 8c 8d 87 3a e9 49 db 3f ec 76 d9 a3 10 0b c6 3f
       0.42638617244502863 0.17221267700636333
000450 11 57 6c bf 6e 30 dc bf ad 73 a4 a9 4a 6f d6 3f
       -0.4404560918204519 0.350542703310391
000460 47 5b 55 68 91 1c dd bf c3 5b ac a2 13 b7 e4 bf
       -0.4548686522370428 -0.6473482300960928
000470 fa 33 27 b9 a2 82 d8 bf fc f4 84 ce d6 18 d8 bf
       -0.38297336655961056 -0.37651605766207275
000480 a2 73 5f 22 0b 01 b4 bf 5b 57 63 ac 3f 18 f4 bf
       -0.07814092244320972 -1.2559200986774701
000490 1c 51 b3 11 37 b8 e0 3f ca 64 ed b0 61 0c c5 bf
       0.5224871965133704 -0.16444035662678963
0004a0 e1 1c 0f bc 00 1f c5 3f 15 90 73 1d b2 a6 ce 3f
       0.16500863249368705 0.23946215093667492
0004b0 d1 37 a6 d8 ca 3d d4 3f e0 9e 26 6d a8 b7 d4 3f
       0.3162715068546023 0.32370958956970064
0004c0 11 95 ed 7c ed c2 c9 3f b7 78 20 3b 99 aa f8 bf
       0.20126122093203283 -1.541650038685061
0004d0 37 9e da dc 9e 7c da 3f 1c 79 71 44 4b 43 a2 bf
       0.4138562351967922 -0.035669662575616295
0004e0 2c 99 f9 1e 7a d6 8a bf ee f2 cd 3d 1d bb 85 bf
       -0.013104394979745658 -0.01061079830992059
0004f0 be 03 7b fc 0e 30 b2 bf 0f 07 a0 4b 62 c1 bd bf
       -0.0710458151252302 -0.11623205515209299
000500 4c b8 f8 25 fd e7 c5 3f 3d 70 b5 c2 c9 d8 e1 bf
       0.17114223817901786 -0.5577133944420961
000510 09 55 ee 18 96 1f f0 3f 5a e5 1a 77 da b0 f0 bf
       1.0077115033976176 -1.043177094701909
000520 f8 75 be 64 d4 eb ec 3f 99 50 22 26 fa 0a e8 3f
       0.9037878005653388 0.7513399834447397
000530 1e 58 60 fe 3a 80 ed bf 8b e7 9a 6e e8 04 82 3f
       -0.9219031303680401 0.008798423648261685
000540 b6 1c 77 20 44 e6 83 3f 2e 24 3f 39 59 7c c7 3f
       0.009716541519891524 0.1834823159718168
000550 27 4b 0c 20 9f 5f 8b 3f 2f fe 36 13 de 1b cb 3f
       0.01336597744515229 0.21178794801925124
000560 ab bc b9 7a 0c 33 d7 3f 15 3f 56 57 17 e7 f3 3f
       0.36249076828876053 1.2439187442395838
000570 d2 df 27 db 7a 69 e7 bf a2 aa 23 66 0b 16 e9 bf
       -0.7316259651552122 -0.7839409823330536
000580 b4 1e 7b d6 c3 19 e8 bf 4f bf dd 65 11 b0 d6 3f
       -0.753145140560227 0.35449633548613674
000590 d4 3c 8a 91 d0 e1 f6 bf 1d 55 eb 95 82 4f e8 bf
       -1.4301305470615278 -0.7597058227644627
0005a0 94 d6 88 ed 44 ab 08 c0 1c a0 e6 b5 b3 1d 11 c0
       -3.0836275632271484 -4.27900585384489
0005b0 a4 fb de 2a 70 57 04 c0 8f 38 a0 d9 be 62 fd 3f
       -2.5426944112109187 1.8366077900896334
0005c0 7e d5 7c 68 96 07 b4 bf 54 3d 7e 8f c7 d7 01 c0
       -0.07824077654807657 -2.23036110023501
0005d0 e0 9e 66 57 28 be a4 bf c3 d8 7d 3c ae ee f9 3f
       -0.040513287228632455 1.6207716334297835
0005e0 bf 3b d4 b1 a8 44 f6 bf fc 39 41 3a db 55 f1 bf
       -1.3917624422499413 -1.0834610248163008
0005f0 9f bd 8b 0b 1d 11 e3 3f c7 c0 a9 7f e0 f5 c0 3f
       0.595839045095932 0.13250356896924684
000600 24 90 88 97 78 cd f1 3f 55 5e 50 18 53 f9 e4 bf
       1.1126638335490577 -0.6554351305848721
000610 5a 4f a2 3c 69 38 d2 3f d8 1f 0d 88 c0 a6 c6 3f
       0.28469305917064036 0.17696386950615195
000620 55 d0 64 68 26 2d b4 bf 1b b0 9d 27 c0 63 e6 bf
       -0.07881393479039052 -0.6996765874623664
000630 33 d9 52 ff c0 fb c2 bf d3 06 6d 40 7b 24 b0 bf
       -0.14830791918729744 -0.06305666277787773
000640 f5 32 aa a3 ad 49 f4 bf eb 5a 2d a6 06 2d 9b bf
       -1.267987860980779 -0.026538947956704566
000650 4e 1d e8 74 a1 08 cb 3f 9a 2b 12 d7 7b f0 ab 3f
       0.21120088775954077 0.054569120410710784
000660 5d 98 2f 92 e9 4c d7 bf 6e 28 dc 8f 0c 3e d9 3f
       -0.3640693595501768 0.39441217469050727
000670 26 0d d7 51 d6 5a cf bf 78 30 58 fc d9 0b df 3f
       -0.2449596309289543 0.48509835856453476
000680 37 ab ca 6f a4 26 e1 bf d2 2b 72 22 b6 6d ad bf
       -0.5359670813971665 -0.05747765703662079
000690 c1 b7 53 b5 2f 31 a2 bf 92 7b 01 9b b2 4c e4 bf
       -0.035531512150427165 -0.6343625094849463
0006a0 0a 1c 04 44 a7 19 e0 bf 90 c5 c0 df 1b 1e 99 bf
       -0.5031315163076908 -0.024528918773460584
0006b0 2d a0 dd 1d fa 67 e4 bf 33 b9 ac 59 e6 6d db bf
       -0.6376925071062992 -0.4285827518205167
0006c0 c6 b4 33 f3 e5 5c cd bf 93 74 bf b3 81 74 e3 3f
       -0.22939752936455288 0.6079720030499111
0006d0 b7 a8 38 82 ff 9d e8 bf 4b 1f 6d e0 ff ed 9b bf
       -0.76928687509396 -0.027275083611385125
0006e0 13 83 96 9a 22 e4 e5 3f c9 40 bd 4c 36 1a f8 3f
       0.6840985316558509 1.5063994405391432
0006f0 e8 a7 5a 7e 5a e9 9b 3f e9 0e 81 48 71 0b fc bf
       0.027257360422176108 -1.7527935821717
000700 08 2d 6d 32 36 fa f3 3f fe 58 ed 37 a9 36 ca bf
       1.2485868425163194 -0.2047931216317877
000710 23 c0 7e ef b8 6e c1 bf 8a 49 32 3e 4f 6e d7 bf
       -0.1361914796266329 -0.36610776018019264
000720 80 61 15 ce de 68 fc 3f 0b 0d d5 f8 62 3f e0 3f
       1.7756031084191761 0.5077376232151506
000730 e0 93 80 3d 1e 19 d3 bf f6 58 b7 20 ea 41 d5 bf
       -0.2984080887420628 -0.3321481055730965
000740 8d 38 4c 33 89 22 ea bf e2 00 9e 38 01 4e eb 3f
       -0.8167158128651565 0.853272066669913
000750 71 79 e3 f5 d0 6d f3 bf bb 50 cf 7f 3a 2c e6 bf
       -1.2143106083891235 -0.6928989883695275
000760 37 8c 40 03 51 af be bf 30 b4 90 bc 33 8e d0 3f
       -0.11986261681936204 0.2586793271501078
000770 d9 8a 01 42 5d de eb bf fb 1a 1b 7a ae 59 e5 bf
       -0.870894078176515 -0.6671974549179532
000780 14 08 67 3d 62 4d d6 3f 61 1f ea 83 9e 24 e1 3f
       0.3484731292375056 0.5357201172309766
000790 92 d6 d1 5d c6 6b e7 3f 1c b7 0f 46 2a f9 f0 bf
       0.7319061119475967 -1.0608313309452972
0007a0 88 f4 6b 38 6e 97 f6 bf e5 85 7e e0 a3 40 e4 3f
       -1.4119703487370163 0.6328906426098767
0007b0 ef 60 e7 c9 5c 3c e4 bf ef 59 21 5a ae e9 d7 bf
       -0.6323684638437309 -0.3736377601793767
0007c0 cd 3d cd 5c 2f 8a d8 3f 4d 68 91 d0 51 8b df bf
       0.38343414366405854 -0.4928783928677419
0007d0 12 d6 0a 82 41 c1 df 3f c6 3b a8 a3 63 1a e5 3f
       0.4961704034752482 0.6594713398388812
0007e0 5f 3a 4b 8f 61 53 c5 bf c5 76 67 59 a1 2a c8 bf
       -0.16660708901186447 -0.18880097260892206
0007f0 13 de 3d 4f e1 25 b9 bf a3 b7 5b d4 bb 88 e0 bf
       -0.09823425469027595 -0.516691126596687

lstm.bias_ih_l0 f8 [40]
000000 e0 6e ab a8 8f 59 e6 3f d8 02 fa 32 25 7c e1 bf
       0.6984327596978481 -0.5464044566761812
000010 61 4f a0 ea 0a 60 f4 bf 8c cd 09 73 12 37 dd 3f
       -1.2734479107939125 0.4564863322659327
000020 c7 8d 57 83 0c db d8 bf ed dc 0a 95 e7 c2 d9 bf
       -0.3883696825634754 -0.4025210338108554
000030 da 3c 52 28 fa 0a d5 bf 7e 9f 4e bf 9c ff d6 3f
       -0.3287949937593574 0.35935133631073046
000040 53 86 d3 78 18 ba f6 3f ae 7b 76 8e bb ec d4 bf
       1.4204334945465191 -0.3269490138281367
000050 3a 2a f2 39 52 e5 f4 bf f6 ac ed 36 a5 67 e7 bf
       -1.3059866202844561 -0.7314020226307594
000060 c1 22 4f a5 77 34 da bf 72 db fa c4 70 3a e0 3f
       -0.4094523538920321 0.5071338507903944
000070 d9 d5 d7 b3 13 54 e9 bf b3 47 e7 81 06 57 ed bf
       -0.7915133011398964 -0.9168732201744575
000080 f8 26 1d b4 73 52 f5 bf 46 6b 56 e7 2e da de 3f
       -1.332629874772861 0.48206684676704403
000090 51 f7 2e 21 7d c6 df 3f 82 00 86 d1 91 bd ee bf
       0.49648979416439426 -0.9606408207182684
0000a0 8b e2 21 c7 49 da ee bf 9a fa 8d 09 47 42 dc 3f
       -0.9641465081504789 0.44154525693003566
0000b0 93 b5 dd 5a 9e 71 d7 bf 08 55 fa 24 bb 7b ec 3f
       -0.3663097274173534 0.8901038858627155
0000c0 99 8c 66 fe e3 86 d4 bf 85 e0 59 f7 60 7c e3 bf
       -0.32073306888396186 -0.6089329558444808
0000d0 b5 84 9c c7 16 6e f3 bf 92 06 7e 0c 4f d3 e1 3f
       -1.2143771931953726 0.5570445293416972
0000e0 70 19 e8 45 5a 31 f3 bf b0 33 67 a4 96 18 f2 bf
       -1.1995489817359974 -1.1310030385968552
0000f0 b9 ac 13 af 7f b2 fb bf 90 58 44 86 ca 93 f3 bf
       -1.7310788001002904 -1.2235818142703785
000100 48 4c 3f 6f 63 1f d0 bf 26 d3 d9 9d cf c9 fd bf
       -0.2519157968901635 -1.861770264248841
000110 b9 31 8e 49 82 7c f7 bf 88 0c 63 1b d5 85 e9 bf
       -1.467897689176523 -0.7975869688892923
000120 b9 55 9d 6a d1 b0 f7 bf 76 70 8d 04 11 6f dc bf
       -1.480668465102424 -0.4442789596994382
000130 c4 1e 7b 9d c1 ae cc bf 56 b8 5e d5 3e 8e 00 c0
       -0.2240831393194097 -2.069455782845618

lstm.bias_hh_l0 f8 [40]
000000 e3 6e ab 08 c6 a4 e7 3f d6 02 fa 32 f6 c2 e5 bf
       0.7388639611558258 -0.6800490375172454
000010 60 4f a0 36 fa 57 f3 bf 50 9b 13 46 d7 9c cb 3f
       -1.208978856452596 0.2157239048167079
000020 2c 37 5e cd 58 69 b8 bf 73 6e 85 fa 70 bf e9 bf
       -0.0953574658762732 -0.8046193020813476
000030 a0 79 a4 10 87 db cc bf bb 4f a7 df a4 89 e4 3f
       -0.2254494506132234 0.6418022506936646
000040 4d 86 d3 54 0f a4 f2 3f 37 f7 ec 5c 13 09 c6 bf
       1.1650536836172194 -0.17215196645150296
000050 3d 2a f2 f1 b6 2a f7 bf 87 d6 76 63 84 c9 f0 bf
       -1.4479283762945123 -1.0491985211678256
000060 c0 22 4f a5 84 79 d6 bf de b6 f5 09 4f 5d db 3f
       -0.35116687911481037 0.4275701138748057
000070 db d5 d7 c3 f9 df e1 bf b4 47 e7 c9 5b d7 e9 bf
       -0.5585907769261057 -0.8075388854433556
000080 f8 26 1d 5c ab 09 f0 bf 99 35 ab cb 5f 9c ec 3f
       -1.0023606870840336 0.8940886476427067
000090 4d f7 2e 91 ca 5c d4 3f 43 00 c3 90 8d 55 f2 bf
       0.3181635301406132 -1.1458869604830546
0000a0 8a e2 21 b7 b7 3c e1 bf 46 fd c6 e4 a5 24 e1 3f
       -0.5386618210605587 0.5357236355120356
0000b0 d2 da 6e f5 ea 23 eb bf 00 55 fa f4 03 ff e2 3f
       -0.8481344979871557 0.5936298165057963
0000c0 41 46 33 77 9f 8a e5 bf 85 e0 59 4f 68 3b e1 bf
       -0.6731717422609976 -0.5385018873048614
0000d0 b5 84 9c bf f6 05 f4 bf 91 06 7e d4 53 98 e1 3f
       -1.2514560208149252 0.5498446607818598
0000e0 12 33 d0 eb 8f 10 e5 bf ae 33 67 5c 1f 96 f5 bf
       -0.6582717519500838 -1.349151001882301
0000f0 6d d6 89 d7 35 7e 00 c0 92 58 44 3a 46 47 f0 bf
       -2.0616261328639696 -1.0174009586385506
000100 1b a6 9f 37 7b c2 e6 bf 2a d3 d9 e9 b9 f5 fc bf
       -0.7112403952025405 -1.8099917540359436
000110 c3 31 8e 61 23 ac f4 bf 86 0c 63 a3 16 bf ec bf
       -1.2920259295234338 -0.8983262244368155
000120 ba 55 9d d6 8c 73 f7 bf 39 b8 46 8a cc 89 e1 bf
       -1.4657104857809444 -0.548071165152357
000130 b2 c7 5e 67 c8 47 e0 bf c2 70 bd a2 09 87 fa bf
       -0.5087625521612067 -1.6579681736975975

dense1.weight f8 [28, 10]
000000 ab d6 78 12 d4 33 f7 bf fc a3 2f 6d 9f 55 d5 bf
       -1.4501534196437358 -0.33335099852280314
000010 dd be 78 87 9c 0e c1 3f db 6f a8 17 83 84 db 3f
       0.1332584058268286 0.4299628954920515
000020 84 55 8a 9a ae f1 b8 3f c8 df 63 c6 18 da a6 3f
       0.09743777535398662 0.04463269635920103
000030 a5 1e 51 48 f7 c7 b3 3f 18 b6 47 ba 0e dc a7 bf
       0.0772699882082813 -0.04660078071524881
000040 a6 47 7b 68 b1 33 f5 3f fd 8f 14 59 c8 c6 fc bf
       1.3251203614531533 -1.798530910463341
000050 aa d5 bd 1f c5 df 85 3f 75 6b e2 aa 5c 57 e2 bf
       0.010680713683295224 -0.5731643045031506
000060 94 18 e3 8b 3e eb c5 3f 30 ad 58 ce ef cd e2 3f
       0.17124158697533132 0.5876387624934178
000070 c5 86 7f 75 06 d2 e9 bf 87 dd fc 8b ac b7 d9 bf
       -0.8068878455053087 -0.4018355719631121
000080 a4 a1 6e db 2c e3 d3 bf ce 14 14 1d 38 c9 f1 bf
       -0.31074067524834903 -1.1116257797123583
000090 81 9b fc 3b 8b 8a e1 3f 74 4c 5d 7c 8c f1 e3 bf
       0.548162095224015 -0.6232359341614839
0000a0 0c b7 e2 84 dc ea ce bf 91 b0 4f 1a b6 26 d5 3f
       -0.24154240120463333 0.3304877526231929
0000b0 aa d9 9a 0e 4c 00 e8 bf 73 19 5d 2c cd 79 f4 3f
       -0.7500362668277394 1.2797366841274112
0000c0 35 47 24 c9 53 cb d1 3f 2d 81 a6 54 46 a2 d8 3f
       0.2780351127886321 0.38490446344987356
0000d0 a5 c6 eb ae 0f 6b cc 3f 1b f9 9e c6 a6 b3 e0 bf
       0.22201725045265622 -0.5219301108661826
0000e0 ea 0b f7 e4 89 77 de bf 94 47 93 b1 fb 19 d3 3f
       -0.476046060179384 0.29846088734950027
0000f0 63 59 03 f5 aa 71 bf bf b6 1d c5 de fd 88 d2 bf
       -0.12282818300022806 -0.2896113086212283
000100 19 cd c5 9f 54 cf d7 bf 90 05 41 5d 90 5d a3 bf
       -0.37202945330428033 -0.03782321108202347
000110 38 7c 8f 34 03 3c d0 bf 67 65 69 92 cd b7 dc bf
       -0.2536628735815074 -0.4487184457589905
000120 cc 88 89 59 6f 48 ba bf eb 9c 2e 50 96 23 c3 3f
       -0.10266776977508413 0.14952353396549908
000130 55 87 01 a0 15 c1 ba bf 88 23 7b 43 14 02 94 3f
       -0.10450873524089606 0.01953918134566693
000140 00 00 00 00 e0 7d 8c 3f 8c 92 b8 2d b6 26 d1 bf
       0.013911962509155273 -0.267987770699883
000150 00 00 00 e0 66 c0 c2 bf 10 0b 10 9a 45 24 b8 bf
       -0.14649663865566254 -0.09430346499724984
000160 61 a1 d1 60 eb 58 c8 bf 00 00 00 00 5a 5d 91 bf
       -0.19021360614284347 -0.01695767045021057
000170 00 00 00 80 37 e0 c7 bf 00 00 00 c0 d5 5e cb bf
       -0.18653005361557007 -0.21383163332939148
000180 80 f1 6b 31 68 f1 c3 bf 00 00 00 60 5b 9b ca bf
       -0.1558046571079892 -0.2078661173582077
000190 48 ca 18 69 b9 aa 03 40 b5 ca 62 3d d6 14 9b 3f
       2.4583614550295216 0.02644667386693796
0001a0 99 91 e3 91 97 ed e0 3f 06 15 61 98 46 20 b4 3f
       0.5290029382127158 0.07861748905368779
0001b0 94 e4 aa 7b 48 84 de bf b7 47 ad c4 8c a0 c7 3f
       -0.4768239219370767 0.18458709338534415
0001c0 9c 39 9a 22 d3 08 be 3f f8 2e 85 aa 77 cd ee 3f
       0.11732215494905635 0.9625814753030388
0001d0 49 02 fa 19 56 ed ea bf 08 c2 5e 9c b2 90 ec 3f
       -0.8414717204432886 0.8926632932762582
0001e0 1c 90 f1 6c f6 3d c1 bf 00 00 00 00 e5 48 d2 bf
       -0.13470344848167393 -0.28569912910461426
0001f0 eb 7a 7c cf 49 d9 e1 bf 00 1d 1d c4 16 65 d5 bf
       -0.557774453398307 -0.33429497863512836
000200 c8 b0 f8 f9 37 45 c1 bf 46 2a 55 b9 ec 7b d3 bf
       -0.1349248858035763 -0.3044387636079232
000210 1d 2e dc f6 08 24 e5 bf 95 48 64 28 62 3a ce bf
       -0.6606488057599936 -0.23615672085049214
000220 af f6 b6 4e 6a 5e cf bf 63 76 f2 7d 2a 45 e1 bf
       -0.24506882518283166 -0.5396931133179347
000230 dc 33 92 a2 9b cc f1 3f 63 91 ef 2c af 4d d9 3f
       1.1124531126435988 0.39536647213232906
000240 73 64 b3 ae 0e 3e ea bf 9d f6 c2 e8 50 03 f9 3f
       -0.8200753605007222 1.5633095829247516
000250 f4 a3 bd 2a e1 c5 e4 bf 5f 82 31 4b 04 77 dd bf
       -0.6491552195340078 -0.46038920729737315
000260 0c d6 5e 62 db 90 87 bf 61 3d a4 fe 68 4d e6 bf
       -0.01150676149323273 -0.6969494794338226
000270 06 56 21 ca 02 13 e4 bf 22 4e a1 e2 e2 d2 d7 3f
       -0.6273206661086881 0.37224647647710374
000280 62 68 d4 04 8f 45 e6 bf a2 bb 6d fb 5e 9c c5 3f
       -0.6959910482721734 0.16883456494130394
000290 ba 98 d2 12 90 a2 d5 bf cf eb 0b a9 e7 8b ea 3f
       -0.3380470451178429 0.8295782376948128
0002a0 f7 b0 fa e5 1e b0 c3 bf 49 1d 20 45 43 fc d7 3f
       -0.15381227712112608 0.37477189779788894
0002b0 4b 6c 56 6c 2e 2b be bf 47 ef 80 5f 7c 8b e0 bf
       -0.11784639496765796 -0.5170270791345296
0002c0 76 0d 1e 51 f6 3e ec bf 68 51 4b e1 11 53 d0 3f
       -0.8826858124088364 0.2550701809061793
0002d0 a0 8a e0 15 db 6c e3 bf 08 f1 e9 50 46 e8 c4 3f
       -0.6070380618369491 0.1633384604537087
0002e0 db 47 51 11 c8 3e b1 3f 30 b5 78 89 14 bc e5 3f
       0.06736421988287537 0.6792090115538141
0002f0 f5 47 6b 22 79 fb e1 3f e7 d1 f1 4d ed 5a d0 3f
       0.5619474098441503 0.2555497418573211
000300 63 24 f5 bd df e6 e7 bf 93 b2 2a a5 f1 4d e5 3f
       -0.7469328603848563 0.6657646394647422
000310 e4 23 e4 44 98 67 e2 bf c9 e6 3f 0a bd 7a c9 3f
       -0.5751458497553554 0.19905817985982413
000320 40 a1 84 91 79 1d 03 c0 53 fc 16 44 a0 4b cf bf
       -2.3893920296287945 -0.2444954235524813
000330 36 24 ac e7 81 25 cd 3f e8 0d 57 7e 08 a5 08 c0
       0.2277071362698579 -3.080582606345832
000340 ca 8f e4 3e fb e4 e6 3f 88 0e af 9c 0f 52 eb 3f
       0.7154518345237133 0.8537672100287219
000350 99 89 a0 12 3f 64 f3 3f 4e 54 bc 77 25 43 f3 bf
       1.211974213373287 -1.2038931538748048
000360 c6 ce 7e a3 7a 44 0a 40 ba f1 d9 d3 5e cf fc bf
       3.2834370396684305 -1.8006275439685013
000370 53 79 4a a5 02 a8 cb 3f 65 eb 7d 3d a2 5e d5 3f
       0.21606476851315878 0.333900985766084
000380 e1 d4 e9 1d 5c 3f b4 bf ec f9 51 69 1f f0 ef 3f
       -0.07909179430301407 0.9980618531261007
000390 30 87 9a 15 e6 18 ad bf c7 1e 92 ad d8 e6 b0 bf
       -0.05683058751789216 -0.0660224365002434
0003a0 84 b7 5f 7d 04 b9 c9 3f 54 7c 76 57 90 80 ea bf
       0.20095878717205207 -0.8281938274630058
0003b0 f4 15 be 63 d2 34 ef bf 90 ad a8 08 79 c0 c1 3f
       -0.9751979778381483 0.1386863033561494
0003c0 5f cc d6 99 3c 23 d3 3f 15 f3 ac 4c b0 4b e4 3f
       0.29902567885728176 0.6342393395967486
0003d0 cb 29 34 69 5a fc da bf f3 86 c2 10 89 b1 d0 bf
       -0.4216524150257583 -0.26083590161043374
0003e0 28 77 6f b6 80 9f ba bf 45 38 e9 5d 3b 56 c2 bf
       -0.10399631933202313 -0.14325658879755757
0003f0 8c aa 83 2a ce e6 b8 bf 02 78 3a a4 87 3a d8 bf
       -0.09727180993983547 -0.37857237852028913
000400 58 ce 61 84 57 97 c0 3f c4 fc f1 67 43 43 d2 bf
       0.12961858715026398 -0.2853554263201199
000410 cd 9b b1 3b 19 01 c4 bf 6b 17 39 79 90 0f e6 bf
       -0.15628352560744788 -0.6893999450337395
000420 68 1e bb d6 e6 aa cc bf a0 ec bf c4 89 1d cd bf
       -0.22396550640972923 -0.22746393305701407
000430 90 13 af 28 6e bf e2 bf 39 9d cc 0e e7 13 d2 bf
       -0.5858679575545569 -0.28246475644342045
000440 ad 95 58 84 0f 2b d9 bf 22 4b 28 38 40 3b d0 3f
       -0.39325321125428553 0.25361638530846353
000450 f0 bc 5b 79 e4 ac ca bf ab cc 81 0a 99 1d d5 bf
       -0.20840125966740386 -0.32993150735928606
000460 cd 7f 8e a9 bc 9c e0 bf 5b a8 1e a7 c3 7e e2 3f
       -0.5191329299595907 0.5779741539056532
000470 bd 71 a8 8e 10 24 e0 bf 1e 75 9d 3d 84 2b f4 3f
       -0.504402426365736 1.2606241614187819
000480 02 1e 87 d8 2e fd d3 3f 35 4c 1b 8c 0b 96 e0 3f
       0.31232806344311836 0.5183160530526779
000490 2f 49 52 5f f8 eb da 3f 47 6e 86 51 23 93 ed bf
       0.42065247830136604 -0.9242111770904068
0004a0 47 01 cd 43 a4 07 ed bf 8f 09 f2 50 bb 24 de bf
       -0.9071828197702779 -0.47099192528562467
0004b0 e5 7b 53 ce 81 e2 b7 3f fa 2f 37 aa 01 a0 d4 3f
       0.09329997336634184 0.3222660219441874
0004c0 32 f0 1c c3 5f 21 df 3f ab ff 2c 24 7a 14 db bf
       0.4864119916344435 -0.4231248238829674
0004d0 62 24 29 5c b1 6a c3 bf 25 ed c3 aa a7 2a dd bf
       -0.151693506241176 -0.45572845150282354
0004e0 2b e1 48 0c 37 5d e2 bf 46 89 15 ef ae c9 d3 bf
       -0.5738787879882116 -0.30918477390345733
0004f0 ba 59 84 10 69 88 d4 bf ca 77 c1 29 d4 2e b0 bf
       -0.32082583058345515 -0.06321455020358183
000500 b7 de 07 9b fb 7a f0 3f 05 33 8f d4 75 c6 eb 3f
       1.0300251060379375 0.8679761077451934
000510 3a 43 be 15 96 dc cd bf 19 e8 fa 41 5b 8a d6 bf
       -0.2332942587059053 -0.3521946091019586
000520 d0 36 e2 03 1b a9 da bf 3d d0 61 72 41 ab ce bf
       -0.4165713823248156 -0.23960130772650415
000530 cc 72 7d 2e a6 9b e0 bf ab bf 84 6d f1 4d 02 40
       -0.519000140000196 2.2880581432472886
000540 3e 8e cb cc 96 ab fe 3f 15 50 37 19 07 a6 d6 3f
       1.9168918609438061 0.35388352835184494
000550 7c 2b 3b b5 73 4d d6 3f ac cf bf a6 96 5a e0 bf
       0.3484772939524914 -0.5110581642934355
000560 27 e7 dc 1e d7 7f e5 bf dd 28 6a ca a3 3e d5 bf
       -0.6718555071631486 -0.3319482304292601
000570 bb 60 99 19 d7 97 d7 3f a4 2e 51 00 23 4d cb 3f
       0.3686425924293066 0.21329152598842882
000580 e0 6c 69 19 3b d7 c1 3f 23 38 83 75 01 e8 00 40
       0.13938082447825817 2.1132840328855464
000590 d5 94 b3 68 f1 70 ce bf 7b cf 92 91 9e ed e6 3f
       -0.23782174694421224 0.7165062754852295
0005a0 aa 7b 9e b7 99 92 16 40 7b 42 7f a1 62 62 ea 3f
       5.6431645098190675 0.824509921478309
0005b0 8c 39 71 55 c5 f5 e0 bf fd b9 ac 40 eb c0 d7 bf
       -0.5300013226313225 -0.37114983859910905
0005c0 a4 70 b9 a8 ae 61 c4 bf 03 79 a5 36 09 11 f1 bf
       -0.1592310260629165 -1.0666591772674685
0005d0 87 9f 1e ac 3c f5 d2 3f 69 76 17 26 ef 4c 0e 40
       0.2962180786948853 3.7875655151281546
0005e0 61 b4 f8 25 c3 ac db bf 47 da 97 8d 19 3a 01 40
       -0.43241957386164215 2.153369051167178
0005f0 6c 59 47 e6 1e ca 0b 40 9b b1 ab 14 8c b7 f0 3f
       3.4736917486690597 1.044811325783576
000600 3f ac 0b 30 64 1d e4 bf 76 41 98 2b 3e 21 e5 bf
       -0.6285878122702185 -0.6603079654178561
000610 2f 08 48 17 c9 48 d4 3f 3f 17 d1 59 79 a9 e0 3f
       0.3169424750668694 0.5206877474053967
000620 23 0d 86 cd a1 77 de bf e8 e9 a8 7b ac 53 01 40
       -0.476051760393789 2.1658563290522928
000630 67 5e 6c 07 a0 8f f7 3f 2e 98 d0 15 1e c5 e8 3f
       1.47256472491963 0.7740621973105186
000640 cc 2f a9 e8 86 57 e2 bf 9c 8d 6b 94 ce 7f c8 bf
       -0.5731844467313691 -0.19140035864903104
000650 00 00 00 c0 7c 98 d3 bf 00 e1 fb 23 f3 c3 d1 bf
       -0.3061820864677429 -0.2775848246960919
000660 7f b6 53 ed 5b 8d d9 3f d6 a7 07 d4 3a 6f e0 bf
       0.3992528741499441 -0.5135778561791493
000670 07 ac 63 7c c4 43 e5 bf c8 d5 f2 4c 61 21 b5 bf
       -0.6645224027137154 -0.08254058960559185
000680 0a a2 34 15 1e 95 c6 bf 71 91 85 0c b9 1d d0 bf
       -0.17642570529393736 -0.2518141386301727
000690 a9 7c 29 c2 57 19 e0 3f 0f 36 33 bf 5b 48 bb bf
       0.5030936043002799 -0.10657285135240378
0006a0 2b 99 1f ce 01 4e d7 3f 12 0b fd d3 04 b4 e0 bf
       0.36413617257348346 -0.5219749584578912
0006b0 87 3a b7 fc 1a bf cf bf e4 ce 7d a0 53 b4 e0 3f
       -0.24801957454333864 0.5220125326727296
0006c0 a2 98 20 84 f1 62 ce bf 08 5e 8c 5c f7 0a e0 bf
       -0.23739451362161385 -0.5013386542877365
0006d0 8c c7 92 2e b9 e1 e2 bf b5 ca a7 41 5d fd d0 bf
       -0.5900541219364057 -0.2654641286054969
0006e0 00 00 00 c0 0e e5 cd bf 00 00 00 60 ba 3c d2 bf
       -0.23355278372764587 -0.28495654463768005
0006f0 00 00 00 80 75 35 b0 bf 00 00 00 40 60 f9 c8 3f
       -0.06331571936607361 0.19511035084724426
000700 00 00 00 00 9c 52 94 3f f1 f7 b3 41 31 59 d8 bf
       0.01984637975692749 -0.380443872607315
000710 0c c8 08 30 fb 75 aa bf 00 00 00 00 5d 85 cd bf
       -0.05168137513500434 -0.23063242435455322
000720 2e c6 c7 77 08 3f b8 bf 00 00 00 20 01 03 cb bf
       -0.09471180843663582 -0.21102918684482574
000730 1b 0d 71 6a 65 40 14 40 ac 3f b3 d2 1d f0 e9 3f
       5.06288687052736 0.8105610957372753
000740 e0 d3 24 64 a6 e4 c3 3f 53 83 91 b5 45 32 d2 bf
       0.15541534318768324 -0.28431837779321717
000750 d5 94 00 f5 29 3d d7 bf 5b fb 78 19 34 36 b6 bf
       -0.363108147869139 -0.08676457998170177
000760 96 c6 14 8d ce 98 f1 bf a1 2f 9b 35 c8 0f 0a 40
       -1.0998063574774384 3.2577060878738426
000770 ce 21 ec 27 07 7f d9 bf 86 54 67 fd 77 dc 1f 40
       -0.3983781709544275 7.965301474982999
000780 c5 60 9b e6 53 63 04 40 1b ec 84 82 32 2d c7 bf
       2.548499871842156 -0.18106681225785412
000790 98 a4 da c4 8c 15 da 3f d5 64 6a d8 c4 12 ee bf
       0.40756530021696724 -0.9397911288134774
0007a0 37 8a b4 a2 16 81 e3 bf 4c 14 c9 4c 3e 99 ab bf
       -0.6095078637920953 -0.05390352904627402
0007b0 52 b4 29 ad 12 af b5 bf 49 40 af 3b 31 c5 f4 3f
       -0.08470265128717472 1.2981426555088709
0007c0 4a 8a eb 15 05 0c fd 3f c9 bb a1 3c 83 15 e7 3f
       1.8154345375302392 0.7213760551656999
0007d0 60 65 c4 fa c9 b5 11 40 f2 5c b8 ae 22 c4 ef 3f
       4.427528303372441 0.9926923191550527
0007e0 04 ab 8c b6 54 40 a9 bf 9b 6f 9a 26 7f 9e df bf
       -0.04931893089663755 -0.4940488697991385
0007f0 90 b5 d4 fb 15 1d e7 3f ee e3 6d c4 70 75 bf 3f
       0.722300521714418 0.12288574977527819

dense1.bias f8 [28]
000000 0c ed 24 82 3d 07 ec 3f 77 27 d8 4c b3 e9 b2 3f
       0.8758838216666915 0.07387848497469728
000010 02 3e 40 00 3d c6 b5 bf ee d7 73 82 3b a1 de bf
       -0.08505612617613426 -0.4785908483457878
000020 d1 af b2 b4 bd 6c e0 bf 97 3c 68 a7 84 30 e7 3f
       -0.5132740525491447 0.7246726293250444
000030 3f fc a3 44 96 af df bf 1c 1a 44 de 7d de dd 3f
       -0.4950919790571255 0.46670481401125286
000040 1e 44 6f ee 5c 60 e6 3f c9 c7 eb 71 73 db d6 3f
       0.6992630631376675 0.35714422345256175
000050 87 7f 99 a2 16 8b d1 3f 28 90 cc 6a 1d 3c e1 3f
       0.27411428336017035 0.5385882459563662
000060 70 fb 8b 45 ee ee cf bf 90 4a 00 9d 7f b7 d8 bf
       -0.249479087789918 -0.3861998589719997
000070 65 79 51 9d 5d 7e eb 3f 3e 05 39 72 01 b8 d8 bf
       0.8591754982588041 -0.3862308135467919
000080 d3 4d af 69 d9 a9 d5 3f 42 93 eb fd d2 b1 bb 3f
       0.3384917766645376 0.1081821317598726
000090 b9 27 a0 3c ba fb b0 3f f1 0a de cd a1 87 d0 3f
       0.06634105663411462 0.25827832321389993
0000a0 c3 0a 43 f4 02 98 e0 bf df 65 77 a1 8c 23 d8 bf
       -0.5185560961475278 -0.3771697594471259
0000b0 4d d0 26 37 0d f4 e1 bf db c5 50 7f e0 7f 93 bf
       -0.5610414578609465 -0.019042499323580358
0000c0 64 95 b2 ab 81 b6 d8 bf 20 ef 10 b9 99 84 c5 3f
       -0.38613931434004756 0.16810914551194234
0000d0 81 73 bf 15 0f db cf bf 66 83 e3 cb 92 75 d0 bf
       -0.24887264787585298 -0.25717611227996995
