PytorchLSTM/modeljustLSTM.pt (torch, 23600 bytes, 22 tensors)

lstm.weight_ih_l0 f8 [40, 7]
-1.3148073670410092 -0.3063198616121548 -0.013695101341926173 0.1596120562729264 -0.6815171001021784 1.4776023589225378 -0.4922205773573166 -0.32053662928456456
-0.6271368015268605 0.40253261018401826 0.7532358942871821 0.9085584278710958 0.41062059820659175 -0.10437278456763761 -0.9301173466586138 0.5205758626801519
0.1284121306369783 -0.18385015119542897 -0.6285347168097756 0.18766432164413208 -0.037508073372967556 1.7354125045613682 -0.28648904795435587 -0.9294215152604292
-0.10623424367441975 0.6650104314266709 -1.321041233234982 0.17398798861424317 1.3574779116401525 1.3872617019002895 -1.6401462448089883 -1.5246300480483461
0.1440176359262876 -1.471363033691572 -0.6935675058796605 -4.746085539602558 0.25688145248702837 -0.5887371434845278 -0.607132903539786 -1.8428379560878034
3.075584187772275 -0.089434619437686 -0.1001688299314658 1.3849078211581425 -0.3468781329256653 -1.2108730618599806 -0.3931654880514881 0.13963523904359518
-0.6092335933415113 0.7077956772041332 -0.6239655194112275 -0.20602433543283208 0.48573235778668 1.9274930442363476 -1.0765695284687362 -1.5443900188947763
-1.8491076854096504 1.38992644799862 0.2586224461302864 -1.048644993740135 -3.777250193808452 -0.21534266769816085 -0.03484599742676175 2.4365189275161994
0.7110004436397338 -0.9273566307967939 -0.5930755832964109 0.8113288898205281 -3.0189215690267535 -0.0616881897665957 -0.6600361793374054 1.4070738876490934
0.6650573550843027 -1.650430359268708 -0.4329752563663677 0.6704615171078445 -0.08759504142584545 -0.08536625250098114 -0.16195709319664786 -0.2615081587688229
0.0762327209440688 -0.6153144786961138 -0.046092964640943285 -0.01241881165349361 -0.4551451118035433 0.16409366794732597 -0.009282591934686687 -0.5779397210381053
-0.356771335380228 -0.12404072852914866 -0.7906390601266385 0.03001102676137716 -0.3033871055353213 -0.2365387819847601 0.3044671916775066 -0.7246615723000471
0.2192690224258485 -0.5379952392507219 -0.5245586171364913 -0.4166245885882129 0.21119177246582768 0.44123709781504866 -0.12789627176106058 0.34179887577788526
-0.43253100857439997 -2.750773268177996 1.594261863992028 0.4541996035295044 -1.743118135157679 -3.2748166277016253 1.5498400066301847 1.1292245281991022
0.009079902536081695 0.9261512469793888 -0.5221166269108903 -0.9225411785602184 -0.43329596538371223 -0.14131234061512743 -0.5423979070533623 0.268937246603167
-0.14851444227212246 -0.3190090424130082 0.39853711770541483 0.14671679515248853 -0.478947437610457 -0.35800754072945884 0.3523449197585134 1.3037687447067299
-0.38226363394676444 -1.256251377044612 -0.38118325621180404 -0.4312484600698572 -0.9639697595843368 0.1808874975794436 1.3133795264094625 0.02922292726008455
-1.578223420624936 -0.5885989343529511 0.4036486772751384 -0.6195325365873893 -0.5924486278160455 0.4258441659806661 0.1482893521820988 -0.5751146451499493
-0.30890704773267974 0.3011895576573807 -0.15294351527537786 0.20596272749371652 0.7115056363542263 -0.5858722832355103 -0.7126492711894538 -0.5509882234131952
-0.04281461646766831 -0.5669286737180513 -0.4299529740943687 0.22733222907724923 0.3404940893898036 -0.4342149871825717 -0.34806869954339864 0.2596040876023479
-0.23584705390041497 -0.014991539128501489 0.7797072904575849 -0.27060663777342836 -0.47888517811768927 -0.16812518152118275 -0.29393543793494287 -0.04394711943654202
1.2943607458068884 0.13139135401711555 -0.6897591950484507 -0.34559263363313353 0.384592495173737 -1.1500765835369067 -0.1721117264798954 -0.9715506325308934
-1.2617327780840153 0.8104221071487169 1.4218778263772083 0.8970240600493095 1.265513245217302 0.1592649613866934 0.18354855053926325 0.770155479812942
-0.07835801985770185 -0.8503409966726061 -0.2823399579139239 0.3916719653344709 -0.13375103508931804 0.19627850207595596 0.9239453311226925 -0.19083909586301284
-0.4052135644814216 -0.3478286649570125 -0.06643429018060953 -0.3269779526610611 -0.8610596372936087 2.2761249806571673 -0.777259396472525 -1.8832202135437837
-1.9112720724355297 -1.0348859560148425 -1.07957519095663 1.2676634538587617 0.27921648698701784 0.2332256661462947 -0.08957978067045026 0.5049671000666461
-2.2921508818148024 0.0485635233600292 1.1415846364751159 -0.1678321632684397 -3.5370682474568462 0.05988813080904089 0.6849496811872017 -1.9428202555481318
-0.2160797988941038 -0.4713667659480085 -0.15414372795666093 -0.44926442275544026 0.012867528245577114 -0.025117647113066865 0.25972473210709757 -0.5152538099845555
0.21825087970921683 -0.3093669865371952 -0.20568994988059344 -0.26865616037108536 1.0518556295913577 -0.028283694316616943 -0.573958884083855 0.33949942583995024
0.8264387749862132 -0.5804812759108585 -0.3499041375993766 -0.258355205415241 -0.31631389242406477 -0.20804902371046655 1.0173328752098345 1.3353487664595443
-1.8712857196543085 -1.5958651084895885 0.18138513126007116 -1.0704005887072956 -0.772658206681827 -0.27797703892011644 0.26000968176010575 0.08370386339790811
-0.3746767235518193 -0.4956139263869451 1.981949734233304 0.7057254267241689 -0.3683537702001004 -0.7787243459596959 0.5986752520328383 1.0542528917947944
00000000: 30b2 1f73 7309 f5bf 2953 ef9e be9a d3bf
00000010: f225 0863 2d0c 8cbf f0a8 def8 2a6e c43f
00000020: cf50 13f3 fcce e5bf 3b09 015f 42a4 f73f
00000030: 16bf 8abc 8a80 dfbf 3fa0 fc10 ac83 d4bf
00000040: 0ba1 9532 8111 e4bf 8716 1423 18c3 d93f
00000050: 5760 8429 821a e83f ddc4 c61f e912 ed3f
00000060: 031f 179e 9b47 da3f 1d7a 4fc0 2cb8 babf
00000070: cfe9 2a74 85c3 edbf 2d8b 29b6 8ea8 e03f
00000080: 976c bf06 cf6f c03f fadf 5fd9 6688 c7bf
00000090: cb27 a3d6 f41c e4bf 9135 0b6e 6205 c83f
000000a0: 3d1b f218 4234 a3bf 8591 02e7 3fc4 fb3f
000000b0: 9512 e828 d655 d2bf fdc0 8730 d2bd edbf
000000c0: 7403 4cda 2a32 bbbf b03e cff4 c347 e53f
000000d0: 8d96 d621 fc22 f5bf fd5b 7f08 3d45 c63f
000000e0: de96 38c2 3ab8 f53f 107b 8a53 3932 f63f
000000f0: fec9 21fd 093e fabf 69dd 2d7a e264 f8bf
00000100: c5e1 2c7e 2b6f c23f 76fa e3f6 b38a f7bf
00000110: 2749 6a7b b431 e6bf 2d72 02d9 fdfb 12c0
00000120: 735e 58e7 be70 d03f b39b 2647 efd6 e2bf
00000130: c7ec a0fb a16d e3bf f697 13a7 437c fdbf
00000140: f89c f4e1 cb9a 0840 0d75 9ded 2fe5 b6bf
00000150: ff5c a218 aaa4 b9bf d894 7d1a 9528 f63f
00000160: de3f 2757 4033 d6bf 6cbc 846e bc5f f3bf
00000170: 9435 4694 9f29 d9bf 6bdb 8748 91df c13f
00000180: e5d7 e072 d77e e3bf 0cf1 ba1e 43a6 e63f
00000190: f47d 7689 86f7 e3bf 659c 6e63 015f cabf
000001a0: 7260 d32b 3d16 df3f 9633 44f2 02d7 fe3f
000001b0: 374b 4af8 a039 f1bf 0cc0 f64e d2b5 f8bf
000001c0: 06de b9f0 f195 fdbf 06fe df83 233d f63f
000001d0: d007 0929 458d d03f e8a5 13f9 3fc7 f0bf
000001e0: 57bc 19f3 ce37 0ec0 2e37 9939 5990 cbbf
000001f0: af5a b0a6 55d7 a1bf f622 aea2 fd7d 0340
00000200: 05f9 9b00 84c0 e63f ff07 20d0 e7ac edbf
00000210: ff0d 4aa5 79fa e2bf 7188 0201 68f6 e93f
00000220: 7445 015a c026 08c0 1ba6 312b 9895 afbf
00000230: 52ca 8d31 041f e5bf 8c22 a8e8 5f83 f63f
00000240: 93a4 c15c 2648 e53f 7327 16aa 2968 fabf
00000250: 6a87 84d9 ddb5 dbbf 348d 26b6 6b74 e53f
00000260: cc3c 37ee a06c b6bf a57d ac0e 90da b5bf
00000270: 0042 5191 02bb c4bf 3d27 63b7 8cbc d0bf
00000280: b401 57d3 fc83 b33f c229 58fd a7b0 e3bf
00000290: 34c5 6a3f 7f99 a7bf 1969 41af 086f 89bf
000002a0: d159 88f6 1821 ddbf d93f a874 0501 c53f
000002b0: abb3 4066 c002 83bf 7760 1d71 7b7e e2bf
000002c0: d4ee 6670 57d5 d6bf ec9a 6718 22c1 bfbf
000002d0: 11e4 4549 ea4c e9bf 0a86 d6e9 35bb 9e3f
000002e0: f958 13c0 b16a d3bf a51b 6e1e e746 cebf
000002f0: 406e bdf5 637c d33f e44a 3677 6d30 e7bf
00000300: 0226 2ce0 0111 cc3f 9889 bfca 4137 e1bf
00000310: 7af5 2d27 2fc9 e0bf 7788 ac2d faa9 dabf
00000320: 8166 f6fd 5408 cb3f 1172 3986 3a3d dc3f
00000330: 213e 3fb0 e75e c0bf 2aa3 5164 08e0 d53f
00000340: f24e 158a 96ae dbbf c448 4c6a 9501 06c0
00000350: 32b1 71ba 1882 f93f 1cfc c036 9b11 dd3f
00000360: 5d11 79d7 cfe3 fbbf 0001 630f d332 0ac0
00000370: 2325 e808 25cc f83f 7d4c 27bd 4d11 f23f
00000380: f9f4 8be3 7b98 823f 8fa2 9df0 07a3 ed3f
00000390: a4f6 a8ed 2db5 e0bf 5424 e413 7585 edbf
000003a0: 67f4 3300 1fbb dbbf a449 bbd4 8516 c2bf
000003b0: 37d1 06db 525b e1bf 988f b591 4436 d13f
000003c0: de6e 4570 8502 c3bf 8ab2 12e7 a46a d4bf
000003d0: e75b b2d3 a181 d93f 6618 7aae 9dc7 c23f
000003e0: f08d 4227 13a7 debf eae1 c975 98e9 d6bf
000003f0: 6192 d1b4 d18c d63f 80ff 809d 3cdc f43f
00000400: 1018 90e3 0177 d8bf 9b62 3f0b 9b19 f4bf
00000410: 6499 cd74 4e65 d8bf 54d3 1c24 9399 dbbf
00000420: 3ced f71b d7d8 eebf 5ef3 2d4f 5227 c73f
00000430: 3ea2 1240 9a03 f53f f975 8073 9dec 9d3f
00000440: 7bd8 9533 6740 f9bf 3b34 b06e cdd5 e2bf
00000450: ac1a fe42 61d5 d93f a16c eee5 35d3 e3bf
00000460: b0f5 20d3 56f5 e2bf 2e14 85e3 0741 db3f
00000470: 43cb fb3e 25fb c23f 65d4 0bd4 5667 e2bf
00000480: 6202 e110 22c5 d3bf 0140 0291 b046 d33f
00000490: 6c1b 1f32 a793 c3bf 86e6 6395 fc5c ca3f
000004a0: 4af4 e177 a7c4 e63f c423 043b 77bf e2bf
000004b0: afdc 28d8 05ce e6bf 5b4e 010e b2a1 e1bf
000004c0: 36f1 0923 cceb a5bf f313 199a 4724 e2bf
000004d0: 6e68 a37a 5984 dbbf 1f56 9bf4 3819 cd3f
000004e0: bf45 9ab8 a7ca d53f 0a76 58a8 2dca dbbf
000004f0: 9d35 53f0 c146 d6bf 7e3d 8a76 5a9d d03f
00000500: 111c ae7b 3c30 cebf c25e 3052 e2b3 8ebf
00000510: adfa 1eb4 5cf3 e83f 2b50 d480 9e51 d1bf
00000520: bc7e a304 0ea6 debf dd3e 223e 2085 c5bf
00000530: a139 4495 d6cf d2bf 2a7a 77a1 3c80 a6bf
00000540: d477 079d b3b5 f43f 9486 3d90 6ed1 c03f
00000550: f025 1be0 8112 e6bf 2257 cc90 301e d6bf
00000560: 2dba 43d7 299d d83f 9afb 22b4 b666 f2bf
00000570: ad9f 3ece c107 c6bf 0a1b 245a f116 efbf
00000580: d897 a2b5 0e30 f4bf bb17 c557 faee e93f
00000590: ae29 b3f6 02c0 f63f af61 34cd 6bb4 ec3f
000005a0: 6ccf 0dd1 8a3f f43f 87fb 4654 cb62 c43f
000005b0: e5ac e5d6 847e c73f 7e37 d41a 1da5 e83f
000005c0: c00b ab6c 450f b4bf 3a05 6552 fe35 ebbf
000005d0: 5509 669d db11 d2bf 44c8 774a 2711 d93f
000005e0: f7e3 c100 c11e c1bf 137c a969 a71f c93f
000005f0: e7d7 8ecc f590 ed3f 18d2 c35d 6a6d c8bf
00000600: 83f8 d5df 04ef d9bf 6a82 2629 d342 d6bf
00000610: 08a0 a86f d601 b1bf 8a4e 4cef 34ed d4bf
00000620: 0d9d c2f0 cc8d ebbf d43f 8c03 8135 0240
00000630: 5076 0b19 4fdf e8bf 1263 c584 ab21 febf
00000640: 5fe6 4d06 9294 febf 6cc6 8293 e48e f0bf
00000650: f7b4 aba2 f045 f1bf 4b86 4a79 5948 f43f
00000660: 823f 07d4 aede d13f c4d3 57b0 56da cd3f
00000670: a9c8 5c54 b3ee b6bf 57f3 8ac3 b028 e03f
00000680: 1923 9733 5356 02c0 3c3f 3871 51dd a83f
00000690: 3f6d 7440 ee43 f23f 8a39 3a3a 867b c5bf
000006a0: a560 f46f ea4b 0cc0 029f 7c36 a8a9 ae3f
000006b0: 5b59 0398 1beb e53f 925e 39b1 ca15 ffbf
000006c0: 8dc8 c9ba 80a8 cbbf 3cc0 0a83 df2a debf
000006d0: 6a8b 3a4f fbba c3bf 776b bf90 bfc0 dcbf
000006e0: 36fc f567 4a5a 8a3f e3c3 9cc3 70b8 99bf
000006f0: aa30 977b 549f d03f f1bc e08e f57c e0bf
00000700: ff4f 5613 a5ef cb3f b6ea 6830 abcc d3bf
00000710: 0530 ed5b 0c54 cabf 616a aa9b a931 d1bf
00000720: 7d55 9391 66d4 f03f 4554 6698 66f6 9cbf
00000730: 2671 8c05 df5d e2bf 4593 bfcc 5bba d53f
00000740: 6ec9 d6ba 2f72 ea3f 9947 ff77 4d93 e2bf
00000750: ad5c ee52 d464 d6bf eda0 8045 e488 d0bf
00000760: 25d6 ce9f 7c3e d4bf 258d 66b4 59a1 cabf
00000770: 0ec0 42d6 fe46 f03f b729 0bab 965d f53f
00000780: 7a31 764b c9f0 fdbf f7a4 1cda a988 f9bf
00000790: e80f 5fc3 a037 c73f 28df 215e 5c20 f1bf
000007a0: 10e7 15b4 9db9 e8bf 39da cc34 60ca d1bf
000007b0: b664 f3a5 ffa3 d03f 1ec6 d7cb 9d6d b53f
000007c0: 4f8f 8e14 b4fa d7bf 8a8a 5179 23b8 dfbf
000007d0: 2191 adec 10b6 ff3f e78c 777d 4d95 e63f
000007e0: e688 17b1 1b93 d7bf 47de cf51 4feb e8bf
000007f0: a9fa 8c00 5928 e33f 988d bf47 38de f03f

lstm.weight_hh_l0 f8 [40, 10]
0.906747015814266 0.3057388029641201 1.0229805718360785 0.3248163041950539 1.7913218231491546 -0.3668209462523862 -0.5847270921853924 1.2806616595052491
-0.7516218253441678 0.6168315883972851 -0.4594320571355159 0.6185243717251848 0.19580497932608806 0.11714153932537931 -0.21381632434317482 0.5071464393784354
0.30708107683447666 -0.29844130015732917 0.2953123639295952 -0.09084497619089031 0.8689888114360035 -0.06055110185398012 -0.04743254844192585 0.9699310169392021
0.3635901534792374 -0.43619230393385167 -0.4187942244302306 1.124366829696638 -0.2744044981345988 -0.1534897890514023 0.5908752376961456 0.17977836035548259
1.0245969519365599 -0.5139865948926378 0.33882730606198724 -0.5091622693245565 0.08947896678009874 -0.198617126080384 0.39518453795115766 -0.2636622944876299
2.622562323851546 0.48181059859172765 -0.12338551629792048 0.23226274755182774 -1.891689605529615 -0.5466714361158961 0.11051471443739844 1.0604231299387763
-0.0737546176851074 0.17561602195758363 -2.1711668228347833 0.18492845038317277 0.2551974898677528 0.1549482019362017 -0.5824474150061476 -2.825856610291852
0.2454147283340842 0.14339659459959517 0.059964306093254004 -0.18567888073422062 0.057366186460453196 -1.5499297683535342 -0.053450286061291895 0.2995262016788688
0.37697309085735375 -1.1820477723260816 -0.7026186834470521 0.4371499373699335 1.4346023218908635 0.00023353782879632042 0.30213962531569877 0.04616983300538245
0.7534944239628323 -1.2196979624298168 1.644276236176642 1.9615309622324284 -0.027866697679447373 -0.8838504646554468 -1.0059030424451874 1.362847241439505
1.4962537324704586 1.4726725185854528 -1.0444752371779136 1.442811151326415 -0.43573352289612505 -0.45024191787112366 0.3889930533108218 0.44919780999171405
0.6151149944516479 0.22482502779097505 -0.8938811415137855 1.3421268525647734 -0.19434470536574658 1.2059958667413224 -0.10085811024537387 -1.581093107845833
-0.06037196206666829 -0.5961965737820111 -0.014394226231806629 -1.9793130346565744 -0.32993828043625706 0.18005722219988923 -0.36194207097016123 -0.15478278430709896
-0.2793321289922519 -0.20815142555218077 -0.08295653678822057 0.28675272613726555 0.0998536126314173 -0.4401970961127839 1.1881909660938847 0.3799945464219343
0.35813505861256956 -0.3034879380829725 -0.03639880863333985 0.14903682471520066 0.1530940922640957 0.3056741685555274 0.4861116491170298 -0.23890839438743058
0.5630125623823014 0.021982076317782612 -0.4552605190961606 0.3497744236563216 -0.03800174404927914 -1.176542480841868 -0.028076878700393455 0.7350890081018583
-0.22970347882251554 0.28776189195402324 -0.8066559031583933 0.010281439852298324 0.225973431628211 -0.6966469873442037 -0.6032705108354043 -0.2245772819361627
-0.2991651134605916 -0.7769778117529386 0.17639733685941944 -0.20756158445992828 1.8045959978606074 0.9525975058836615 -0.15896768273448791 0.49094551335413006
-0.9475365259428046 -0.3090048482500463 -0.2631902131463983 0.44561106581792403 -0.06778434353227986 -1.5648273011087277 0.1748206372908327 0.9841003959079536
0.8957023778728536 2.2650885761902786 -0.7965252610582275 -2.0756108421145374 0.6153007320295136 4.078636477719542 -0.25378971465850697 0.13065216238543825
1.3402913723332344 -1.0040624421070632 0.10148588982318967 0.1749564276300139 -0.3409395947158881 -0.7521397763597826 -0.3859556132001673 0.3638555990625152
1.4586972942945902 0.0005614363467821878 -1.4232560757905917 0.1465574425611219 -1.1240572092871486 -0.5514657733613448 -0.4740966708595008 -0.3542123551587924
-0.5104458131969274 -0.8003674065035937 0.08496825507262466 0.099267798603257 0.9388591031390805 1.283960161279947 -1.2454139151570551 0.6159306903375843
-0.16058535453078213 -1.4840789116769932 -0.012675621365509196 0.8562173103714427 0.20943705005787422 0.40805499634936176 3.5538117397436495 0.7745963272379256
0.9960816041722422 2.343637336260689 -0.1307340001017604 -0.4505696866891312 0.08640879460491076 2.525427496952971 -0.23854236969130696 -0.5474793347397282
-0.22045918260984948 0.009635706441721273 -0.3095571936118949 -0.05695985577649094 -0.19356793088321142 -0.35519886700748615 -0.41599767228998985 0.25905007634969207
-0.26808208728768484 -0.3673575125460977 0.43777847012823423 -0.9018167416799621 0.3308893005754119 0.3843451253505867 -0.2126666049792632 -0.9086639484681984
-0.1925971863665108 0.8464981362936862 0.8295742885075663 -0.02051302976098202 0.3836765400013435 -0.0955679700713021 -0.21219432333336372 0.28533272859952863
-0.5109424016160096 -0.8254531956944304 -0.12869049857634815 0.266252288935758 -0.1638766259664602 -0.3069376916570892 0.0237548040797078 -0.4916293683543692
-0.24226852818868563 -1.0946437707174141 -0.3430551821029985 -0.4394473048843579 -0.35038195626679564 -0.3970278620180765 -0.37059874244707797 0.30785328332226614
0.6195760102466749 0.7267148352769233 0.5186316671042583 -0.2072950899492457 -2.015615994324444 0.008536948856541758 0.523980917385559 -0.09436591691740681
0.13400769897342676 -0.6109922372457522 0.20864267379270068 -0.5001744688113805 0.03120477296059272 -0.21993239780169196 -0.5246700648707259 -0.3356046592781206
00000000: 2b5f 5551 1204 ed3f 6357 f67b 3991 d33f
00000010: 5cab 47e0 205e f03f 0a6c ee52 cac9 d43f
00000020: 6296 7012 41a9 fc3f cd12 e98f fe79 d7bf
00000030: 9eaf 4097 15b6 e2bf e10e 8d14 977d f43f
00000040: 4c04 da36 490d e8bf 59cb 6999 15bd e33f
00000050: 0763 08b7 5567 ddbf f1d5 8a9f f3ca e33f
00000060: 8fbc 4c37 2310 c93f 89d5 67e8 fcfc bd3f
00000070: 9ad2 3354 555e cbbf 2739 6d2b 8b3a e03f
00000080: df5e 8e63 37a7 d33f 88e4 fc89 a919 d3bf
00000090: e5a6 4bd4 65e6 d23f f3ea bec9 9d41 b7bf
000000a0: 37a4 b69f c1ce eb3f 3a33 66d4 8d00 afbf
000000b0: 48e4 a538 1449 a8bf 1a28 a4c5 ac09 ef3f
000000c0: 0cd2 95a2 0f45 d73f 126b 0a20 93ea dbbf
000000d0: 1a9e 6b4a 86cd dabf 7511 a412 68fd f13f
000000e0: dc41 57e2 d78f d1bf 7b73 1fac 8da5 c3bf
000000f0: 3d7a bd2f 73e8 e23f b1ad 2031 fa02 c73f
00000100: 8561 02c6 bf64 f03f 53ae f403 9472 e0bf
00000110: 0bcb a1b9 58af d53f 4a65 e3ab 0e4b e0bf
00000120: db19 00f4 17e8 b63f c26a 7836 496c c9bf
00000130: 5da5 9816 b44a d93f f0cf 00d1 d7df d0bf
00000140: 2e50 a5f4 01fb 0440 7154 f41e fcd5 de3f
00000150: 6fb5 4c75 3196 bfbf d837 6824 c9ba cd3f
00000160: e7ec de51 5c44 febf d7cd 7818 557e e1bf
00000170: 8643 3c3c b14a bc3f e024 703e 7ef7 f03f
00000180: f1f2 e226 95e1 b2bf 7410 7bf7 957a c63f
00000190: 8de2 11b6 8c5e 01c0 a172 3f47 bcab c73f
000001a0: e635 40da 2755 d03f 33eb f1b9 57d5 c33f
000001b0: a6ea e2c2 68a3 e2bf 831c e3b5 5a9b 06c0
000001c0: 2968 13f4 bf69 cf3f 37de 14d2 d15a c23f
000001d0: a31a 323b a4b3 ae3f b6da 2758 53c4 c7bf
000001e0: 6dde 7ccd 195f ad3f f8cd 2228 83cc f8bf
000001f0: 13b0 30fd d55d abbf b65f 20f2 6f2b d33f
00000200: 6a14 2dbe 5320 d83f ea33 c7ec aae9 f2bf
00000210: 59d6 5e2d da7b e6bf b1f2 1cbb 43fa db3f
00000220: 3d97 7490 21f4 f63f bf00 93ac 3a9c 2e3f
00000230: a99f 6370 4156 d33f cec9 a385 92a3 a73f
00000240: 6c70 9456 a01c e83f 7424 ba02 e283 f3bf
00000250: 977f 3f99 f44e fa3f 3713 4e4a 6e62 ff3f
00000260: 5d15 b96c 1689 9cbf 4cfc 07c5 8048 ecbf
00000270: d2fb e3c9 2d18 f0bf e7d2 b6e8 38ce f53f
00000280: 27a8 f7c0 a7f0 f73f f7ad 100f 1190 f73f
00000290: 6293 92aa 2bb6 f0bf 5704 5425 c115 f73f
000002a0: b905 a7db 0ee3 dbbf e8dd 227a c3d0 dcbf
000002b0: a2d5 951e 43e5 d83f d959 d62b a8bf dc3f
000002c0: 9c5e 0ea4 05af e33f a59e d706 11c7 cc3f
000002d0: ec02 aa9f ac9a ecbf fa95 ad01 5a79 f53f
000002e0: 692b d98c 49e0 c8bf 123e 6c52 c24b f33f
000002f0: 634d 0a4d d6d1 b9bf c90f 6249 284c f9bf
00000300: 21e8 57e5 12e9 aebf 0f31 4cd6 0a14 e3bf
00000310: 7aad 5557 b87a 8dbf 1258 0625 44ab ffbf
00000320: 5605 0b73 b51d d5bf 9ee9 6074 1d0c c73f
00000330: 2f41 7713 0f2a d7bf 9699 4a1a eccf c3bf
00000340: 049a afdd 93e0 d1bf f762 aeb6 b4a4 cabf
00000350: 10ad 7ebc a33c b5bf fc18 331b 285a d23f
00000360: 0daf a3a0 0190 b93f 104f e670 302c dcbf
00000370: 016a cc87 d402 f33f 9098 62a5 d451 d83f
00000380: 9cb0 124f afeb d63f 6cff 32ac 586c d3bf
00000390: eb19 6359 dda2 a2bf 9d96 0680 a313 c33f
000003a0: ae17 be53 9698 c33f 0e64 4b63 2a90 d33f
000003b0: a362 ca08 741c df3f 1f23 51de 8c94 cebf
000003c0: a169 d5eb 3204 e23f e53e 882b 7882 963f
000003d0: 3e64 2b04 fd22 ddbf 9031 a543 b462 d63f
000003e0: 50e6 c3ef f674 a3bf e420 5935 1ed3 f2bf
000003f0: a5f4 2a6f 2fc0 9cbf 394a 2e62 d985 e73f
00000400: 1dfa a870 ec66 cdbf 4091 beda b06a d23f
00000410: be19 660a 20d0 e9bf 730d 5f7f 6f0e 853f
00000420: dbd4 4d89 b2ec cc3f 4d02 709f ee4a e6bf
00000430: 9fbc 55f5 fd4d e3bf e991 abc8 f2be ccbf
00000440: 32b6 9a6e 8525 d3bf db49 6692 00dd e8bf
00000450: 6ad3 741c 3094 c63f 96a6 94c4 6091 cabf
00000460: 58dc 940d a0df fc3f 14b0 c0c3 ad7b ee3f
00000470: 7896 3b93 0d59 c4bf b454 feba a66b df3f
00000480: da12 d61e 3852 eebf 6585 6245 bcc6 d3bf
00000490: c3d3 85c3 1bd8 d0bf b11d 9b46 e484 dc3f
000004a0: 94e7 a692 505a b1bf 1d66 225a 8809 f9bf
000004b0: 963d eacb 8560 c63f 53f8 0c1d c07d ef3f
000004c0: 153a 7d08 98a9 ec3f 5d3e 6ac2 e61e 0240
000004d0: b9da 558b 227d e9bf f4d6 70db d99a 00c0
000004e0: 1eb1 2829 8bb0 e33f f04f b014 8650 1040
000004f0: d23e 2137 173e d0bf 0a6f 4cc6 35b9 c03f
00000500: e583 b45d d571 f53f 20de 7fc7 a310 f0bf
00000510: 83ca cbb1 fafa b93f deac 72e3 f864 c63f
00000520: c6d6 4d4e f4d1 d5bf 7a8d af6f 8711 e8bf
00000530: 03c0 192c 7fb3 d8bf d028 9cfe 6849 d73f
00000540: ab24 5cf9 d256 f73f 1c84 c55f ab65 423f
00000550: 87a9 b529 a8c5 f6bf 8c88 64ef 64c2 c23f
00000560: 928a 8b69 23fc f1bf 0e69 ae8c 9ba5 e1bf
00000570: 62fa 1e90 9957 debf edc0 4f4c 6aab d6bf
00000580: 20f3 4175 9255 e0bf e6f3 761b 9c9c e9bf
00000590: 1b30 bcc4 7ac0 b53f db01 8c4c 9d69 b93f
000005a0: 8218 f13e 220b ee3f 3307 61cf 198b f43f
000005b0: 7053 3924 37ed f3bf ba48 7347 b4b5 e33f
000005c0: 2b90 f696 0f8e c4bf 1660 6587 c9be f7bf
000005d0: 5b4e c519 adf5 89bf cb0f 4ad8 2166 eb3f
000005e0: 52de 4850 d5ce ca3f db8d 12b4 921d da3f
000005f0: fdb7 72d9 346e 0c40 d9d5 a23c 7ec9 e83f
00000600: d824 4287 e6df ef3f ca64 87ee c4bf 0240
00000610: f4c6 7447 e4bb c0bf b285 393d 22d6 dcbf
00000620: 1d35 ea02 e31e b63f 3ea8 de54 1334 0440
00000630: a96a 446e 8e88 cebf ce2c be61 f384 e1bf
00000640: d2c2 b4a9 0138 ccbf b511 54a0 e2bb 833f
00000650: 097f b3f9 c8cf d3bf 3964 7d9b d729 adbf
00000660: e750 597e d5c6 c8bf e4e5 5707 94bb d6bf
00000670: 00a6 6cb3 b49f dabf cfaf 7cc5 4694 d03f
00000680: 49d1 62c5 4128 d1bf 58d3 9415 c982 d7bf
00000690: d6fe 05fd 8f04 dc3f e005 90c8 aedb ecbf
000006a0: 5455 2451 4a2d d53f a37f f04b 1c99 d83f
000006b0: 322c abc8 a838 cbbf 5c34 b76a c613 edbf
000006c0: c075 5f4c 06a7 c8bf e133 7042 8316 eb3f
000006d0: 48c2 d760 df8b ea3f a175 dc1f 5e01 95bf
000006e0: cf15 e30b 288e d83f 6e58 007a 2477 b8bf
000006f0: fb8b 8eff 2e29 cbbf 100f 7434 e442 d23f
00000700: 1e93 22e1 a359 e0bf 4c5c fcd1 1c6a eabf
00000710: 277e 5825 ee78 c0bf d5b5 5d0a 470a d13f
00000720: 2269 8dc6 e8f9 c4bf 6cec e4fc dda4 d3bf
00000730: ccb7 94ea 2d53 983f 2673 b506 db76 dfbf
00000740: 99d1 b5b6 a702 cfbf cd05 c02f a983 f1bf
00000750: d7c3 f6b8 9df4 d5bf 4ccb b296 e71f dcbf
00000760: 998f d170 a86c d6bf e8fa bd8c e768 d9bf
00000770: 6bee afc9 e3b7 d7bf 7676 f541 deb3 d33f
00000780: ffa8 ac11 91d3 e33f 8609 6178 3f41 e73f
00000790: 7a3f 1c70 a198 e03f a308 fa3f a588 cabf
000007a0: 1558 4747 fb1f 00c0 39f9 2be1 d17b 813f
000007b0: 0cc5 fca0 73c4 e03f c86e 045f 5d28 b8bf
000007c0: f364 400e 2a27 c13f 7792 a297 3f8d e3bf
000007d0: b6ac 3e9a cdb4 ca3f 82d9 3ae3 6d01 e0bf
000007e0: 9320 61dd 24f4 9f3f fdce f1ab be26 ccbf
000007f0: 3eeb 39e0 18ca e0bf 2906 fff6 8b7a d5bf

lstm.bias_ih_l0 f8 [40]
-0.49094716644260433 -0.12557115927866858 -0.5337453023350984 -0.005689895853924216 -1.115222008716313 -0.6935844540105142 -1.2019117563911386 -0.4083708304487987
-1.391069930611158 -0.5985995591176352 -0.6409972235580141 -0.568144152371178 -0.49905000324191057 -0.9446078728557197 -0.8163173109513944 -1.8027184654144708
-0.7818938529759364 -1.546855021302553 -1.2087167277431043 -1.4123550068969248 -0.2740129649755061 -0.6299793074506006 -0.18684452932222795 -0.9079146520106749
-0.3161752690110085 0.3756216988727905 -0.2666105787821124 -0.24212968640136728 -1.3480019418120266 0.2972605787565072 -1.1939043338304236 -0.9812101755713718
-0.6271203800338099 -0.8935707759745788 -0.769907543331008 0.8217802431482476 -0.42050972571965906 -1.2210731167656141 -0.6753709388285601 -0.6939101208168119
00000000: a7d4 fba9 ad6b dfbf a81a 363b b712 c0bf
00000010: 3c88 3d07 7114 e1bf 0896 c3c9 494e 77bf
00000020: b374 7308 f3d7 f1bf 51a7 5f06 d831 e6bf
00000030: b60b 66d2 073b f3bf b7bf 5a68 bf22 dabf
00000040: 59c8 268b d241 f6bf aaed 3943 ba27 e3bf
00000050: 6645 009c 0c83 e4bf 9721 3ba5 3c2e e2bf
00000060: 6588 bf6c 6ff0 dfbf c0b3 2e4a 3a3a eebf
00000070: a23c 367b 451f eabf 7b9b 4d51 efd7 fcbf
00000080: d933 ef41 4605 e9bf 965d 020d ebbf f8bf
00000090: 6a8e fc59 e756 f3bf 256d 4f90 0199 f6bf
000000a0: 98fc cfac 6d89 d1bf a006 555d ca28 e4bf
000000b0: cc0f 7083 85ea c7bf 023e 3e07 a30d edbf
000000c0: c133 0d32 373c d4bf f0e6 1498 2f0a d83f
000000d0: 67c1 28d1 2510 d1bf a607 3e06 1bfe cebf
000000e0: 346f f07b 6a91 f5bf ff8c 093c 5106 d33f
000000f0: 5cab 456e 3b1a f3bf 529b d2e1 1266 efbf
00000100: 4ccf 5cc2 5e11 e4bf ec1b 6fbd 2198 ecbf
00000110: bb9c f124 15a3 e8bf c742 9a14 064c ea3f
00000120: 586a e79f a1e9 dabf 9687 e8f6 8389 f3bf
00000130: dbff dd83 a39c e5bf 14b1 68ff 8234 e6bf

lstm.bias_hh_l0 f8 [40]
-0.5793967339989837 0.32412040456601304 -0.6423387066281596 -0.5037588543748155 -0.9222895966880014 -0.6470381438241285 -1.104105272883981 -0.265313245686226
-1.2513921080212838 -0.570686644364675 -1.2145154997726135 -0.5275255539100262 -0.27887029643000544 -1.0024510215640636 -0.6730765611154261 -1.7513888526825379
-0.8591605460911709 -1.4186301119969802 -0.9853162839507589 -1.2980847966308129 -0.7046386271831099 -0.46583440402919984 0.019207446166434508 -0.47192565955805477
-0.7314140368733286 0.8082134947941149 -0.5273261528082206 -0.5429099827270492 -1.4559796301245571 0.12238648164766551 -1.0081169540887533 -0.5294997428035038
-0.4627402766841221 -0.7461728405841053 -0.7776410075720359 0.3245160367387952 0.016460299581319393 -1.2989697862726417 -0.32137202446756047 -0.44719302544175055
00000000: 43ea fd04 6b8a e2bf bbf2 6482 63be d43f
00000010: 4488 3de7 098e e4bf 3e87 93e3 ca1e e0bf
00000020: 70e9 e678 6583 edbf 55a7 5f56 89b4 e4bf
00000030: b10b 664a 6aaa f1bf c1bf 5a68 e4fa d0bf
00000040: 59c8 26bb b305 f4bf aaed 39a3 1043 e2bf
00000050: b222 00ce a76e f3bf 9121 3b45 7de1 e0bf
00000060: 6188 bfcc 02d9 d1bf e259 1715 0a0a f0bf
00000070: a03c 36db d789 e5bf 7e9b 4d51 b005 fcbf
00000080: da33 ef41 3e7e ebbf 955d 027d b5b2 f6bf
00000090: bf1c f903 b687 efbf 2b6d 4f90 f4c4 f4bf
000000a0: 4ffe 674e 668c e6bf 560d aa1a 3bd0 ddbf
000000b0: 5481 7fe4 1dab 933f 1c7c 7cae 0734 debf
000000c0: e299 0669 be67 e7bf 6c73 0a8c e2dc e93f
000000d0: b760 9418 dbdf e0bf da81 8fc1 845f e1bf
000000e0: 346f f04b b14b f7bf c733 2670 b854 bf3f
000000f0: 55ab 453e 3f21 f0bf 529b d271 a9f1 e0bf
00000100: 729e b964 899d ddbf e21b 6fdd a5e0 e7bf
00000110: bc9c f164 6fe2 e8bf b185 34e9 dec4 d43f
00000120: 3059 8901 f8da 903f 9a87 e88a 94c8 f4bf
00000130: bdff bbf7 5b91 d4bf 2262 d17e cf9e dcbf

dense1.weight f8 [28, 10]
0.07541956130050671 0.8215370652210611 -0.2232306152978951 -0.4068924252258211 0.11516561380664603 1.1553944236971683 0.3753254241121435 0.029243000731019465
0.03824404589673224 -1.754670926634391 0.41970410015946796 -0.419553747365518 0.004504236455631509 -0.040903337885805524 0.8915722912179904 -1.6725106136324022
-0.0986616687794602 0.7199483045776487 0.05247826886147288 2.4993212785666654 0.33663857354014637 0.07251262203066616 -0.40632214099092034 0.0757504883186358
-1.078986931640818 -0.03998107235345012 -0.10337472097921732 0.30067449079423414 0.05075259606977031 0.2757882169304593 -0.22011619558145154 0.48846847116265885
0.04052621618134147 -0.77979874993919 -0.15302829787927713 1.6386447858755695 0.6728635935791459 -1.419999553639958 0.476894046228777 -2.312626650769457
-0.3952646203349215 -0.34923811756210055 -0.7492548650053693 -0.2588085597106775 0.3184910913444139 -0.2368642789111852 -0.2205475946465163 -0.20226292470923066
-0.5194444921790853 0.07996431441855197 -0.5432223053627101 0.3866085458537266 -0.17785933945805357 -0.13338433782681217 -0.28153756523338064 0.10740124830899299
-0.31645492736958125 -0.37972114087312986 -1.4029476182832072 0.11152982296303549 1.0380879084236871 -0.6694369105801526 -0.07859194612773829 0.8331281529793233
0.37650138018910057 -0.7463506667542039 -0.37246418164513184 -0.2861935354870452 -0.3318634666506756 2.1442976062770276 -0.2380537986755371 0.10185566544532776
-0.01536056399345398 0.06413787603378296 0.00021150708198547363 -0.19487503170967102 -0.1914103478193283 -0.21029804646968842 -0.026511818170547485 0.03129911422729492
-0.5588391725451364 -0.3040041358022553 0.20743821235812088 -0.02840245688373755 0.006542112404823748 -0.04499705381189493 0.08443380037248327 0.5522237456773805
-0.06283073195410788 -0.6839570751968638 -0.16094668209552765 -0.30858075618743896 -0.15017491579055786 0.10452201962471008 -0.10531759262084961 0.040876954793930054
-0.032947152853012085 -0.2706697881221771 0.02750563621520996 0.1976393163204193 5.825518423702208 -0.4571723278322762 -1.0532832988820855 2.3183596953161127
3.386091127224389 -0.29161806638421744 -0.26780906194411064 -0.9404482843414195 -0.19462009364058772 2.550633878127658 -0.1605437283664398 0.4885100547099161
-0.05531537968829061 0.2505417297113636 -0.47575617718284474 1.629079384405943 0.5633346630372534 -0.7465998819283843 0.8067152575125625 -0.38428203781828585
-0.47481140053018833 0.664043992242602 -0.04964643832194855 -0.6443903677766908 -0.6503549494087081 0.9327171071505166 0.784711533309124 -1.0069151785731785
1.5859407475061924 -0.19582179036212788 -1.0004747772613891 -0.33765554284238924 -0.43955254013458067 -0.05177622595667545 -0.862878703489846 -0.8828111013389757
-0.11247088074654857 -0.5949263737221583 -0.00755233291652355 1.452462756363 -0.6665526023240527 -0.2333648044610178 -0.22032903802118745 -0.49947479564461855
-0.23660794113655087 -0.46992994032944524 -0.13297977091158644 0.4998433001970169 -0.6161488602018806 -0.4649653472086599 -0.3068021542188313 -0.20778187115709915
-0.22716511953948437 -0.625672635970775 -0.6923903516628952 -0.21845645152489704 -0.41045360873001485 -0.5075771846905203 -0.5611692834128483 -0.5503799565163916
0.2079180978053451 -0.2822103839205419 -0.563100270923255 -0.09114478523208716 -0.6151539774181857 -0.5970404308991986 -0.10830314308206616 -0.5882317558990412
-0.5421673053306689 -0.29658338881594765 -0.19682483161172928 -0.05741946452805085 -0.3359751758758836 -0.5199479604734497 -0.7156914304284232 -1.4944989112227072
0.5978890227425796 -1.413388639482812 0.84635126255046 1.5877831370789885 -0.5209222331335819 -0.0940497548290278 -0.5553087936873663 -0.21837137639522552
0.022663086652755737 -0.35728167349348783 -0.23487140235122528 -0.2911891022407374 -0.4522471087221871 -0.02303657416498783 -0.21646968499624722 -0.30874333883744
-0.4849896351177206 -0.6274910760678083 -0.44087100716603034 -0.669302720771468 -0.08845248114397167 -0.2832192125356685 -0.07508533694296374 -0.5236457306877176
-0.6406022008882872 -0.1685996776172035 0.03142381422027157 0.03034686286889562 0.09151234575399543 -0.24146894648740558 -0.2553650015168201 -0.11529626006207115
-0.3308611258742926 -0.39907190799855774 0.2878915822691051 -0.21698367711870967 -0.6883440757522258 -0.4666975976139664 -0.4238391440374279 -0.4092503590642573
-0.32711826693309143 -0.32485593077842595 -0.8780274769379174 -0.7714908284913256 -0.12895404673371125 -0.26252483517141245 -0.011911657637803738 -0.7869349958869543
0.011191888025877391 -0.7646304083882742 -0.7797630290081878 -0.5591545015868515 -0.4242747518946634 -0.5270937147376809 -0.3667802653563014 -0.31442209873893223
-0.5264162047518739 0.1052119816074389 0.059759712760340034 -0.37351547386836315 -0.3563648902740113 -0.2061504400737521 -0.31805530541555754 0.1281079787089594
-0.6217915051538725 -0.03690759897920962 -0.377110995945431 0.314812148826484 -0.562360709153025 -0.07351841085867229 -0.30759561444256234 -0.2957704796836443
-0.30211270727925355 -0.2540154861353528 -0.5565523612591272 -0.3718060865879657 -0.3772403637470611 0.024747465601509405 -0.2727952400589772 -0.2360174142803586
00000000: 05ac 4345 b24e b33f db70 7219 084a ea3f
00000010: 37d0 1520 d292 ccbf 1571 d586 860a dabf
00000020: 185e ec60 7e7b bd3f 6429 fcdc 7e7c f23f
00000030: abd0 7aed 5405 d83f 9a45 1b8f e0f1 9d3f
00000040: ef4f c93c b994 a33f 0630 52d2 2113 fcbf
00000050: 45a6 0b96 6edc da3f 6858 f6f5 f7d9 dabf
00000060: ab82 53c4 0873 723f 6896 0845 48f1 a4bf
00000070: 42a2 199d c287 ec3f 9639 3c7d 9ac2 fabf
00000080: 04cd c620 e441 b9bf be17 df06 d109 e73f
00000090: 3f7d 0581 6ede aa3f 3920 8d27 9cfe 0340
000000a0: 4a54 fb83 7c8b d53f 5c3e 2bec 2f90 b23f
000000b0: cc96 cc94 2e01 dabf d50c fc4d 6264 b33f
000000c0: d756 03cd 8743 f1bf da24 6f2c 6678 a4bf
000000d0: c2bf d605 c476 babf daf8 2c38 403e d33f
000000e0: dc0f 9d88 3efc a93f 98a9 159f 83a6 d13f
000000f0: a3cf ab7a c42c ccbf c953 3143 1143 df3f
00000100: 344c 422a dabf a43f 856a 0e82 1cf4 e8bf
00000110: 6e84 6067 6e96 c3bf 3d8b 5198 e337 fa3f
00000120: 4ded 223b 1988 e53f d17d b373 51b8 f6bf
00000130: e16b 0d9b 6e85 de3f 7a4d c766 4280 02c0
00000140: 94ad 66fa 034c d9bf 6688 5cd5 ea59 d6bf
00000150: 8124 b256 e5f9 e7bf 5876 f8c6 5190 d0bf
00000160: 1410 5975 2862 d43f 17d0 c195 9151 cebf
00000170: b0ef 1b51 e73a ccbf efe3 6863 c0e3 c9bf
00000180: 52e3 3f0e 4a9f e0bf 7d55 4693 8a78 b43f
00000190: b6b2 7fbe 1362 e1bf 92ef 32c5 31be d83f
000001a0: 2558 2147 18c4 c6bf 1de4 61ec bc12 c1bf
000001b0: 2776 d122 b604 d2bf 2f65 09f1 a57e bb3f
000001c0: 4e77 ed2a cc40 d4bf fd97 69e6 594d d8bf
000001d0: 8170 a833 7972 f6bf 00a8 27ee 378d bc3f
000001e0: 2fd8 1011 029c f03f 3faa b5f4 066c e5bf
000001f0: 44fe 580e 9a1e b4bf dc89 4d5f fca8 ea3f
00000200: 3be8 b33e 9918 d83f c4d3 21cb 1ae2 e7bf
00000210: 4239 c601 74d6 d7bf 1695 cfb0 fe50 d2bf
00000220: 1f1e 0044 403d d5bf aece de80 8527 0140
00000230: 0000 0000 8c78 cebf 0000 0080 3613 ba3f
00000240: 0000 0000 5c75 8fbf 0000 0000 576b b03f
00000250: 0000 0000 00b9 2b3f 0000 0040 aaf1 c8bf
00000260: 0000 0060 2280 c8bf 0000 00e0 0beb cabf
00000270: 0000 0000 ea25 9bbf 0000 0000 7006 a03f
00000280: 11c3 39b0 02e2 e1bf bba4 47c3 cd74 d3bf
00000290: 1869 02d9 558d ca3f c14d c49d 8815 9dbf
000002a0: 2224 35ed e6cb 7a3f 85ae 1395 da09 a7bf
000002b0: e8dc 461b 749d b53f 7d49 f821 d1ab e13f
000002c0: fc37 edc2 ac15 b0bf b4d3 baf2 f9e2 e5bf
000002d0: 0000 00a0 e699 c4bf 0000 0080 c9bf d3bf
000002e0: 0000 0080 ee38 c3bf 0000 0080 f4c1 ba3f
000002f0: 0000 0000 18f6 babf 0000 0000 d3ed a43f
00000300: 0000 0000 73de a0bf 0000 0060 a752 d1bf
00000310: 0000 0000 702a 9c3f 0000 00c0 3e4c c93f
00000320: 922f a0b3 544d 1740 9540 2bb9 4f42 ddbf
00000330: dff1 a196 3fda f0bf 53fa fd2a 008c 0240
00000340: dfa2 e5f1 b616 0b40 09c0 82d2 dea9 d2bf
00000350: 4bd5 a79e c823 d1bf 2e6c 1a00 2718 eebf
00000360: 0f57 aaac 4fe9 c8bf 0606 15bc b267 0440
00000370: c3b4 7467 b28c c4bf bbc2 2fad bf43 df3f
00000380: 633d 7425 4c52 acbf 6330 d92d e008 d03f
00000390: fdb2 7709 ca72 debf 0ac8 698b b510 fa3f
000003a0: 8557 4e6a d606 e23f 508e 826f 25e4 e7bf
000003b0: ec6b 0684 9cd0 e93f 5caa 37b0 1398 d8bf
000003c0: 2ee3 425b 4f63 debf 2e31 b92f d93f e53f
000003d0: fa4a e909 426b a9bf 63aa 6e8c d89e e4bf
000003e0: 7f11 d02e b5cf e4bf c332 f48b d1d8 ed3f
000003f0: 1b6a 8b5c 5b1c e93f b715 1d17 531c f0bf
00000400: 1eed be67 0360 f93f 7489 b93c b010 c9bf
00000410: 04f8 0cd7 f101 f0bf 5b8e 74fe 259c d5bf
00000420: b21c 30fa a021 dcbf c571 63da 6982 aabf
00000430: aeeb 7ccc b39c ebbf 187e 1911 fd3f ecbf
00000440: ba09 8f42 e4ca bcbf f143 d508 a309 e3bf
00000450: 64d9 28ee 31ef 7ebf 2acb 5396 493d f73f
00000460: bc74 811f 6654 e5bf e347 99dd e5de cdbf
00000470: 7d7f 54ee bd33 ccbf 2b13 1e22 65f7 dfbf
00000480: 76e3 9344 2b49 cebf a413 4807 5513 debf
00000490: 9523 8c2b 7b05 c1bf 3123 dec0 6efd df3f
000004a0: b31c 81d0 7db7 e3bf e834 0204 fec1 ddbf
000004b0: 2895 ad80 a5a2 d3bf 8124 a9aa 9898 cabf
000004c0: e064 9b23 bf13 cdbf 15e4 af9e 8205 e4bf
000004d0: 8ba8 8ecf 0f28 e6bf 7927 7389 61f6 cbbf
000004e0: 6951 8136 df44 dabf 1121 0e82 123e e0bf
000004f0: e0e4 f848 19f5 e1bf e693 336d b69c e1bf
00000500: b405 296b 0f9d ca3f f4f0 6124 bc0f d2bf
00000510: e97d ffdb ea04 e2bf 7ad3 c5bf 4355 b7bf
00000520: 677e e064 57af e3bf fe41 a388 f41a e3bf
00000530: 6b6b 9739 c1b9 bbbf ddc2 4167 cbd2 e2bf
00000540: a561 ab3f 6f59 e1bf 1316 e0e4 38fb d2bf
00000550: 2513 685b 8e31 c9bf e786 9a84 1566 adbf
00000560: b9e7 2906 9e80 d5bf 2b5f bbe7 69a3 e0bf
00000570: 10f6 f6b6 f1e6 e6bf 04bf b9b0 77e9 f7bf
00000580: 0f23 ea28 e821 e33f a4dd f167 3d9d f6bf
00000590: 21a4 323e 4f15 eb3f 0a50 6e4a 8f67 f93f
000005a0: 3c2d 621a 65ab e0bf 82ff 2f0d a513 b8bf
000005b0: bd30 82f2 16c5 e1bf 0000 00e0 97f3 cbbf
000005c0: 0000 0000 fe34 973f ec56 c7f3 b3dd d6bf
000005d0: 209d ee1f 4410 cebf 19d6 c49d d7a2 d2bf
000005e0: c807 6bdb 9df1 dcbf ff1c 9a52 e696 97bf
000005f0: dd30 d154 47b5 cbbf a689 ca6b 73c2 d3bf
00000600: 7db1 6ef7 110a dfbf 5ac7 472a 6814 e4bf
00000610: 7617 6207 3b37 dcbf f5ca 1a8a ed6a e5bf
00000620: 2a6f c361 d2a4 b6bf e821 dc79 4320 d2bf
00000630: 7a44 94ea ca38 b3bf f8cc ffb0 b4c1 e0bf
00000640: 34f2 d12f d07f e4bf 3cb3 bd9a ac94 c5bf
00000650: d885 c83c c816 a03f 777f 3b7e 3f13 9f3f
00000660: 5d93 3164 5a6d b73f 90dc 1456 74e8 cebf
00000670: e5b1 8372 e657 d0bf 3755 5142 0e84 bdbf
00000680: fc75 c924 d42c d5bf c6ca 66e6 648a d9bf
00000690: 91ed a8d0 d06c d23f a7ce 7e02 1fc6 cbbf
000006a0: 7909 b827 ea06 e6bf 93eb b799 5fde ddbf
000006b0: d9f1 9937 2e20 dbbf dba9 036b 2831 dabf
000006c0: 84b7 9974 81ef d4bf fbb7 a687 70ca d4bf
000006d0: 0b02 4e14 cd18 ecbf 1218 b188 0db0 e8bf
000006e0: 1c3e b4f2 9081 c0bf 88bc 5cf7 34cd d0bf
000006f0: ebd0 f69f 2365 88bf 1432 ed4c 922e e9bf
00000700: dec0 69c8 c5eb 863f 9cc0 b130 da77 e8bf
00000710: c80a 8798 d1f3 e8bf 3041 37fb 97e4 e1bf
00000720: 6ffd f949 5127 dbbf 3c37 57a3 f3dd e0bf
00000730: 4b81 21ef 5379 d7bf 224c cedd 7d1f d4bf
00000740: b4cc efcb 66d8 e0bf d5bb 2624 2cef ba3f
00000750: 6818 d937 d398 ae3f ca21 3472 ade7 d7bf
00000760: 34d9 4aaf aece d6bf 6e1d 163b 2363 cabf
00000770: 2910 c5a3 045b d4bf c8b0 749d d765 c03f
00000780: c020 724c b7e5 e3bf 85de 2d85 8de5 a2bf
00000790: 1f0c a328 9622 d8bf 8af7 e5da e125 d43f
000007a0: 77c3 cbe2 dbfe e1bf 39b9 4a42 1ad2 b2bf
000007b0: 0a20 1b84 a5af d3bf 5543 574e e7ed d2bf
000007c0: 481b 5e89 d055 d3bf 993f 682b ca41 d0bf
000007d0: 2ed3 c3e5 46cf e1bf f356 96c1 abcb d7bf
000007e0: db95 41c4 b424 d8bf 7b62 ab4d 6657 993f
000007f0: 9bb2 a32a 7a75 d1bf 9870 cf91 d135 cebf

dense1.bias f8 [28]
0.025222932636366383 0.7523164880295552 -0.3813296411829124 0.2060786919599691 -0.46733212191543566 -0.4345569948596087 0.2065422735199767 -0.20399250090122223
-0.09872468208845099 -0.2852768898010254 -0.11049790773627519 0.24140213441091563 -0.01408785809061134 -0.02131297776918474 -0.4426334161550178 -0.659973398977247
-0.3236216942662658 0.4493574787603098 -0.6325387727822815 -0.4447485744623562 -0.15105404556054522 -0.2051064961571864 -0.7229929713797016 -0.24475525766838002
-0.5132746540991764 -0.6240417375151407 0.21522813871376562 -0.22329292968745437
00000000: b12e 215b 0ad4 993f 3283 0a07 fa12 e83f
00000010: c510 7870 b467 d8bf 616d 2f5d c960 ca3f
00000020: 2dd0 fffc c4e8 ddbf 41e2 4a24 c8cf dbbf
00000030: b140 012b fa6f ca3f 0000 0020 6d1c cabf
00000040: a9bd e050 0546 b9bf 0000 0000 fa41 d2bf
00000050: 46f4 0044 9749 bcbf 905f 3de0 43e6 ce3f
00000060: d4ae 284e 18da 8cbf 0400 ffb9 11d3 95bf
00000070: ef29 a01b 1b54 dcbf a3ca 9a88 801e e5bf
00000080: 0d95 49c4 37b6 d4bf 5344 dfde 45c2 dc3f
00000090: f4a8 d1f3 c13d e4bf 4b8a 90b9 c276 dcbf
000000a0: 6b36 ce2c bd55 c3bf 269c 98fe ed40 cabf
000000b0: b009 ea27 c222 e7bf f0d8 9ae9 2354 cfbf
000000c0: f617 a7f7 be6c e0bf f1ed be60 26f8 e3bf
000000d0: 822f 7a7c 988c cb3f 2fc3 37db dc94 ccbf
