PytorchLSTM/model.pt (torch, 30904 bytes, 26 tensors)

lstm.weight_ih_l0 f8 [40, 8]
1.934937461934216 -0.9629425394706294 0.5500926025001079 1.0509370401125993 -2.998243156038748 0.32987508573618346 -0.046820425233482316 -0.3606908821105358
3.4457505597435105 -1.5406628297906142 1.0387267225365369 -1.5281676521530285 -2.383915624248814 -0.6495715741990082 -0.8402901458625747 -1.827487732218973
1.1213795283741343 0.3963004846545749 -0.23345749481547237 -0.014791879832655662 -0.40108406448688694 0.5411681617829246 -0.4142721266983674 0.8502871803124276
-1.4689018842624106 0.6393278834391228 -0.23865822035456444 2.0064560836837084 0.1575034086657286 0.631668814511154 0.7970530716175556 1.1062845076045997
-0.10478004235382077 0.6108633787047887 0.30209167532707887 -1.4605974247802267 2.07217460478088 -1.0386522378484115 -1.3053431890036813 0.4875358313535863
1.8443026685382584 0.27769777657396677 0.29257638186304813 -1.9904266332518283 0.5095689678504576 0.03766465668715183 -0.4144644901788418 -1.1709545730479227
-0.7010672698507654 1.394702109290822 1.187889240782664 1.975430726073723 -4.9844656544595125 0.7412431041895978 -0.1498041750921124 -1.5817513248544905
0.1932378097181274 -2.2180238254979763 -0.14932641670261443 0.6414037065775707 -4.2191161836781195 -0.14232316474409512 0.7925045936552415 -2.4400869732793113
-1.9805150106153766 0.7629277574368897 -0.21438545458247782 1.1146874169042809 1.0977493216977827 1.0214106958346016 0.09169620078830736 1.5523490575424304
-0.4648864508022167 -1.858852387652246 0.7863122683618501 1.8055771900246713 -4.305972034247047 -1.6787839280604775 0.7205090786655557 2.9173036793374045
0.5235749368377927 -0.07199085818769947 0.7175836222999371 0.4633495827833407 0.8482205281717253 -1.1067756276407021 -2.2184151189463224 -2.296111610124947
-1.503707307724153 1.5633077715110424 1.749668772954626 1.0980303953751445 0.13605282792819576 -0.6938283803299717 -0.6801125681136254 -2.0837070447427144
0.446581675460783 0.9785829996308251 0.5296704707170532 0.6668697995156347 -0.19245651909509381 -0.6355056332424897 -1.0755806183878938 -1.0583686756026651
-0.7636110042117912 -0.3487011996280928 -0.5359735124732126 0.9901723474741233 0.10111634131805555 0.647845871637277 0.3338344100585131 0.2304500010334432
0.9557022733603967 0.7365849225495872 -0.23968289535920584 -2.157875015922505 0.7469149000119022 0.34525127738078304 -0.291944499610538 -0.7867613346933036
0.15589984519557362 -1.9744551203213245 0.45529477659593176 0.30799105537689897 -1.7185901600554858 -0.46472691379289804 0.933597070571954 -1.1093016204508057
-1.0307930397442546 -1.3469195067025508 -0.13462625482513013 1.2336008282969897 -3.182732499535648 0.6279441160879164 0.8803551436085724 -4.037790662032008
-0.4739242490716891 0.2630501736331478 0.9959207720827207 0.685774595068326 -0.03775736374182546 0.1734937096760745 -0.7678703217723842 -1.8942362567189845
-0.42657314129864976 1.303009773920747 -0.5726616368603885 -0.5815452230771325 1.3820394167139285 0.9942328303671317 -1.6170934028609483 0.8876655382375265
-1.1906166063570442 -1.0122656791657751 1.6335388820179593 1.2178906760931014 -2.7552089673137665 -0.7506947315508457 0.24949718730698361 0.7833443396118023
0.35736207266099135 0.4335436786123717 0.6056167411019158 -1.7365340056951941 2.0643041116545766 -0.15594785457178975 -0.5893009550754545 -1.0906006683757792
-0.04869677479430708 3.5489973534929806 -1.5437310344212878 -0.951245729687833 3.4878575980053483 0.2738051671261896 -0.5334277892485088 -1.3952482695311603
-0.16765708909063642 1.391480841152156 -0.4479146445323636 -0.9070250413649604 2.601791940901294 0.029802794111250922 -0.5388666427772041 -0.16064836998378615
1.2042441599380103 -0.1816541013432748 0.4465142435639658 -0.32763255692550247 -0.359658563521189 -0.5048869133004622 0.6766937145045714 -0.6150512909525054
1.3169699401149901 0.42945368168248543 -0.23265517888914225 -2.489459184145911 0.3204905420221439 -0.5154214122510725 -0.8747494576007074 -0.37144363854078594
-0.7955506660266588 0.36231330247310223 0.7135905313994766 0.3131200190739761 -0.0008903309932218467 -0.25165372328344077 0.09504084531298078 -0.7342520332380955
0.06451282082236565 2.5989805617325956 -0.31026247274841534 -0.6833652664030164 3.3545036429323734 0.7085788320894661 0.3165332243712192 -1.1277723826573927
-0.057706842718109025 0.7630299696539112 0.6391367719904112 -0.33861328024208054 1.273745779136668 -0.3345739505289151 -0.8702022283091814 -1.0521967518564244
1.2100059490698014 -0.6140752655015166 0.45532692585436396 -0.09574930201880638 -0.3444582990721811 -0.5602851004126398 0.40871710369894004 -0.9298826394125569
-1.9665335788340395 0.02537361665798265 -0.24728902638782177 0.4493304165231073 0.08749019822599385 0.20634725877870758 -0.34365330755995066 1.0950717890334052
-0.35616343069879985 -0.88484647650762 -1.0064949434148442 0.7179436162240406 -0.019838238890223008 2.4204498467956275 0.762333444501685 3.769874384632084
2.839196440903283 -0.2068533160384935 -0.5473628456836572 -1.5285449386162278 -0.5197893976499574 -0.029038299593254952 -0.15552222525949008 -1.72143291853874
00000000: d400 edfb 80f5 fe3f 6b83 5edf 6cd0 eebf
00000010: c14d 30cd 5b9a e13f ba04 975b a3d0 f03f
00000020: 5323 65e8 66fc 07c0 7922 4064 ac1c d53f
00000030: e442 53c6 d8f8 a7bf 4254 a835 8f15 d7bf
00000040: 342d 62ab e590 0b40 e8d0 4111 8ea6 f8bf
00000050: 3c69 6ce9 9f9e f03f 79d6 8cec 5f73 f8bf
00000060: 9f93 d45a 4212 03c0 4012 7353 4ac9 e4bf
00000070: be2f f428 a8e3 eabf 108c bbc6 633d fdbf
00000080: 3e55 0ca9 2bf1 f13f 0abe 3eb5 fc5c d93f
00000090: 9788 9e68 efe1 cdbf 995c 0581 344b 8ebf
000000a0: 70bf fa7e 5cab d9bf a7cf 8fe4 3f51 e13f
000000b0: 3916 f43c 6f83 dabf 3dcc f475 8d35 eb3f
000000c0: 8c09 1f43 9f80 f7bf 8357 d9bf 5f75 e43f
000000d0: d115 ac41 5a8c cebf 0f41 e2d8 380d 0040
000000e0: 7229 9d5a 1229 c43f d84f 8784 a136 e43f
000000f0: 89c2 7871 7581 e93f 44bb 4362 57b3 f13f
00000100: 40e3 2e67 ddd2 babf 618e 3b5b 318c e33f
00000110: 251d 7b52 7855 d33f a7d8 c067 9b5e f7bf
00000120: b815 7947 d093 0040 469e 17cf 519e f0bf
00000130: 0a3c 2d8a afe2 f4bf 41ad d27c c933 df3f
00000140: f0c1 d483 4382 fd3f 90a7 23e5 ccc5 d13f
00000150: 5ec3 eb49 92b9 d23f bd76 ee98 c9d8 ffbf
00000160: 922c 7f94 634e e03f d56d 5f29 c848 a33f
00000170: daf8 aa11 9686 dabf c37a c5dc 3abc f2bf
00000180: ecc2 89a0 246f e6bf 8f0f b128 b350 f63f
00000190: b3e8 0626 9801 f33f b700 c03f 5d9b ff3f
000001a0: 60c1 b7c3 17f0 13c0 ad27 5c75 43b8 e73f
000001b0: b095 6980 c82c c3bf b079 2a7a da4e f9bf
000001c0: 0b86 8b3c 04bc c83f d819 8246 83be 01c0
000001d0: 0e53 15c6 201d c3bf 4515 e910 6186 e43f
000001e0: faaf 2bfe 5fe0 10c0 8401 053d a537 c2bf
000001f0: a0ba f597 325c e93f ca0a ad51 4c85 03c0
00000200: 3c48 fd81 30b0 ffbf b1dd ec78 e769 e83f
00000210: 2cbd 158a fb70 cbbf 9cdd 0d79 c2d5 f13f
00000220: dd5e be97 6190 f13f b74e e6bd b257 f03f
00000230: 73a0 8df7 6679 b73f 46f0 21f7 6bd6 f83f
00000240: 5e23 a319 b3c0 ddbf 34ed 5000 dcbd fdbf
00000250: dbd8 a158 7829 e93f e1f3 58e8 a4e3 fc3f
00000260: 9e53 a2bb 5039 11c0 681f 4189 4cdc fabf
00000270: 70de 2a0e 690e e73f 7809 ba4f a356 0740
00000280: 9c27 d739 20c1 e03f d9f2 862d fe6d b2bf
00000290: df8c bded 71f6 e63f 40dc 2a02 85a7 dd3f
000002a0: 9763 8960 9f24 eb3f 85a0 4b5c 5ab5 f1bf
000002b0: 7a9c 066d 50bf 01c0 d29e 8bc3 6f5e 02c0
000002c0: 33e7 d664 2f0f f8bf a38f 8302 4f03 f93f
000002d0: d7c2 eaae a4fe fb3f 3367 e251 8891 f13f
000002e0: e56d 3dd7 2d6a c13f 5fb9 5193 d733 e6bf
000002f0: e5b0 b46e 7bc3 e5bf 0beb 5c99 6eab 00c0
00000300: 6834 c64e cb94 dc3f 4cc0 7a4b 8d50 ef3f
00000310: 985f ac7c 0ff3 e03f e482 7355 ff56 e53f
00000320: ba2c b54b 6aa2 c8bf 8f68 e6e8 0f56 e4bf
00000330: d6ff c205 9435 f1bf 4030 0dfe 13ef f0bf
00000340: 5292 3e58 806f e8bf cfa1 1ed6 1e51 d6bf
00000350: c007 73ec b126 e1bf cec1 39eb 7daf ef3f
00000360: 6e5e 0db3 c2e2 b93f a6fb f043 27bb e43f
00000370: e4c4 5e00 8b5d d53f 8aa1 e6b8 627f cd3f
00000380: d576 19ef 1c95 ee3f 2d78 228b 1a92 e73f
00000390: 883b 7dda edad cebf ecf0 f1f9 5343 01c0
000003a0: 8447 8e13 bae6 e73f 092c 50d0 9818 d63f
000003b0: 13c2 84fb 37af d2bf 487b 481b 262d e9bf
000003c0: 7b81 48b0 86f4 c33f 8532 9340 5e97 ffbf
000003d0: ce39 e1b3 8c23 dd3f c079 931d 20b6 d33f
000003e0: c7a6 4a65 587f fbbf c1ef 13f4 15be ddbf
000003f0: 2def b7f6 06e0 ed3f b8c6 530e b3bf f1bf
00000400: 0656 aad7 207e f0bf 4c1c fa77 fb8c f5bf
00000410: 2c15 d4e0 6e3b c1bf 52aa dd38 d4bc f33f
00000420: 2460 eb74 3c76 09c0 f805 4a42 1e18 e43f
00000430: 2441 d58c de2b ec3f 2f16 6698 b226 10c0
00000440: 35d5 a25f c654 debf 1389 3d65 d0d5 d03f
00000450: 4b13 303d 95de ef3f 14e0 4790 ddf1 e53f
00000460: 2d9c e8e4 ee54 a3bf 316b 8fb8 0a35 c63f
00000470: b99a f2c7 6492 e8bf 8616 58ad ca4e febf
00000480: 34b3 ce6e f94c dbbf 36ba d5c6 20d9 f43f
00000490: 80a7 3f7f 3e53 e2bf a45c 48ba 049c e2bf
000004a0: 9a1b 095d d51c f63f c029 615e c1d0 ef3f
000004b0: 8ed7 fd54 9ddf f9bf 7686 108f c167 ec3f
000004c0: 550c a6ff c30c f3bf 6f15 2e7f 3d32 f0bf
000004d0: 422f b0aa f922 fa3f 6dc5 feee 7a7c f33f
000004e0: 8811 c2ff aa0a 06c0 ce4a 29f5 b005 e8bf
000004f0: b2b7 f619 86ef cf3f 0876 0426 2811 e93f
00000500: 1339 ba2b 05df d63f 5dc5 41fc 2dbf db3f
00000510: a42b 1e5c 3661 e33f cfa4 ade1 d7c8 fbbf
00000520: 1b70 c4df b183 0040 a533 a26b 19f6 c3bf
00000530: dd9e 31ad 8ddb e2bf 25b7 baaf 1973 f1bf
00000540: 4a0f 539e c8ee a8bf 44be 76b9 5864 0c40
00000550: 0e8e 2a50 1fb3 f8bf 3901 6fe2 9a70 eebf
00000560: 004e 64e2 21e7 0b40 5f19 921b 0686 d13f
00000570: 9732 b327 d711 e1bf a7fd 76d9 ef52 f6bf
00000580: a21d 4b99 c975 c5bf 3225 1c6a 8143 f63f
00000590: 349f 6a2f a2aa dcbf 0119 2a61 5906 edbf
000005a0: e256 094b 78d0 0440 5123 26a8 9f84 9e3f
000005b0: dd44 f441 653e e1bf 8737 9e33 2090 c4bf
000005c0: ef52 3586 9544 f33f b610 3a0c 7140 c7bf
000005d0: dd8b 537a b093 dc3f 9f64 468b eef7 d4bf
000005e0: ab30 035a a504 d7bf 53b9 9999 0828 e0bf
000005f0: b196 a693 79a7 e53f 6c1d 800b 80ae e3bf
00000600: 4ebe 6912 4f12 f53f c446 7e4b 2b7c db3f
00000610: 6975 4918 a5c7 cdbf 7811 a593 69ea 03c0
00000620: 1e65 2ac3 ea82 d43f 02d9 a80b 557e e0bf
00000630: 43d7 1293 f2fd ebbf 43c1 f589 bbc5 d7bf
00000640: 15a8 9cab 2675 e9bf 54c6 4122 2430 d73f
00000650: 8a12 63cf bbd5 e63f e551 698c 280a d43f
00000660: 80f2 ce3f a32c 4dbf 17d1 da37 181b d0bf
00000670: 5348 67ca 9854 b83f 98ee b81e fe7e e7bf
00000680: 18d2 9a87 e983 b03f 50a6 1c52 b6ca 0440
00000690: b05a 6821 57db d3bf 898b cdd5 20de e5bf
000006a0: c4a8 8501 06d6 0a40 cac9 ce83 adac e63f
000006b0: 7265 b191 1442 d43f 2a87 cd0d 5b0b f2bf
000006c0: 749a 7554 c08b adbf 6701 b1d3 bd6a e83f
000006d0: 9bd5 abf5 ce73 e43f 9d62 2809 d7ab d5bf
000006e0: e0f5 0c41 4361 f43f a35f e7db a869 d5bf
000006f0: f9d0 ef57 b2d8 ebbf 6fe4 e242 ccd5 f0bf
00000700: 1986 b332 2f5c f33f a991 d32b 81a6 e3bf
00000710: ec17 e28b 1324 dd3f 181d c9b8 0683 b8bf
00000720: 9773 56d2 9a0b d6bf ebaa d604 dbed e1bf
00000730: 7bfa 6cc8 6b28 da3f 99a4 ac3c 99c1 edbf
00000740: a43f f9e9 eb76 ffbf 1ebb e896 8afb 993f
00000750: 7768 7fb4 2aa7 cfbf bf25 045d d4c1 dc3f
00000760: 4ce8 19f4 c165 b63f 3672 0944 9669 ca3f
00000770: 4176 4871 6afe d5bf 22bb 0aff 6985 f13f
00000780: 027b b8b3 61cb d6bf 0c98 d28e a950 ecbf
00000790: e5e5 1871 9a1a f0bf 3fbc 01e4 64f9 e63f
000007a0: ce97 f9ac 7950 94bf 71c3 2ccf 145d 0340
000007b0: 3f04 991b 0965 e83f f42e c0e6 b328 0e40
000007c0: 28cb a49f acb6 0640 762c ba61 2b7a cabf
000007d0: ba37 2816 ff83 e1bf 1d2b 9d89 eb74 f8bf
000007e0: f5d9 f65f 1da2 e0bf f581 564c 37bc 9dbf
000007f0: 2f34 a5fb 26e8 c3bf 871b 763e fd8a fbbf

lstm.weight_hh_l0 f8 [40, 10]
2.488596586691213 1.2406341153758529 4.161213633045697 -1.3115020879247317 -0.5472057790230382 3.302215865985406 -1.0170989356442555 -1.4033027554764423
0.43374215961169965 2.581047002884899 0.7953228446548907 0.5967942596627397 -1.0538709538079163 2.7069448112315433 2.846162883027666 -2.9233927265236765
-0.7182343620300039 -2.0742606815828633 -0.8675950706563849 -4.557563639470203 2.370948325338094 -1.3598281921501338 1.6755494823951933 0.29459788674379206
2.84144874055159 -2.210036774674784 -1.7793263177300498 -2.2926497437151885 -1.7650511712478767 -1.9052939882047164 -0.06357956130868994 -0.3308338917367995
0.4556615330373374 -0.6223620668848101 -0.34321731029200586 1.1056767243497054 -1.292802342014671 -0.6786334439360492 -0.7059508058006746 -1.4612235144979309
0.6862541504177646 -2.0125984492045434 -0.7335401531064276 0.43147178191760066 2.4760990993329814 -0.9645272855312435 -0.24820570573403067 -0.0032706515878728327
-1.2177674215515872 -1.537932280439833 0.36175606052261766 0.7552970705511071 0.3084154883813835 0.58699176941114 -0.17240047909533124 -0.3914047106807348
1.6588882111628038 0.8029755548591525 0.1798282067387465 -0.9075389689879968 0.5817657107764636 -0.1875312010523707 0.6342117847561054 0.6509843867308676
0.34008319859755193 -2.354089603247167 5.665028492670661 -2.6367910096991887 0.8555321474870509 0.9840346215291194 0.7842076243754293 2.832124358566258
0.3706886789438201 0.13439432643333865 -0.6374597544018084 -0.1642725425603084 1.9326726256407574 2.7674069937335184 -0.06832013159329572 0.2542596655850929
0.3158459358625714 -1.5654349001365448 -1.3582344287273143 0.21039489258167418 0.26935423027518585 -0.05080396682558979 -1.7070534205730732 -0.6079767927938864
-0.8893049212513179 -0.9758506835499609 -0.8829578584756477 1.5218250836611178 -0.2309165558617271 -1.3456944667932675 -0.48469074978306903 0.6291726112678625
-0.6870514446571484 -1.0832444576923268 0.12752618892895273 -0.7975375226109618 0.5659011191913801 -3.627254514364331 -0.7688282648211635 1.441713888450113
2.384900202324478 0.6016964618635329 2.1958216229090173 -0.7434430168115441 -1.1147111260121076 0.3836489711794205 0.4583913374017886 0.3477984177896731
-0.15369766221750367 0.5004550539812876 -2.283841967160007 2.9116468621214557 0.84056514475327 0.5129291884042216 0.5452786699712387 -0.2830914939397941
-0.20623001691248818 0.5009068482702068 0.25176031125894854 0.5249991574024022 1.5072761350286201 -0.1448817339113449 -0.4402709512770938 -0.023371904754931443
0.6196632252645103 -2.798736883786843 0.797704753039629 -0.8236847094939876 0.09605459740036949 -2.7028237278080396 -1.1801980242491372 0.9379551757824055
-0.7273369516882682 -0.8398457785820896 -2.1287796656164066 0.501859577940958 0.5604483262989896 1.2336717744911785 0.706486651782555 -0.5600653692312775
-0.02887946221122472 0.29362875809821015 0.4006967615564554 0.202781016448582 -0.6385707682981571 0.1252806195094293 0.4007280752142154 1.37586582338662
0.5417292706889821 0.692541393434031 -1.2971651136404283 1.3202463410080445 0.7896036803763296 0.6363329821896431 0.7539256939118175 -0.9399369030006166
0.6643286760126307 -2.3157553504984003 2.149612734898178 1.1212243337095433 -1.4245556502384724 -0.9609054722171584 0.2513170112106054 -3.4530781862619646
1.4861739223193207 0.12549768754779256 0.5536581087843969 0.9008156399893857 -0.2777309066777436 1.0393626572910086 0.08085798614850116 -0.49341406622996664
1.5076998368092607 -0.04873819427081935 0.1640179253344298 0.14636918268522164 -0.4894716311969097 -0.7995506983454196 0.6876952026776477 -0.6059719163002024
0.19618026824879345 -0.24938233233599807 -0.7429253579881991 -0.9506641503760254 -1.2233488828434913 0.17135651235126279 -1.162451227360655 2.2758694948055394
0.43392156030545176 -3.1140104729382254 -1.4778520231925134 0.7964191078270161 1.0967869036826647 1.3564785917435442 1.5290867007788922 1.9510087739491215
-1.5519599742949661 -3.0865763520600105 -1.7627563190448938 1.3968976312282853 0.9497752495687444 0.8515399188419704 -2.2698331969396555 0.22307743927588702
0.5648125655711358 1.25432150610489 -0.5446268866985093 -4.647744521093534 -0.7258528157693098 2.2933766111449576 1.2005523603811317 -2.4477592547467966
-1.0957633449411688 -0.6017186750714468 -1.9641719886170605 -1.9601077556806799 0.5202403100298563 -2.683904463691994 -1.5520772931500946 0.4155087709349378
2.341089770813973 -0.9308410256824822 -1.7371210922803675 -0.315444908120755 -0.45672053395427187 -1.6515433169199416 -0.10949627084896577 0.03724390886784177
-0.5988725234771726 0.8197058842337168 0.5854268253391918 -0.9238257397167329 0.8068931862314241 0.4648465321725088 -0.25332778547199 0.005912231916792382
0.9421201013909966 1.1510627887782383 0.6414616217605965 0.5531933061395261 -3.4814741021437032 0.29126626584462223 1.6485059210811577 0.3078311028758257
-0.43989015348907 -0.9505448413779988 0.1072662555029768 -0.012704768190862728 -0.29688193264580615 0.028838977393937947 0.6787902564415619 -1.7415419599996214
00000000: 3a35 c653 a5e8 0340 7875 7d28 a3d9 f33f
00000010: 0767 c62f 15a5 1040 e95b 049d e9fb f4bf
00000020: c2c1 a2b1 b582 e1bf c7ea e526 f06a 0a40
00000030: 3d37 9688 0946 f0bf 3087 1297 ed73 f6bf
00000040: 336f 9b79 6ec2 db3f bba2 96f8 fba5 0440
00000050: 01be f1e4 4873 e93f db24 7646 f018 e33f
00000060: 01f3 0cca a7dc f0bf ee87 62ae d2a7 0540
00000070: 0f8b ad0b f1c4 0640 8844 ceb9 1b63 07c0
00000080: 8708 f9a0 c6fb e6bf 6f37 f6fb 1598 00c0
00000090: bc7a d4bc 56c3 ebbf 60da 73f6 f13a 12c0
000000a0: 27aa 6ec1 b3f7 0240 066b d734 dbc1 f5bf
000000b0: 2c79 5bf9 0ccf fa3f 5642 4218 b1da d23f
000000c0: 8d6f 2f7a 49bb 0640 f17b b1c2 27ae 01c0
000000d0: b100 79df 1e78 fcbf 2184 b3bf 5857 02c0
000000e0: 036b 044c a63d fcbf b7ac 898c 157c febf
000000f0: 3acd 8308 c046 b0bf d5bf 5aea 612c d5bf
00000100: 9732 9cfd 8e29 dd3f b551 71da 63ea e3bf
00000110: 1604 c8bc 45f7 d5bf 7c7c b013 dab0 f13f
00000120: d152 3282 51af f4bf 77ab f57b 5db7 e5bf
00000130: b7f5 ef24 2697 e6bf 00a3 6ee8 2b61 f7bf
00000140: ea3b 9943 cbf5 e53f ba82 3a37 cd19 00c0
00000150: 58a3 fc32 2979 e7bf 79e8 1ed2 3b9d db3f
00000160: 5a52 6a0b 0dcf 0340 609a 6e53 68dd eebf
00000170: 1c75 675e 34c5 cfbf 9fa5 68b3 0dcb 6abf
00000180: 4a2c 1bb1 f97b f3bf 813a ffe0 5e9b f8bf
00000190: 9ec3 44e4 0227 d73f f202 19c3 642b e83f
000001a0: e162 0b51 14bd d33f 6c8b 94f6 a2c8 e23f
000001b0: 26bc c309 3811 c6bf 38f1 f757 c60c d9bf
000001c0: 80a0 6a5d ce8a fa3f c170 73ca f9b1 e93f
000001d0: daad 6b55 9c04 c73f a5c4 f429 8f0a edbf
000001e0: ea02 b71f d39d e23f b2f0 bfbb 0501 c8bf
000001f0: 0b7d 4883 764b e43f f4e6 6635 ddd4 e43f
00000200: d550 f951 ecc3 d53f ce66 0eee 2cd5 02c0
00000210: f4b6 ab3a fda8 1640 d25b 88e2 2518 05c0
00000220: e545 44f4 8460 eb3f 822d b32c 367d ef3f
00000230: 1bec 7e96 3a18 e93f f8f9 d1d0 30a8 0640
00000240: e7e9 4302 5db9 d73f 264a 6652 d533 c13f
00000250: b080 b5ff 1166 e4bf 87b1 f6f6 e106 c5bf
00000260: 2906 9021 3aec fe3f 0575 2647 a623 0640
00000270: de03 da9a 6d7d b1bf cd4f 1855 ca45 d03f
00000280: 29ac 46df d136 d43f e1a7 4177 050c f9bf
00000290: fff5 3a06 54bb f5bf db1d 7147 38ee ca3f
000002a0: 278e 8486 193d d13f a7c3 0b40 fa02 aabf
000002b0: 372e 5e3f 1750 fbbf d0da 38bf 8b74 e3bf
000002c0: cf47 1e98 2f75 ecbf df0a 7436 2b3a efbf
000002d0: 74c5 bcd6 3041 ecbf 54e9 4842 6559 f83f
000002e0: 44fa c377 ac8e cdbf 5a90 d4eb f687 f5bf
000002f0: f07c bf59 2c05 dfbf 87e6 9d99 2e22 e43f
00000300: ad1a af4f 53fc e5bf eec9 f523 f854 f1bf
00000310: d8ab 6a35 c752 c03f 584d 1e69 6d85 e9bf
00000320: fc4b f6a9 dc1b e23f 8fb4 cb03 9e04 0dc0
00000330: e2b6 b4bb 3d9a e8bf ce50 1195 4211 f73f
00000340: caa8 a98e 4614 0340 4154 3af0 1841 e33f
00000350: 74f3 51ed 0a91 0140 27a5 7402 49ca e7bf
00000360: 7259 6b55 dbd5 f1bf a104 176a b48d d83f
00000370: ba43 ba9e 4856 dd3f cf75 804b 5442 d63f
00000380: 0f11 5970 5dac c3bf 21f6 3e51 ba03 e03f
00000390: ee79 f1ef 4e45 02c0 5b80 9282 0d4b 0740
000003a0: fced dbdf e8e5 ea3f bf84 2b79 ea69 e03f
000003b0: 7d73 d740 ec72 e13f 17d2 0fc9 2b1e d2bf
000003c0: 67dc 0bc5 be65 cabf 1237 75cc 6d07 e03f
000003d0: 036e d247 d71c d03f 6611 6f08 cbcc e03f
000003e0: c7d3 9f94 cd1d f83f a2ef 7712 7c8b c2bf
000003f0: 964a 4736 662d dcbf fe47 45fa cdee 97bf
00000400: 4170 e1f8 47d4 e33f 9dc9 cf29 d063 06c0
00000410: 2568 451e cc86 e93f f4bd 2f09 a05b eabf
00000420: 710c 77ba 0897 b83f 834e ee0b 629f 05c0
00000430: 0243 cf52 17e2 f2bf fb2d a392 ba03 ee3f
00000440: da8c 9524 5846 e7bf 0e33 1641 04e0 eabf
00000450: c1b2 21a2 bd07 01c0 da1a 4ed1 3b0f e03f
00000460: c7aa 1154 31ef e13f a201 579d 1ebd f33f
00000470: 80ee 0ee5 899b e63f 590e 8f35 0eec e1bf
00000480: fea2 e4e6 9392 9dbf 239a 4c46 d0ca d23f
00000490: a4e0 9f07 04a5 d93f e3b9 f274 baf4 c93f
000004a0: afb5 c0f6 2b6f e4bf 95cc ce01 3209 c03f
000004b0: d294 685e 87a5 d93f 0613 b2e1 8b03 f63f
000004c0: bda4 9c9f d855 e13f 249d 7d91 4c29 e63f
000004d0: 7090 c934 30c1 f4bf 02b1 94a0 ba1f f53f
000004e0: f48f 00f0 6e44 e93f 82dc 7bfc d65c e43f
000004f0: 40e4 dec6 2820 e83f 161e 568e f613 eebf
00000500: 859d 2836 2e42 e53f d26b bfbd aa86 02c0
00000510: 529f 5b29 6832 0140 a830 4ced 88f0 f13f
00000520: 37b3 91dd faca f6bf 520b 37d5 bcbf eebf
00000530: 35fe 04f2 9315 d03f 8635 c474 e79f 0bc0
00000540: f178 884e 5ec7 f73f 0ce6 dee7 4e10 c03f
00000550: 3f9d cc35 91b7 e13f e159 2f52 7bd3 ec3f
00000560: d03c 51da 57c6 d1bf 03fa dbbc 3aa1 f03f
00000570: e9d3 20e6 1bb3 b43f 7c05 7697 1894 dfbf
00000580: 287c 34dd 891f f83f 9c24 eb6c 36f4 a8bf
00000590: 5f73 a214 8afe c43f 423c 63b2 39bc c23f
000005a0: 3ddf 13d2 8053 dfbf b766 9c58 eb95 e9bf
000005b0: 18bb a35e 9901 e63f e2b8 5937 1f64 e3bf
000005c0: b1e1 1f5e 6f1c c93f 11aa caa0 c2eb cfbf
000005d0: 84b5 7d66 0bc6 e7bf 6a07 6b39 d76b eebf
000005e0: 2c93 3647 d692 f3bf 77ad 409c 02ef c53f
000005f0: 5e58 4b75 6699 f2bf 0d3b d110 fb34 0240
00000600: 23a3 a2ef 5ec5 db3f 8f5e a552 7ee9 08c0
00000610: 4907 bf29 48a5 f7bf 59d9 c0ec 437c e93f
00000620: 69f8 9f6c 708c f13f d933 54e5 22b4 f53f
00000630: 8880 c99d 2377 f83f e820 e5f9 5437 ff3f
00000640: 1ec4 64fb d3d4 f8bf 48a3 45f1 4eb1 08c0
00000650: b3d7 51f8 3f34 fcbf 02c4 9f54 b159 f63f
00000660: fa55 6e10 8f64 ee3f b145 d5a4 d03f eb3f
00000670: fbd8 a14e 9e28 02c0 8a2a 1531 cd8d cc3f
00000680: aaee 2fcd f112 e23f 4e3d 766d b311 f43f
00000690: 808e 5c5d 956d e1bf 260a f956 4a97 12c0
000006a0: d209 2eaf 2f3a e7bf 313b 32d6 d558 0240
000006b0: a28f 4f64 7635 f33f 5af3 dccd 0295 03c0
000006c0: a0d8 2a25 3f88 f1bf c960 da85 4741 e3bf
000006d0: e045 6d9b 3f6d ffbf 398d 34f3 995c ffbf
000006e0: c873 b401 cfa5 e03f 0e2a 49e7 a278 05c0
000006f0: 0e1a efff 4ed5 f8bf 3b78 9719 b297 da3f
00000700: 502b 1546 8dba 0240 7a9a 621e 73c9 edbf
00000710: 5c93 887c 3fcb fbbf 2260 04d7 3f30 d4bf
00000720: 43b2 2fc3 e83a ddbf 8293 61af b86c fabf
00000730: 528c 5496 f207 bcbf 1d0b 2035 a211 a33f
00000740: 9ed6 d9b5 f629 e3bf 24ec a3d5 073b ea3f
00000750: c90d a109 d1bb e23f fe29 69ff fa8f edbf
00000760: a455 c7a8 11d2 e93f 88c1 55ab 0bc0 dd3f
00000770: 9c4c 71be 8536 d0bf 20f2 a9ab 6c37 783f
00000780: f41c 0c0e d925 ee3f 161f 97d0 c06a f23f
00000790: 713a e385 da86 e43f 3d88 c772 c2b3 e13f
000007a0: 17a0 1418 0fda 0bc0 b2c3 8e43 1ba4 d23f
000007b0: 16e5 a4be 4760 fa3f 26c5 e239 81b3 d33f
000007c0: b859 c407 2927 dcbf 4d33 e303 dd6a eebf
000007d0: ac83 5923 cd75 bb3f f56a 101f f504 8abf
000007e0: 352b df13 1d00 d3bf 4637 0703 f787 9d3f
000007f0: 9b51 0858 a6b8 e53f 3af6 2c1a 5bdd fbbf

lstm.bias_ih_l0 f8 [40]
0.046843174572789276 -1.7511605527020113 0.11137758663701179 1.5040328947380788 -0.34091673280440554 -1.0806837489226904 -1.2420781630529178 -2.677580573589373
1.5207610798152862 2.945385571060949 -2.2305954572940276 -2.3082901748952405 -1.112276743383482 -0.18732527679873517 -1.0822937446911522 -1.3434952991132736
-3.7899794370498032 -2.0907948013132818 0.9382646801969081 1.0084709235706062 -1.0155080107542611 0.6600060692460104 -0.35061703488643314 -1.1883344509054137
-0.3383026658810785 -0.7189213511687386 0.26398086825321065 -0.907394965313529 -0.905057259403503 0.7755103484750691 3.541434700679422 0.8298290428147191
0.3149470797771534 -1.3351386674810704 -1.4938185545363083 -1.5387418459644318 -1.3824822239866736 -0.7844798962497129 -1.8478549140554972 -0.12699210385418394
00000000: 1c72 a91d d4fb a73f 2268 7eed c004 fcbf
00000010: f705 1dd4 3d83 bc3f d421 f0cb 8410 f83f
00000020: 3f76 836a 94d1 d5bf eb10 ef0a 7b4a f1bf
00000030: 6735 165a 8ddf f3bf 2ec5 1f5d af6b 05c0
00000040: 7c61 ed91 0955 f83f 5789 6e4f 2690 0740
00000050: dc78 5d6e 42d8 01c0 4fd3 d6d6 6077 02c0
00000060: 5eef ceb2 e2cb f1bf 9648 c850 46fa c7bf
00000070: 6cd2 e13e 1351 f1bf 0857 40ed f47e f5bf
00000080: 9421 35bd e051 0ec0 854c f29f f2b9 00c0
00000090: fa00 8ea6 4306 ee3f 223e 3b68 b222 f03f
000000a0: c43f f053 853f f0bf 0c57 520c c51e e53f
000000b0: 827e 906e 8270 d6bf f894 35fc 6a03 f3bf
000000c0: 5af7 8639 c0a6 d5bf c14e 7559 6701 e7bf
000000d0: ceb3 fa02 10e5 d03f 0374 922a 6109 edbf
000000e0: 65a7 44a4 3af6 ecbf 991e 0d14 fbd0 e83f
000000f0: 8ab3 62b7 db54 0c40 6120 05a3 f58d ea3f
00000100: d844 e7cb 1728 d43f a94c 075d ba5c f5bf
00000110: 5343 de48 aee6 f7bf 6476 16c5 af9e f8bf
00000120: 8e2f 35ae a51e f6bf 3962 5895 751a e9bf
00000130: a5f0 7950 d090 fdbf d1b4 73fa 4641 c0bf

lstm.bias_hh_l0 f8 [40]
-0.3348803336660041 -2.3319848384476325 0.36310556999253435 1.5080986467674977 0.1776725849942068 -1.1028616537669753 -1.5033228773130196 -2.320393183261912
1.1014183533462447 2.803337390957645 -2.2441147146010807 -2.281296959811164 -0.5849586233807303 0.11451091580914487 -1.1592806089003274 -0.9511327492122683
-4.16753082877057 -2.184756770331264 0.6516389819880956 0.8898669787921628 -0.994057267675076 0.3201901993186029 -0.24788822099979035 -0.9543630637575059
-0.7438163399018466 -0.5898075875979529 0.22499351480911192 -0.9298916656003938 -0.7366770883429407 1.0287998096109334 3.490110809993385 0.707458650730598
-0.0015968271499557333 -0.9784179666210465 -1.3668399634518291 -1.444765884756088 -1.2515604131212714 -1.306255261125508 -1.805610181675582 -0.28912360707855655
00000000: ced1 4aec ad6e d5bf 1234 bfaa e7a7 02c0
00000010: 8541 0725 1f3d d73f d421 f00b 2c21 f83f
00000020: 3413 f9aa f9bd c63f ef10 ef42 52a5 f1bf
00000030: 6935 164a 9c0d f8bf 1dc5 1f4d 2a90 02c0
00000040: 7561 edd9 689f f13f 5289 6e27 3c6d 0640
00000050: dd78 5d6a f2f3 01c0 4ed3 d69e 1840 02c0
00000060: 8fde 9d25 fbb7 e2bf f16e 6f5e 9650 bd3f
00000070: 6cd2 e1d2 698c f2bf 2eae 80f2 ad6f eebf
00000080: c490 9a33 8dab 10c0 844c f2c1 617a 01c0
00000090: d900 8efe 39da e43f 3b7c 7650 ca79 ec3f
000000a0: 8b7f e02f 51cf efbf 03ae a408 ff7d d43f
000000b0: f8fc 201d cdba cfbf c929 6b68 248a eebf
000000c0: b57b c3ec 57cd e7bf c04e 7529 b4df e2bf
000000d0: b567 f565 96cc cc3f ff73 922a acc1 edbf
000000e0: 63a7 44d4 db92 e7bf 4d8f 06ca f675 f03f
000000f0: 86b3 6237 bfeb 0b40 6620 0553 80a3 e63f
00000100: ed2e bb18 9429 5abf 4f99 0e32 334f efbf
00000110: 5843 de94 93de f5bf 6376 16d5 c21d f7bf
00000120: 8e2f 3536 6406 f4bf 2431 acea 6be6 f4bf
00000130: 9df0 7980 c7e3 fcbf 64da 394d 0081 d2bf

lstm.weight_ih_l1 f8 [40, 10]
0.26223877741323814 0.9374732102946417 -0.17880420416186335 0.8215028511489589 2.81296545981739 -2.459550992554434 0.5144718928930553 -0.7660129461788626
0.6764932712633283 -0.771940748499263 1.021011694078458 1.2162601415103118 1.6367534730010571 -1.6786742891223292 0.8549643039435081 -1.3223257888020137
0.5755828903554829 1.16473305451258 -1.592372008278048 0.944592683806168 1.5279625022842156 0.019017047755964262 0.45957534298447283 -0.5717638666474762
-2.283188974285169 -1.6579940313847104 -0.7119822041679514 -0.6433938265621524 -0.8761958161721116 0.45519236550816317 0.03198103751391941 -0.406645335278289
-0.7867984528721149 0.781292892007344 -0.7044139743355768 0.7232074989639552 0.016167913836688957 -0.9864211683258238 0.14313611886296645 -0.6702556013676916
-0.37188841141274454 -0.6060947607109447 0.07786326803088091 0.24406476163555005 0.10228374546776714 -0.9683431959776438 -0.14909501117598392 -1.3715704954395775
0.6586257171673013 -2.0532984039113518 -0.6309929040589516 -2.6894146062711193 -1.658513290502333 2.091917543928227 -0.03029355271032726 -0.7261814729098892
-2.113494780118314 -2.949487074781961 2.2129720707232416 -1.7760942455389306 -0.8008285251595069 -2.6016512649801586 -2.153833861347914 1.8990730270632696
1.4465544928233096 -1.3559012256190954 0.25142259820099705 -2.1038773774445403 1.0699521666177905 -3.3185095614762523 -2.378426968932432 -2.817910184036084
-2.225869370450115 1.9097952117561594 -0.7912204160558821 1.6685416808777913 -1.4912663182637858 -3.5190146794678996 1.1695257847964748 -2.6780261333539426
-0.5953066031203856 0.318204761820844 -0.25613444494130183 0.6639039769171884 -0.10931688402576528 1.2277224947567429 0.44714134652484294 0.4297742069787575
0.5202225312512535 -1.0084354523284937 -0.006653817903247738 -0.5836751500710724 -0.40899144920076097 1.3145588408503877 0.24948156056809206 1.873077209246711
-0.5341075134120382 0.4331086723281031 0.44760357633916975 0.34238368090964005 -0.011693562903565028 -1.3075337124416533 1.028454265679946 0.9877748452660956
0.18982206143483915 -0.12490381000811517 -0.5275638296500742 0.824990376639766 1.873936908546345 0.1925013077295373 0.9634335265384535 1.9327360783885559
1.810905282024411 -0.6650791152294648 0.840774240619573 -1.358244085422216 0.467802547922455 0.23721776627368943 -1.4771579049536203 -5.555283432351265
-1.1766451256160093 -0.21390189167383653 -1.0679653563363147 -0.9509675450556409 -1.0532447501788036 0.2506359553501834 -1.5337473817701839 -2.3180665446992124
-0.4937057868164285 1.5684846594686572 -0.172476407561574 -1.0030701637017412 0.2284360073178165 0.34003238518800355 -0.8045103101583336 -0.7806324204641911
-0.15342153028595826 -1.2720060204297712 0.4634750004385746 0.13589254392952507 -0.8604188465344419 0.28280390275955447 -0.09422537499760804 1.8290516049229562
0.07850793069008849 -1.3793465060478158 -0.8719160144505498 -0.4682867684582515 0.5661524683882899 -1.1618626453338452 -0.18437249261291858 -0.04378187693371057
-0.94206117976001 0.9531698727131905 0.10105631520099441 0.6568523000647192 0.2986553656126313 0.12520573254618467 1.1518128059114068 -0.5411998528282347
-0.003320326203730253 0.6954324050170351 0.08245404319296207 0.7584719282307909 -0.06879124367527233 0.24552044728136627 0.8809651101154499 0.022414870063543285
0.4660069591225103 -0.3230817250653679 -1.0482277336699 0.07133017357233128 -0.009535545861535417 2.7227810108452406 -0.4520137775181105 1.8747785603917995
-1.3217818066772267 -0.6266279294204294 0.829805832530141 0.1574367706803859 -0.02167918300553606 0.5401936001047418 -0.034033416203035904 0.16559390864126353
0.39189913856730757 1.5401741116500747 -0.08181455494810684 -0.1273545502429913 0.6628411607916324 -0.32771699374675306 -0.1418977675085083 0.8596632503742437
-0.6157372046660639 0.5532454200924914 1.9661594649467373 2.5837853519149845 0.8508510372362245 1.2769614866727512 1.0078524628101253 -1.5725921850530582
0.9032411304778108 1.0386324324835556 1.4212441291622984 -0.8142021335635728 -0.07087920512741937 0.2585995984086442 -0.24813033491612962 1.515118110444106
-0.2696619292976839 1.4739089125923304 -0.15301576245653664 -0.3640236626894028 0.5990644189728455 -0.6306434312307801 0.2869975356705363 -0.8706140072331576
-1.1157372134596388 -0.403870548915628 -0.6003273424939444 0.664718800637546 1.3999584460468528 0.2196409178238245 0.9969553934298884 1.3168237470011694
0.20188569396255185 0.1379989512404235 1.4128367034963971 1.1898181287015563 1.6466355622068671 -0.008539416894103655 -0.13441656534888477 -1.1490253260076089
0.08399717611181945 0.3584732573760933 -0.8827361265064474 -0.943466560042005 -0.35236250112268175 -1.4385494330304531 -0.04797852986394668 -0.24879086809748915
0.19252192269062557 -0.8440950484704584 -0.18053279566990071 -0.6840014304953705 0.23983923967519227 -0.38384728459577533 -0.29377877574940053 -0.4616954838497791
0.29624153022665894 -1.468592030097328 -1.2822342657847832 -1.5742163639947275 -1.545732826690509 -0.5546736990365618 -0.3129514874679501 0.39003773097495903
00000000: 87e7 2e27 85c8 d03f 86ee 62d1 c7ff ed3f
00000010: ef99 a160 0ee3 c6bf 572d e858 c049 ea3f
00000020: dd8b f508 f480 0640 d1ec 1e12 29ad 03c0
00000030: fbfa 55c2 8d76 e03f 8bd3 0495 2d83 e8bf
00000040: 1a48 8137 d5a5 e53f 8d21 a815 bdb3 e8bf
00000050: 9668 ae5b 1056 f03f 2371 b331 cd75 f33f
00000060: 9e76 e268 2430 fa3f caa9 4692 d9db fabf
00000070: a5e9 9519 de5b eb3f 2afe 1816 3f28 f5bf
00000080: b4d8 46cf 2c6b e23f 3b3a 9b20 bfa2 f23f
00000090: c1eb 2912 5b7a f9bf a6a0 9f6f 1a3a ee3f
000000a0: 5433 0dcf 8872 f83f e59d b678 3479 933f
000000b0: 8fa4 0ab3 ae69 dd3f 2022 89bc e34b e2bf
000000c0: 0424 b994 f843 02c0 202b dcbf 2487 fabf
000000d0: f587 47e7 8ec8 e6bf 360c 71a6 ae96 e4bf
000000e0: 6b3d ebce cb09 ecbf a9c5 cf28 df21 dd3f
000000f0: 2aca 6d8c d15f a03f 53d6 0528 7a06 dabf
00000100: d721 f4f2 732d e9bf 079a 78f3 5900 e93f
00000110: e4bb d32c 8f8a e6bf 62b5 880d 8424 e73f
00000120: ab47 b154 528e 903f 2b54 4120 c390 efbf
00000130: 9647 b2ca 4852 c23f b7b8 fadf bb72 e5bf
00000140: 48dd 310d 05cd d7bf 79f9 f0d6 2065 e3bf
00000150: c597 c0dd d8ee b33f 2155 aa9c 833d cf3f
00000160: 6c4a b27d 442f ba3f 30e6 c0de aafc eebf
00000170: 89b1 7f9a 8b15 c3bf e024 61e7 f3f1 f5bf
00000180: 2838 713d 7613 e53f 77d3 adb6 276d 00c0
00000190: d31e de07 1831 e4bf ab8d 1ace eb83 05c0
000001a0: 9a05 6b3b 4589 fabf 93cd e843 3fbc 0040
000001b0: 9599 aee8 4505 9fbf 9e7d a3ed e03c e7bf
000001c0: bcff 86f3 6fe8 00c0 4b4e f1ad 8c98 07c0
000001d0: e5bd 75b3 2ab4 0140 8a41 b3cc e16a fcbf
000001e0: a672 a824 63a0 e9bf 977e d589 2ed0 04c0
000001f0: b30d 5c3f 0d3b 01c0 4d3d ff65 9a62 fe3f
00000200: 7eed e852 1625 f73f cd3e ca7b c5b1 f5bf
00000210: 91e9 2fcf 4e17 d03f 3059 97a9 bdd4 00c0
00000220: 2886 be29 861e f13f cb07 b0bd 4e8c 0ac0
00000230: e4e9 fbb7 0407 03c0 a900 9c7e 148b 06c0
00000240: c502 ba99 94ce 01c0 35cd 886c 858e fe3f
00000250: 9f66 5c7a ad51 e9bf b220 f6c2 58b2 fa3f
00000260: cd1b 2912 3adc f7bf 1dab 132b f126 0cc0
00000270: 3779 58ab 60b6 f23f 49b5 24f7 986c 05c0
00000280: 49d6 ef6e c00c e3bf 7aed 5c81 775d d43f
00000290: 6fba 19ba 8164 d0bf b065 918d b33e e53f
000002a0: c491 caf9 30fc bbbf 2bb3 b857 c0a4 f33f
000002b0: e2de 00bd f69d dc3f 9bd6 e8ac 6b81 db3f
000002c0: 23ba cbb8 a9a5 e03f aa0b 7e36 8d22 f0bf
000002d0: a699 9ba4 0841 7bbf 7861 2182 77ad e2bf
000002e0: 694c aa78 ea2c dabf ddeb e1d9 6e08 f53f
000002f0: ea28 cc03 03ef cf3f a88f c9ce 1ff8 fd3f
00000300: fbe1 d4a3 6817 e1bf fdd7 d06f 0db8 db3f
00000310: 89c2 7c78 89a5 dc3f 6739 0c3e 9de9 d53f
00000320: 75cc f471 cbf2 87bf 7fab 5578 a8eb f4bf
00000330: da6e c875 8c74 f03f c356 07fe d99b ef3f
00000340: 0802 f6dc 164c c83f 6b72 2133 b2f9 bfbf
00000350: 64c9 5c8a cde1 e0bf 2fd7 e537 5266 ea3f
00000360: 1395 8f44 a5fb fd3f 2b5b 9102 e2a3 c83f
00000370: 8c48 0b8c 72d4 ee3f 76a6 87aa 7cec fe3f
00000380: 102d 27d1 77f9 fc3f aa38 25ff 5348 e5bf
00000390: 39f8 5861 9fe7 ea3f 48fb 6d26 5ebb f5bf
000003a0: a4fe 1319 7af0 dd3f 497c 16da 265d ce3f
000003b0: dbdb cc53 70a2 f7bf 56d6 5738 9c38 16c0
000003c0: 124c d8d6 89d3 f2bf 3355 a51e 2361 cbbf
000003d0: 7a9b 6bd7 6216 f1bf c748 327d 536e eebf
000003e0: f739 cb2a 17da f0bf 7991 db63 6b0a d03f
000003f0: 0275 d0b1 3a8a f8bf 8d7a fb78 668b 02c0
00000400: 943d 0e28 e098 dfbf 1821 cb5e 8318 f93f
00000410: d47d e7f8 b413 c6bf d813 cb4c 930c f0bf
00000420: d254 541e 643d cd3f 87a7 7d31 17c3 d53f
00000430: 7398 ed67 8cbe e9bf a7e9 82d7 f0fa e8bf
00000440: a74c 8a13 51a3 c3bf c1f9 20fc 225a f4bf
00000450: c46c 590c 93a9 dd3f 6f49 f947 ed64 c13f
00000460: 7147 d71a 8d88 ebbf 0e24 628a 7519 d23f
00000470: 8d6c 1178 271f b8bf 5172 9d9d cb43 fd3f
00000480: 7462 ca82 1819 b43f 5b3c 55a4 cd11 f6bf
00000490: 908f dd69 bce6 ebbf ad5f eb10 69f8 ddbf
000004a0: 4ae0 08c8 eb1d e23f 5472 0249 fd96 f2bf
000004b0: 6df9 0691 8499 c7bf fbf1 2c03 946a a6bf
000004c0: 3ed0 bc7c 5d25 eebf 88bd da1a 5e80 ee3f
000004d0: 9db0 d7a0 d3de b93f 3592 621d ef04 e53f
000004e0: f631 0565 2b1d d33f fa5e 47cf bd06 c03f
000004f0: 490e c843 d36d f23f bae9 8f5a 8251 e1bf
00000500: 1f58 a08e 3a33 6bbf ae0e 8475 fb40 e63f
00000510: 6cce ef4a b51b b53f 07ee d5eb 6645 e83f
00000520: 5722 d68d 4d9c b1bf 3550 c9c9 366d cf3f
00000530: d89c 1bbe dd30 ec3f e8d0 7777 ecf3 963f
00000540: 0def 48da 0ed3 dd3f 40d3 c5f8 5ead d4bf
00000550: 6df5 ad71 8ac5 f0bf ff0e b6ba b142 b23f
00000560: 9798 ff4c 5f87 83bf 4400 1e69 41c8 0540
00000570: 7307 f231 cbed dcbf effe c1cd 17ff fd3f
00000580: 1306 02ae 0426 f5bf bfde f303 560d e4bf
00000590: 7ee7 17f6 c48d ea3f 414b a15a e326 c43f
000005a0: 3f15 0d58 1133 96bf f4aa be16 4449 e13f
000005b0: 305b 20f3 d36c a1bf 13f9 0363 2e32 c53f
000005c0: c389 de1f e014 d93f 41ed fa9b 8da4 f83f
000005d0: 0fc3 d675 ccf1 b4bf 062d 2566 274d c0bf
000005e0: 1d5e 81aa fe35 e53f 6116 9fb2 50f9 d4bf
000005f0: ba87 69bf b429 c2bf 23c6 3d81 5c82 eb3f
00000600: 1814 9f82 1eb4 e3bf 64b0 3ebd 2fb4 e13f
00000610: 6cac 8aa0 6375 ff3f a3de 92a7 97ab 0440
00000620: f94f 56f4 2b3a eb3f 152d f82a 6f6e f43f
00000630: 9566 6fe7 2920 f03f 13f8 4b6c 5629 f9bf
00000640: 8dbc 79f1 59e7 ec3f 0d4f a10a 3d9e f03f
00000650: 2825 e67b 6abd f63f a3a5 ffa1 f10d eabf
00000660: 2d1e fdbb 2325 b2bf 8820 7b54 e58c d03f
00000670: 6e1e ce1c bcc2 cfbf bef4 de7c ec3d f83f
00000680: 09d4 d31b 2442 d1bf 28df 0d83 2195 f73f
00000690: 76fc c23f 0596 c3bf d626 8ee7 294c d7bf
000006a0: 8bf0 f524 892b e33f 8159 1222 3b2e e4bf
000006b0: f833 6fe9 2a5e d23f 7e30 10e8 11dc ebbf
000006c0: 41d4 ab43 0fda f1bf 9040 dadb 03d9 d9bf
000006d0: a0fe dcaf e135 e3bf 8ec9 b85c 6045 e53f
000006e0: c17b d8d3 3a66 f63f 0e58 758f 311d cc3f
000006f0: 1745 4bff 0ee7 ef3f 8f75 ffc6 b511 f53f
00000700: f4b9 8cf2 63d7 c93f 94de 3a1b f3a9 c13f
00000710: 06b0 c1a8 fa9a f63f ae60 efbb 7e09 f33f
00000720: bebe 0188 9e58 fa3f 45f3 4b22 1d7d 81bf
00000730: db67 1be0 8f34 c1bf 9aa7 5761 6862 f2bf
00000740: 404b 5bc4 d680 b53f 37f0 3ad1 39f1 d63f
00000750: 1ff9 4ad5 5f3f ecbf 4300 88c8 e030 eebf
00000760: d627 aa72 1b8d d6bf e3b8 0869 4c04 f7bf
00000770: cf03 5a51 a490 a8bf 53d6 0211 61d8 cfbf
00000780: 4611 dcf0 8ea4 c83f 4aad 7c9e d302 ebbf
00000790: 76fb a0da b21b c7bf 7aa2 ccf7 56e3 e5bf
000007a0: 18ea 595d 0db3 ce3f 1ad3 7f33 f490 d8bf
000007b0: e390 867e 45cd d2bf e81f f636 6b8c ddbf
000007c0: 7b97 0209 9ff5 d23f c7f2 465b 5a7f f7bf
000007d0: 0fb3 d513 0884 f4bf 58f7 827f fd2f f9bf
000007e0: 78d4 2f58 52bb f8bf 3507 aa0e e3bf e1bf
000007f0: 9a33 faac 6507 d4bf 6d95 afd0 60f6 d83f

lstm.weight_hh_l1 f8 [40, 10]
1.5139237046104048 0.24400712965650959 0.729988721093277 0.4523639651608184 0.07219437645728798 -0.7899038220494891 -0.27415929249146026 1.5947826776576568
1.3097740522121106 0.6990386318824193 1.5464613638994322 0.606723111283168 -0.5978560011257376 -0.6913393742869268 1.0256551550608954 0.1556973109820079
-1.2021148966286903 0.08854694349166192 0.5270494867785036 0.007442736160110466 -4.404849576121675 0.5359354380119333 -0.7849952533975144 -2.0435923412833725
0.8620547592282455 1.1729922038906337 3.243040452302179 0.8563346655373179 -1.0248608521768632 -0.178528605239115 -1.4141986511882647 -0.4311906069161543
-0.13962883661649772 0.7855864282457601 1.47364206887929 0.7631916824571325 2.5833375653594532 1.5770704016604482 -0.3375577879385585 -0.3272609932216025
0.3506859762719237 0.44210391991401377 -0.6450327364444652 -0.2825326202121213 0.19989171191092672 0.8802470181341084 -1.8372340862130663 -0.7235894121859362
0.1422664233597154 0.030341855761136283 -0.280996950513362 -0.691698627857247 0.2589871329037113 0.5660805706956719 0.22424459533808422 -0.7005555362421564
0.40631572863648485 0.15537125377362804 0.3047019118298084 -0.013006762615092092 -0.5057774755961802 0.30002506680015717 2.8046664757685513 -2.35237612101331
-0.19925484253965986 -2.000546219393247 1.4310791534809157 3.4098238871384834 -1.4546522932706338 1.1348545822258982 -2.384499749390521 -0.6477997485530136
-1.7573909562333128 0.3637031945449941 1.7441235709520873 3.9456208488876596 1.9090409348925816 -0.7299386623102077 2.032356932259925 -2.652166151580898
-1.6775413787460782 -0.2072941034196605 0.8804560268000211 0.24335331281923966 -0.5816805685039398 -0.6057699796721678 -0.346623344144034 1.05441048630638
-0.40607856348184174 0.17198570110519504 0.30173696669257727 -1.5282149744181808 0.6464379618746998 0.38396320674971696 -0.4967280048703583 -0.3007420715520937
-0.3454480111944364 0.08722385223395213 -0.43508658269935785 1.2703060594520885 -0.2772021128511322 -1.0344323197943703 0.8938885674519452 -0.10722995372420743
0.8245050024520937 0.4425730990769692 1.4696093740393774 1.4659852408785483 -1.10727284157842 -0.6692256181751315 0.13933909959186325 0.2529767874184766
1.1990376240206329 -0.28440255437590145 0.36129359318954535 -0.6315183961100996 1.2970514735179453 0.9516882919634516 0.6877555999530001 -0.8335723625919959
-0.8960832359172202 0.9021702807912186 -2.784267777218247 -0.5875771092729939 0.6693009782662138 2.051753369801439 0.10203766524028572 -1.5615908857643221
-1.1679906885078382 -1.971437267709539 -0.4851385873674339 0.5512064672112662 0.7178017621260386 -0.7663320341438197 -0.3208331071076683 -0.6596240716238171
-0.10746973939315128 0.6584900031883274 -1.1582094304195456 -1.0598969809697203 -0.11762352642543748 0.5687199964898692 -0.8743944920709656 -0.6299573817501186
0.4465355603479016 0.6018705239335519 -2.5562165932673344 -0.27688048900010287 -0.8916086549081044 -0.5652911016918176 -0.615962355284424 -0.18604212140944074
0.7630399729427952 -0.5020995013435934 -0.9484868078769828 -0.4772363236170926 -0.0719874826895833 0.4167300909055639 0.2229625515474027 0.07808526808718162
-0.05948120478600775 -0.4393125233524862 0.7912444789993166 0.9267057439632171 -0.5719508463242969 -0.8279702488659358 -0.7022019832502975 1.096724198349934
0.40252205851717765 -0.10659123181714784 -1.1938039105881326 0.04905537516678552 -0.5876370649684209 0.9263682277269469 -0.48115957945739596 0.4721462047994243
-3.325800552251624 0.2913448907108376 -0.4271796132225895 -2.6533300818517698 -0.9091012624140011 -0.15222126834455535 5.6121280544936796e-05 0.05543596348253695
-0.36314359803785995 -0.29952579921252404 -0.12068907782464812 0.6537944088014167 0.11613225395570659 0.170580616028096 -0.9513589463572402 -1.1382102280787425
1.0206449065518886 -0.917497891381836 -0.6521107770371714 0.10300238607490843 -0.3666933616299295 0.9931239652334916 -0.01828275888078917 0.7618427071104097
0.19428067510851812 0.17049629243236614 -0.14373495058937102 -0.5237687078733726 0.9643356691844136 0.2070382419071723 0.7660350097159506 -0.5112005236676876
0.10352332090727843 0.27204898860208204 1.0243857980944258 0.7744146127872134 -1.0097802900087454 0.1412949549668204 1.002540391835183 1.0583905211987894
1.2544436516938013 -0.1678208867305597 -1.1958247839255307 -0.6606888826023287 -1.4844568834610363 -1.3636059681711927 1.965165389621418 -0.5502037565994791
-2.984027413862594 -1.849888775814364 2.657742461702816 2.4592197150296484 0.8018424859942711 1.8670568594586752 -0.43044324515390053 0.16951276451357156
0.34814346338591595 -1.104329959377064 0.4692922452993833 0.24232466321317164 3.567319777781619 0.40855826906489867 -0.17042092125560326 -0.9740704766029561
0.3248230653149003 0.5554405120310296 -0.7230418752943821 -0.1890236005814461 0.475515707124522 0.6078804383469036 0.9110973876137369 -0.6850962257703066
0.7554322926670488 -0.4387196011240128 -0.10956673635621078 -0.5159892378993284 -1.1683222517067096 -0.7316317640509288 0.08702732372747492 0.2636842944294878
00000000: bc0d ff0f 0839 f83f 07ca ee28 a03b cf3f
00000010: 766c 714e 115c e73f 574b 10fd 87f3 dc3f
00000020: 77d3 d6a5 547b b23f c303 5661 e446 e9bf
00000030: ed4c c96a d38b d1bf 6945 4cd7 3a84 f93f
00000040: 1668 f6a2 d5f4 f43f 1a6b d243 865e e63f
00000050: 209c 6745 4ebe f83f cf08 1696 466a e33f
00000060: 1dad 91e8 a221 e3bf 87fb 5fc0 731f e6bf
00000070: 9d5d 3f61 1569 f03f 3816 5fb5 e3ed c33f
00000080: d4df 70d4 dc3b f3bf 501b 7532 03ab b63f
00000090: d0ca a2e2 96dd e03f 692a 6846 467c 7e3f
000000a0: def7 24e3 909e 11c0 05eb 6013 6226 e13f
000000b0: 1c71 9b5d ae1e e9bf 6258 01f1 4659 00c0
000000c0: 12e3 c7dc f395 eb3f 93c5 2279 93c4 f23f
000000d0: 79f1 5131 bff1 0940 7e3e ddf4 1767 eb3f
000000e0: 1ace 307e d465 f0bf e684 737c 06da c6bf
000000f0: 1f6a cec3 8ea0 f6bf 8a06 c37c a098 dbbf
00000100: 5856 6c93 5bdf c1bf 58e7 2f26 8623 e93f
00000110: 918a bdb4 0994 f73f 7871 97f6 106c e83f
00000120: 17fa ade2 acaa 0440 79f0 692c ae3b f93f
00000130: 9432 edfa 8b9a d5bf 2e2b c917 d8f1 d4bf
00000140: 593d d097 a371 d63f b0b3 5d3d 6e4b dc3f
00000150: 921b 7cb1 1ba4 e4bf dd4f f7b2 0315 d2bf
00000160: a10e b336 0d96 c93f 5233 69cb fb2a ec3f
00000170: e31a b691 4f65 fdbf 3541 a2fb a427 e7bf
00000180: 1c0e d341 c935 c23f adaf c678 ef11 9f3f
00000190: 7bc2 2ea2 dafb d1bf eab7 2a29 6522 e6bf
000001a0: edff 79c4 3e93 d03f e33e 4100 551d e23f
000001b0: de12 a401 0cb4 cc3f 4323 a671 f36a e6bf
000001c0: f305 96af 1301 da3f b01e d98a 34e3 c33f
000001d0: eb9c 9572 3c80 d33f 9f20 7820 4aa3 8abf
000001e0: 27a6 973e 542f e0bf d0c2 7856 9c33 d33f
000001f0: 75e8 2cfa f46f 0640 e625 5d92 aad1 02c0
00000200: 1884 23c4 2e81 c9bf 8971 5360 1e01 00c0
00000210: a101 2341 b3e5 f63f f908 03bf 5147 0b40
00000220: 6061 aa7b 4146 f7bf ff03 4647 5d28 f23f
00000230: b09e c79a 7413 03c0 0a8d cc89 c6ba e4bf
00000240: 93ee b4fa 451e fcbf da5f 81c3 e946 d73f
00000250: 4fc0 161e eee7 fb3f 261b e3a9 a190 0f40
00000260: 266c e181 6e8b fe3f a3aa 5653 a85b e7bf
00000270: 95d7 ee59 4442 0040 fbc8 24e3 a237 05c0
00000280: 226b f6a0 35d7 fabf a1a8 6bf9 9c88 cabf
00000290: 9582 151e b22c ec3f 3c48 f78b 3326 cf3f
000002a0: f32d 4e91 209d e2bf c0e5 72b9 7762 e3bf
000002b0: eb3d c8ad 132f d6bf fcec b387 ddde f03f
000002c0: 03b7 70f1 30fd d9bf 4f2f d0a0 a003 c63f
000002d0: 4b16 fc90 a84f d33f 1323 868b 9173 f8bf
000002e0: a2a1 24aa 9eaf e43f 58de f669 da92 d83f
000002f0: ae3b fb41 64ca dfbf 013e 76ac 5b3f d3bf
00000300: 1b18 a3f9 d11b d6bf 60a5 c668 4d54 b63f
00000310: 2ad1 e764 75d8 dbbf 1d1e 5472 2c53 f43f
00000320: 45f9 44ee adbd d1bf 6413 77e7 088d f0bf
00000330: 3e2e 6f32 bc9a ec3f 02a6 6518 6c73 bbbf
00000340: ce71 9d50 5862 ea3f 30ff a71e 1e53 dc3f
00000350: 784e 761e 8583 f73f 6ddf 9ff0 ac74 f73f
00000360: bb40 25ba 63b7 f1bf 70a4 f6d7 4b6a e5bf
00000370: be8b e615 ddd5 c13f 1202 278d c530 d03f
00000380: 7f79 5d13 422f f33f fc5f 7cc5 a633 d2bf
00000390: 2038 c029 6f1f d73f 24b0 4311 6635 e4bf
000003a0: 9bcf bf0b b9c0 f43f 1103 3f01 3b74 ee3f
000003b0: 3e0c 2e08 1802 e63f 91d3 85f2 9fac eabf
000003c0: 1a44 18c0 b6ac ecbf 487c 6d35 94de ec3f
000003d0: 00ac 332f 2e46 06c0 5195 8682 6ecd e2bf
000003e0: bab1 9ae2 e96a e53f 300a b6ab fd69 0040
000003f0: 23cf 2af3 231f ba3f 546e 81b9 46fc f8bf
00000400: 6dc7 1201 17b0 f2bf 5dd9 eecd 018b ffbf
00000410: 4154 b1b7 820c dfbf c483 c0be 7ba3 e13f
00000420: d2f5 aa66 3bf8 e63f a9cb 10c2 ca85 e8bf
00000430: 9618 a095 8788 d4bf c0ea e8f0 a31b e5bf
00000440: 87d3 0008 2383 bbbf 48fa 8da0 5912 e53f
00000450: bc21 999c 0688 f2bf 2a4e 6689 56f5 f0bf
00000460: 3fc9 3c4f 931c bebf c92a 3047 f432 e23f
00000470: 1eea 6728 0afb ebbf 8fb2 0f62 9c28 e4bf
00000480: 557f 0ce3 0994 dc3f 5b12 17f9 8542 e33f
00000490: 1b9b 6caf 2173 04c0 c0fa 49f1 68b8 d1bf
000004a0: c025 b5df 0e88 ecbf ae8e 4f5d dd16 e2bf
000004b0: 8270 70af f6b5 e3bf afe5 906d 3ad0 c7bf
000004c0: 9c8f 2ace d26a e83f fe79 33f9 3211 e0bf
000004d0: 469c 9001 015a eebf 0f84 9938 0a8b debf
000004e0: 3685 df8b c56d b2bf 4ab4 ecaf b4ab da3f
000004f0: ce7c 9071 098a cc3f c7dc bb68 65fd b33f
00000500: 95ae 900a 5274 aebf 256b 2146 b21d dcbf
00000510: f929 0ef1 df51 e93f b6cb eacd 92a7 ed3f
00000520: 6f3c 7cdc 6b4d e2bf eb15 9e76 bb7e eabf
00000530: 3ee2 274b 7078 e6bf 0951 4aac 2e8c f13f
00000540: f9fd 4fe1 ebc2 d93f d3eb b11e 9049 bbbf
00000550: cb01 1d21 d219 f3bf e596 1140 c91d a93f
00000560: 119e fe3e eccd e2bf c280 44fb cea4 ed3f
00000570: e44d 7b8c 51cb debf a5d1 22b7 a437 de3f
00000580: 0684 e751 3d9b 0ac0 686c 5d0a 65a5 d23f
00000590: dbc5 1329 e956 dbbf ef5e 381f 053a 05c0
000005a0: 1e41 da87 5b17 edbf 1ed3 a58c fc7b c3bf
000005b0: c0dd 3284 786c 0d3f bb07 5c44 1a62 ac3f
000005c0: 9dc2 54a5 be3d d7bf 7544 fb41 6e2b d3bf
000005d0: 61c3 3dba 7ae5 bebf fc82 8340 e2eb e43f
000005e0: 8022 c0e8 d7ba bd3f d60a 96eb 95d5 c53f
000005f0: 4d90 2b51 8871 eebf 6822 99ed 1b36 f2bf
00000600: 6882 e7c0 8f54 f03f 4949 b489 245c edbf
00000610: 33cd 976b 17de e4bf d908 9a47 5d5e ba3f
00000620: 2418 f76e e777 d7bf 6ca7 f1e8 abc7 ef3f
00000630: af02 e52d b7b8 92bf b687 f7f4 0361 e83f
00000640: 55fe ea6c 30de c83f ba0a 0b90 d2d2 c53f
00000650: 4069 0928 e865 c2bf 7e7f df97 b6c2 e0bf
00000660: 366d 307a d6db ee3f 3e9e 01a7 3a80 ca3f
00000670: 0b46 4ada 5b83 e83f b139 5b33 c15b e0bf
00000680: f789 ab1d 8180 ba3f 242c 3d29 4069 d13f
00000690: b4d6 d45c e263 f03f 12e6 6e27 01c8 e83f
000006a0: 31ba 9b60 0f28 f0bf 7b0d 56fd f315 c23f
000006b0: 419e 3dcb 670a f03f 851f 2fe6 2aef f03f
000006c0: f031 ab81 3312 f43f f7f6 0ba2 277b c5bf
000006d0: 804d 2b2b 1922 f3bf fa72 f302 5d24 e5bf
000006e0: 8398 6cdc 55c0 f7bf a0cf de7d 54d1 f5bf
000006f0: 3e7b 7a43 5171 ff3f 3a65 97e8 449b e1bf
00000700: 2642 c7c3 49df 07c0 41c3 15f9 2499 fdbf
00000710: 0da2 d17a 0e43 0540 a3d8 cd62 7bac 0340
00000720: 7f70 bc92 b1a8 e93f 125c 7203 77df fd3f
00000730: 5616 2ed3 618c dbbf 3c90 eb21 98b2 c53f
00000740: 74c1 6385 fb47 d63f ac47 38e4 55ab f1bf
00000750: d8f1 7457 e208 de3f 86e4 c19b 7e04 cf3f
00000760: 7e91 9ff3 de89 0c40 1239 0995 d125 da3f
00000770: bc6a ac4d 5ad0 c5bf 5548 20d9 952b efbf
00000780: dde4 a0ae e6c9 d43f 1d7f 412e 2bc6 e13f
00000790: 68e4 00b7 2823 e7bf 71b1 55e3 ec31 c8bf
000007a0: 7d62 b56e d96e de3f c27f 52ad c173 e33f
000007b0: 84b4 68b5 b527 ed3f ec7c 89eb 4eec e5bf
000007c0: e11c eb57 802c e83f 7346 bc60 fb13 dcbf
000007d0: 041f 61cd 900c bcbf d3b2 bbdc fb82 e0bf
000007e0: 744f 64ac 72b1 f2bf 6b08 6a04 8769 e7bf
000007f0: b995 4435 6c47 b63f 76c8 4217 34e0 d03f
