PytorchLSTM/modeljustLSTM.pt (torch, 23920 bytes, 22 tensors)

lstm.weight_ih_l0 f8 [40, 8]
0	0xbfeff2a5101d99ea	-0.9983697237738032
1	0x3fd6d7c019092e32	0.35691835827740015
2	0x3fe85f3b98bc28ce	0.7616250975709364
3	0x3ff1a1b47372b122	1.1019787320793246
4	0x3fe5f35fa04d2264	0.6859586840519794
5	0xbfe87afbd5ad9dbd	-0.7650126622583496
6	0xbfe22566aeb806e7	-0.5670655643918651
7	0xbfc5205629cc366f	-0.16504933396247476
8	0xbfeab2074353368f	-0.8342319788877876
9	0x3fd69d905e8c07f5	0.35336693986039275
10	0x3fefc10a993d445a	0.992314624114566
11	0x3fe84ffa7db04e08	0.7597629980904808
12	0x3fe74bde47c6e810	0.7280112649816619
13	0x3fc9ddb27790e4de	0.2020781596964189
14	0xbfd1c7fc9af888fa	-0.2778312219035254
15	0xbfebbde893686122	-0.8669321898515003
16	0x3fcce7f54cc039ca	0.22582880256272936
17	0xbff2095c19eb6b09	-1.1272851002201512
18	0x3fc413bc969f193d	0.1568523154694023
19	0x3fd480b4b71b5e03	0.32035558587583085
20	0xbfef2668e4112917	-0.9734386877474063
21	0xbfe2f6bc58733b90	-0.5926191070119433
22	0x3febe62f6a25f347	0.8718487809379462
23	0x3ff19de4c7044188	1.1010482572638427
24	0x3fc729a079b6ccef	0.1809578508669811
25	0x3ff1bf9cdb627d5b	1.109280449840148
26	0xbfd8ac8da850e4cd	-0.3855318206511356
27	0xbfd868f953d816e6	-0.3814071005620988
28	0x3ff94dbcc4306cf5	1.5814788497580683
29	0xbfd387fe34508a00	-0.3051753531346151
30	0xbfe64ca0a620bc75	-0.6968539471325942
31	0xbff7c839222a1c02	-1.4863826117086778
32	0xbfd3fa22d06c36e2	-0.3121420894029666
33	0xbfc1271b324196d6	-0.1340059276000633
34	0x3f94c51334a7dbe6	0.02028303154835589
35	0xbf7f53b0617d9260	-0.007648171413027954
36	0xbfe4ded25a8b342e	-0.6521999138291272
37	0x3fd20304d6590a6b	0.28143425877002554
38	0x3feb5d4b9d4694b2	0.8551385947981969
39	0x3fb3bcb8105bfa06	0.07709837340733125
40	0x3fe50141401ad0d0	0.6564031841321825
41	0x3fcb11d6b8b0ff79	0.2114818956197231
42	0xbfef603e7ef83b78	-0.9804985504032251
43	0xbfe2b95daee2908c	-0.5851276794169435
44	0x3fad041e8d805875	0.0566720531207218
45	0x3fd035db00aa718a	0.2532870775701431
46	0xbfd00b28d1c02698	-0.25068111880737254
47	0xbfe0cbbe73ea8d72	-0.524871088408345
48	0x3fbb41f4e2b9f1ca	0.10647516761122869
49	0xbfe70bf075d650bd	-0.7202074338443009
50	0xbfc2e57cce4aaff2	-0.14762840340460986
51	0x3ff00138efd72d86	1.0002984398623496
52	0xc001fb8d7732db19	-2.2478284180064176
53	0xbfda42ffd8111e26	-0.4103393182781211
54	0x3ff268c2987dd3c1	1.1505762058925344
55	0x40030ffcce54ffc5	2.382806407898871
56	0xbfe863d39efcc339	-0.7621858697149043
57	0xbfe470c868e3f30f	-0.6387674378052867
58	0x3fefae4c83104f42	0.990026718124206
59	0xbfceb447f60582a5	-0.23987674248475802
60	0xbfd876adafd34e88	-0.38224355860186465
61	0x3fe38fe856afd9e6	0.6113168423751716
62	0x3fd8bddba2311a97	0.38658800925296916
63	0x3fe2f4e1ac5627c7	0.5923927656124243
64	0x3fe916c19ea82d98	0.7840278719681235
65	0x3fe2d2c1b9efbc56	0.5882271415301925
66	0xbfe4a6c2dfee9949	-0.6453565953895942
67	0xbffe05735f0a2cc3	-1.8763307297220286
68	0x3fde4936f124f0f7	0.4732186655926535
69	0xbfd782b2606f2d2a	-0.3673520986310047
70	0xbfe1e2709768cb35	-0.5588915784086114
71	0xbff7719b136d80e6	-1.4652357825180444
72	0xbfe3bd40df17248d	-0.6168522221788791
73	0xbfe8de381bd72b25	-0.7771263641128355
74	0x3fb6ff164852414c	0.08982981935173945
75	0x3fe64f47941d62f7	0.69717768601103
76	0xbfe0052ec32fe31f	-0.5006326496360066
77	0xbfd6a29d10856d38	-0.3536751424159834
78	0x3fe756cb1b9ba1a2	0.7293448962419016
79	0x3ff5d088ed341f34	1.3634118333593053
80	0xbff13b76bca839e3	-1.0770175332469243
81	0x3fb571fb57cbe602	0.0837704743716117
82	0x3ff35ee71b0a08ce	1.2106696182459475
83	0x3fd8c2c9351dfb06	0.3868887919160645
84	0x3fa4ff1dd5d7f92c	0.04100888476749484
85	0xbfeacf78a469546e	-0.837826081386664
86	0x3fd93cba1f405d02	0.39433148433586507
87	0xbfe5691fc08de075	-0.6690825234245624
88	0xbfe88e02133da5dc	-0.7673349738881217
89	0x3fda693e57192780	0.4126735544747291
90	0x3ff254682f9dbbd5	1.145607172012878
91	0x3fe55e6dbfdfc09e	0.6677769420184807
92	0x3f8ae6a2767b8221	0.01313521312789684
93	0x3fd03fc490f0817a	0.25389207987065954
94	0x3faeb4b7f5583708	0.05997252340249132
95	0x3fe2645fd3f0ee28	0.5747527255511544
96	0x3fde11c5cc2844c8	0.4698347562526348
97	0xbfdb03f72afa3931	-0.42211703488364366
98	0xbfb8da03980ffe46	-0.09707663023436294
99	0x3fc68988eb58e464	0.1760722302586003
100	0xbfd000d1e171e94e	-0.2500500394450186
101	0xbff0b7871c2a20a0	-1.0448065853288782
102	0xbfc968bacf562133	-0.1985085976014119
103	0x3fbbfba3dc466865	0.109308472898563
104	0x3ff9fbca2082cc35	1.6239720601995604
105	0xbfd1c971a7679588	-0.2779201636133952
106	0xbff8239f210ac00c	-1.5086966791823242
107	0xbff5f6dec61a986d	-1.3727710474427355
108	0xbfb71abc3924c9a9	-0.09025169749364771
109	0xbfb1efbccba633c6	-0.07006435367493599
110	0x3fe0392f61c97910	0.5069806013014233
111	0xbfb4b66b5b24d7be	-0.08090849852746282
112	0xbfe166f2933758d0	-0.543816840678824
113	0x3fbfd360c8048e37	0.1243191231083579
114	0x3fce86a927e01a9f	0.23848452040711707
115	0x3fed45aa80d4acfa	0.9147541538453929
116	0xbfb39eff3f43136b	-0.0766448525856284
117	0xbfa793695a265ffa	-0.04604653573477431
118	0x3fe1696b9d930f69	0.5441186978937199
119	0x3fd7ee4126df7e8c	0.37391690059846705
120	0xbfecd2467cf12b5b	-0.9006683769488107
121	0x3fbcabfa90af9978	0.11199918777820084
122	0x3fe7130f060ce0f7	0.7210764997644493
123	0x3fe112f4baec3762	0.5335639620622994
124	0xbfc82ce54943befe	-0.18887010648131047
125	0xbfee1fa5855093f4	-0.94136310613669
126	0xbf87fd3a9262c087	-0.01171346434816224
127	0x3fd042ff97a8acb0	0.25408925829351414
128	0x3fd0a85b3f732938	0.26027566143297376
129	0xbfe962d3eab02c54	-0.7933139404061742
130	0xbfe8e11a5aa42bbf	-0.7774783869111771
131	0x3ff777ed938552bd	1.46677930474577
132	0xbff20b6a463d199d	-1.1277868980119827
133	0xbfe7bd6f0c5bb486	-0.7418742410060453
134	0x3fd1a468f0847ca1	0.27565978515662876
135	0x3ffb90d78e1c171a	1.7228618193780165
136	0xbfef27048d9993c7	-0.9735129132865205
137	0x3f9cbf0836964c49	0.02807247956441142
138	0x3fee6ec6db1c52c6	0.9510225562576913
139	0xbfaf7e27b43c7f7c	-0.06150936198377985
140	0xbfcf039fce7618be	-0.2422981031524553
141	0x3ff3dca3d3e8b620	1.2413671758362241
142	0xbfc19f30b492ec37	-0.137670601054056
143	0x3fcf2a430612ad1a	0.2434772281315894
144	0xbfe286a2ef1ced0b	-0.5789351148772836
145	0xbfe80e49fb8c8c4c	-0.7517442620341028
146	0x3ff13a820a887e4d	1.0767841731502756
147	0x3fd9b3ca26da9afd	0.40159848970726825
148	0xbfcef2381e2f1553	-0.24176694368194748
149	0xbfef3dcf5eb93ad5	-0.9762951707906163
150	0x3fd0c54954a597c8	0.2620414091710441
151	0x3fc4093cae036825	0.156531891791759
152	0xbfcd95fc339a49ec	-0.23113968391096706
153	0xbfc955eb922657f2	-0.19793457637996387
154	0x3fd589e15988d2b5	0.33654054397201644
155	0x3ff972ec351cf652	1.590557296250513
156	0x3fc5d5e44ca8afb7	0.17058995955573916
157	0xbfbb87741a833fe7	-0.10753560683519901
158	0x3fd877cfed1f9139	0.3823127570779153
159	0x3fe759fe8aca113e	0.7297356329659477
160	0xbfcabdc73d026bc5	-0.20891657332398786
161	0xbfc5f5a8fb0b45ee	-0.1715594507027584
162	0x3fc32854eb78eb4e	0.14966832635567545
163	0x3fc4c7e3e16c0747	0.16235016352589524
164	0xbfc9d2b022bb338b	-0.20174218841421196
165	0xbfe1129a726e7e41	-0.533520911692854
166	0x3fdbd54d2d2c5fdf	0.43489388858279016
167	0x3fbc48cede2ec8a0	0.11048596310027614
168	0xbfeff4488b45af8a	-0.9985697479400966
169	0x3fbfa600e8e71d1a	0.123626763211281
170	0x3fecafa6ec50d42f	0.8964418998281242
171	0x3fea97880ecf7cc9	0.8309974946277175
172	0x3fe37cf23e19c5d5	0.6090022290138061
173	0x3fba6d8e364ab572	0.1032341845081726
174	0xbfdce994897ee59a	-0.4517566054087979
175	0xbfd9b54467945cb5	-0.4016886722105924
176	0x3fe467686b4697f5	0.63762303306862
177	0xbfc928382ad128a7	-0.19653989878344655
178	0xbfdeffb927f2a8b4	-0.4843581094852525
179	0xbfcfce48eed15fb8	-0.24848281537083294
180	0xbfdb7b9491c7bf38	-0.4294177459369055
181	0xbfec33e29c03f59c	-0.8813336417367057
182	0x3fbce6c0e0a884e1	0.11289601788350324
183	0x3fdd59fac5eab57c	0.4586169178754387
184	0x3ff4cd65903168dc	1.3001456863917644
185	0xbfddea8d7aed7ebe	-0.4674409580675095
186	0xbff6d18dc6ba417e	-1.4261605990214714
187	0xbfc2087290adc705	-0.14088279785533345
188	0x3fbe205a35e6b82a	0.11768115821789196
189	0xbfc52ef750739a61	-0.16549579075145274
190	0x3fe5a94ac3049f87	0.676915532011649
191	0x3fcbf6236135c962	0.2184490418108665
192	0xbfdf53455eb33008	-0.4894574570469108
193	0xbfd3f86b9f3950a8	-0.3120373778267642
194	0x3fdb6756f0adf1de	0.4281823492417781
195	0xbfefef1a4b747536	-0.9979373429993419
196	0xbfa3d8c10ce67201	-0.03876307756874909
197	0x3fd3419169b563b4	0.3008769542989811
198	0x3fd600ece43c6afc	0.34380647934601405
199	0x3fd9950834f160b9	0.3997211949367841
200	0x3fe7e72a20aa67a5	0.7469683301926479
201	0x3fe2f457fbf86546	0.592327110414012
202	0xbfe333e740a42318	-0.600085855724589
203	0x3fc8f767f5673963	0.1950502346284778
204	0x3fbd34367e2c3985	0.11407795505895109
205	0xbfe1357daf5a8d2f	-0.5377796578290254
206	0xbfe0bbd0baec57b3	-0.5229266787380226
207	0xbfc98b70aa004565	-0.1995678739627166
208	0x3fc2bf28804ceebe	0.14645868553804137
209	0xbfe03be429099898	-0.507310943747842
210	0xbfdae69df8347a02	-0.4203257488133262
211	0x3fe636e670aa313d	0.6942016792759557
212	0xbfe71d6153913edc	-0.7223364479231935
213	0xbfda1c0122582c6a	-0.40795925477931994
214	0x3fe12210fdc62e6f	0.5354084927107133
215	0x3ff0e1ef78d85d4c	1.055160018969974
216	0x3fc6ab7d9bcacf9b	0.17710847956697937
217	0xbfd103a819d19c21	-0.2658481838356597
218	0xbfa41e4615a8c847	-0.039293470519979716
219	0xbfd092bfe11087b0	-0.2589568803688236
220	0x3fa749f9767211eb	0.04548625536793679
221	0x3fdc7f09887ab53c	0.44525373771724097
222	0xbfae0c5fe269659c	-0.05868816031279353
223	0x3fd48add13dd5dce	0.3209755605689367
224	0x3ff27350ef80e0ab	1.1531533580401099
225	0xbfe05c9f86ee654e	-0.5113065371871615
226	0xbff13bfb15271377	-1.0771437479281454
227	0xbfdc01277fb01031	-0.4375704523993163
228	0xbfdbebe8cdfbafbd	-0.43627376666585943
229	0x3f9b9e543e5b360e	0.026971164995123025
230	0x3fdbd4f40f904866	0.4348726417530372
231	0x3fde7ae68b5af19f	0.47625125512038297
232	0x3ff3d06274dd4712	1.2383751454366956
233	0xbfcd610816236d3c	-0.2295236690614305
234	0xbff11a1dd71741e0	-1.0688761140810286
235	0xbfed28a2c2f1d157	-0.9112104232322434
236	0xbfd2880bf358d40d	-0.2895536304889113
237	0xbfd364a246ac487a	-0.303017205254157
238	0xbfc222d4bfc18e44	-0.14168795931901645
239	0xbfd0c6b6704e036f	-0.262128457710836
240	0xbfc65c2d26329631	-0.17468799939267535
241	0x3fcdd13e0ae407ee	0.23294806987547595
242	0x3fc3fd276d6cfd31	0.15616314738324769
243	0xbff40ce901c09af5	-1.253151900143789
244	0x3fe3c94cc315c243	0.6183227358106439
245	0xbff9f042a9f4a7e6	-1.6211573256391545
246	0x3fd36cce80dd7bd1	0.3035160311173373
247	0xbffbfe086e0dd404	-1.7495197581276907
248	0xbfe4ca6a3d3783df	-0.6497088618890493
249	0x3ff0e2888216352f	1.0553059655679353
250	0x3fef3dfdbd523387	0.9763172815015516
251	0xbfe5ec0b462b3680	-0.6850639696583158
252	0x4000b11b33fdd964	2.08647766703068
253	0xbfd068961d3698aa	-0.25638344624384024
254	0xbfd9a7a063301e7d	-0.4008561104423974
255	0xc0009069c45f4b0f	-2.0705142346936394

lstm.weight_hh_l0 f8 [40, 10]
0	0x3fd9a9e401ec4d5a	0.40099430263326996
1	0x3fd88a9b0fd8f472	0.38345982120137656
2	0x3fcabaad26ca7946	0.20882191080176876
3	0x3fd0ac2ad3b2223c	0.26050825761243224
4	0x3fc2c55c65370e0e	0.14664797727719797
5	0xbfd1eec72df39ed2	-0.2801988552805429
6	0x3ff4fa1c21f1bd7b	1.3110619855832215
7	0xbfc9fd073c7fc6da	-0.20303430990275367
8	0x3fc3e3418c66a220	0.1553728042174649
9	0xbfc9674ebe8626eb	-0.19846519759112566
10	0xbfe1d36eae50f4c5	-0.5570596127141917
11	0x3fe32fef2bf8a52e	0.5996013506711841
12	0x3fa64ac2892b949b	0.043539122814572916
13	0xbfe12c7401ad6f22	-0.536676409984896
14	0x3fc4af4357c1d6ba	0.16159860405939758
15	0x3fd55b1f54504d87	0.33368666871793845
16	0x3fc6675a28c6aeec	0.17502905837078886
17	0x3fbe5b1b4205ee50	0.11857767450231305
18	0xbf9316d136ff2b17	-0.018641728383765512
19	0xbfe1d6adc2e24180	-0.5574559027027561
20	0x3fe29d299ec5ab69	0.5816848851221553
21	0xbfe2bc6ce93568b8	-0.5855011515480077
22	0x3fd5f15ac328dd4c	0.34285611208493516
23	0xbfcb062488ccc587	-0.21112496070558626
24	0xbff458f0b702cdcb	-1.271713938604864
25	0xbfe12159d1f6adad	-0.535321149907238
26	0xbfe4d5b460ba9c7e	-0.6510869874226868
27	0xbff18725cf976054	-1.0954950436626136
28	0x3fc917e565bd8b7d	0.19604175060075227
29	0x3febff224482d359	0.8748942697626304
30	0x3fd3148b68c0f827	0.29812894086706127
31	0xbfd535e5e7e8863c	-0.33141467711729766
32	0x3feb3681c3044d51	0.8504036721155136
33	0xbfeb80b0f723037e	-0.8594593836679534
34	0xbfc0903a8822225f	-0.12940150878081888
35	0x3fd1255038a51ff3	0.26790242702236283
36	0x3fe11a94f9132b8f	0.5344948639625374
37	0xbfca8c37409296a5	-0.20740404751739053
38	0x3fdfa762c54720d0	0.49459141984381194
39	0x3fd13b230261c724	0.2692344210873776
40	0xbfee0cde2fa6e94b	-0.9390707903578827
41	0x3fdba81856300cf5	0.43213470856444697
42	0xbfa33c204a15b92f	-0.03756810097080387
43	0x3fd208721a468009	0.2817654854388825
44	0x3fd387575209ea5f	0.3051355649146554
45	0xbfca173e5c9f7daf	-0.20383433840377793
46	0xbfe480cbf6dab6cb	-0.640722257745176
47	0x3fefd4f620d80e07	0.9947462693675683
48	0x3f71effed2051acd	0.004379268066549269
49	0xbff11c955732ab16	-1.0694783598107214
50	0xbfb1d5e79ec50865	-0.06967017770969759
51	0x3fc0f5ac424932a5	0.13249734150521877
52	0x3fe5bbb39e4bc516	0.6791627971380503
53	0x3fcd95c073c28b4a	0.23113256122914044
54	0xbff0d2b8c8c876c4	-1.0514457552994125
55	0xbf909f803463a68a	-0.016233447263323465
56	0x3fe006f4ba3f233b	0.500849117052986
57	0xbfefaa374f22127f	-0.9895283265655762
58	0x3fdd556fc282febf	0.45833963389666715
59	0x3fd2dfabff012aa5	0.2949018469122769
60	0xbf940d3305126f49	-0.019581601318903883
61	0xbfb052f633088b25	-0.06376589532787287
62	0xbfed3cdcf1fc0930	-0.9136795736560881
63	0x3fca8f07e4d6f965	0.20748995469871115
64	0x3fd7acb8ebd6ff1c	0.3699171355365125
65	0xbfd3332ecfdb6811	-0.29999895380535785
66	0xbff0bebc2d8a64ee	-1.0465661791734493
67	0x3fed0665265a7625	0.9070306538666882
68	0xbfe2a38e65c7fd35	-0.5824653613962371
69	0x3fca1cafc516ed70	0.20400044559014985
70	0xbfe9b47c942c4579	-0.8032820600512159
71	0x3ff406a6b1ac0c2d	1.2516238155665278
72	0xbff27deb81961cc9	-1.1557421743362275
73	0x3fc445fda820f84a	0.15838595113194948
74	0xbfbdd7991ddd0303	-0.11657101611218583
75	0x3fed55885ee6d08c	0.9166910031840572
76	0xbff1fbbf897f4bfe	-1.1239619608866174
77	0x3fc69ad56a2a1385	0.17660014804655702
78	0xbfe178cb4ae9a311	-0.545995374978789
79	0xbfff61b55fafe176	-1.961354612138249
80	0xbfe79ddaa27d128b	-0.7380192922215242
81	0x3fe50811024a04be	0.6572346729955354
82	0xbfb80ee62c2d6ff2	-0.09397734240104663
83	0xbfaef5bcea425d3f	-0.06046858176812941
84	0xbfde1afb9c9ac462	-0.47039690297521564
85	0x3faf2b388ce5be0c	0.06087662429751725
86	0x3fd3d1fce250b697	0.3096916399107185
87	0x3feb554ba459269e	0.8541620454718275
88	0xbfdaf4bceea6166f	-0.42118762307686713
89	0x3f9c886d1534daa4	0.02786417428907363
90	0xbffadec656e64d07	-1.679388369990933
91	0x3ffecfb4835ec22d	1.9257092601438999
92	0x3fa97c35a3c4c7ac	0.049775768510144175
93	0xbfe68e3e53c52356	-0.7048637043127239
94	0x3feae395e2499306	0.8402814311671996
95	0xbfe01c12210e25b6	-0.5034266133890728
96	0xbfc46ed38defdfc6	-0.1596321528484152
97	0x3ffa403b98977cd8	1.640681835233229
98	0x3fc43eb9d8a52d27	0.15816424444560903
99	0xbffe71f41e63d6e4	-1.9028207003697668
100	0xbff2ce51032ced3f	-1.17537022819927
101	0x3f8bade4628bfd6b	0.013515266663943057
102	0x3ff0d039c7307c1f	1.050836351474352
103	0x3fe7d41be5e2b835	0.7446422090486126
104	0xbfed1bf8a7ccb18e	-0.9096644666038161
105	0x3fbb99601fd06e25	0.1078090741797771
106	0x3fed3691517857a5	0.9129110900128025
107	0x3fd27877d6b271f2	0.28860279051312354
108	0x3fee93a572a37d51	0.9555232275996933
109	0x3fd52d6f1c755f5a	0.3308980729975609
110	0xbfdf60057fd76225	-0.49023568615442265
111	0x3fe360aa1b3a4cca	0.6055498630325016
112	0xbfc8cc1721231259	-0.19372834318177715
113	0xbfeb13ba9f0e0445	-0.8461583239114893
114	0x3fd944c0ca2607a8	0.39482135525769957
115	0x3fb9dba040a89868	0.10100747660234932
116	0x3fcd1836208fe48d	0.22730137433953637
117	0x3fc66fe6a1e917b8	0.175289944703932
118	0xbfed9a8935334ed3	-0.9251142539091809
119	0xbfd4b2d1afdfcfb7	-0.32341425109120386
120	0x3fefa47d781a0b18	0.9888293596016835
121	0xbfe005c10c04adef	-0.5007024035198223
122	0x3fe106da1925c68c	0.5320864192164705
123	0xbfe1aa47d44ab036	-0.5520362039874331
124	0x3fe48f73c5dd880b	0.642511259513641
125	0xbfeff53ff23a2481	-0.998687718486636
126	0x3fd5e4ddab1a539a	0.3420938654829172
127	0xbfdf1b405053229b	-0.4860382828160625
128	0xbfc21137d9543535	-0.1411504565407228
129	0x3ffa26bc47ec19bc	1.6344569024528104
130	0xbfe9b2193e397e33	-0.8029905524562707
131	0x3fe41de260362b51	0.6286479834683211
132	0xc0043c62407b35c2	-2.5294842755890565
133	0xc003086b4cd5e058	-2.379110908772457
134	0xc0067cbfad7e147d	-2.8109124712087223
135	0xc014c6780103692c	-5.1938171537715725
136	0x3fd76155e5e8f8e8	0.3653158898558915
137	0x40012dc0defc25c2	2.1473405285548504
138	0xbfb661e3fbc16662	-0.08743119140981429
139	0xc0044775b7c86914	-2.5348924978290004
140	0xbfe92c58ed3fe08f	-0.7866634973315899
141	0x3fd606a97dabbb5e	0.344156620717447
142	0x3fbff41431668279	0.12481809812607904
143	0x3fe34c30407eafea	0.6030503520646537
144	0xbf9b2025d54712e7	-0.026489821569856267
145	0xbf963b13e982f6f7	-0.021709738852897478
146	0xbfe1ed1c7f6997b7	-0.5601942528271512
147	0x3feb1e37cbf340cb	0.8474387153055657
148	0xbfe016f03ef36000	-0.5028001050477542
149	0xbfe9f0c36a2f340c	-0.8106400560296847
150	0x3fd4a277d9e55782	0.3224162700547525
151	0xbfc3027b1f215584	-0.14851321239499893
152	0x3fe1df55c77b5450	0.558512582409671
153	0xc00381d0d04c4854	-2.438386561706503
154	0xbfddbc7fd2229288	-0.4646300842380602
155	0xbfe9dbe9c48456c2	-0.8080948675367028
156	0x3fdce3de1f01803d	0.4514079382697707
157	0xbfd9b53dee01c165	-0.40168712847573423
158	0xbfc36338d12942f9	-0.15146551335285333
159	0x3fddf5124fd6b77b	0.4680829791712921
160	0x3fd5e1565e525ae0	0.3418785019979804
161	0xbfea54a80f1b94aa	-0.8228340430329315
162	0xc0017723a06b413a	-2.183173421166569
163	0x3fd55faa167897ae	0.33396389193000686
164	0xbfbf3eddf4a3433f	-0.12205302450753396
165	0xbfe0d26ca09170e7	-0.5256865631195325
166	0xbfe93559dc2ad786	-0.7877625751632287
167	0xbfd037b9b286f5e2	-0.25340120729728544
168	0xbfd82d7b1b83a1a1	-0.3777759331410611
169	0x3ff14dbdc876b67c	1.0814798193563595
170	0xbff76f38e850623f	-1.4646538805738059
171	0x3ff74c786584f8c7	1.456169506607283
172	0xbff1c730c52ccfbf	-1.1111304952764696
173	0xbfc7d56cdc2d4ac6	-0.1862007212717655
174	0x3fb312b6e6261b4f	0.07450430983417998
175	0x3fa6e2cad098a0ba	0.04469903751697886
176	0xbff0099a57b5da71	-1.0023444582162961
177	0x4000ebb971991727	2.115099799618196
178	0xbfd20fd94229d2fa	-0.28221732579486025
179	0xbff6dbcaaca79854	-1.428660082275674
180	0xc012551a9fbab51c	-4.5831093747813405
181	0x3ff086e2638faa89	1.032930745039865
182	0xbfdee3fa9625ac9d	-0.4826647249489698
183	0x401108cf527731f6	4.258603371167274
184	0xc01787aecdb979b6	-5.882502760358355
185	0xc00b86078f77c454	-3.440444107859131
186	0x400270032d251358	2.304693558401066
187	0x4003c37889b50800	2.470444751584182
188	0x3fe613fa8c9e9410	0.6899388071511812
189	0x4002b54aa73df8c0	2.338521296099401
190	0xbff1a232d20c1c70	-1.1020992474530225
191	0x3ff4cd532759e8d5	1.3001281296879388
192	0x3ff33f4f0250c7cd	1.2029562082720873
193	0xbfe6a772e524a498	-0.7079405284358868
194	0x3fcf9bfcf092a15b	0.2469478773757697
195	0xbfe57650391a28ce	-0.6706925502087644
196	0xbfbec6d657a8e25e	-0.12022151603822226
197	0x3fed28a9ba4c5c57	0.9112137449873313
198	0xbfc5ec20d7852e38	-0.1712685634941964
199	0xc00033fa6853f515	-2.0253799582120657
200	0x3feba5a01cdc6a6c	0.863967949265612
201	0xbfd82bff1469eac1	-0.3776853274681962
202	0xbfe50f2700d44fff	-0.6580996528814466
203	0x3ff2bc6417304276	1.1709938913155873
204	0xbfe8777c2dd36048	-0.7645855803521124
205	0xbfdd51267031542a	-0.4580780120498412
206	0xbfcf040ac61fd741	-0.24231085466424854
207	0xbfe8d8d728fc723c	-0.7764697838316077
208	0x3fd8e6f1fbb2ae2a	0.38909577922706495
209	0x3fe7bfb119ae4eaf	0.7421498776988836
210	0xbfe5fc7fe0326e4b	-0.6870726946685378
211	0x3fe2f210cbda40ae	0.5920490247244936
212	0xbfcd0484a72e5c96	-0.22670038378848706
213	0xbfc706519e337f4b	-0.17988033508935994
214	0x3f92dc4f18cc4720	0.018418537033603077
215	0x3fd4c129b305e1ea	0.32428972704613435
216	0x3fe0feb0ae64b658	0.531090107547878
217	0x3fc9fd9e4133f2e5	0.20305231269585203
218	0x3fb5cdd593160892	0.0851720317932936
219	0xbfe32698329e35ee	-0.5984612454064384
220	0x3fc744791edb6da2	0.18177713400551193
221	0xbfe2fb28429bb934	-0.5931588459914452
222	0xbff3bb186d67272f	-1.2331775926163109
223	0xbfa1e2626c6e546c	-0.03493030141468342
224	0xbfe7399154b8d220	-0.7257773070073803
225	0xbfe120353f5afd11	-0.5351816403780579
226	0xbfdef66c92ab5f0f	-0.4837905342405841
227	0xbfe3f8f988c1730b	-0.6241424246796624
228	0xbfe805440f7aadc8	-0.750642805321541
229	0x3fea87c5e26952d0	0.829073850831799
230	0xbfebc25868a99c81	-0.8674737972441023
231	0xbfefe35aa8a544e3	-0.9965031904086142
232	0x3fe7ef9446ce611c	0.7479955084736818
233	0x3fed20d95e1e3bfa	0.9102598989719575
234	0xbfd51c2c4e8558e9	-0.32984454792075596
235	0xbfdcc354216e6147	-0.44942191376459956
236	0xbfdad2c91b3b7450	-0.4191153303089026
237	0xbfe077140b70c367	-0.5145359252402216
238	0x3fcd668b704b69e2	0.22969191535123828
239	0x3f951bf68759880b	0.020614482890216872
240	0xbfe5e8db4194b593	-0.6846748619915836
241	0x3fdcb17eb361ac01	0.4483334304592859
242	0x3fcdabefbfbef615	0.23180958616824002
243	0x3fd08605d1970655	0.2581800982262384
244	0xbfe0f0f5363880ba	-0.5294138010977101
245	0x3fc7ef13f619c7eb	0.18698358074794838
246	0xbfe3ac857c1edd6d	-0.6148097442846115
247	0x3ffd3250ca29e94c	1.8247840783138427
248	0xbfe4c057ecbda692	-0.6484794257969091
249	0xbfe2b0d2d2962b78	-0.5840849030513331
250	0x3fec1e6b5f9a08b6	0.878713309022962
251	0xbfe08a5658023260	-0.5168868750493623
252	0x3fc772afd43d8124	0.18318746436399025
253	0x3fac573b2d4e04f1	0.05535302093540818
254	0xbfd49eed14315285	-0.3222000786966322
255	0xbff030c6fce5891a	-1.0119085196279856

lstm.bias_ih_l0 f8 [40]
0	0x3fdc3bdf6ce0ac7d	0.44115434296208617
1	0x3fd9a3aa709b3851	0.40061436650001264
2	0xbfe38a203a6de8a5	-0.6106110707471727
3	0x3fd93e668dd88a69	0.39443363048682173
4	0x3fe2a7deb35f96a1	0.5829919341455999
5	0x3fde55ec281a8cd2	0.4739942924154096
6	0xbfc025fa69033773	-0.12615900161329882
7	0x3fe6468fc492e7ec	0.6961134757359537
8	0x3fe8667d522ae2c2	0.7625109295687127
9	0x3ff01ee74b8b2f15	1.0075447989392547
10	0xbf9223965ea7d6fb	-0.017713880088158423
11	0x3fd779e393eaba60	0.3668145126820601
12	0xbfef79895f218e3d	-0.9835860116986123
13	0xbff153dea34bd679	-1.0829759958991458
14	0x3fe56fac00d7771d	0.6698818222464272
15	0xbfead9e558e3c23c	-0.8390986190916645
16	0xbfe634a3542e1866	-0.6939255375043671
17	0x3fea7fd841249064	0.8281060478516449
18	0xc0089d89dee2b67a	-3.0769231236397987
19	0x3fe3b47238297ebe	0.61577712029608
20	0xbfdcb08bf02fde43	-0.44827555137405656
21	0x3fe6d4a8e850982b	0.7134594476126542
22	0xbfe59b7f51cd7cc8	-0.6752316091259667
23	0xbff0d98cf0c0e4b8	-1.0531129269059374
24	0x3fc1fd7ed97cd01e	0.1405485689116412
25	0xbfe49a5ad2c15d40	-0.6438421360316298
26	0xbfbd7cb6ee96abe5	-0.11518424343982721
27	0x3ff3e8a8e61a81a2	1.2443016994876435
28	0xbfd71689c0840fe4	-0.36075061607721026
29	0xbfe4763db30f5684	-0.6394337174667304
30	0xbf89965f2176bc99	-0.012493842324003789
31	0x3fe27675f90d85e1	0.5769605507195444
32	0xc001420a86e6f533	-2.157246641085885
33	0xbfe99b4e0938278e	-0.800208108908224
34	0x3fe1da7268213183	0.5579158815176445
35	0xbfc5ea62f639cb72	-0.17121541044943062
36	0xbfeb4c7873010341	-0.853084778420545
37	0x3feed468c67b8995	0.9634288670170458
38	0x3fb4300c443cec7a	0.07885815301863089
39	0x3fe417092a3abe94	0.6278119873804422

lstm.bias_hh_l0 f8 [40]
0	0x3fb25f1af382b26f	0.0717636913784163
1	0x3fe12677204d9c35	0.5359454756661594
2	0xbfe0471eea6de8a3	-0.5086817339609023
3	0x3fb6e734f76229ce	0.0894654373134138
4	0x3fec07921b5f9693	0.8759241613995122
5	0x3fad402440d46650	0.057129986680774736
6	0xbfc0d7a669033776	-0.13158111693922664
7	0x3fec84a2c492e7eb	0.8911908950169595
8	0x3fe06687422ae2c8	0.512515668137973
9	0x3ff0a08a3f8b2f1a	1.0391943437743465
10	0xbfc5e1738bd4fadd	-0.17094272926075052
11	0x3fdfad5bf3eaba85	0.4949560052872715
12	0xbff6e27d0790c726	-1.430295018723379
13	0xbff1d038834bd679	-1.1133351448783328
14	0x3fda5d0a31aeee4f	0.41192869998824205
15	0xbff24a457471e121	-1.1431326435686702
16	0xbfd758b0285c30f4	-0.3647880930082146
17	0x3fda43b8024920b3	0.410383226615987
18	0xc00a30e2e2e2b679	-3.273870251220441
19	0x3fdb291c1052fd7d	0.4243841323295426
20	0xbfe6be08e017ef0f	-0.7106975914789205
21	0x3fe6a039c850982b	0.7070588028334489
22	0xbfe1b3b681cd7cc9	-0.5531876120766351
23	0xbff05c2398c0e4b8	-1.0224948851521685
24	0x3fd1474c1cbe6825	0.26997664267548976
25	0xbfdce0516582ba88	-0.4511912814440753
26	0xbfca5d51774b55d8	-0.20597284626880596
27	0x3fee82702c350330	0.9534226287288217
28	0xbf9531aa0840fe2a	-0.020697266343857525
29	0xbfd6b23f861eacf1	-0.3546294030918054
30	0xbfa30a7ac85daf27	-0.0371893281543108
31	0x3fe44db8d90d85da	0.6344875563919985
32	0xc002542b22e6f531	-2.2910979010327073
33	0xbfdfed2572704f1b	-0.49884926009802805
34	0x3fda1ae1f0426313	0.4078907820017303
35	0x3fa1d9102718d1fd	0.034859185001923955
36	0xbfd82b6d06020695	-0.377650504939177
37	0x3fee0995f67b899a	0.9386701406586326
38	0x3fd35e10110f3b21	0.30261613527265935
39	0x3feb5ffc123abea1	0.8554668766064034

dense1.weight f8 [28, 10]
0	0xbfdd6988cf34330b	-0.459566309306681
1	0xbfd34dc43e8a6393	-0.30162149531820964
2	0xbfc0e16c09f8a61e	-0.13187933432463778
3	0xbfc62d7eb0c817f4	-0.17326339370646304
4	0xbfc704090ee5366e	-0.1798106501322993
5	0xbfcd411830e1f4c7	-0.22854902636382787
6	0x3fd41cf82848c20d	0.3142681497002123
7	0xbfe319888dc20210	-0.5968668717105761
8	0xbfd22e2414710a18	-0.2840662192940342
9	0xbfdad813180ae7ee	-0.4194381460944204
10	0xbfda81e2bded6385	-0.4141775946387088
11	0x3fdfe55deeead742	0.49837444621822524
12	0x3fd02b662675df29	0.252648866232891
13	0xbfe155ad0232f7ac	-0.5417084734869966
14	0xbff04f122881ecbe	-1.0193044264149616
15	0xbfc018199c649e6c	-0.12573547493342419
16	0x3fcdc5195db8e95c	0.23257748676571566
17	0xbfe3aca684cef7df	-0.6148254960933136
18	0xbfc9a4c1526f6b8e	-0.2003404285922809
19	0xbfe10028af3c4cc9	-0.5312693998879691
20	0xbfc77da54879bf60	-0.18352190054747108
21	0x3fe0700d3445e560	0.5136781712491647
22	0xbfe0d927427e8920	-0.5265079783169178
23	0xc003f0224f9c17e6	-2.4922529429922973
24	0xbfe074213dc8f2ae	-0.5141760069596637
25	0x3fd6e81e13480ffc	0.3579173267646636
26	0x3fe12b3ba68cbeca	0.5365274670529854
27	0xbff3b53539aabbc8	-1.2317402126898163
28	0x3ff39c06490fd027	1.225591931722201
29	0xbfe9601a01a6df5f	-0.792981150842916
30	0x3fb03f846689bf8a	0.06346919539805476
31	0xbfd268d25bfaf599	-0.2876478098149505
32	0xbfd4c5ba7e4bc73b	-0.32456838925928694
33	0xbfd0741602ee3117	-0.25708532606292195
34	0xbfea4515ec46f1d8	-0.8209333052432681
35	0xbfe47aa45de377be	-0.6399709542999898
36	0xbfbed3fb6faec511	-0.12042209126117977
37	0x3fb8c5b9a7a723c4	0.09676704733932612
38	0xbfe82d563096ca72	-0.7555342625622201
39	0xbf8c06beb3ea2050	-0.013684739938313012
40	0xbfb54d38c0000000	-0.0832095593214035
41	0xbfb73d7e80000000	-0.09078207612037659
42	0x3fc97dca40000000	0.19915130734443665
43	0xbf83fb4c00000000	-0.009756654500961304
44	0xbfd230b3a0000000	-0.2842225134372711
45	0xbfca653440000000	-0.20621350407600403
46	0xbf80ee3c00000000	-0.00826689600944519
47	0xbfce4cdc60000000	-0.23672060668468475
48	0xbfcbbb1180000000	-0.21664637327194214
49	0xbfd3d29280000000	-0.3097273111343384
50	0xbfe82db11f7ea762	-0.7555776229030295
51	0x3ff1601b7c836427	1.0859637130545339
52	0xbfe3c96e6daffe60	-0.618338789208746
53	0xbfea26277df58df2	-0.8171575031414575
54	0xbffce7ae3143464a	-1.806562607224253
55	0xbfc5c5ccbdd9b1e7	-0.17009886999166143
56	0x3fe218f1303e10ab	0.5655446951136772
57	0x3fc1abc4f3239521	0.13805448410054402
58	0xbfd65b08f0c22fa4	-0.3493063307912456
59	0xbfe9b433187ad441	-0.8032470205422514
60	0xbfecdc59b728680e	-0.9018982484151381
61	0xbff12c8c20f92c24	-1.0733758247395224
62	0x40183b3a9df66dd5	6.057840793767771
63	0xbfea25b96d3ad614	-0.8171050198931789
64	0x3ff82a81c611bf49	1.5103776681025514
65	0xbff273f77c8e7a3a	-1.153312193440469
66	0x3ffbb540da694a56	1.7317513019267117
67	0x3fe141079eacc5ab	0.5391882037276238
68	0x3ff07429e35acfe8	1.0283602601093609
69	0x400eec08439e32c1	3.8652501375821378
70	0x3fcf3aff104d5e1a	0.24398792549139686
71	0xbfdbe809b2ef1b38	-0.43603746866249393
72	0x3ff58432e39d30ca	1.344775094144142
73	0x3fe6738070902686	0.7015993307588395
74	0x3fefe94815763273	0.9972267550634356
75	0xbfe0fe6f75078f84	-0.5310590062840537
76	0xbfc8a71c540a0b09	-0.19259981254079886
77	0x3ff0b683d8edf205	1.0445593332107148
78	0x3fe952258595b39b	0.7912776574208807
79	0x3fecdefa1304fe89	0.9022188540911468
80	0xbfd1d168c52364a2	-0.2784063267877831
81	0x3fceb50f02be8e72	0.23990047105791096
82	0xbfc4a6ee373e92ae	-0.16134431550485345
83	0xbfcfe633672b6eb2	-0.24921267068463276
84	0xbfd157941952033d	-0.2709703681248817
85	0xbfe0321210df0a9f	-0.5061121301190105
86	0xbfba016f98de1ba8	-0.10158441049689648
87	0xbfcbd4fb6304d6df	-0.2174371942034474
88	0xbfdad451aff4e8ec	-0.41920892890233463
89	0xbf92f44df519b933	-0.018510072788950182
90	0x3fc03cb9ed856bde	0.12685321901048402
91	0xbfe803164270fb37	-0.7503768251116075
92	0x4002200312ba86fa	2.2656308615850067
93	0xbfcc90e5d799b39e	-0.22317193057406554
94	0x3ff30cea94e82a1c	1.1906534020114412
95	0xbfc9448d56fc4a20	-0.1974045443281094
96	0xbf9056768668d523	-0.015954830125527352
97	0x3fd411f4b9e266fd	0.31359594490787385
98	0x3fd9bca277825f38	0.4021383444864912
99	0x4000fae712c51b72	2.122511049881205
100	0xbfc5e8c09d3b9027	-0.1711655395257605
101	0xbfb4b2fa281992c1	-0.08085597495080334
102	0xbfd133b3976d3809	-0.26878061092145394
103	0x3fd3b07f3fc26b8d	0.3076475260401644
104	0x3fb1c1e75e190afc	0.06936498687086251
105	0x3fd230d352bdfe34	0.284230070879832
106	0xbfd1451b754bd851	-0.2698429723235494
107	0xbfb8a386a7c8a4c8	-0.09624520870478925
108	0xbff408079b0793a1	-1.2519603782504662
109	0xbfce28b67c529a3a	-0.23561745710795085
110	0xbfc61585ddb75ab6	-0.17253182722079935
111	0xc0007fdd7ef268f7	-2.062434188626067
112	0x4022841048dcefb4	9.257936741800087
113	0xbfee56076141f655	-0.9480015658916253
114	0x3fe17e0a31d438d9	0.5466357205603131
115	0xbfd694384e26d4ec	-0.3527966273498595
116	0x4006b8a99dc09b4b	2.8401672672656892
117	0x3f9231eacc27248d	0.01776854392099785
118	0xbfecd4702d48ba54	-0.9009323963599152
119	0x40127735cf96745b	4.616416209753051
120	0x3fda0cdd7dd3ddf7	0.4070352295670711
121	0xbfe666d373ad1f37	-0.7000519999792009
122	0x400cbf3a5aa88d7f	3.5933730204284866
123	0x3ffd97f449315b01	1.8495982035726117
124	0x3ff5d32bab0e9a8f	1.364055317107759
125	0xbfeef94ce8754e90	-0.967932180423718
126	0x3fe2ed2dfc7988aa	0.5914525920054718
127	0x3fe2c0706d635af9	0.5859911095129454
128	0x3ff688c265ba4063	1.4083885167820192
129	0x40016927863b529f	2.1763449179509986
130	0xbfb47464adc76326	-0.07990102045677058
131	0xbfe2f94c8060da01	-0.5929319865597905
132	0xbfbe9851f1f0a0f4	-0.11951172024476248
133	0xbfb3a17044bcce73	-0.07668210676347957
134	0xbfe2f5f92616fe5b	-0.5925260299627085
135	0xbfd29a72ee3a4e47	-0.2906768156474055
136	0xbfdd8fc1f45fdae5	-0.4618992697209435
137	0xbfe56dd893b8f045	-0.6696589360431139
138	0xbfa34fcfe87b6b36	-0.037718293313182036
139	0xbfaba1853f505e52	-0.05396667859912142
140	0x3fd64c7505fa9de3	0.34841657241710616
141	0x3fd3411d09678a6e	0.30084920805362614
142	0x3fb9e60752d44f80	0.10116620800209652
143	0xbfbc15ccbe92cdd7	-0.10970763828918649
144	0x3fae9d72356050d7	0.05979496861996985
145	0x3fda92b2e283c324	0.4152037822778303
146	0xbfe6a59d27173574	-0.707716537808365
147	0x3fd8c4b6eb46e6b0	0.3870065019251383
148	0xbfe6aa13f19d0232	-0.7082614630708746
149	0xbfc335dd1807ce55	-0.15008128808368562
150	0xbfdee35bcbdd789a	-0.48262686642363806
151	0xbfd21c8046488c9e	-0.282989567409638
152	0x3fa6ae068f182ae6	0.04429646012075299
153	0x3fd55398b7983073	0.3332273285784659
154	0x3fbfd6b55d8e056e	0.12436994108249674
155	0x3fd669fbe04c5984	0.3502187433636197
156	0xbfe8a69046b82e38	-0.7703324681510315
157	0xbfc9ad4fc7daeec6	-0.20060155161433196
158	0x3fc30b4eea18abe7	0.14878260069357838
159	0xbfec075fbc9a2717	-0.8759001430164258
160	0x3feaa22df31b74f7	0.8322973011196656
161	0x3fdd9cd9827b8eeb	0.4626983427281021
162	0xbfe6c54d60b2e30f	-0.7115847481391898
163	0x4000e85ce09f7f19	2.113458399646231
164	0xbff874143f6e402b	-1.5283396222839751
165	0x3ffa3801827ee0c4	1.638673314808373
166	0xc00165e762ad0ec8	-2.1747577389777213
167	0x3ff1d94fc9393143	1.1155546055116055
168	0x3fefc2051f837c0e	0.9924340835094669
169	0xbfe55d905b05a12b	-0.6676713731549503
170	0x3fd7930b082cc316	0.3683497981865441
171	0x3fe1be84b5aad37e	0.5545066402615786
172	0xbfdf6886325659eb	-0.49075465121987233
173	0x400321f89fbae106	2.391587493792147
174	0x3fd192a7b0e286a5	0.2745761134520797
175	0xbfd56b0cdd14b80b	-0.3346588286393632
176	0xc010627c1e4c8ff0	-4.096176598952283
177	0x3ff9cfc149bc07a5	1.6132214432004528
178	0x3ff0bc0601a1c276	1.045904165625101
179	0x3fcbbd734b64050b	0.21671906644045466
180	0xbf7fdafe600627ef	-0.007777207997046161
181	0x3fad6e29f6d32f84	0.05748110902786066
182	0x3fd584ea6c842ca5	0.33623753163619546
183	0x3fe157a0c05ca046	0.5419467694346245
184	0x3ff50ed4c51869a5	1.316120881942518
185	0xbfea5228d211a490	-0.8225292303951779
186	0x3fd5f32616678d8a	0.3429656237405757
187	0xbfbcbbc6160eb077	-0.11224020040998704
188	0xbfd7fd8e73b39cde	-0.3748508577250059
189	0xbff5319fa8538d64	-1.3246151519059248
190	0x3fdf69c116e23ee6	0.4908297275041903
191	0xbfc7321c608cd86a	-0.18121676172603723
192	0xbfdaf07b70e6a462	-0.420927868132429
193	0x3fd1003803f8d436	0.26563835513963185
194	0xbfccc8fb984e014d	-0.22488350807908333
195	0xbfe74921411f2f1f	-0.7276769897375494
196	0xbfdb2d4e663152a8	-0.4246402738547581
197	0xbfe12b8ae3838710	-0.5365652507427701
198	0x3feb0bf345b44e30	0.8452087747013532
199	0x3fc791ff20a499a7	0.18414296239752767
200	0xbfda54dbf80c8dd6	-0.4114293978074931
201	0x3fe10e76e9e51cfd	0.5330156868230059
202	0xbfb76fb8d1d6a4e8	-0.09154849169739843
203	0xbfebba7210fe95d8	-0.8665094692157096
204	0xbfe1e25f241307d1	-0.55888325734872
205	0x3fd60923c7801ba2	0.3443078468557649
206	0xbfe393cd21444ab6	-0.6117921495191101
207	0xbff0c3e1eb8ec3c9	-1.0478228761169126
208	0xbff36f81092b889f	-1.2147226675229275
209	0x3f8c59bb804c1a5d	0.013843026020834143
210	0xbfd70b1ace32db5e	-0.36005277763927335
211	0xbfdbe10c7cb67359	-0.4356108873269498
212	0x3fd0355870676780	0.25325594880052194
213	0x3fa772ac1415b81a	0.045796754314196345
214	0xbfd7ffe9f280de53	-0.3749947422215644
215	0xbfe3540e9bb55a44	-0.6040108719997268
216	0xbfd07a2220ad193d	-0.25745442572624083
217	0xbfc25a4741a7eacf	-0.14338007646423143
218	0xbfe86a7c7f30e048	-0.7629988178441716
219	0xbfe15edeb52f1c29	-0.5428308047056635
220	0x3ff8b6b69cf8549a	1.5446077472345565
221	0x3ff222ac85ef9a39	1.1334653121827059
222	0xbfd27386c3d2c1e4	-0.28830117343298256
223	0x3fada4fd89b5ce4c	0.057899401722263905
224	0x3fd0026abb7b3c3f	0.25014751728753376
225	0xbff13175556d6995	-1.0745747887618553
226	0xc00b65e0ba8ef5a2	-3.42474504231241
227	0x3fea9467e90643b5	0.8306159545191948
228	0xbfe63220242437ee	-0.693618841732812
229	0xbff0cfd0230963a5	-1.0507356041546043
230	0x3fcf731b976b3144	0.24570031064502917
231	0xbfd31ca996c67d7d	-0.29862441753535746
232	0xbfca325a839a96a5	-0.20466166902513297
233	0x3fd9f372f50b94bd	0.4054839509029298
234	0xbfa145cd9673ab34	-0.033735680213644065
235	0xbfd36076f5412484	-0.3027627368033523
236	0xbfe7297e6636d468	-0.7238151546831775
237	0x3fcd41d5184d0c64	0.22857154547282044
238	0x3fe6437cbcacf1d5	0.6957381901807432
239	0xbfcb8541ca120af1	-0.2150041805908454
240	0xbfdaed9d4fd72d45	-0.4207528381054611
241	0xbfdf5b48fcf89481	-0.4899466009540632
242	0x3fd3b7f4284d582e	0.30810264526133124
243	0x3fc6a7755ab8b6e1	0.17698542527926178
244	0xbfa0376d8882ff48	-0.0316728810444134
245	0xbfe18d0bde0228ad	-0.5484675727941714
246	0xbfd3d3501887ed37	-0.3097725143013181
247	0xbfb02832e526436a	-0.06311338514775647
248	0xbfe6a6ba7f32717f	-0.7078526005093834
249	0x3fd0e5ab53c233ff	0.26401789836455686
250	0xbfe9541f6c18e2ed	-0.791518889548653
251	0xbf97007c288428ba	-0.02246278760234397
252	0xbfc5e14b4b2c6429	-0.17093793078018507
253	0xbfc8126c66c6d5c3	-0.18806223886865156
254	0xbfc834e5449cdc71	-0.18911424494010334
255	0xbfdbc56a0ae807dc	-0.4339242083079833

dense1.bias f8 [28]
0	0xbfded8f8278e95a4	-0.4819927583979171
1	0xbfa2f7261e29f7aa	-0.03704184644901372
2	0x3fe25ede7b6b0e82	0.5740806971084143
3	0xbfd423686deb3407	-0.31466112837080157
4	0xbfc8b12b60000000	-0.19290678203105927
5	0x3feb114518c252ae	0.8458581431937853
6	0xbfb1b379f1e018fd	-0.06914484172020603
7	0x3fb8f5eae271873d	0.09750240353016877
8	0xbfda89f5c8c15193	-0.41467041592593396
9	0xbfcc78bd9d2ddc45	-0.22243471312296684
10	0xbfba1262dd529513	-0.10184305098899342
11	0xbfbf7bfd27a47710	-0.1229856702597909
12	0x3fcb376f9ccfab77	0.2126292720489251
13	0xbfcdd94b33692f2e	-0.23319377908989608
14	0x3fd4828ef67aaa84	0.32046865530234236
15	0x3f96081b9e075eb5	0.02151530410796339
16	0x3fec9c18de9c7cd6	0.8940548274876174
17	0x3fc7bf52acc0358b	0.185526213026986
18	0xbfd8f7d7b54d0882	-0.3901271124378881
19	0xbfe808f029e78c20	-0.7510910814711487
20	0x3fc84d6900d3bc63	0.18986237087617316
21	0xbfd84d20d9657ce2	-0.3797075388919905
22	0x3fe5d86b0284cd54	0.6826682137674802
23	0xbfd146828e43ee93	-0.2699285878477237
24	0xbfd2364f6d687fb3	-0.28456483539957417
25	0xbf7e0f9396d48731	-0.007339073677288075
26	0xbfced7fcd39b93cf	-0.24096641857536702
27	0xbfda80edf415dd80	-0.41411923252550054

conv1.weight f8 [5, 28, 6]
0	0xbfd855a65ffd3209	-0.38022765516214513
1	0xbfd0108fd5948a6b	-0.2510108552689078
2	0xbfa6db77a2172095	-0.04464315274850709
3	0x3fcedbc1df8e656f	0.2410814611037426
4	0xbfa72be9f9bba5bc	-0.045256911978707376
5	0x3fd25980e890bf73	0.2867128630778019
6	0xbfd2668a1a533e04	-0.2875085122186365
7	0xbfd118436165bb81	-0.26710590850319
8	0x3fc17a062bd11ae9	0.13653638019078265
9	0x3fbf555a2b4d4718	0.12239612157034363
10	0x3fb88d5758880ee3	0.09590669547474877
11	0x3ff21f83581ff882	1.132693619001231
12	0xbfd109f54a04df55	-0.26623279789372606
13	0xbfd1c6d095db97b6	-0.27775969156789004
14	0xbfbc304105b2a321	-0.11011129750353323
15	0xbfdc2f12e020dcf8	-0.440373152613986
16	0x3fd4040f83ad9e37	0.3127478395385625
17	0x3fea61886d80bac8	0.8244058741309681
18	0xbfd6c352f3d7ad6d	-0.35567163288825193
19	0xbfcdee325151fb45	-0.23383168192591533
20	0xbfc0ab91ad64ac99	-0.1302358719488879
21	0xbfe3b0ed874296f6	-0.6153476373480931
22	0x3fcba2299a732409	0.21588630715839965
23	0x3fe30f8830c62e9a	0.5956459953899469
24	0xbfd365ef13a8e3c6	-0.3030965511312015
25	0xbfd127a1c8a4bf7e	-0.26804394334885007
26	0xbfa41c5f0cf533b0	-0.03927895577599061
27	0xbfe7123fee89fab0	-0.7209777506794435
28	0x3fca775dffd07ba7	0.20676779738365988
29	0x3fd6c565ef49a75d	0.3557982289117854
30	0xbfcd2e8c22c63c80	-0.22798301408736066
31	0xbfd7ff3d018897b2	-0.3749535098053186
32	0xbfb730c675873e5c	-0.09058800095885416
33	0xbfed03a06557f874	-0.9066926936500423
34	0x3fd3143aaaa6d983	0.2981096903344211
35	0x3f8bf4a1a36156e1	0.013650191114872924
36	0xbfd2b15117bb550e	-0.2920725566630872
37	0xbfd437d82844b95e	-0.3159084695097557
38	0xbfc5cf852e586c2c	-0.17039551508864414
39	0xbff143d800bd7044	-1.0790634182840373
40	0x3fd435e2fae4302e	0.31578897954091445
41	0xbfc642a90fc08098	-0.17390931386126307
42	0xbfd104d0380ff162	-0.26591878390151724
43	0xbfd89d5030142453	-0.3846016377943375
44	0xbfc5f3f5687343b6	-0.17150752639875372
45	0xbfe889aef5093c2a	-0.7668070588932825
46	0x3fc8d2437d0cdd31	0.19391673665971035
47	0xbfbfcc2bd4edaed9	-0.12420915554474322
48	0xbfd185913fdf3676	-0.27377730596058514
49	0xbfd6fc65f730fd24	-0.3591551698663855
50	0xbfc40cbdbe819984	-0.1566388302046101
51	0xbfde51ab2325fc1f	-0.47373464996775455
52	0x3fc385bdbc9f4de9	0.152518956280445
53	0x3fc0f7780206eced	0.13255214785554106
54	0xbfda1e49c5b184f6	-0.40809864336013335
55	0xbfd86e9df21e9b5b	-0.3817515243958291
56	0xbfc0bb08ef3d541a	-0.130707852188295
57	0xbfe49d992a676cbc	-0.6442380741313154
58	0x3fc2c34ea2f42753	0.14658530194020133
59	0x3fe1717ee2c470c2	0.5451044491815298
60	0xbfd9639ff862a758	-0.3967056203497257
61	0xbfd2f2374283b3e2	-0.296033682780772
62	0xbfc3531a6dfdcc9f	-0.15097360964464188
63	0xbfe69a3d19a6c2c4	-0.7063279629711237
64	0xbf67686bd087653f	-0.002857409072231448
65	0x3fecc94d84390f8b	0.8995730955580127
66	0xbfd9046dc21f5eed	-0.39089530904082787
67	0xbfd1cd919368a77f	-0.27817191501036825
68	0xbfc039909634d583	-0.12675673803611795
69	0xbfe0ce43b88c9df2	-0.5251787762144302
70	0x3fb28f46f83b3840	0.07249873695693143
71	0x3ff51d882841fa5a	1.3197099278037485
72	0xbfdbe4b8cd2a4ec3	-0.43583507571859686
73	0xbfdb376614bcbbe3	-0.4252562716018799
74	0xbfc6e192f998e5bc	-0.1787589758621787
75	0xbfe7ad0b7d76e115	-0.7398736429668441
76	0xbf8d7f9c662ceaa7	-0.014403554790637442
77	0x3ffe20484f0a55b7	1.8828814589991063
78	0xbfda00bfdd03b7f3	-0.4062957437844254
79	0xbfd261e8f4a63c19	-0.2872259511140683
80	0xbfb2f9b024bd6d84	-0.07412243744822972
81	0xbfdfc14e0d00c0f6	-0.49617339391535553
82	0xbf825d0b544570be	-0.008966530331854346
83	0x3ffa0cd0da94a986	1.6281288660344173
84	0xbfd37b6df755f144	-0.3044085421932048
85	0xbfd6ffa11fcfdd10	-0.35935237986218826
86	0xbfb2309c136f7093	-0.07105422472472105
87	0xbfde2f16972305f7	-0.471624038309613
88	0x3fbb153857f3c9d1	0.10579254290841013
89	0x3ff371ad727a324d	1.2152533027430252
90	0xbfd7d06fcf97513a	-0.3720969702965423
91	0xbfd4904b4bb470c6	-0.3213070143990645
92	0x3f8e7e060d9b7907	0.01488880852724296
93	0xbfdb66811f145569	-0.42813137087917724
94	0x3fcb1343b4c85df8	0.2115254051902722
95	0x3fe6838e34b5da11	0.7035590199946588
96	0xbfdae9fea711357d	-0.4205319053188175
97	0xbfd6ec3547e12bb2	-0.35816700000276136
98	0x3faeab628b2e5b5c	0.05990131329524814
99	0xbfd0be5b555f8028	-0.2616184552880463
100	0x3fd78290b7a3f079	0.36734407361632965
101	0x3fbfe2771579708c	0.1245493342807455
102	0xbfd8ca61f6ccbd6d	-0.3873524580148658
103	0xbfda357987920b17	-0.40951383818917136
104	0x3fc3eb4424032987	0.15561725386062283
105	0xbfce47ce848df186	-0.23656636688600602
106	0x3fdb4bd011865639	0.42650224410440135
107	0x3fb261e616c8de98	0.07180631691232475
108	0xbfd98efc0db9a562	-0.3993520864520034
109	0xbfd7cb77b4bb7f88	-0.3717936768498409
110	0x3fb9791987e08542	0.09950408522901902
111	0xbfd9f64d17166db8	-0.40565802817010477
112	0x3fdc8806ec64650a	0.44580243191883595
113	0x3f9f1f1a449b63f6	0.03039208453887806
114	0xbfd2734f8a94ba6a	-0.2882880071000843
115	0xbfd458aa1a2ebcb4	-0.31791164929286286
116	0x3fc7d998d2fd3b6d	0.18632803251463362
117	0xbfd60531b72e273b	-0.34406702889156165
118	0x3fdc6bb709954ef2	0.4440744012438095
119	0x3f81b36edf532333	0.00864302271874493
120	0xbfd41695274ba57c	-0.31387833440256663
121	0xbfd2ec59b7c24034	-0.29567568726725146
122	0x3fd02558b35d9917	0.25227944866345936
123	0xbfd56cdf8d0126d6	-0.33477009553881254
124	0x3fdcb1dab8c54cd3	0.44835536998762143
125	0x3fce7df4e929800f	0.2382188929068438
126	0xbfd16b8d33608b60	-0.27218942658708123
127	0xbfd2708a0f9a6930	-0.2881188537954982
128	0x3fc9ead319a4e368	0.20247877838280748
129	0xbfd20ed710632ed2	-0.2821557674439933
130	0x3fdaaf0bdae022d1	0.4169339787918434
131	0x3fc071255bc33e88	0.12845293980216277
132	0xbfd50f4e9af8415a	-0.32905926831974386
133	0xbfd73659b51cb7ce	-0.3626922863649015
134	0x3fd14617cbf3f171	0.2699031345107619
135	0xbfc48729d6aa1eee	-0.16037486058871003
136	0x3fdfd241137c113b	0.49720789816662475
137	0xbfbd29ed7d71e4d6	-0.11392101585979061
138	0xbfd20f2c9e07d53b	-0.2821761649386933
139	0xbfd41e8f04d8413d	-0.31436515305633234
140	0x3fdb1b949e70ad47	0.42355838272733987
141	0xbfc571218fc5c6e4	-0.16751498718399838
142	0x3fdf0a8a79122757	0.4850183660824902
143	0xbfc0eb385e36e033	-0.1321783504515693
144	0xbfd8e3beca4007a6	-0.3889004683588787
145	0xbfd3e4c8d25cfa88	-0.3108388952568153
146	0x3fd3c2d8fe5b11e9	0.3087675556128305
147	0xbfceb1350e526209	-0.23978293608958293
148	0x3fe06a8657a9c62c	0.5130035125895964
149	0x3f7aa649f4e02cb3	0.006506241696125392
150	0xbfd94519110ca2f4	-0.39484240212418276
151	0xbfd396f3689aa4bb	-0.30608830657235914
152	0x3fe6aa2460442701	0.7082692985725033
153	0xbfcec10d6949307e	-0.2402664913264551
154	0x3ff15ad2c3b72357	1.0846736569530628
155	0x3fd64cc0f02e4b80	0.34843467192802535
156	0xbfdad4b13f0b082d	-0.41923171192695713
157	0xbfd9e5bc74321dea	-0.4046469816898638
158	0x3fc92037ac521899	0.19629569925399862
159	0xbfbaae0927828005	-0.10421807493776221
160	0x3fdc385d770955fc	0.44094025253920655
161	0xbfffe2812aa5ee32	-1.9927989641136148
162	0xbfcf77672fd7140d	-0.24583139263100443
163	0xbfd5a1fe511b34e1	-0.3380122940114472
164	0x3ff8c2d435d2a6e8	1.5475656607108537
165	0xbfd180338274ef6b	-0.27344978084487676
166	0x40017ca353544b85	2.1858583936786453
167	0x400136bd4dd87604	2.1517282563861517
168	0xbfc19c4c24a082b9	-0.13758231914927935
169	0x3fb6a182fa30a1b5	0.08840197189477446
170	0x3fbecce1455e9f2e	0.1203137201651969
171	0xbfc0f41843c768e0	-0.13244918164747954
172	0xbfd882b265a1a7e9	-0.38297710347126085
173	0xbfced4f303044ef2	-0.2408736958246816
174	0xbfd16fbbfea6ee0d	-0.27244472378126333
175	0x3fb4959dd02e64ee	0.08040796597051145
176	0x3fb3d47ec1da9649	0.07746116860160969
177	0xbfd75af49e240c11	-0.3649264854759063
178	0xbfef7563f20bc467	-0.9830798842869058
179	0xbfe5ccb0f9f27a1c	-0.6812367326527382
180	0xbfcd637f2249203a	-0.22959889577964693
181	0x3fa0ada39d29a5d7	0.0325747613286002
182	0xbfc25999a7d3ad5b	-0.14335938162489978
183	0xbfdbdfcf02e5f604	-0.4355351951888624
184	0xbfee73088abb8429	-0.9515421590441565
185	0xbfe5295dea1ed623	-0.6612996647515427
186	0x3fa903b99abbf1b2	0.04885654462666213
187	0xbfb52c1d9688b872	-0.0827044003023916
188	0xbfcc55e1881b7dec	-0.22137087961071644
189	0xbfde68ef474b9662	-0.47515470468929355
190	0xbfe7301f40b22140	-0.7246242774572593
191	0xbfd1ae28806a5706	-0.27625477352681604
192	0x3f761a503a9811eb	0.005396188158105701
193	0xbfbc5ba42835e2fe	-0.11077333432866607
194	0xbfc012923129ae29	-0.12556674385574354
195	0xbfe0197865cf7c25	-0.5031091679082961
196	0xbfe86e5167ea0515	-0.7634665517399833
197	0xbfdc52cfc2a28268	-0.44255441672615925
198	0x3fb2835671c48d31	0.07231655385526349
199	0xbfc789b2510067c2	-0.18388966517596655
200	0xbfc7c0aa6ccfffae	-0.18556719124899018
201	0xbfe1d19754f6fd07	-0.5568348559826583
202	0xbfe4b417746fb91e	-0.6469838403843686
203	0xbfe5fe955ad9e619	-0.6873270773350583
204	0x3fbad66293702006	0.10483375644264478
205	0xbfc004112b33f417	-0.12512411698836054
206	0xbfc6569ee5bb203f	-0.17451845376331396
207	0xbfe58d783173523c	-0.673519226630169
208	0xbfe1391e04b5d444	-0.538222321700808
209	0xbfe6e8650f0873d5	-0.7158685010541556
210	0x3fc09ae42e9e07a1	0.12972690845714133
211	0xbfc96ef6dc9d038a	-0.19869886181006918
212	0xbfc4844d066c21e5	-0.16028750241845482
213	0xbfdeea7e20d96764	-0.48306229789669985
214	0xbfe21d37472f5a0b	-0.566066397698536
215	0xbfe1ca4b74d10d0e	-0.5559441834997487
216	0xbfb2cc03cca993b8	-0.07342551943436504
217	0xbfcd94e7a11b8125	-0.23110671392988383
218	0xbfcd2318f2543f63	-0.22763358910060125
219	0xbfd027f3decb8276	-0.2524385143024469
220	0xbfe2b925be27f00a	-0.5851010049805165
221	0xbfceda1d7686006a	-0.2410313442924264
222	0xbfbc3e4dda6894d9	-0.11032568533171928
223	0xbfd3aa6205cb7fb2	-0.3072743469801892
224	0xbfd594efaa7f4359	-0.33721534395322333
225	0xbfdb74da6fe7c1e1	-0.4290071575951782
226	0xbfe8cc821e9402db	-0.7749643895368438
227	0x3fd8dbdb227c662e	0.3884189450051022
228	0xbfa89031495e4db2	-0.047975101667499756
229	0xbfd4cfd2d6d4d624	-0.3251845453226869
230	0xbfd7b5cb9d5f3c3e	-0.3704709088169159
231	0xbfe3172d0cebc834	-0.5965790989269011
232	0xbfef16cb9d3b61e8	-0.9715326376854678
233	0x3ff192c65495028e	1.098333673857414
234	0xbfbfcafa6bba4387	-0.12419095163410364
235	0xbfd2686842a8d078	-0.28762251386365945
236	0xbfd09c865e903ddf	-0.2595535205336698
237	0xbfe09ad636e26319	-0.5189009735068765
238	0xbff1ee7a012ffed7	-1.1207218214403178
239	0x3ff6f829a6ff78b6	1.4355865977627622
240	0xbf7af041ce9d3d7a	-0.006576783236439504
241	0xbfd760a999f392e2	-0.36527481111833826
242	0xbfd53793e2c8bc6c	-0.3315171923340532
243	0xbfe68afb05df2463	-0.7044654001885075
244	0xbff4d2edc97dfd65	-1.3014963026797315
245	0x4001b71fcd37eba7	2.214416125554141
246	0xbfc172feaab8176e	-0.13632186256307527
247	0xbfd4bef700c86eb9	-0.3241555698057073
248	0xbfd328eb8f5e1899	-0.2993725681375366
249	0xbfe3f36b95b23db8	-0.6234643863444296
250	0xbff6820cfcc2aaf2	-1.4067506669477408
251	0x3fff1646aeab8ae7	1.9429385016489336
252	0xbfc8a1bd86068d40	-0.19243592304438017
253	0xbfd54774861be390	-0.33248627754761007
254	0xbfd5ed70dabe9ebd	-0.3426172386339024
255	0xbfd81dc020ccf20f	-0.3768158264463474

conv1.bias f8 [5]
0	0x3fa2cff70b242a21	0.03674289713861279
1	0xbfb2fb5427504906	-0.07414747199826274
2	0xbf9838b794932ab6	-0.023653858607569155
3	0x3fadb40e205bcbac	0.05801433701517253
4	0x3f7698f1734a96d1	0.0055169517187658315

batch1.weight f8 [5]
0	0x4000ab3c70f5326c	2.0836113762691664
1	0x3ffa446389e34034	1.6416964899290294
2	0x3fef02ab89be2ce8	0.9690759363451464
3	0x3ff9aa5731f270fb	1.6040870619827376
4	0x4000a2d89296352e	2.079514641961075

batch1.bias f8 [5]
0	0xbfe0e276972339e2	-0.5276444389253891
1	0xbfce9bb97cdc858e	-0.23912733647106815
2	0x3fd538154e442c77	0.3315480484313364
3	0xbfdd0f63093c7c80	-0.4540641393850322
4	0x3fe0d45f6365925a	0.5259243909209304

batch1.running_mean f8 [5]
0	0x4016e045aac0bb77	5.7190157585272265
1	0xc015acca058ed1ad	-5.418739401666625
2	0xc03b8b7dc2978855	-27.54488769721532
3	0x4031fd3ba4b0920e	17.98919133482746
4	0xc03e11a2bcd15860	-30.068889428243324

batch1.running_var f8 [5]
0	0x407b79515c173726	439.5823632151463
1	0x4067b3d488157a6b	189.61969379610977
2	0x408346fa6a540523	616.8722731174533
3	0x406acc1dcbd15cc6	214.37863722697347
4	0x4084c5b9b7b1f09f	664.7156824018056
