PytorchLSTM/model.pt (torch, 30904 bytes, 26 tensors)

lstm.weight_ih_l0 f8 [40, 8]
000000 99 64 c7 b3 fe 6e f8 3f 96 76 9b b8 b1 98 d0 3f
       1.52709837175488 0.25931971576742663
000010 a7 9b 1f fd 99 f0 b0 bf 52 29 fe 3c 1f 2e fe bf
       -0.0661712878205508 -1.8862602598697618
000020 d4 e5 9f dc 7d 2a f6 3f e9 11 a1 43 f9 6b e4 3f
       1.3853739374302352 0.6381803818590558
000030 4a 15 d7 17 95 18 dc bf 43 1e 03 38 73 f7 e8 bf
       -0.43900039032117333 -0.7802063077915097
000040 32 4c e5 51 89 dd d6 3f b8 9b a9 e4 2f 35 ba 3f
       0.3572715091478954 0.10237407047826153
000050 a6 e2 42 dd c8 f8 cb 3f 96 5e c4 da 16 dc e4 bf
       0.21852980426571839 -0.651866366652899
000060 b9 9a aa c1 e9 03 03 40 63 cd 21 42 70 90 c1 3f
       2.3769106989087416 0.13722041348556066
000070 66 61 37 d5 2b 73 d1 bf 93 0b f5 20 66 4c e5 bf
       -0.2726544935408327 -0.6655760425277201
000080 30 20 0d 5f 7c 69 f9 3f 63 66 ee 51 ec 54 e7 bf
       1.5882533753338173 -0.7291165924281809
000090 31 3e e0 ca cb 2d a6 3f 66 15 0b af a4 df 6d bf
       0.04331814624321984 -0.0036466804961913677
0000a0 f3 8e 4a 28 57 c5 f2 bf ea a7 77 df 9f af cb bf
       -1.1731788228871067 -0.21629713450903348
0000b0 d4 02 2a ff e1 3d ea 3f 71 82 95 73 0b f4 f9 bf
       0.8200540527032794 -1.622081233501515
0000c0 4d 95 61 de fb 15 ea 3f ba 2b 5b 9a 2e 3c e3 3f
       0.8151835769064434 0.6010964407699853
0000d0 6d 3b 83 c3 3f fd c0 3f 9e 68 35 de d7 b2 e3 bf
       0.13272854849352758 -0.615581449509836
0000e0 70 25 56 6f 4f dc a5 3f 16 14 aa 3c 59 af d7 3f
       0.042696459141619125 0.37007742809538635
0000f0 0f a9 2c 54 fb d6 d1 bf dd c5 0d c6 44 01 f7 bf
       -0.2787464448944243 -1.4378097282864168
000100 a8 1c c3 df df 1f fc 3f d2 2d 07 f0 c3 60 ca 3f
       1.7577818623265475 0.20607804508322985
000110 46 bf 00 b8 65 46 c4 3f b6 09 e0 42 b3 30 fa bf
       0.15839835629003057 -1.6368897068319774
000120 ca b2 3b 7b da 35 07 40 5d f6 e1 31 a9 db c6 bf
       2.9012956264108185 -0.1785785192077353
000130 e0 ce 3f a1 ef e0 ec bf d2 a0 03 f4 cd e5 d0 bf
       -0.9024580144309446 -0.26402615384587336
000140 95 27 32 93 0a 68 f1 3f bb a6 68 52 7c a4 f0 bf
       1.0879007100906837 -1.0401576251119156
000150 02 35 8a ac 92 a8 c9 bf e3 e0 8e 77 e2 c1 d9 3f
       -0.200456938026413 0.40245877910230216
000160 8a 05 7f 8a f7 26 03 c0 9e 18 90 d9 62 a3 d9 bf
       -2.3940268344892432 -0.4005972981107194
000170 1a bd 4e 43 74 0b f0 3f 65 10 cb c8 c6 a7 e7 bf
       1.0027964238359517 -0.7392305299513394
000180 5b 5d e2 32 4f bd ea 3f 30 21 20 aa ea 1c cc bf
       0.8356090539772753 -0.2196324663821172
000190 6f 4a ab 55 94 75 c1 3f eb 33 cd 47 59 bf d1 bf
       0.136400739508264 -0.2773040009677163
0001a0 7e 52 ac 0e bd 1d f0 bf d1 e3 8c 78 e1 c0 91 bf
       -1.0072603772324835 -0.01733734415322258
0001b0 7a e5 e6 be 48 83 e9 3f 0b 9b 63 3e 66 df d6 3f
       0.7972758987954613 0.3573852166431812
0001c0 96 b6 f6 a9 5e 3a f2 3f 85 a3 89 e1 62 07 e4 3f
       1.1392504347999526 0.6259016423256162
0001d0 dc ba 9f d3 c9 0f c7 3f 5c 49 24 b2 7e 48 ef bf
       0.18016932328415336 -0.9775994757967896
0001e0 da 03 f2 f7 82 19 e0 3f a1 f0 55 f2 65 61 d1 bf
       0.5031142084773095 -0.27156971612545006
0001f0 a4 ae 29 5f 54 e1 c4 3f 2b 69 ad 2b e4 3f da bf
       0.16312651297208902 -0.4101496149575207
000200 57 28 90 5c 50 7d f3 3f 34 09 f0 d0 f6 e3 da bf
       1.2180942168947888 -0.4201638260275502
000210 a1 bb 1e f0 01 da ce bf 41 f7 cc 85 dc d9 c3 3f
       -0.24102806305515137 0.15508610280260807
000220 63 13 46 71 6d c9 ca bf f8 7f 4d 28 54 fd e2 3f
       -0.2092720797628785 0.5934239184534809
000230 7f 5e 4a d7 da f1 dd 3f f8 9c ba 1e 10 a2 f1 3f
       0.467886648411401 1.1020661545133503
000240 f8 db f8 c6 67 c0 00 40 e6 cb d1 89 c5 11 f6 bf
       2.0939479393668954 -1.3793387778830435
000250 49 ed 0e d3 93 e5 e9 bf 14 a1 5e 7a 42 2f d8 3f
       -0.8092745897514898 0.37788450193558387
000260 25 e5 68 20 ac 26 05 c0 0c 34 60 b5 11 07 b5 bf
       -2.643882992936272 -0.08213911703224158
000270 21 9f d9 74 85 e8 e6 3f 71 42 e3 28 86 13 e4 bf
       0.7158839494922838 -0.627383308276036
000280 57 68 f4 d4 a9 a5 d2 bf fe d7 09 03 ef 7e f1 3f
       -0.29136129185065357 1.093489658230737
000290 2b 11 74 0d fa 89 e1 bf 06 17 93 cf 1c 85 cb bf
       -0.5480928671609367 -0.21499977241017393
0002a0 db d7 e4 ae ec fb f1 3f a4 42 1b 2f df b5 e4 3f
       1.1240050155442904 0.6472011489914462
0002b0 02 e7 d7 70 83 d7 cd bf 26 a0 eb 84 ab ed fa bf
       -0.23313944826059446 -1.6830249016002283
0002c0 78 ee 10 4e 9d e9 fc 3f 65 91 ac 0a dc b7 51 bf
       1.807034783311705 -0.0010814331860241274
0002d0 e8 b8 93 c7 4a d9 ce 3f 84 8a 09 93 3b 1f ec bf
       0.2410062288758532 -0.8788125869580914
0002e0 eb ae ea f2 00 33 ef 3f 2f 56 cf c9 f7 d4 d5 bf
       0.9749760384051717 -0.34112353046416194
0002f0 02 36 01 a7 79 ba d8 bf 88 57 97 d3 50 d9 ed bf
       -0.3863815432458467 -0.9327777989044401
000300 a0 dc 0c ff 0f 26 d0 bf 86 80 39 11 e7 1a e2 bf
       -0.25232314975023407 -0.5657840095918949
000310 4f 3d 68 51 93 58 8a bf 10 31 3a 51 c8 51 e1 3f
       -0.012864256784296172 0.5412332140417977
000320 64 9d 7d 61 b7 9c e7 bf fd d3 02 d0 b6 41 dd 3f
       -0.7378804115404987 0.4571358710630305
000330 5b 56 58 89 86 3a e4 3f 6f 74 4a d2 9d 85 c3 bf
       0.6321442301293233 -0.15251515167338733
000340 c5 3c 9d 91 1d 9e c6 3f 55 65 c7 f0 50 9b ec 3f
       0.17670030222004676 0.8939594938957877
000350 c9 6c 37 d6 c2 42 db bf 64 c6 74 71 24 b7 c3 3f
       -0.42594977302151144 0.15402656116343671
000360 51 75 a6 42 d8 e5 f1 3f 86 27 09 6f 70 70 c0 3f
       1.11861444506879 0.12843137189548431
000370 31 5b a6 c4 20 7e e3 bf 71 69 08 7b 03 25 f9 bf
       -0.6091464844529125 -1.571536522481065
000380 09 98 98 e5 5c 14 cb bf 1b ae 2f 0b da 80 d9 3f
       -0.21155892573114013 0.39848948566825165
000390 3e d9 23 29 ed 64 da 3f 6c 95 77 9a eb 40 e4 bf
       0.4124100591428891 -0.6329248444496165
0003a0 2b 54 8c 56 e3 09 fe 3f b3 fb a6 69 80 2c 93 3f
       1.8774140721118424 0.018724447678092292
0003b0 52 15 4e 7e 67 6b f7 bf a5 ae 8e 9e 09 7d ec bf
       -1.4637217458524288 -0.8902633759330071
0003c0 5a 6b 85 40 32 0d a7 3f 2c 0c af ac 7d 35 e8 bf
       0.045022554756278324 -0.7565296528558796
0003d0 eb 7a cd a2 a2 91 cf bf ee 7f d8 5f 0f bb e2 3f
       -0.24663193654392698 0.585334479521405
0003e0 66 21 8d 20 54 b3 f6 bf 25 b9 94 ec 59 e6 d9 bf
       -1.4187814017805862 -0.4046845255242196
0003f0 c0 cd e6 d4 1d b3 d0 bf 42 70 d4 f3 74 ba f6 bf
       -0.2609324053875888 -1.4205216908076328
000400 4a 66 fa 73 b9 63 d4 3f 45 6e 8c 1e f4 27 d9 bf
       0.3185866959189282 -0.3930635736776121
000410 96 b2 1a 4d 43 af ca 3f 6c 01 79 a4 c1 4f d4 3f
       0.20847359909875668 0.3173679453066345
000420 09 0f 07 ee ef 84 ec bf 71 55 4d 5a c2 12 d5 3f
       -0.8912276886917151 0.329269970117216
000430 98 14 10 da c5 74 bc 3f 5e 87 a4 55 62 f0 b4 3f
       0.11115681241797615 0.08179297057043075
000440 ac d9 ef 00 06 bf d5 3f da f1 76 95 f3 bc e5 bf
       0.33978414622779485 -0.6793153685790074
000450 3a cd 53 7a 45 80 e2 3f 42 c6 9e de 9e e7 ff 3f
       0.5781581296163616 1.9940479942419107
000460 4b b1 ca 66 f7 90 d7 bf 84 41 9f 43 88 f4 de bf
       -0.3682230476213319 -0.48367506602974
000470 c6 e4 d6 b2 6d 84 ca 3f 04 b2 ae b8 50 b4 f5 bf
       0.20716639740365944 -1.3565222944408797
000480 fc 95 5b cd 76 14 af bf 38 e7 04 20 d3 e1 d6 bf
       -0.06070300347145616 -0.35753324629660055
000490 dc 0a a1 72 b9 11 d0 3f a6 f8 af 43 01 4a f1 3f
       0.2510818118500262 1.0805676120794856
0004a0 3b 50 eb ba a1 81 df bf da 86 ad 65 bc 4e d5 bf
       -0.4922870946295494 -0.3329306595752378
0004b0 55 3e 57 87 0a bc df 3f be c6 de 9b c2 89 e0 3f
       0.49585211960672854 0.5168164295521007
0004c0 0f 71 d2 82 ce 40 db 3f 64 e1 c2 7a ca 22 fa bf
       0.42583048606481183 -1.633493880783214
0004d0 a0 5b 21 0a b3 85 ad bf 47 cb a4 2d ec 89 df 3f
       -0.05766067026768629 0.4927931256999511
0004e0 9d f8 d0 5a 80 ce fd bf d8 95 48 4e d1 f3 b3 3f
       -1.8629153773795573 0.07793911133975173
0004f0 95 62 ca 65 96 ed e1 bf 1a 4b 9d a4 33 8b fc bf
       -0.5602523792359358 -1.7839847975016654
000500 fa c7 0c ec b8 f4 e3 bf 39 ea f1 4d c4 f8 da bf
       -0.6236233339643598 -0.42143352138342355
000510 16 f6 23 c0 9e af cc 3f 31 00 fd be 9e 3a ec 3f
       0.22410950071200436 0.8821557741393972
000520 6a fb be fb ca 18 fe bf 47 cc 92 78 ec 9e cf 3f
       -1.881052955038934 0.2470374668824624
000530 27 ae b8 d7 44 cc e6 3f 61 fc 94 64 6a 4c f0 3f
       0.7124351704891908 1.0186561516745984
000540 92 04 39 f0 a5 08 e2 3f 81 e6 a1 10 52 e5 e7 3f
       0.5635556880807988 0.7467432331897755
000550 9a 68 5c 45 7c 4a e6 bf ce 9d bb 7d 2d 5d f2 bf
       -0.6965924601274935 -1.147748461860704
000560 98 a6 9a d3 54 e7 f9 3f 85 61 8a ad 1d ee ed bf
       1.6189773813042958 -0.9353168858970525
000570 c8 63 f8 01 56 10 d7 bf 05 5f 67 ab 64 8d f2 3f
       -0.36037206833276203 1.1595198340855302
000580 2e 4a 42 6f ba 83 ea bf 83 26 0f f6 58 42 d3 3f
       -0.8285801098848589 0.30092453030793126
000590 87 b8 71 6e a0 e7 dc bf e6 1d 22 95 a1 70 ca 3f
       -0.45163737092560335 0.20656223089120757
0005a0 2b 5b 72 96 6e 05 d3 3f c8 3b a5 b6 da 3b b4 bf
       0.2972065419393625 -0.07903830489270469
0005b0 d1 10 a7 2d 25 de e6 3f cc b0 f4 32 d4 5a f0 3f
       0.7146173373844481 1.02217502503031
0005c0 fc f5 bb bc 07 aa f2 3f 90 1d 2c 07 fc 7c e5 3f
       1.1665112850599817 0.6715068950733656
0005d0 c6 21 d7 e9 0d 5f d2 bf 06 18 d0 b9 e6 bd c4 bf
       -0.2870516570660836 -0.16204532692808032
0005e0 57 e3 d2 9b e8 ac 00 40 5f 5e e8 89 67 f6 b5 bf
       2.084428040860455 -0.08579108349692309
0005f0 e4 3c 0c 21 ea 57 d5 bf 42 de 11 b9 ac f6 c2 bf
       -0.3334908793194258 -0.14815291439639294
000600 f3 38 30 23 0a fa d2 bf b6 3c 1e c7 47 11 f2 bf
       -0.2965112060200134 -1.1292188432742427
000610 78 45 be 19 b1 60 df 3f 7d ee f3 a0 44 d6 d4 bf
       0.4902765990637685 -0.3255778857999088
000620 21 ee 11 55 80 e7 e8 bf 54 33 ed 56 e6 8a b3 3f
       -0.778259435799047 0.07633819219809129
000630 77 26 17 ed a0 35 b6 3f d1 8f 66 2c ac c0 f2 bf
       0.08675580776539414 -1.1720391973876654
000640 b4 8e 08 c6 ba 81 e2 3f ee 72 a5 4d 3d a7 ab bf
       0.5783361308899289 -0.05401031086760165
000650 bc 01 62 75 06 dd b3 bf 8b d1 d8 8c 77 04 de 3f
       -0.0775913273410031 0.46902264360985474
000660 3e db 04 3c 4c 23 e5 bf 86 b7 15 87 90 36 b2 3f
       -0.6605588123555675 0.07114508913011094
000670 57 17 79 de 41 fb cc 3f ce b8 58 5d cd 26 e9 3f
       0.22641776431026514 0.7859865973639673
000680 85 e0 40 94 f1 42 db bf 2d 4e a8 e3 10 9f c5 3f
       -0.4259609172618258 0.16891680828176572
000690 aa 82 58 34 a3 d5 dd 3f 91 95 60 db c3 c4 d0 3f
       0.4661643992604164 0.2620095865589401
0006a0 86 00 d3 0d 33 58 a0 bf db 1f 8e 22 59 b5 c9 bf
       -0.03192290824654358 -0.20084680735840163
0006b0 8a f7 52 b4 33 cd e6 bf 99 60 2d 6c 35 d1 f7 bf
       -0.7125490686373592 -1.488576338355449
0006c0 33 c4 51 13 05 04 ec bf 82 21 66 c8 28 48 e5 bf
       -0.8754907014209777 -0.665058509258458
0006d0 b4 39 b8 34 ef c9 ab 3f a5 04 aa ac 8a 32 f4 3f
       0.05427501219320466 1.262339281529685
0006e0 ba 01 00 f9 4d a5 d0 bf 0d cb a0 8d c3 8e c2 3f
       -0.26008939091118644 0.14498180785593498
0006f0 1b 0c 69 f1 07 4d d8 3f 6c cb 6e c5 0e f2 e0 bf
       0.379701600792204 -0.5295480590924462
000700 ba 3f 69 90 ec a4 b2 3f 4e 94 44 a1 cc 99 d3 3f
       0.07282904172575302 0.3062621664888113
000710 a7 a5 24 89 15 b8 89 3f 8a 1e d6 94 7d 39 e7 bf
       0.012558143852021099 -0.7257678896866804
000720 bc 92 28 cb 55 b7 02 40 79 be 50 da 65 67 c8 bf
       2.3395191070324852 -0.1906554523461528
000730 11 18 7b 1e 30 45 83 3f ed b1 bd 4d 24 74 a8 bf
       0.009409309320641797 -0.04776109169947405
000740 16 75 f0 c5 96 ce e8 bf cb 90 29 c7 5f d6 be 3f
       -0.7752183786393825 0.12045858967173044
000750 60 ee 93 62 35 e7 e4 3f 13 6c 6f aa 31 69 d2 3f
       0.6532236981724502 0.28767053264681514
000760 05 df b4 a5 20 1a 98 3f 70 7b e6 73 15 0f f6 bf
       0.023537168611453847 -1.378682568297986
000770 01 9e 88 c9 3d 57 af bf e8 b0 63 2e 70 63 ee bf
       -0.0612124737274904 -0.9496384531062434
000780 3f 69 0e 3b 64 4e e3 3f d4 68 a7 12 dd 06 f5 3f
       0.6033192780917388 1.3141756752652798
000790 4f 9a b7 e9 ef c6 db 3f 0e de 84 ea 27 f6 f0 bf
       0.43401716064400814 -1.0600966606997448
0007a0 72 75 e6 43 cb 3e f1 3f 59 4e df 5a 8a 6c df bf
       1.077830567584297 -0.4909997832703304
0007b0 c3 8f eb 54 bb 58 dc bf b1 d4 d1 c2 be a8 f6 bf
       -0.44291575711235626 -1.4161975488798755
0007c0 34 20 82 fa c3 1b cd 3f 42 ee ed bc 0b e3 e2 3f
       0.22740983707285667 0.5902155580547019
0007d0 3c c9 b4 29 c7 62 a8 bf e4 39 ff 1e bd 57 e4 bf
       -0.047628616181457833 -0.6357102971467694
0007e0 dc c5 b0 42 be 6f fb 3f 05 df 11 34 5a 50 d7 bf
       1.714781055936661 -0.36427931866590796
0007f0 bd b8 c1 c0 36 28 e8 bf de 98 a8 21 5d 9a e4 bf
       -0.754908920743922 -0.6438432366747084

lstm.weight_hh_l0 f8 [40, 10]
000000 81 0c d5 87 03 9c f4 3f 81 01 52 19 d2 e2 b8 3f
       1.2880893045374082 0.09721100919887783
000010 87 99 e9 48 e6 b2 d3 3f 04 ac 83 82 32 07 d3 3f
       0.30779416199074955 0.2973142885736595
000020 6b 4c 6b 89 89 81 d2 bf 5a cf 91 e0 db a8 b4 bf
       -0.28915632648312933 -0.08070158226638338
000030 32 28 26 78 3c 39 cb 3f da 2c f6 1f b7 f5 c8 3f
       0.21268421045925973 0.19499863682390278
000040 f8 66 b6 ae 6c 91 e5 bf 57 21 ce 09 ce 51 cf bf
       -0.6740020191529927 -0.24468398550767276
000050 5e 7d b6 60 21 a4 b1 bf cc 01 89 9e f2 da bd 3f
       -0.06891068087724281 0.1166221272515095
000060 5f 5e d1 10 6d 9e be bf bc 3d 59 66 56 cf e2 3f
       -0.11960488949386548 0.5878097533222255
000070 d4 88 1d 7c 00 f2 d7 bf 04 e0 9b d7 6b d9 b7 bf
       -0.3741456234039451 -0.0931613351239094
000080 9b e4 77 53 60 04 c2 3f 66 3a d1 ee 63 bf df 3f
       0.1407585532722678 0.4960565406990213
000090 34 cf 89 16 0b d7 da bf e0 5d 1d 86 7f ac e7 3f
       -0.4193752021885644 0.7398069018772127
0000a0 a3 38 69 a7 cc 39 e2 bf da a2 2c f9 02 86 ba bf
       -0.5695555944200986 -0.10360735495909115
0000b0 1e c4 c6 da 83 bd bd bf 54 07 b5 d2 0d 62 d4 bf
       -0.11617302027913509 -0.3184847409903473
0000c0 2e f1 18 02 43 3c d7 3f 48 7c 4a 36 85 1c d8 3f
       0.3630530853731838 0.3767407446084161
0000d0 26 03 95 6a f7 67 e2 bf da 7a f7 a1 00 dc d9 bf
       -0.5751912194901692 -0.4040528852182611
0000e0 e0 59 ad 67 e0 f2 e7 bf 90 d2 74 36 ac b5 f1 bf
       -0.7483980202621829 -1.1068536879730893
0000f0 90 c0 fe ed c6 17 d2 bf e4 cc 41 23 16 55 e3 3f
       -0.2827012371226454 0.6041365326513213
000100 04 f0 2d 92 bc 53 de 3f 46 e8 fb 8f 5d 0d e0 3f
       0.47386087680183686 0.5016315281093362
000110 33 d0 c2 16 45 3a e3 bf 9d bb 61 26 74 19 dd 3f
       -0.6008630222845625 0.4546785712072337
000120 d4 5f 49 2d 86 2e da bf 45 ba df 52 e5 02 a9 bf
       -0.4090896074535497 -0.04885021816868521
000130 19 24 03 84 60 d7 d7 bf 26 62 56 b7 32 81 09 c0
       -0.3725205697233505 -3.1880850146519775
000140 97 f7 f7 39 ae 19 fa 3f d8 1b 6e 9b 7c 83 b9 3f
       1.6312696709059986 0.09966257853203275
000150 5a 14 e1 2d 18 44 60 bf df ca 67 15 11 1d b5 bf
       -0.0019855949640566308 -0.0824747731456159
000160 a2 e1 72 93 a9 aa c4 bf ee e1 2a fb 36 ca c4 bf
       -0.16145820331236133 -0.16242110504187174
000170 f0 4d 2a 8b 4d cd e0 3f e2 fc 7d 43 2d 6b e0 3f
       0.5250613897391627 0.5130831068235262
000180 f7 2a da e3 f6 97 bc 3f d4 9c dd 0e 7a e4 f4 3f
       0.11169379294203084 1.3057804661455537
000190 35 40 3f 60 0c 5e 97 bf c9 32 2f c1 6c 1c da 3f
       -0.022819703459220093 0.4079849134985066
0001a0 1b 66 1f fe 65 5e ad 3f fb 80 3a 2e c0 f9 bf bf
       0.057360827704268945 -0.1249046433317779
0001b0 5d 19 dc 84 ed e8 d4 bf 25 43 e7 3f 5f 61 f9 bf
       -0.3267167851885427 -1.5862724777436565
0001c0 9d 32 fa 4a 53 3f e7 3f 06 e0 41 e9 c9 09 a1 3f
       0.7264801468277998 0.033277806972307686
0001d0 0d a8 64 ce 40 1b ca bf 9d a0 99 97 71 10 f5 3f
       -0.20395670011322445 1.3165145799521618
0001e0 43 07 86 2d d2 0c c7 bf c5 1c 5b ff 4e b6 c2 bf
       -0.18007876608685977 -0.14618861645269568
0001f0 4f ab 16 09 a2 d3 c1 bf 62 d6 9a 9a f0 93 bd bf
       -0.1392710251214688 -0.11553863310367654
000200 60 d2 8c 03 cd bd ca bf e6 a4 8c 7d 04 ec e0 3f
       -0.2089172618231201 0.5288107349525972
000210 34 4a 5c 08 80 e2 d3 bf 49 2a a2 aa 16 c5 d1 bf
       -0.31069947067695414 -0.2776543299047814
000220 c1 d2 7e 25 65 b9 b6 bf 1c 9c f3 da 26 79 e9 bf
       -0.08876640477576371 -0.7960390354536488
000230 68 81 48 01 9d d8 cc bf 1a 19 1a 6a 2a 6a e1 3f
       -0.22536051333100748 0.5442096779159187
000240 d7 93 05 56 34 d6 c7 3f d3 7a 9b 1d d3 8a a9 3f
       0.18622450065882276 0.049887273182084656
000250 e0 48 7f a5 46 9f cc 3f 32 f6 87 b5 b0 71 e6 bf
       0.22361071663778542 -0.7013782067803673
000260 9a 5f eb 21 d7 75 ec 3f 5e b9 85 bf 73 85 d8 3f
       0.8893848097313708 0.38314527228694384
000270 a9 c1 c8 7a 05 56 ee 3f 4c b7 61 39 9e 51 de bf
       0.9480006597641949 -0.47373157123262355
000280 ff 74 09 de d6 70 f2 bf 4d eb 20 a2 ac 27 f0 3f
       -1.152548663455775 1.0096861203334868
000290 b7 69 2a 61 da ad da bf 08 af bb c9 b7 57 e6 3f
       -0.4168611477740813 0.6982077541447049
0002a0 a8 a0 ae 30 96 80 da bf e1 14 90 af 07 90 eb 3f
       -0.4140983081256402 0.8613317898713398
0002b0 a3 43 ea 7b 31 5e e3 bf e6 9b ca 4f 6d d1 ec bf
       -0.6052482052056017 -0.9005648191858853
0002c0 b3 b5 0e 14 90 f3 de 3f 0c 0a c1 68 11 6e de bf
       0.4836158939241059 -0.47546801786316517
0002d0 6f 3d 2a d8 97 75 ef bf 71 d9 15 bb df 4e f2 3f
       -0.9831046316120772 1.1442563350697947
0002e0 4c b8 cb 3b 53 16 fa bf 53 35 95 c6 e3 ab ee 3f
       -1.6304504714749042 0.9584826353617849
0002f0 48 b0 66 87 e9 92 e0 bf 06 25 33 01 04 68 7d bf
       -0.5179336208871144 -0.007179275172526594
000300 01 20 39 a9 8c 36 d3 3f 01 ac b9 bd f7 7e e7 bf
       0.3002044346399089 -0.7342489915439502
000310 fe e5 57 6c f9 2a e4 bf ea 2d 9a de ce f7 00 40
       -0.6302458873826138 2.1210000410844616
000320 e2 81 38 c2 38 d3 c1 3f 9c b8 e7 48 9e 07 cd bf
       0.13925847514566586 -0.226794992063735
000330 15 76 53 f6 ee 32 de 3f 48 f2 f7 99 68 6b e5 3f
       0.4718587308433098 0.6693614012907085
000340 c1 45 22 58 89 e6 d2 3f b0 a1 4d f8 08 fc e1 bf
       0.295320831363906 -0.5620159959481068
000350 d3 a7 5b 4f 1b ed eb 3f 53 9b 4c 11 99 65 f8 3f
       0.8726936864816203 1.52480417974012
000360 c0 49 ad a6 d0 5b d2 bf d2 03 d0 90 cd 87 d8 3f
       -0.2868539455131689 0.38328875676967045
000370 23 05 00 0c 71 4d b5 3f a2 ee 92 0f 85 95 9b bf
       0.08321291487665809 -0.026937560153540326
000380 65 e9 e0 5c e2 43 cf 3f 07 db 48 93 d9 a7 d7 3f
       0.2442591622837639 0.36961974509488055
000390 43 07 5e b4 56 62 a8 bf 93 fe 50 69 a0 2b c7 bf
       -0.04762526466130492 -0.1810188783874663
0003a0 40 08 56 c8 81 a3 db 3f 27 bf 7d 68 8e 9a c8 bf
       0.43185467304295244 -0.19221668340787199
0003b0 e0 12 6a ee 1e 38 6f bf a9 0c 75 ea d6 e0 c3 3f
       -0.003810940182406561 0.1552990574656168
0003c0 2d b2 e0 15 d1 b5 d2 bf 95 57 62 28 30 ad d4 bf
       -0.2923472131394956 -0.3230705637337164
0003d0 56 b9 32 9e 9f 3b c4 bf d5 17 95 f5 4e 86 d6 bf
       -0.15806956505316333 -0.3519475363030982
0003e0 75 12 58 ae 90 d5 da 3f 44 ad 7e 19 f4 f5 dc 3f
       0.41928498292717303 0.45251181115846273
0003f0 29 95 80 34 84 0a d1 bf 9d 81 95 60 d5 98 d7 bf
       -0.26626687171149627 -0.36870321685821655
000400 c9 c7 48 26 2d 7e e7 bf 07 81 eb e2 28 ba f9 bf
       -0.734152388357182 -1.6079491485652981
000410 61 c1 95 f6 cb d1 b2 bf 22 67 11 de ee 9e ab bf
       -0.07351374406949197 -0.05394693814078112
000420 44 f3 2f 4e d1 86 f5 bf 52 a9 ce 01 86 eb ca 3f
       -1.3454144529525403 0.210312605745751
000430 11 6a ea 38 06 2d e1 bf 43 cb ae 4b ce eb a0 bf
       -0.5367461310991662 -0.03304905580389186
000440 02 17 91 d1 84 c1 e4 3f e4 02 1b 24 4f 7a ab 3f
       0.6486229031658868 0.05366751971951603
000450 02 3f 69 60 b8 2e e7 bf 3e 82 e6 0d 59 5e e3 3f
       -0.72445315199181 0.605267073773639
000460 02 0d 23 b5 98 5f c3 bf 21 ba 89 c8 0d 67 cc 3f
       -0.15135487408233678 0.2218949536504207
000470 36 e5 d6 68 84 e8 b1 3f 38 94 0f 2a 19 a4 cf 3f
       0.06995418128544348 0.24719538263085084
000480 67 76 00 3d 16 e3 d1 bf 44 01 de bb 4d 69 d3 bf
       -0.2794852824898499 -0.30330222460181155
000490 1a 61 26 bc ce a6 dd 3f 48 4b e9 3b 82 85 d0 3f
       0.46330612539306204 0.258148725993284
0004a0 88 ca c3 8c 8b 15 cd 3f 6f b0 a6 c2 9d d8 b6 3f
       0.2272200047805948 0.08924280168747754
0004b0 c2 6e 5a 1e 35 32 ec 3f a6 e6 bf 74 1c fd ff 3f
       0.8811288445317234 1.9992947159320607
0004c0 ee ff b2 32 7b b9 e0 bf 43 af 94 ed 2d 48 c9 bf
       -0.5226417532176109 -0.19751524067521062
0004d0 06 1a e8 58 18 b1 ea bf 61 c3 b1 af 82 f3 c0 bf
       -0.8341180550058318 -0.13243135050609126
0004e0 1f e8 04 ac f4 9d dd 3f 29 61 7f 53 fc c4 98 bf
       0.46276585386988417 -0.024188940616881958
0004f0 cc 73 be 51 45 41 d0 bf 4a 28 f7 d6 b9 7b f0 bf
       -0.2539838121681981 -1.0302065274322723
000500 ff 3d 24 55 24 40 b2 bf 3f bc eb b0 a6 f3 d3 bf
       -0.07129122809077869 -0.31174628522325415
000510 d6 d0 ee ce cd b1 e2 bf 94 5f 77 fe 9f ef 63 3f
       -0.5842045823724458 0.0024335980303753033
000520 d8 31 39 e2 ba a3 c8 3f 1c 49 0d 84 7e c0 db 3f
       0.19249664350571893 0.4336239137238793
000530 ee f8 82 14 8d e7 a9 3f 97 c3 48 e3 de 1a d2 bf
       0.050594719652041195 -0.28289005466199896
000540 77 78 ef 70 e5 e6 7f 3f a4 c6 cf c6 37 ae e6 bf
       0.0077885592026786165 -0.7087668307342097
000550 6b 34 94 51 b2 2c d2 3f bc 11 f9 39 f7 0e e0 3f
       0.2839780613583744 0.5018268711360672
000560 da 5b 09 5c 36 d0 ea bf b9 33 78 88 c0 ec d7 bf
       -0.8379165456379909 -0.3738252003393501
000570 28 be 67 55 cd 32 b6 bf 04 97 51 9f ab db d0 bf
       -0.08671267829026219 -0.2634076171728881
000580 25 1f f8 3b 8a a6 f4 3f 94 96 0e 23 79 fd dc bf
       1.290659174208437 -0.45297077582868295
000590 d9 f9 a6 c1 2c 08 b8 bf 35 54 f8 29 0c bd f1 3f
       -0.0938747380050481 1.1086541785673607
0005a0 1c 08 4a c4 45 ac e2 bf 41 15 94 10 ae d6 e2 bf
       -0.5835293611310166 -0.5887060474202955
0005b0 df 90 1c 63 36 b5 f3 bf b7 2e 6d ec a9 bf e5 3f
       -1.231741320757514 0.6796464555458986
0005c0 15 24 05 bd 76 0a f2 3f 74 00 24 18 2f 5c c3 3f
       1.127554643974013 0.15125073126546662
0005d0 3a be 14 54 4e 0b bc 3f fa 47 cc 97 d9 36 d9 bf
       0.10954751541861976 -0.39397277664204433
0005e0 f5 27 a9 cf 19 3b d6 bf e3 1a c9 ca 12 5d d3 bf
       -0.3473572280823867 -0.3025557499244497
0005f0 fd a9 a7 47 5e d6 99 bf 5b de 36 5a f3 56 c8 3f
       -0.02523181259486228 0.19015352158543206
000600 ab 79 e2 8b 1c 47 dd bf 1f 0d 2d 8a 44 b7 c7 3f
       -0.45746530209171493 0.18528038737176986
000610 13 45 d1 65 20 6c e8 bf 06 24 53 39 84 c6 d2 3f
       -0.7631990421888609 0.2933664855777923
000620 85 c6 fd a4 93 50 ef 3f 1a 0b 75 c5 64 ab cd bf
       0.9785860273825199 -0.23179301873650432
000630 25 bf 2b fe 46 25 ad bf 6f 0a c7 e5 6e 3a d5 bf
       -0.05692502834960881 -0.3316914791031768
000640 20 6f a2 06 3d 47 fa bf b5 00 5f 15 74 82 d9 3f
       -1.6423921832237696 0.3985872467710679
000650 5b b1 c9 43 9b 13 d0 bf 1d 0b a4 fb f6 7b c0 3f
       -0.25119668598087735 0.12878310477398083
000660 e3 16 e6 ef 9c 1f c5 bf e3 d4 28 fb be ed b4 3f
       -0.16502725328262277 0.0817527163679475
000670 16 03 37 11 20 b2 c2 bf fb c9 7f 8c 24 41 eb bf
       -0.14606095161982385 -0.8517019981503035
000680 15 45 b6 6d 66 65 e1 3f 73 78 ca 21 96 b0 93 bf
       0.5436279433071457 -0.01922831135981835
000690 f2 00 f7 20 75 89 e5 bf 88 92 c8 82 d8 8f be 3f
       -0.6730294841618429 0.11938241188961218
0006a0 77 2c e7 67 10 44 d6 3f dc db 7d 68 76 4b dc 3f
       0.3479043020894958 0.4421058674265035
0006b0 91 76 1d 33 c6 b8 d7 bf bd bd e4 45 85 53 c7 bf
       -0.37065272323329973 -0.18223634636659183
0006c0 47 bd c4 e0 32 8a c3 bf e7 23 99 3c 68 87 de bf
       -0.15265499091172272 -0.477014598062452
0006d0 5c 83 aa 2f b9 a0 ef 3f f1 9f 83 59 2c da c2 bf
       0.9883695536592358 -0.14728311892326887
0006e0 3c 21 98 96 1a 34 cc bf d8 65 d1 40 8e e9 e3 bf
       -0.22034008362994395 -0.6222602144218241
0006f0 a9 bf b4 6e 7c 0b e7 bf 48 10 0d 3d 5b d0 db bf
       -0.7201521074512033 -0.4345920654489004
000700 51 0a 9b 91 61 f5 ee 3f a1 5b 1f a1 7f d4 f0 3f
       0.967453750978459 1.0518795293662395
000710 9a 09 7b 6e 53 c6 f1 bf cf 29 75 d8 2b 5e e1 bf
       -1.110919410290626 -0.5427455165566303
000720 c2 ae 81 c7 a2 f7 ea bf 8f f8 cb 02 36 72 ec bf
       -0.842728986417079 -0.8889417700409171
000730 cd b5 fa d4 6e b9 f1 3f a3 98 03 42 17 9b da bf
       1.107771713209661 -0.4157159943264423
000740 3b 44 54 c8 19 78 d4 3f a8 d8 56 4d 2e 33 00 c0
       0.3198303657855523 -2.0249906580093757
000750 f0 a0 62 b7 80 5a 7f 3f 6e 91 40 34 cc e7 b9 3f
       0.007654669569241643 0.10119320178688948
000760 a0 6d b9 a1 d7 1c c3 bf a5 0e 41 d6 12 8b c1 bf
       -0.14931769749351265 -0.13705668889644076
000770 ef c0 7d be fe fa b4 bf 75 39 b9 5f 80 14 e3 bf
       -0.08195488119759252 -0.5962526197052244
000780 de ed 00 48 81 d4 de 3f e3 23 ac 78 2e f9 d5 3f
       0.48172027618030977 0.34333383354583996
000790 15 03 76 5a 28 8b a7 3f 66 13 61 c0 64 5f ea bf
       0.045983563463783884 -0.8241447217375082
0007a0 f2 f7 95 b5 0a a0 e6 bf 20 61 d7 54 f2 05 ef bf
       -0.7070363566015188 -0.969475904184069
0007b0 80 9d a3 7f 8f 18 fb 3f bc 53 73 71 fe 96 ef 3f
       1.693496225920029 0.9871818748312005
0007c0 fe c4 f0 54 94 1c f0 bf f0 e5 9d c2 a0 64 f1 3f
       -1.0069773977268706 1.087067375394664
0007d0 63 e7 af 0b 8a c4 cf bf 23 d1 08 69 08 75 ef 3f
       -0.24818540163669942 0.983036236901658
0007e0 2c f0 fb be 74 68 b4 3f c3 00 ae cf 4e 23 a0 3f
       0.07971887266825267 0.031519377566839
0007f0 b4 18 b9 e1 f1 c8 c3 bf 2a d5 b3 95 d7 81 be 3f
       -0.15456985017425995 0.11916873364301198

lstm.bias_ih_l0 f8 [40]
000000 8f aa ee 34 d2 03 e8 bf ee 12 a4 ef 99 b3 e1 bf
       -0.7504664453347959 -0.5531739883886908
000010 58 03 02 83 59 79 de bf 3c a2 a4 67 9a d8 b5 3f
       -0.4761565951703708 0.08533635168408521
000020 60 5c fc 8f e7 62 ed bf d5 84 7b 71 5d f9 f2 bf
       -0.918323308202968 -1.1858801300916657
000030 75 73 f7 04 5e e9 b0 3f f8 35 55 7a b4 c6 d5 bf
       0.06606090184454934 -0.3402529902130875
000040 2d b4 d7 ec 8c f6 ea 3f f9 e5 5b 77 f4 7b ec bf
       0.8425964952308554 -0.8901312190275227
000050 82 81 0d db f4 ec fd bf e5 52 99 10 15 d1 de bf
       -1.870350700068315 -0.4815113699053611
000060 b4 92 de f3 f6 0a de bf 7c aa 21 5e 92 aa f7 bf
       -0.4694192296540607 -1.4791434933673875
000070 20 4b a5 df 0c 64 e4 bf fb e5 6f b9 1b 56 f7 bf
       -0.6372131698684349 -1.4585225337635837
000080 6e cf 53 cb b3 94 c9 bf fc b7 7f 6d 57 0a f3 bf
       -0.1998505347070209 -1.1900247838307214
000090 0d 9b ca 11 30 81 e3 bf 86 49 80 df 4a e5 f7 bf
       -0.6095199916352115 -1.493479607630975
0000a0 0b c9 d3 af b2 08 dd 3f 05 98 53 7b 09 52 ef 3f
       0.45365588350900116 0.9787642868730023
0000b0 bc c5 d2 6d 72 50 e8 3f fc 4c fb 2a 80 62 dd bf
       0.7598201889979275 -0.45913700292039983
0000c0 e5 ef ab 18 32 79 f0 bf 4a bf f1 db 5b 66 e2 3f
       -1.0295887912498014 0.5749949737346267
0000d0 fc 2a 98 b5 20 01 fb bf d9 b0 af c1 fd af d8 bf
       -1.6877753346950035 -0.38574165262867904
0000e0 41 19 65 17 62 9c c0 bf a8 49 0b 65 be 24 f7 bf
       -0.12977243559198295 -1.4464706370386953
0000f0 fd a4 69 cb 08 6b db 3f f1 34 40 c4 a2 71 f0 bf
       0.42840785851019786 -1.0277431169554883
000100 fa 63 ae 17 67 b9 e0 bf 62 24 cb 2d 63 93 9c bf
       -0.5226321661494915 -0.027905988378538978
000110 30 f6 26 d0 18 82 e4 bf 9f f3 11 81 4f fd fb bf
       -0.6408809724304714 -1.7493433992196754
000120 bd f2 ef 24 5d 1d f6 bf 1a 6a c2 22 2e 1b f0 bf
       -1.3821689074385823 -1.0066357953825276
000130 c0 e3 34 99 e5 1e ce bf 19 56 3f 29 e8 06 ea bf
       -0.2353178976134398 -0.8133431249249866

lstm.bias_hh_l0 f8 [40]
000000 8e aa ee e4 69 36 e9 bf 81 09 d2 97 73 d3 f1 bf
       -0.7878922911962307 -1.1141239099966642
000010 54 03 02 93 ee 7c d2 bf 11 51 d2 33 a9 04 c9 3f
       -0.2888752399085679 0.19545474081372352
000020 2b 2e fe 73 48 8d f0 bf 91 09 f7 02 c6 45 ec bf
       -1.0344929247829764 -0.8835172708425479
000030 ba b9 7b 82 0b 24 c6 3f 03 9b 2a 5d b7 51 eb bf
       0.17297500487570777 -0.853725130048446
000040 2a b4 d7 ec e9 b0 e5 3f 01 e6 5b 5f b1 e8 e4 bf
       0.677845919211568 -0.6534048902969404
000050 87 81 0d 3b 2f 61 f6 bf 86 a9 4c 28 ff 98 e3 bf
       -1.3987266833065364 -0.6124263560389387
000060 9f 92 de 73 42 89 d6 bf 7c aa 21 1e 17 7e f7 bf
       -0.3521276599442817 -1.4682837655078904
000070 27 4b a5 67 3d ec eb bf fb e5 6f 41 50 d2 fb bf
       -0.8725878738717697 -1.7388460689675174
000080 4e 18 56 da 38 34 d3 3f fb b7 7f f1 80 9d f4 bf
       0.3000623829069625 -1.2884530480910132
000090 0d 9b ca 89 72 50 ea bf 85 49 80 97 e6 19 f5 bf
       -0.8223202410925708 -1.3188234251034328
0000a0 84 e4 e9 67 ad f4 e8 3f 03 cc a9 45 3e 21 f3 3f
       0.7798678426326124 1.1956160279485182
0000b0 bb c5 d2 3d d5 51 ee 3f f9 4c fb da 10 6f dc bf
       0.9474893767821223 -0.4442789209835634
0000c0 c0 df 57 09 bc 5e e7 bf 4b bf f1 9b b0 75 e2 3f
       -0.7303142721639162 0.5768664403712845
0000d0 fc 2a 98 05 77 97 f6 bf e3 b0 af a1 c6 43 da bf
       -1.4119787424594383 -0.4103867129295066
0000e0 bd e6 9a 28 4d e4 c6 3f a5 49 0b 09 dc 18 f1 bf
       0.17884220583601076 -1.0685692170414793
0000f0 64 b1 65 49 f2 51 92 bf f5 34 40 6c 7d 6d f1 bf
       -0.01789072583180608 -1.0892309406802358
000100 32 40 e6 7a f0 0a ae bf be 4d 23 8d a7 12 d8 3f
       -0.058677210810060734 0.376138580160127
000110 2b f6 26 d0 0f 65 ee bf 9f f3 11 c9 70 fc f9 bf
       -0.949836641833547 -1.6241309980680183
000120 bb f2 ef 0c 78 bf f7 bf 3a d4 84 6d 97 55 eb bf
       -1.4842453484881577 -0.8541981829681682
000130 39 1c cb 66 92 d7 c3 3f 0d ab 9f 2c 5c 56 f1 bf
       0.1550162317200561 -1.0835839980233601

lstm.weight_ih_l1 f8 [40, 10]
000000 6b e1 55 74 1c 62 01 c0 dd d3 20 a7 18 eb 8f 3f
       -2.1729058350285206 0.015585129356717015
000010 db 5b 6d 2d 3f dc d9 bf 0a 8f 9f c8 85 ee 01 40
       -0.4040677970528443 2.241466109628054
000020 eb 2c 33 85 d6 2f d0 bf 4b d5 b0 ab ac 8c dc bf
       -0.2529197979717554 -0.4460860897700811
000030 1b 2c 2a 73 7c 94 e8 3f 72 fe c0 86 5b b2 eb 3f
       0.7681257485686531 0.8655221588050621
000040 8b 31 82 89 ec 6b db 3f 9c eb 8b 36 ca 90 f9 3f
       0.428462156568252 1.5978490954136992
000050 68 ae 56 fc 92 ac f7 3f d8 22 e6 d8 bb 9f f6 bf
       1.479632363984729 -1.4139975044837936
000060 7b f3 a8 2d d7 82 e3 3f a4 b4 9c 9b a2 64 f7 bf
       0.6097217456623264 -1.462069137439621
000070 99 c7 77 d8 65 6b ef 3f d6 47 32 9e 86 8a f2 3f
       0.9818600871933426 1.1588197879359448
000080 a9 94 9a 14 e3 86 f5 bf 46 73 61 dd 82 fc d3 bf
       -1.3454314045750755 -0.31228705996709427
000090 a8 f9 27 a6 89 9a e2 bf 74 ff 8d 89 e6 5b ef bf
       -0.5813644643056266 -0.9799683271994426
0000a0 4c 78 29 cb 03 91 d7 3f 41 5b d9 f2 c0 33 f3 bf
       0.3682260021213366 -1.200135182026955
0000b0 0f f7 cb 9d 86 38 d7 3f 80 c7 87 05 9f 8b fc bf
       0.36282506379926444 -1.784087201693609
0000c0 61 69 c7 3e aa b3 e4 3f ad 99 9f 1b e7 d3 f3 3f
       0.6469317651893044 1.2392340735474179
0000d0 44 b5 c3 0b af 1d f1 bf 48 1c 96 91 90 85 c6 3f
       -1.0697470149564916 0.17595107182225633
0000e0 7a c3 23 9e a8 81 e3 bf fc aa 38 c5 16 82 07 c0
       -0.609577473513226 -2.9385199935835526
0000f0 8e 51 f0 ff e4 76 d0 3f 29 b1 0b 54 20 c0 b1 bf
       0.25725674623506556 -0.06933786441704072
000100 72 a6 2c 3a 9c 46 00 40 6c 6a 23 b6 36 4a e1 3f
       2.0344776673198846 0.5403092915906433
000110 13 37 4f 71 82 ca b4 3f 79 fa e7 84 7d af e6 bf
       0.08121505037635428 -0.7089221568893002
000120 9f bc 7a 44 20 a5 fe 3f 8b d7 f5 37 e3 9b 02 c0
       1.9153139758089208 -2.326116978826524
000130 b6 97 84 ce f1 4c fa bf e5 a4 f6 c4 14 90 0a c0
       -1.643785292349532 -3.320352114464742
000140 f4 4c 27 b0 b9 03 a4 bf f8 91 53 e4 b2 9b e0 bf
       -0.03909092212020396 -0.5190062007428073
000150 9c c9 ed ca 0c b1 e2 bf fb 30 6d b7 75 f9 eb bf
       -0.5841125453428506 -0.8742016394185436
000160 c1 f8 90 08 b0 62 d1 3f ed eb 69 03 bd 47 f7 3f
       0.2716484149604064 1.4550142415380336
000170 88 38 19 51 e5 66 fc bf c8 6b 14 ef 0a fc b2 3f
       -1.7751210372839825 0.0741583665552944
000180 00 35 31 76 29 8b f9 bf 6b c9 b3 94 2e 12 fe bf
       -1.5964750878222844 -1.879438954227761
000190 5e 1b f7 fe 93 c8 e0 bf a9 b8 ba a6 7c 4b d9 bf
       -0.5244846324720631 -0.3952323559013942
0001a0 33 de 52 80 51 88 e2 bf 81 3e fa a1 7b a4 c7 3f
       -0.5791404253313374 0.18470712098177347
0001b0 bb fb e9 15 0c 31 d0 3f 16 5a 96 20 70 e4 f3 3f
       0.25299360408819965 1.2432709954206351
0001c0 1c f9 9b 1a 71 48 f8 bf 38 73 a2 7c c5 c8 05 c0
       -1.5176859893250088 -2.7230329262805775
0001d0 56 8b a8 e0 3e 25 f2 bf 26 f5 6b cc 8f d2 d8 bf
       -1.1340931678502861 -0.38785166705186425
0001e0 d6 98 28 7b 89 c6 e0 3f e0 8a a9 76 d5 f0 ac 3f
       0.5242354779664093 0.05652491639627555
0001f0 0f b2 18 dd 6d 72 9b bf 30 96 12 6e 55 2b ce bf
       -0.026803700084359557 -0.23569743990553738
000200 ec ce e4 ae 50 f8 c2 bf 06 9a 66 b5 4f 14 a4 3f
       -0.1482029775594279 0.03921746339192471
000210 48 9a e1 76 26 f6 db 3f e9 37 1b b7 d6 07 c4 3f
       0.43689881906030736 0.15648921910036442
000220 01 21 7e ec d6 ec b4 bf b1 67 c2 39 b8 73 d9 bf
       -0.08173888467547742 -0.3976879657799329
000230 bd 9a 6c 10 63 61 f2 3f 46 67 18 2b c5 8f df bf
       1.1487761155673717 -0.4931500359394828
000240 94 39 36 52 0f 52 ff bf bc 90 7c 0e cf 94 ed bf
       -1.957534142627627 -0.9244151385251125
000250 de 51 96 c9 e1 30 c6 bf e9 11 eb 1e fb e5 f7 3f
       -0.1733667597114978 1.493647690557845
000260 05 d2 5d cb 99 74 e8 bf d6 39 25 f6 69 d6 85 bf
       -0.7642334911348035 -0.010662868332158942
000270 e8 59 38 46 b4 47 ee bf a2 87 e3 dd b1 20 f7 bf
       -0.9462529536711459 -1.4454821269541545
000280 63 fe 9c 14 bd 3a e5 3f 26 be 73 fd 6e e3 e1 3f
       0.6634202387430829 0.5590128851162646
000290 be 92 cf f9 15 e0 9d bf 6e f2 f4 ca 8d a5 c6 bf
       -0.029175132152789322 -0.17692730340958768
0002a0 52 86 55 cc d2 f3 e2 bf bd 35 fb a4 f1 76 d8 bf
       -0.5922636023426071 -0.38225976096586206
0002b0 da 93 ad aa bc ce e5 3f 83 3a 48 32 cb 1a e0 3f
       0.6814864476733604 0.5032707197259046
0002c0 27 91 91 00 77 09 ee 3f 3b 15 32 62 0b ac d0 3f
       0.9386553774934655 0.2605007609311831
0002d0 1d 9d 16 90 25 4a dc bf 3b 04 62 23 7a 02 df 3f
       -0.44202555724264575 0.48452619033202254
0002e0 59 f5 ff 64 2d 5c dd bf 54 57 31 e3 1e b7 f1 3f
       -0.4587510572744882 1.1072071909633978
0002f0 61 84 8c 9e 57 32 e2 bf 6c 19 e3 33 0d 2c f0 bf
       -0.5686452957780938 -1.0107547785606483
000300 1f 9a 3c 96 88 1b f9 3f ef 72 b2 29 73 70 d8 3f
       1.5692220562574517 0.38186339447001577
000310 09 7e b5 e8 54 a8 e1 bf 42 2a 6b 93 a5 f8 ff 3f
       -0.5517983002754941 1.998204780439338
000320 14 e1 0c 8e 8d 5d f6 bf 5a 01 82 de 68 ce e4 3f
       -1.3978400753822529 0.6501964898925892
000330 81 34 a0 e3 5b 3b bc bf f2 4d 14 0c a0 8b f5 3f
       -0.11028074557562385 1.3465881797645776
000340 f1 0a 63 12 72 bb e4 bf 4f f4 7e c4 7e bf da bf
       -0.6478815421217786 -0.4179379385857986
000350 35 46 98 d6 60 d2 d0 3f 28 5e 0e af bf af d7 bf
       0.2628404708530952 -0.3701018533260787
000360 3f 47 20 c2 18 52 c6 3f 0a e5 6e e1 b9 b9 f0 3f
       0.17438039282620285 1.0453432851775823
000370 70 0a ba c8 6c b2 f5 3f b9 f4 07 53 36 c4 e9 bf
       1.356060775841481 -0.8052016851139775
000380 b7 8f a3 c4 d9 c0 ed 3f 87 e5 24 44 25 96 f3 bf
       0.929791339931845 -1.2241566335563634
000390 e3 0c 07 c3 d9 b7 ed 3f 0b d5 fc 9f 04 52 e3 3f
       0.9286927041179321 0.6037619709738079
0003a0 3e 1a 75 a6 f3 fe f1 bf 0e 64 df 5c 1b d5 dd bf
       -1.124744081711142 -0.46613201207725374
0003b0 48 3d a2 fa ee 45 ce bf b8 7a be fa 88 ca ed bf
       -0.23650920141197163 -0.9309735200257228
0003c0 c4 33 e5 99 e2 8c e2 3f 26 53 35 a7 3c 63 e5 bf
       0.5796978956001273 -0.6683638826167211
0003d0 27 0d f2 02 1b 79 96 bf f2 58 37 b9 a8 dd f0 bf
       -0.021946355871944292 -1.0541159853942728
0003e0 68 fd 5d 0b bb 5c 85 3f cc df cf a2 97 2d ab 3f
       0.01043077591361792 0.05308221685839917
0003f0 d9 31 ab 10 3e 03 ba bf 69 a9 d3 8a 3b e1 f0 3f
       -0.10161197573615456 1.0549884245798131
000400 e7 15 56 ff 82 2d e4 bf 3d 7c 02 ee 06 3a 10 c0
       -0.6305556284939343 -4.056667059804622
000410 38 15 23 da 71 e9 a7 3f ad 35 1c b1 da 74 cd bf
       0.04670291698270507 -0.23012860916098302
000420 82 eb d0 8f 8e 8d ba 3f 7d 40 98 6b e9 5d c1 bf
       0.10372248660216424 -0.13567846063279268
000430 63 6c d5 c0 a7 60 b1 3f 0f 22 21 70 ed c7 ec bf
       0.06788109262326851 -0.8994052114513255
000440 aa 91 f5 7b b5 a2 ff 3f 75 89 cd c8 b5 bf e8 3f
       1.9772238580854755 0.7734021112376427
000450 3d bc 1a 45 f2 e7 d6 bf d8 dc 7e 72 45 13 c5 bf
       -0.3579068827484127 -0.1646506127415026
000460 14 79 3f c5 f4 45 cb bf 38 8f 18 57 d9 63 c4 bf
       -0.21307239180800563 -0.1592971492074129
000470 25 9f 87 f4 00 83 e5 bf 6f bc d6 21 a9 37 e7 bf
       -0.6722416664096938 -0.7255445156969368
000480 5d 06 e1 4c 0c 4c cd 3f ec 4d eb a9 f9 3f f0 3f
       0.22888330224855027 1.015618957277975
000490 2a 73 e5 58 b5 db e9 bf 1b 59 7d 5c 27 51 b8 3f
       -0.8080698715453754 0.09498830802963136
0004a0 db 47 4b 6c c4 e6 e6 bf c6 e2 1c c0 97 77 e8 bf
       -0.715669833671423 -0.7645987274364294
0004b0 58 7a 30 24 f3 48 f2 bf 75 c2 b7 04 d9 46 e5 bf
       -1.1428100026747838 -0.6648984043259377
0004c0 c8 cd 7f 2d 3e ff d5 bf 5f 27 17 38 fa 5a f3 3f
       -0.3437037891701178 1.2097112837822903
0004d0 99 35 03 23 38 93 b7 3f 8f 7c 87 28 03 b7 b8 3f
       0.09209013800428635 0.09654254664882188
0004e0 a6 cc 81 c7 d0 0d d6 3f d3 71 82 72 0b 0c a3 bf
       0.34459323390110297 -0.0372012688905873
0004f0 a6 81 3b 11 04 ae de 3f 07 bb 40 4e 6f 23 d8 3f
       0.47937108691078334 0.37716276780967956
000500 16 b4 72 4b 83 98 d1 3f 88 47 c4 93 b2 37 b0 bf
       0.27493364685034416 -0.06334987742982723
000510 e2 a9 77 a2 33 5e c1 3f 99 42 6f 85 14 4f bf bf
       0.13568730767231246 -0.12230041749649913
000520 3f 8b bf a8 f6 5d d2 bf 64 43 1e 1c db b6 c8 bf
       -0.2869850776607343 -0.1930803191467262
000530 63 b0 af 78 99 c4 e0 3f fa d9 df d7 27 63 e1 3f
       0.5239989621309288 0.5433539596841108
000540 6c 00 2f 14 25 64 b3 bf 4a 85 fa 36 24 89 d3 3f
       -0.07574683897746731 0.30524545067790554
000550 14 b9 82 7c 06 a8 d1 3f f7 cb 2f b9 22 28 d9 3f
       0.2758804527210412 0.3930746849502493
000560 3b c0 22 69 4d e2 dc bf 5d 0a 04 0d bf 51 a1 bf
       -0.4513124014583842 -0.03382679971584388
000570 21 72 11 9d ca aa d7 bf af f3 b5 97 64 e0 dc bf
       -0.36979928339659024 -0.45119585814955604
000580 91 4c ba 4c 6e ea e4 3f 08 bf 28 a7 ca 32 d5 3f
       0.653617048128938 0.33122507404458235
000590 f5 ce b8 25 3c 2a db bf 72 6b 4b 1f b6 f0 c6 3f
       -0.4244528168085105 0.1792209294133858
0005a0 54 35 e9 34 82 1f e8 3f e9 1a 5e 08 48 ba ac bf
       0.753846267072428 -0.05610871412414104
0005b0 0d ce 91 35 34 d7 d5 3f b4 2b d0 e8 5b 84 db bf
       0.3412600062503948 -0.4299535535398562
0005c0 83 cb aa 63 67 d1 da bf 76 70 9e 76 34 cb d5 bf
       -0.4190309975921808 -0.3405276449573259
0005d0 64 26 38 60 86 06 e8 3f 48 07 13 fb a4 c7 df 3f
       0.7507964972766783 0.49656033057191395
0005e0 33 73 c4 1f a2 95 c8 3f 47 c2 31 1c 87 ed 88 bf
       0.1920664458383726 -0.012171798274921332
0005f0 d4 2d 9f 29 a8 a8 d3 bf 57 c2 0a 1a 95 1f f4 3f
       -0.3071689993346045 1.2577105538622584
000600 3c 0f f1 96 90 e3 cf bf c6 a7 4e 10 2c bc e0 3f
       -0.2491322266597481 0.5229702299595764
000610 69 4c df 4d 44 76 f2 bf 83 4d 83 38 2e b7 ce bf
       -1.1538737337002891 -0.2399652267400648
000620 cc ad 97 e7 7c fb f2 3f 23 d8 c7 4b 1f 5d a7 bf
       1.1863984152395117 -0.045632341385428064
000630 26 fb bb a1 1a 71 d0 3f af 2e 83 7a 62 c2 de 3f
       0.2569033221661122 0.4806142994318447
000640 f4 5c f3 1d df 8a f0 bf 92 af 32 3e 7e 6b dd 3f
       -1.0339041871973764 0.45968586038611037
000650 b3 c8 86 e6 b0 cd d0 3f ba 69 cc 34 9a b6 e8 3f
       0.2625543833957053 0.7722903281422113
000660 07 03 19 4b ad 6c da bf 5a b0 6a 4b ff 01 da bf
       -0.41288311322937016 -0.40637190213124585
000670 26 e0 de 69 b9 35 e8 3f ba bd dd ec 45 47 b5 3f
       0.7565581386361415 0.08311879189363128
000680 c4 a0 93 3a 9b 70 df 3f a5 be 40 3f 8a 52 f3 3f
       0.49124794693353757 1.2076513739411123
000690 63 55 c6 da fb 8b d4 3f 82 22 b2 6b 2c 42 d1 3f
       0.321043933531959 0.26966391102954657
0006a0 3f 61 94 46 d5 b4 82 bf 3c af f3 4f 7f 32 c2 bf
       -0.009133974281710365 -0.1421660557165242
0006b0 cd b4 de 02 44 bf c1 3f 63 8a cc e5 fb 00 f3 3f
       0.13864946498998734 1.1877402283213534
0006c0 bd 19 29 96 26 1d f3 bf 00 77 1c 6d cb dc f0 bf
       -1.1946168771406598 -1.053904939857091
0006d0 d7 ae 4a 39 45 81 5b 3f 5f f0 62 13 a7 c2 f4 bf
       0.0016787696851378508 -1.2975226170811067
0006e0 0f ce a6 48 89 f1 c2 bf 8b b2 8b ec 79 ed d7 bf
       -0.14799610183182252 -0.3738694009796652
0006f0 4e ba fc 5b 31 c6 d6 bf 1f 9b ff d1 b5 19 e1 3f
       -0.3558467291176485 0.534388456490749
000700 14 84 46 b1 30 a6 cf 3f 5e 8e 4a af 5d ff f2 bf
       0.24725922256496402 -1.1873452040971624
000710 a3 22 8f 12 75 7a d0 3f ce 31 32 8a bf 98 e8 3f
       0.2574742013207844 0.7686460208074608
000720 ca 15 ac 07 cf 45 d5 bf 11 06 7e a7 39 3a eb 3f
       -0.33238578557242404 0.8508575698217006
000730 8b 06 2a b3 63 a6 c8 3f a2 5e 1a 93 05 ef c7 3f
       0.19257780311823 0.18698186571849812
000740 60 a2 86 d5 74 e2 f7 3f bb 44 c4 6e fa 36 d7 bf
       1.4927872029167233 -0.36273060624177916
000750 34 80 d9 4e 0c a0 cc bf fc 5e d0 81 52 3c d6 3f
       -0.22363427972868666 0.34743178059714785
000760 10 3b 07 9d 62 aa e3 3f 9b 35 3e bb 93 88 d7 3f
       0.6145489756544027 0.36771100316476585
000770 9b 98 78 d0 f4 d2 f1 bf 28 da f3 29 c8 1f 0f c0
       -1.1140030043984896 -3.8905185010473993
000780 c5 81 7d b1 8a b4 c4 3f 8e 52 ea 21 c8 bc d2 bf
       0.1617596975948016 -0.2927723246769255
000790 3c 58 5f 56 6b eb d7 bf 24 cb 24 7c 58 af c9 bf
       -0.37374385294731716 -0.20066362439828211
0007a0 27 fb 04 6b 1c b0 da 3f 9b 90 9e a5 68 b7 e7 3f
       0.41699896288985133 0.741138766742114
0007b0 46 16 f1 d6 33 7e e6 bf 8f 56 c4 63 ef a3 d4 bf
       -0.7029055784302691 -0.3225058054243641
0007c0 20 b6 28 15 21 d1 d5 bf 83 ea 92 0c 5a d0 f1 bf
       -0.3408892351752417 -1.1133671275298702
0007d0 b0 5a 97 d8 13 67 f1 3f 66 a7 86 94 66 b2 ed bf
       1.0876654110522104 -0.9280274296663549
0007e0 7b b2 5e 06 71 b3 c0 bf 46 f0 f0 72 bf 45 f4 bf
       -0.13047612010031515 -1.2670282831086452
0007f0 0e 80 17 4b 2a 78 e2 3f 37 8b 6b 6d ce eb f2 3f
       0.5771686045300173 1.1825699114057906
